…
        max_scale: 1
        min_aspect_ratio: 0.5
        max_aspect_ratio: 2
      }
      sample_constraint {
        min_jaccard_overlap: 0.9
      }
      max_sample: 1
      max_trials: 50
    }
    batch_sampler {
      sampler {
        min_scale: 0.3
        max_scale: 1
        min_aspect_ratio: 0.5
        max_aspect_ratio: 2
      }
      sample_constraint {
        max_jaccard_overlap: 1
      }
      max_sample: 1
      max_trials: 50
    }
    label_map_file: "/data/siyu/dataset/coco/labelmap_coco-person.prototxt"
    part_sampler_prob: 0.8
  }
}
layer {
  name: "conv1_1"
  type: "Convolution"
  bottom: "data"
  top: "conv1_1"
  param {
    lr_mult: 1
    decay_mult: 1
  }
  param {
    lr_mult: 2
    decay_mult: 0
  }
  convolution_param {
    num_output: 64
    pad: 1
    kernel_size: 3
    weight_filler {
      type: "xavier"
    }
    bias_filler {
      type: "constant"
      value: 0
    }
  }
}
layer {
  name: "relu1_1"
  type: "ReLU"
  bottom: "conv1_1"
  top: "conv1_1"
}
layer {
  name: "conv1_2"
  type: "Convolution"
  bottom: "conv1_1"
  top: "conv1_2"
  param {
    lr_mult: 1
    decay_mult: 1
  }
  param {
    lr_mult: 2
    decay_mult: 0
  }
  convolution_param {
    num_output: 64
    pad: 1
    kernel_size: 3
    weight_filler {
      type: "xavier"
    }
    bias_filler {
      type: "constant"
      value: 0
    }
  }
}
layer {
  name: "relu1_2"
  type: "ReLU"
  bottom: "conv1_2"
  top: "conv1_2"
}
layer {
  name: "pool1"
  type: "Pooling"
  bottom: "conv1_2"
  top: "pool1"
  pooling_param {
    pool: MAX
    kernel_size: 2
    stride: 2
  }
}
layer {
  name: "conv2_1"
  type: "Convolution"
  bottom: "pool1"
  top: "conv2_1"
  param {
    lr_mult: 1
    decay_mult: 1
  }
  param {
    lr_mult: 2
    decay_mult: 0
  }
  convolution_param {
    num_output: 128
    pad: 1
    kernel_size: 3
    weight_filler {
      type: "xavier"
    }
    bias_filler {
      type: "constant"
      value: 0
    }
  }
}
layer {
  name: "relu2_1"
  type: "ReLU"
  bottom: "conv2_1"
  top: "conv2_1"
}
layer {
  name: "conv2_2"
  type: "Convolution"
  bottom: "conv2_1"
  top: "conv2_2"
  param {
    lr_mult: 1
    decay_mult: 1
  }
  param {
    lr_mult: 2
    decay_mult: 0
  }
  convolution_param {
    num_output: 128
    pad: 1
    kernel_size: 3
    weight_filler {
      type: "xavier"
    }
    bias_filler {
      type: "constant"
      value: 0
    }
  }
}
layer {
  name: "relu2_2"
  type: "ReLU"
  bottom: "conv2_2"
  top: "conv2_2"
}
layer {
  name: "pool2"
  type: "Pooling"
  bottom: "conv2_2"
  top: "pool2"
  pooling_param {
    pool: MAX
    kernel_size: 2
    stride: 2
  }
}
layer {
  name: "conv3_1"
  type: "Convolution"
  bottom: "pool2"
  top: "conv3_1"
  param {
    lr_mult: 1
    decay_mult: 1
  }
  param {
    lr_mult: 2
    decay_mult: 0
  }
  convolution_param {
    num_output: 256
    pad: 1
    kernel_size: 3
    weight_filler {
      type: "xavier"
    }
    bias_filler {
      type: "constant"
      value: 0
    }
  }
}
layer {
  name: "relu3_1"
  type: "ReLU"
  bottom: "conv3_1"
  top: "conv3_1"
}
layer {
  name: "conv3_2"
  type: "Convolution"
  bottom: "conv3_1"
  top: "conv3_2"
  param {
    lr_mult: 1
    decay_mult: 1
  }
  param {
    lr_mult: 2
    decay_mult: 0
  }
  convolution_param {
    num_output: 256
    pad: 1
    kernel_size: 3
    weight_filler {
      type: "xavier"
    }
    bias_filler {
      type: "constant"
      value: 0
    }
  }
}
layer {
  name: "relu3_2"
  type: "ReLU"
  bottom: "conv3_2"
  top: "conv3_2"
}
layer {
  name: "conv3_3"
  type: "Convolution"
  bottom: "conv3_2"
  top: "conv3_3"
  param {
    lr_mult: 1
    decay_mult: 1
  }
  param {
    lr_mult: 2
    decay_mult: 0
  }
  convolution_param {
    num_output: 256
    pad: 1
    kernel_size: 3
    weight_filler {
      type: "xavier"
    }
    bias_filler {
      type: "constant"
      value: 0
    }
  }
}
layer {
  name: "relu3_3"
  type: "ReLU"
  bottom: "conv3_3"
  top: "conv3_3"
}
layer {
  name: "pool3"
  type: "Pooling"
  bottom: "conv3_3"
  top: "pool3"
  pooling_param {
    pool: MAX
    kernel_size: 2
    stride: 2
  }
}
layer {
  name: "conv4_1"
  type: "Convolution"
  bottom: "pool3"
  top: "conv4_1"
  param {
    lr_mult: 1
    decay_mult: 1
  }
  param {
    lr_mult: 2
    decay_mult: 0
  }
  convolution_param {
    num_output: 512
    pad: 1
    kernel_size: 3
    weight_filler {
      type: "xavier"
    }
    bias_filler {
      type: "constant"
      value: 0
    }
  }
}
layer {
  name: "relu4_1"
  type: "ReLU"
  bottom: "conv4_1"
  top: "conv4_1"
}
layer {
  name: "conv4_2"
  type: "Convolution"
  bottom: "conv4_1"
  top: "conv4_2"
  param {
    lr_mult: 1
    decay_mult: 1
  }
  param {
    lr_mult: 2
    decay_mult: 0
  }
  convolution_param {
    num_output: 512
    pad: 1
    kernel_size: 3
    weight_filler {
      type: "xavier"
    }
    bias_filler {
      type: "constant"
      value: 0
    }
  }
}
layer {
  name: "relu4_2"
  type: "ReLU"
  bottom: "conv4_2"
  top: "conv4_2"
}
layer {
  name: "conv4_3"
  type: "Convolution"
  bottom: "conv4_2"
  top: "conv4_3"
  param {
    lr_mult: 1
    decay_mult: 1
  }
  param {
    lr_mult: 2
    decay_mult: 0
  }
  convolution_param {
    num_output: 512
    pad: 1
    kernel_size: 3
    weight_filler {
      type: "xavier"
    }
    bias_filler {
      type: "constant"
      value: 0
    }
  }
}
layer {
  name: "relu4_3"
  type: "ReLU"
  bottom: "conv4_3"
  top: "conv4_3"
}
layer {
  name: "pool4"
  type: "Pooling"
  bottom: "conv4_3"
  top: "pool4"
  pooling_param {
    pool: MAX
    kernel_size: 2
    stride: 2
  }
}
layer {
  name: "conv5_1"
  type: "Convolution"
  bottom: "pool4"
  top: "conv5_1"
  param {
    lr_mult: 1
    decay_mult: 1
  }
  param {
    lr_mult: 2
    decay_mult: 0
  }
  convolution_param {
    num_output: 512
    pad: 1
    kernel_size: 3
    weight_filler {
      type: "xavier"
    }
    bias_filler {
      type: "constant"
      value: 0
    }
    dilation: 1
  }
}
layer {
  name: "relu5_1"
  type: "ReLU"
  bottom: "conv5_1"
  top: "conv5_1"
}
layer {
  name: "conv5_2"
  type: "Convolution"
  bottom: "conv5_1"
  top: "conv5_2"
  param {
    lr_mult: 1
    decay_mult: 1
  }
  param {
    lr_mult: 2
    decay_mult: 0
  }
  convolution_param {
    num_output: 512
    pad: 1
    kernel_size: 3
    weight_filler {
      type: "xavier"
    }
    bias_filler {
      type: "constant"
      value: 0
    }
    dilation: 1
  }
}
layer {
  name: "relu5_2"
  type: "ReLU"
  bottom: "conv5_2"
  top: "conv5_2"
}
layer {
  name: "conv5_3"
  type: "Convolution"
  bottom: "conv5_2"
  top: "conv5_3"
  param {
    lr_mult: 1
    decay_mult: 1
  }
  param {
    lr_mult: 2
    decay_mult: 0
  }
  convolution_param {
    num_output: 512
    pad: 1
    kernel_size: 3
    weight_filler {
      type: "xavier"
    }
    bias_filler {
      type: "constant"
      value: 0
    }
    dilation: 1
  }
}
layer {
  name: "relu5_3"
  type: "ReLU"
  bottom: "conv5_3"
  top: "conv5_3"
}
layer {
  name: "pool5"
  type: "Pooling"
  bottom: "conv5_3"
  top: "pool5"
  pooling_param {
    pool: MAX
    kernel_size: 3
    stride: 1
    pad: 1
  }
}
layer {
  name: "fc6"
  type: "Convolution"
  bottom: "pool5"
  top: "fc6"
  param {
    lr_mult: 1
    decay_mult: 1
  }
  param {
    lr_mult: 2
    decay_mult: 0
  }
  convolution_param {
    num_output: 1024
    pad: 6
    kernel_size: 3
    weight_filler {
      type: "xavier"
    }
    bias_filler {
      type: "constant"
      value: 0
    }
    dilation: 6
  }
}
layer {
  name: "relu6"
  type: "ReLU"
  bottom: "fc6"
  top: "fc6"
}
layer {
  name: "fc7"
  type: "Convolution"
  bottom: "fc6"
  top: "fc7"
  param {
    lr_mult: 1
    decay_mult: 1
  }
  param {
    lr_mult: 2
    decay_mult: 0
  }
  convolution_param {
    num_output: 1024
    kernel_size: 1
    weight_filler {
      type: "xavier"
    }
    bias_filler {
      type: "constant"
      value: 0
    }
  }
}
layer {
  name: "relu7"
  type: "ReLU"
  bottom: "fc7"
  top: "fc7"
}
layer {
  name: "conv6_1"
  type: "Convolution"
  bottom: "fc7"
  top: "conv6_1"
  param {
    lr_mult: 1
    decay_mult: 1
  }
  param {
    lr_mult: 2
    decay_mult: 0
  }
  convolution_param {
    num_output: 256
    pad: 0
    kernel_size: 1
    stride: 1
    weight_filler {
      type: "xavier"
    }
    bias_filler {
      type: "constant"
      value: 0
    }
  }
}
layer {
  name: "conv6_1_relu"
  type: "ReLU"
  bottom: "conv6_1"
  top: "conv6_1"
}
layer {
  name: "conv6_2"
  type: "Convolution"
  bottom: "conv6_1"
  top: "conv6_2"
  param {
    lr_mult: 1
    decay_mult: 1
  }
  param {
    lr_mult: 2
    decay_mult: 0
  }
  convolution_param {
    num_output: 512
    pad: 1
    kernel_size: 3
    stride: 2
    weight_filler {
      type: "xavier"
    }
    bias_filler {
      type: "constant"
      value: 0
    }
  }
}
layer {
  name: "conv6_2_relu"
  type: "ReLU"
  bottom: "conv6_2"
  top: "conv6_2"
}
layer {
  name: "conv7_1"
  type: "Convolution"
  bottom: "conv6_2"
  top: "conv7_1"
  param {
    lr_mult: 1
    decay_mult: 1
  }
  param {
    lr_mult: 2
    decay_mult: 0
  }
  convolution_param {
    num_output: 128
    pad: 0
    kernel_size: 1
    stride: 1
    weight_filler {
      type: "xavier"
    }
    bias_filler {
      type: "constant"
      value: 0
    }
  }
}
layer {
  name: "conv7_1_relu"
  type: "ReLU"
  bottom: "conv7_1"
  top: "conv7_1"
}
layer {
  name: "conv7_2"
  type: "Convolution"
  bottom: "conv7_1"
  top: "conv7_2"
  param {
    lr_mult: 1
    decay_mult: 1
  }
  param {
    lr_mult: 2
    decay_mult: 0
  }
  convolution_param {
    num_output: 256
    pad: 1
    kernel_size: 3
    stride: 2
    weight_filler {
      type: "xavier"
    }
    bias_filler {
      type: "constant"
      value: 0
    }
  }
}
layer {
  name: "conv7_2_relu"
  type: "ReLU"
  bottom: "conv7_2"
  top: "conv7_2"
}
layer {
  name: "conv8_1"
  type: "Convolution"
  bottom: "conv7_2"
  top: "conv8_1"
  param {
    lr_mult: 1
    decay_mult: 1
  }
  param {
    lr_mult: 2
    decay_mult: 0
  }
  convolution_param {
    num_output: 128
    pad: 0
    kernel_size: 1
    stride: 1
    weight_filler {
      type: "xavier"
    }
    bias_filler {
      type: "constant"
      value: 0
    }
  }
}
layer {
  name: "conv8_1_relu"
  type: "ReLU"
  bottom: "conv8_1"
  top: "conv8_1"
}
layer {
  name: "conv8_2"
  type: "Convolution"
  bottom: "conv8_1"
  top: "conv8_2"
  param {
    lr_mult: 1
    decay_mult: 1
  }
  param {
    lr_mult: 2
    decay_mult: 0
  }
  convolution_param {
    num_output: 256
    pad: 0
    kernel_size: 3
    stride: 1
    weight_filler {
      type: "xavier"
    }
    bias_filler {
      type: "constant"
      value: 0
    }
  }
}
layer {
  name: "conv8_2_relu"
  type: "ReLU"
  bottom: "conv8_2"
  top: "conv8_2"
}
layer {
  name: "conv9_1"
  type: "Convolution"
  bottom: "conv8_2"
  top: "conv9_1"
  param {
    lr_mult: 1
    decay_mult: 1
  }
  param {
    lr_mult: 2
    decay_mult: 0
  }
  convolution_param {
    num_output: 128
    pad: 0
    kernel_size: 1
    stride: 1
    weight_filler {
      type: "xavier"
    }
    bias_filler {
      type: "constant"
      value: 0
    }
  }
}
layer {
  name: "conv9_1_relu"
  type: "ReLU"
  bottom: "conv9_1"
  top: "conv9_1"
}
layer {
  name: "conv9_2"
  type: "Convolution"
  bottom: "conv9_1"
  top: "conv9_2"
  param {
    lr_mult: 1
    decay_mult: 1
  }
  param {
    lr_mult: 2
    decay_mult: 0
  }
  convolution_param {
    num_output: 256
    pad: 0
    kernel_size: 3
    stride: 1
    weight_filler {
      type: "xavier"
    }
    bias_filler {
      type: "constant"
      value: 0
    }
  }
}
layer {
  name: "conv9_2_relu"
  type: "ReLU"
  bottom: "conv9_2"
  top: "conv9_2"
}
layer {
  name: "conv4_3_norm"
  type: "Normalize"
  bottom: "conv4_3"
  top: "conv4_3_norm"
  norm_param {
    across_spatial: false
    scale_filler {
      type: "constant"
      value: 20
    }
    channel_shared: false
  }
}
layer {
  name: "conv4_3_norm_mbox_loc"
  type: "Convolution"
  bottom: "conv4_3_norm"
  top: "conv4_3_norm_mbox_loc"
  param {
    lr_mult: 1
    decay_mult: 1
  }
  param {
    lr_mult: 2
    decay_mult: 0
  }
  convolution_param {
    num_output: 16
    pad: 1
    kernel_size: 3
    stride: 1
    weight_filler {
      type: "xavier"
    }
    bias_filler {
      type: "constant"
      value: 0
    }
  }
}
layer {
  name: "conv4_3_norm_mbox_loc_perm"
  type: "Permute"
  bottom: "conv4_3_norm_mbox_loc"
  top: "conv4_3_norm_mbox_loc_perm"
  permute_param {
    order: 0
    order: 2
    order: 3
    order: 1
  }
}
layer {
  name: "conv4_3_norm_mbox_loc_flat"
  type: "Flatten"
  bottom: "conv4_3_norm_mbox_loc_perm"
  top: "conv4_3_norm_mbox_loc_flat"
  flatten_param {
    axis: 1
  }
}
layer {
  name: "conv4_3_norm_mbox_conf"
  type: "Convolution"
  bottom: "conv4_3_norm"
  top: "conv4_3_norm_mbox_conf"
  param {
    lr_mult: 1
    decay_mult: 1
  }
  param {
    lr_mult: 2
    decay_mult: 0
  }
  convolution_param {
    num_output: 8
    pad: 1
    kernel_size: 3
    stride: 1
    weight_filler {
      type: "xavier"
    }
    bias_filler {
      type: "constant"
      value: 0
    }
  }
}
layer {
  name: "conv4_3_norm_mbox_conf_perm"
  type: "Permute"
  bottom: "conv4_3_norm_mbox_conf"
  top: "conv4_3_norm_mbox_conf_perm"
  permute_param {
    order: 0
    order: 2
    order: 3
    order: 1
  }
}
layer {
  name: "conv4_3_norm_mbox_conf_flat"
  type: "Flatten"
  bottom: "conv4_3_norm_mbox_conf_perm"
  top: "conv4_3_norm_mbox_conf_flat"
  flatten_param {
    axis: 1
  }
}
layer {
  name: "conv4_3_norm_mbox_clean"
  type: "Convolution"
  bottom: "conv4_3_norm"
  top: "conv4_3_norm_mbox_clean"
  param {
    lr_mult: 1
    decay_mult: 1
  }
  param {
    lr_mult: 2
    decay_mult: 0
  }
  convolution_param {
    num_output: 4
    pad: 1
    kernel_size: 3
    stride: 1
    weight_filler {
      type: "xavier"
    }
    bias_filler {
      type: "constant"
      value: 0
    }
  }
}
layer {
  name: "conv4_3_norm_mbox_clean_perm"
  type: "Permute"
  bottom: "conv4_3_norm_mbox_clean"
  top: "conv4_3_norm_mbox_clean_perm"
  permute_param {
    order: 0
    order: 2
    order: 3
    order: 1
  }
}
layer {
  name: "conv4_3_norm_mbox_clean_flat"
  type: "Flatten"
  bottom: "conv4_3_norm_mbox_clean_perm"
  top: "conv4_3_norm_mbox_clean_flat"
  flatten_param {
    axis: 1
  }
}
layer {
  name: "conv4_3_norm_mbox_priorbox"
  type: "PriorBox"
  bottom: "conv4_3_norm"
  bottom: "data"
  top: "conv4_3_norm_mbox_priorbox"
  prior_box_param {
    min_size: 35.84
    max_size: 76.8
    aspect_ratio: 2
    flip: true
    clip: false
    variance: 0.1
    variance: 0.1
    variance: 0.2
    variance: 0.2
    step: 8
    offset: 0.5
  }
}
layer {
  name: "fc7_mbox_loc"
  type: "Convolution"
  bottom: "fc7"
  top: "fc7_mbox_loc"
  param {
    lr_mult: 1
    decay_mult: 1
  }
  param {
    lr_mult: 2
    decay_mult: 0
  }
  convolution_param {
    num_output: 24
    pad: 1
    kernel_size: 3
    stride: 1
    weight_filler {
      type: "xavier"
    }
    bias_filler {
      type: "constant"
      value: 0
    }
  }
}
layer {
  name: "fc7_mbox_loc_perm"
  type: "Permute"
  bottom: "fc7_mbox_loc"
  top: "fc7_mbox_loc_perm"
  permute_param {
    order: 0
    order: 2
    order: 3
    order: 1
  }
}
layer {
  name: "fc7_mbox_loc_flat"
  type: "Flatten"
  bottom: "fc7_mbox_loc_perm"
  top: "fc7_mbox_loc_flat"
  flatten_param {
    axis: 1
  }
}
layer {
  name: "fc7_mbox_conf"
  type: "Convolution"
  bottom: "fc7"
  top: "fc7_mbox_conf"
  param {
    lr_mult: 1
    decay_mult: 1
  }
  param {
    lr_mult: 2
    decay_mult: 0
  }
  convolution_param {
    num_output: 12
    pad: 1
    kernel_size: 3
    stride: 1
    weight_filler {
      type: "xavier"
    }
    bias_filler {
      type: "constant"
      value: 0
    }
  }
}
layer {
  name: "fc7_mbox_conf_perm"
  type: "Permute"
  bottom: "fc7_mbox_conf"
  top: "fc7_mbox_conf_perm"
  permute_param {
    order: 0
    order: 2
    order: 3
    order: 1
  }
}
layer {
  name: "fc7_mbox_conf_flat"
  type: "Flatten"
  bottom: "fc7_mbox_conf_perm"
  top: "fc7_mbox_conf_flat"
  flatten_param {
    axis: 1
  }
}
layer {
  name: "fc7_mbox_clean"
  type: "Convolution"
  bottom: "fc7"
  top: "fc7_mbox_clean"
  param {
    lr_mult: 1
    decay_mult: 1
  }
  param {
    lr_mult: 2
    decay_mult: 0
  }
  convolution_param {
    num_output: 6
    pad: 1
    kernel_size: 3
    stride: 1
    weight_filler {
      type: "xavier"
    }
    bias_filler {
      type: "constant"
      value: 0
    }
  }
}
layer {
  name: "fc7_mbox_clean_perm"
  type: "Permute"
  bottom: "fc7_mbox_clean"
  top: "fc7_mbox_clean_perm"
  permute_param {
    order: 0
    order: 2
    order: 3
    order: 1
  }
}
layer {
  name: "fc7_mbox_clean_flat"
  type: "Flatten"
  bottom: "fc7_mbox_clean_perm"
  top: "fc7_mbox_clean_flat"
  flatten_param {
    axis: 1
  }
}
layer {
  name: "fc7_mbox_priorbox"
  type: "PriorBox"
  bottom: "fc7"
  bottom: "data"
  top: "fc7_mbox_priorbox"
  prior_box_param {
    min_size: 76.8
    max_size: 168.96
    aspect_ratio: 2
    aspect_ratio: 3
    flip: true
    clip: false
    variance: 0.1
    variance: 0.1
    variance: 0.2
    variance: 0.2
    step: 16
    offset: 0.5
  }
}
layer {
  name: "conv6_2_mbox_loc"
  type: "Convolution"
  bottom: "conv6_2"
  top: "conv6_2_mbox_loc"
  param {
    lr_mult: 1
    decay_mult: 1
  }
  param {
    lr_mult: 2
    decay_mult: 0
  }
  convolution_param {
    num_output: 24
    pad: 1
    kernel_size: 3
    stride: 1
    weight_filler {
      type: "xavier"
    }
    bias_filler {
      type: "constant"
      value: 0
    }
  }
}
layer {
  name: "conv6_2_mbox_loc_perm"
  type: "Permute"
  bottom: "conv6_2_mbox_loc"
  top: "conv6_2_mbox_loc_perm"
  permute_param {
    order: 0
    order: 2
    order: 3
    order: 1
  }
}
layer {
  name: "conv6_2_mbox_loc_flat"
  type: "Flatten"
  bottom: "conv6_2_mbox_loc_perm"
  top: "conv6_2_mbox_loc_flat"
  flatten_param {
    axis: 1
  }
}
layer {
  name: "conv6_2_mbox_conf"
  type: "Convolution"
  bottom: "conv6_2"
  top: "conv6_2_mbox_conf"
  param {
    lr_mult: 1
    decay_mult: 1
  }
  param {
    lr_mult: 2
    decay_mult: 0
  }
  convolution_param {
    num_output: 12
    pad: 1
    kernel_size: 3
    stride: 1
    weight_filler {
      type: "xavier"
    }
    bias_filler {
      type: "constant"
      value: 0
    }
  }
}
layer {
  name: "conv6_2_mbox_conf_perm"
  type: "Permute"
  bottom: "conv6_2_mbox_conf"
  top: "conv6_2_mbox_conf_perm"
  permute_param {
    order: 0
    order: 2
    order: 3
    order: 1
  }
}
layer {
  name: "conv6_2_mbox_conf_flat"
  type: "Flatten"
  bottom: "conv6_2_mbox_conf_perm"
  top: "conv6_2_mbox_conf_flat"
  flatten_param {
    axis: 1
  }
}
layer {
  name: "conv6_2_mbox_clean"
  type: "Convolution"
  bottom: "conv6_2"
  top: "conv6_2_mbox_clean"
  param {
    lr_mult: 1
    decay_mult: 1
  }
  param {
    lr_mult: 2
    decay_mult: 0
  }
  convolution_param {
    num_output: 6
    pad: 1
    kernel_size: 3
    stride: 1
    weight_filler {
      type: "xavier"
    }
    bias_filler {
      type: "constant"
      value: 0
    }
  }
}
layer {
  name: "conv6_2_mbox_clean_perm"
  type: "Permute"
  bottom: "conv6_2_mbox_clean"
  top: "conv6_2_mbox_clean_perm"
  permute_param {
    order: 0
    order: 2
    order: 3
    order: 1
  }
}
layer {
  name: "conv6_2_mbox_clean_flat"
  type: "Flatten"
  bottom: "conv6_2_mbox_clean_perm"
  top: "conv6_2_mbox_clean_flat"
  flatten_param {
    axis: 1
  }
}
layer {
  name: "conv6_2_mbox_priorbox"
  type: "PriorBox"
  bottom: "conv6_2"
  bottom: "data"
  top: "conv6_2_mbox_priorbox"
  prior_box_param {
    min_size: 168.96
    max_size: 261.12
    aspect_ratio: 2
    aspect_ratio: 3
    flip: true
    clip: false
    variance: 0.1
    variance: 0.1
    variance: 0.2
    variance: 0.2
    step: 32
    offset: 0.5
  }
}
layer {
  name: "conv7_2_mbox_loc"
  type: "Convolution"
  bottom: "conv7_2"
  top: "conv7_2_mbox_loc"
  param {
    lr_mult: 1
    decay_mult: 1
  }
  param {
    lr_mult: 2
    decay_mult: 0
  }
  convolution_param {
    num_output: 24
    pad: 1
    kernel_size: 3
    stride: 1
    weight_filler {
      type: "xavier"
    }
    bias_filler {
      type: "constant"
      value: 0
    }
  }
}
layer {
  name: "conv7_2_mbox_loc_perm"
  type: "Permute"
  bottom: "conv7_2_mbox_loc"
  top: "conv7_2_mbox_loc_perm"
  permute_param {
    order: 0
    order: 2
    order: 3
    order: 1
  }
}
layer {
  name: "conv7_2_mbox_loc_flat"
  type: "Flatten"
  bottom: "conv7_2_mbox_loc_perm"
  top: "conv7_2_mbox_loc_flat"
  flatten_param {
    axis: 1
  }
}
layer {
  name: "conv7_2_mbox_conf"
  type: "Convolution"
  bottom: "conv7_2"
  top: "conv7_2_mbox_conf"
  param {
    lr_mult: 1
    decay_mult: 1
  }
  param {
    lr_mult: 2
    decay_mult: 0
  }
  convolution_param {
    num_output: 12
    pad: 1
    kernel_size: 3
    stride: 1
    weight_filler {
      type: "xavier"
    }
    bias_filler {
      type: "constant"
      value: 0
    }
  }
}
layer {
  name: "conv7_2_mbox_conf_perm"
  type: "Permute"
  bottom: "conv7_2_mbox_conf"
  top: "conv7_2_mbox_conf_perm"
  permute_param {
    order: 0
    order: 2
    order: 3
    order: 1
  }
}
layer {
  name: "conv7_2_mbox_conf_flat"
  type: "Flatten"
  bottom: "conv7_2_mbox_conf_perm"
  top: "conv7_2_mbox_conf_flat"
  flatten_param {
    axis: 1
  }
}
layer {
  name: "conv7_2_mbox_clean"
  type: "Convolution"
  bottom: "conv7_2"
  top: "conv7_2_mbox_clean"
  param {
    lr_mult: 1
    decay_mult: 1
  }
  param {
    lr_mult: 2
    decay_mult: 0
  }
  convolution_param {
    num_output: 6
    pad: 1
    kernel_size: 3
    stride: 1
    weight_filler {
      type: "xavier"
    }
    bias_filler {
      type: "constant"
      value: 0
    }
  }
}
layer {
  name: "conv7_2_mbox_clean_perm"
  type: "Permute"
  bottom: "conv7_2_mbox_clean"
  top: "conv7_2_mbox_clean_perm"
  permute_param {
    order: 0
    order: 2
    order: 3
    order: 1
  }
}
layer {
  name: "conv7_2_mbox_clean_flat"
  type: "Flatten"
  bottom: "conv7_2_mbox_clean_perm"
  top: "conv7_2_mbox_clean_flat"
  flatten_param {
    axis: 1
  }
}
layer {
  name: "conv7_2_mbox_priorbox"
  type: "PriorBox"
  bottom: "conv7_2"
  bottom: "data"
  top: "conv7_2_mbox_priorbox"
  prior_box_param {
    min_size: 261.12
    max_size: 353.28
    aspect_ratio: 2
    aspect_ratio: 3
    flip: true
    clip: false
    variance: 0.1
    variance: 0.1
    variance: 0.2
    variance: 0.2
    step: 64
    offset: 0.5
  }
}
layer {
  name: "conv8_2_mbox_loc"
  type: "Convolution"
  bottom: "conv8_2"
  top: "conv8_2_mbox_loc"
  param {
    lr_mult: 1
    decay_mult: 1
  }
  param {
    lr_mult: 2
    decay_mult: 0
  }
  convolution_param {
    num_output: 16
    pad: 1
    kernel_size: 3
    stride: 1
    weight_filler {
      type: "xavier"
    }
    bias_filler {
      type: "constant"
      value: 0
    }
  }
}
layer {
  name: "conv8_2_mbox_loc_perm"
  type: "Permute"
  bottom: "conv8_2_mbox_loc"
  top: "conv8_2_mbox_loc_perm"
  permute_param {
    order: 0
    order: 2
    order: 3
    order: 1
  }
}
layer {
  name: "conv8_2_mbox_loc_flat"
  type: "Flatten"
  bottom: "conv8_2_mbox_loc_perm"
  top: "conv8_2_mbox_loc_flat"
  flatten_param {
    axis: 1
  }
}
layer {
  name: "conv8_2_mbox_conf"
  type: "Convolution"
  bottom: "conv8_2"
  top: "conv8_2_mbox_conf"
  param {
    lr_mult: 1
    decay_mult: 1
  }
  param {
    lr_mult: 2
    decay_mult: 0
  }
  convolution_param {
    num_output: 8
    pad: 1
    kernel_size: 3
    stride: 1
    weight_filler {
      type: "xavier"
    }
    bias_filler {
      type: "constant"
      value: 0
    }
  }
}
layer {
  name: "conv8_2_mbox_conf_perm"
  type: "Permute"
  bottom: "conv8_2_mbox_conf"
  top: "conv8_2_mbox_conf_perm"
  permute_param {
    order: 0
    order: 2
    order: 3
    order: 1
  }
}
layer {
  name: "conv8_2_mbox_conf_flat"
  type: "Flatten"
  bottom: "conv8_2_mbox_conf_perm"
  top: "conv8_2_mbox_conf_flat"
  flatten_param {
    axis: 1
  }
}
layer {
  name: "conv8_2_mbox_clean"
  type: "Convolution"
  bottom: "conv8_2"
  top: "conv8_2_mbox_clean"
  param {
    lr_mult: 1
    decay_mult: 1
  }
  param {
    lr_mult: 2
    decay_mult: 0
  }
  convolution_param {
    num_output: 4
    pad: 1
    kernel_size: 3
    stride: 1
    weight_filler {
      type: "xavier"
    }
    bias_filler {
      type: "constant"
      value: 0
    }
  }
}
layer {
  name: "conv8_2_mbox_clean_perm"
  type: "Permute"
  bottom: "conv8_2_mbox_clean"
  top: "conv8_2_mbox_clean_perm"
  permute_param {
    order: 0
    order: 2
    order: 3
    order: 1
  }
}
layer {
  name: "conv8_2_mbox_clean_flat"
  type: "Flatten"
  bottom: "conv8_2_mbox_clean_perm"
  top: "conv8_2_mbox_clean_flat"
  flatten_param {
    axis: 1
  }
}
layer {
  name: "conv8_2_mbox_priorbox"
  type: "PriorBox"
  bottom: "conv8_2"
  bottom: "data"
  top: "conv8_2_mbox_priorbox"
  prior_box_param {
    min_size: 353.28
    max_size: 445.44
    aspect_ratio: 2
    flip: true
    clip: false
    variance: 0.1
    variance: 0.1
    variance: 0.2
    variance: 0.2
    step: 100
    offset: 0.5
  }
}
layer {
  name: "conv9_2_mbox_loc"
  type: "Convolution"
  bottom: "conv9_2"
  top: "conv9_2_mbox_loc"
  param {
    lr_mult: 1
    decay_mult: 1
  }
  param {
    lr_mult: 2
    decay_mult: 0
  }
  convolution_param {
    num_output: 16
    pad: 1
    kernel_size: 3
    stride: 1
    weight_filler {
      type: "xavier"
    }
    bias_filler {
      type: "constant"
      value: 0
    }
  }
}
layer {
  name: "conv9_2_mbox_loc_perm"
  type: "Permute"
  bottom: "conv9_2_mbox_loc"
  top: "conv9_2_mbox_loc_perm"
  permute_param {
    order: 0
    order: 2
    order: 3
    order: 1
  }
}
layer {
  name: "conv9_2_mbox_loc_flat"
  type: "Flatten"
  bottom: "conv9_2_mbox_loc_perm"
  top: "conv9_2_mbox_loc_flat"
  flatten_param {
    axis: 1
  }
}
layer {
  name: "conv9_2_mbox_conf"
  type: "Convolution"
  bottom: "conv9_2"
  top: "conv9_2_mbox_conf"
  param {
    lr_mult: 1
    decay_mult: 1
  }
  param {
    lr_mult: 2
    decay_mult: 0
  }
  convolution_param {
    num_output: 8
    pad: 1
    kernel_size: 3
    stride: 1
    weight_filler {
      type: "xavier"
    }
    bias_filler {
      type: "constant"
      value: 0
    }
  }
}
layer {
  name: "conv9_2_mbox_conf_perm"
  type: "Permute"
  bottom: "conv9_2_mbox_conf"
  top: "conv9_2_mbox_conf_perm"
  permute_param {
    order: 0
    order: 2
    order: 3
    order: 1
  }
}
layer {
  name: "conv9_2_mbox_conf_flat"
  type: "Flatten"
  bottom: "conv9_2_mbox_conf_perm"
  top: "conv9_2_mbox_conf_flat"
  flatten_param {
    axis: 1
  }
}
layer {
  name: "conv9_2_mbox_clean"
  type: "Convolution"
  bottom: "conv9_2"
  top: "conv9_2_mbox_clean"
  param {
    lr_mult: 1
    decay_mult: 1
  }
  param {
    lr_mult: 2
    decay_mult: 0
  }
  convolution_param {
    num_output: 4
    pad: 1
    kernel_size: 3
    stride: 1
    weight_filler {
      type: "xavier"
    }
    bias_filler {
      type: "constant"
      value: 0
    }
  }
}
layer {
  name: "conv9_2_mbox_clean_perm"
  type: "Permute"
  bottom: "conv9_2_mbox_clean"
  top: "conv9_2_mbox_clean_perm"
  permute_param {
    order: 0
    order: 2
    order: 3
    order: 1
  }
}
layer {
  name: "conv9_2_mbox_clean_fl
I0401 12:29:42.041685  1777 layer_factory.hpp:77] Creating layer data
I0401 12:29:42.042212  1777 net.cpp:100] Creating Layer data
I0401 12:29:42.042250  1777 net.cpp:408] data -> data
I0401 12:29:42.042321  1777 net.cpp:408] data -> label
I0401 12:29:42.043051  1816 db_lmdb.cpp:35] Opened lmdb /data/siyu/dataset/coco/lmdb/COCO_Train2014_person_lmdb
I0401 12:29:42.064242  1777 annotated_data_layer.cpp:62] output data size: 8,3,512,512
I0401 12:29:42.109316  1777 net.cpp:150] Setting up data
I0401 12:29:42.109357  1777 net.cpp:157] Top shape: 8 3 512 512 (6291456)
I0401 12:29:42.109366  1777 net.cpp:157] Top shape: 1 1 1 8 (8)
I0401 12:29:42.109372  1777 net.cpp:165] Memory required for data: 25165856
I0401 12:29:42.109386  1777 layer_factory.hpp:77] Creating layer data_data_0_split
I0401 12:29:42.109406  1777 net.cpp:100] Creating Layer data_data_0_split
I0401 12:29:42.109416  1777 net.cpp:434] data_data_0_split <- data
I0401 12:29:42.109437  1777 net.cpp:408] data_data_0_split -> data_data_0_split_0
I0401 12:29:42.109453  1777 net.cpp:408] data_data_0_split -> data_data_0_split_1
I0401 12:29:42.109463  1777 net.cpp:408] data_data_0_split -> data_data_0_split_2
I0401 12:29:42.109475  1777 net.cpp:408] data_data_0_split -> data_data_0_split_3
I0401 12:29:42.109484  1777 net.cpp:408] data_data_0_split -> data_data_0_split_4
I0401 12:29:42.109493  1777 net.cpp:408] data_data_0_split -> data_data_0_split_5
I0401 12:29:42.109500  1777 net.cpp:408] data_data_0_split -> data_data_0_split_6
I0401 12:29:42.109604  1777 net.cpp:150] Setting up data_data_0_split
I0401 12:29:42.109614  1777 net.cpp:157] Top shape: 8 3 512 512 (6291456)
I0401 12:29:42.109621  1777 net.cpp:157] Top shape: 8 3 512 512 (6291456)
I0401 12:29:42.109627  1777 net.cpp:157] Top shape: 8 3 512 512 (6291456)
I0401 12:29:42.109633  1777 net.cpp:157] Top shape: 8 3 512 512 (6291456)
I0401 12:29:42.109658  1777 net.cpp:157] Top shape: 8 3 512 512 (6291456)
I0401 12:29:42.109665  1777 net.cpp:157] Top shape: 8 3 512 512 (6291456)
I0401 12:29:42.109671  1777 net.cpp:157] Top shape: 8 3 512 512 (6291456)
I0401 12:29:42.109678  1777 net.cpp:165] Memory required for data: 201326624
I0401 12:29:42.109683  1777 layer_factory.hpp:77] Creating layer conv1_1
I0401 12:29:42.109706  1777 net.cpp:100] Creating Layer conv1_1
I0401 12:29:42.109714  1777 net.cpp:434] conv1_1 <- data_data_0_split_0
I0401 12:29:42.109724  1777 net.cpp:408] conv1_1 -> conv1_1
I0401 12:29:42.340016  1777 net.cpp:150] Setting up conv1_1
I0401 12:29:42.340051  1777 net.cpp:157] Top shape: 8 64 512 512 (134217728)
I0401 12:29:42.340059  1777 net.cpp:165] Memory required for data: 738197536
I0401 12:29:42.340080  1777 layer_factory.hpp:77] Creating layer relu1_1
I0401 12:29:42.340095  1777 net.cpp:100] Creating Layer relu1_1
I0401 12:29:42.340101  1777 net.cpp:434] relu1_1 <- conv1_1
I0401 12:29:42.340109  1777 net.cpp:395] relu1_1 -> conv1_1 (in-place)
I0401 12:29:42.340432  1777 net.cpp:150] Setting up relu1_1
I0401 12:29:42.340448  1777 net.cpp:157] Top shape: 8 64 512 512 (134217728)
I0401 12:29:42.340454  1777 net.cpp:165] Memory required for data: 1275068448
I0401 12:29:42.340461  1777 layer_factory.hpp:77] Creating layer conv1_2
I0401 12:29:42.340478  1777 net.cpp:100] Creating Layer conv1_2
I0401 12:29:42.340483  1777 net.cpp:434] conv1_2 <- conv1_1
I0401 12:29:42.340492  1777 net.cpp:408] conv1_2 -> conv1_2
I0401 12:29:42.343178  1777 net.cpp:150] Setting up conv1_2
I0401 12:29:42.343195  1777 net.cpp:157] Top shape: 8 64 512 512 (134217728)
I0401 12:29:42.343207  1777 net.cpp:165] Memory required for data: 1811939360
I0401 12:29:42.343219  1777 layer_factory.hpp:77] Creating layer relu1_2
I0401 12:29:42.343228  1777 net.cpp:100] Creating Layer relu1_2
I0401 12:29:42.343235  1777 net.cpp:434] relu1_2 <- conv1_2
I0401 12:29:42.343241  1777 net.cpp:395] relu1_2 -> conv1_2 (in-place)
I0401 12:29:42.343423  1777 net.cpp:150] Setting up relu1_2
I0401 12:29:42.343436  1777 net.cpp:157] Top shape: 8 64 512 512 (134217728)
I0401 12:29:42.343442  1777 net.cpp:165] Memory required for data: 2348810272
I0401 12:29:42.343447  1777 layer_factory.hpp:77] Creating layer pool1
I0401 12:29:42.343457  1777 net.cpp:100] Creating Layer pool1
I0401 12:29:42.343463  1777 net.cpp:434] pool1 <- conv1_2
I0401 12:29:42.343471  1777 net.cpp:408] pool1 -> pool1
I0401 12:29:42.343530  1777 net.cpp:150] Setting up pool1
I0401 12:29:42.343540  1777 net.cpp:157] Top shape: 8 64 256 256 (33554432)
I0401 12:29:42.343545  1777 net.cpp:165] Memory required for data: 2483028000
I0401 12:29:42.343550  1777 layer_factory.hpp:77] Creating layer conv2_1
I0401 12:29:42.343561  1777 net.cpp:100] Creating Layer conv2_1
I0401 12:29:42.343569  1777 net.cpp:434] conv2_1 <- pool1
I0401 12:29:42.343578  1777 net.cpp:408] conv2_1 -> conv2_1
I0401 12:29:42.345875  1777 net.cpp:150] Setting up conv2_1
I0401 12:29:42.345892  1777 net.cpp:157] Top shape: 8 128 256 256 (67108864)
I0401 12:29:42.345899  1777 net.cpp:165] Memory required for data: 2751463456
I0401 12:29:42.345911  1777 layer_factory.hpp:77] Creating layer relu2_1
I0401 12:29:42.345921  1777 net.cpp:100] Creating Layer relu2_1
I0401 12:29:42.345927  1777 net.cpp:434] relu2_1 <- conv2_1
I0401 12:29:42.345934  1777 net.cpp:395] relu2_1 -> conv2_1 (in-place)
I0401 12:29:42.346114  1777 net.cpp:150] Setting up relu2_1
I0401 12:29:42.346127  1777 net.cpp:157] Top shape: 8 128 256 256 (67108864)
I0401 12:29:42.346132  1777 net.cpp:165] Memory required for data: 3019898912
I0401 12:29:42.346138  1777 layer_factory.hpp:77] Creating layer conv2_2
I0401 12:29:42.346150  1777 net.cpp:100] Creating Layer conv2_2
I0401 12:29:42.346158  1777 net.cpp:434] conv2_2 <- conv2_1
I0401 12:29:42.346165  1777 net.cpp:408] conv2_2 -> conv2_2
I0401 12:29:42.348510  1777 net.cpp:150] Setting up conv2_2
I0401 12:29:42.348528  1777 net.cpp:157] Top shape: 8 128 256 256 (67108864)
I0401 12:29:42.348533  1777 net.cpp:165] Memory required for data: 3288334368
I0401 12:29:42.348562  1777 layer_factory.hpp:77] Creating layer relu2_2
I0401 12:29:42.348572  1777 net.cpp:100] Creating Layer relu2_2
I0401 12:29:42.348578  1777 net.cpp:434] relu2_2 <- conv2_2
I0401 12:29:42.348588  1777 net.cpp:395] relu2_2 -> conv2_2 (in-place)
I0401 12:29:42.348909  1777 net.cpp:150] Setting up relu2_2
I0401 12:29:42.348925  1777 net.cpp:157] Top shape: 8 128 256 256 (67108864)
I0401 12:29:42.348930  1777 net.cpp:165] Memory required for data: 3556769824
I0401 12:29:42.348937  1777 layer_factory.hpp:77] Creating layer pool2
I0401 12:29:42.348944  1777 net.cpp:100] Creating Layer pool2
I0401 12:29:42.348950  1777 net.cpp:434] pool2 <- conv2_2
I0401 12:29:42.348959  1777 net.cpp:408] pool2 -> pool2
I0401 12:29:42.349010  1777 net.cpp:150] Setting up pool2
I0401 12:29:42.349020  1777 net.cpp:157] Top shape: 8 128 128 128 (16777216)
I0401 12:29:42.349025  1777 net.cpp:165] Memory required for data: 3623878688
I0401 12:29:42.349030  1777 layer_factory.hpp:77] Creating layer conv3_1
I0401 12:29:42.349045  1777 net.cpp:100] Creating Layer conv3_1
I0401 12:29:42.349052  1777 net.cpp:434] conv3_1 <- pool2
I0401 12:29:42.349061  1777 net.cpp:408] conv3_1 -> conv3_1
I0401 12:29:42.353509  1777 net.cpp:150] Setting up conv3_1
I0401 12:29:42.353528  1777 net.cpp:157] Top shape: 8 256 128 128 (33554432)
I0401 12:29:42.353533  1777 net.cpp:165] Memory required for data: 3758096416
I0401 12:29:42.353546  1777 layer_factory.hpp:77] Creating layer relu3_1
I0401 12:29:42.353557  1777 net.cpp:100] Creating Layer relu3_1
I0401 12:29:42.353564  1777 net.cpp:434] relu3_1 <- conv3_1
I0401 12:29:42.353570  1777 net.cpp:395] relu3_1 -> conv3_1 (in-place)
I0401 12:29:42.353770  1777 net.cpp:150] Setting up relu3_1
I0401 12:29:42.353782  1777 net.cpp:157] Top shape: 8 256 128 128 (33554432)
I0401 12:29:42.353787  1777 net.cpp:165] Memory required for data: 3892314144
I0401 12:29:42.353793  1777 layer_factory.hpp:77] Creating layer conv3_2
I0401 12:29:42.353807  1777 net.cpp:100] Creating Layer conv3_2
I0401 12:29:42.353814  1777 net.cpp:434] conv3_2 <- conv3_1
I0401 12:29:42.353822  1777 net.cpp:408] conv3_2 -> conv3_2
I0401 12:29:42.360728  1777 net.cpp:150] Setting up conv3_2
I0401 12:29:42.360747  1777 net.cpp:157] Top shape: 8 256 128 128 (33554432)
I0401 12:29:42.360754  1777 net.cpp:165] Memory required for data: 4026531872
I0401 12:29:42.360761  1777 layer_factory.hpp:77] Creating layer relu3_2
I0401 12:29:42.360770  1777 net.cpp:100] Creating Layer relu3_2
I0401 12:29:42.360776  1777 net.cpp:434] relu3_2 <- conv3_2
I0401 12:29:42.360785  1777 net.cpp:395] relu3_2 -> conv3_2 (in-place)
I0401 12:29:42.360991  1777 net.cpp:150] Setting up relu3_2
I0401 12:29:42.361003  1777 net.cpp:157] Top shape: 8 256 128 128 (33554432)
I0401 12:29:42.361008  1777 net.cpp:165] Memory required for data: 4160749600
I0401 12:29:42.361014  1777 layer_factory.hpp:77] Creating layer conv3_3
I0401 12:29:42.361029  1777 net.cpp:100] Creating Layer conv3_3
I0401 12:29:42.361037  1777 net.cpp:434] conv3_3 <- conv3_2
I0401 12:29:42.361048  1777 net.cpp:408] conv3_3 -> conv3_3
I0401 12:29:42.369925  1777 net.cpp:150] Setting up conv3_3
I0401 12:29:42.369951  1777 net.cpp:157] Top shape: 8 256 128 128 (33554432)
I0401 12:29:42.369959  1777 net.cpp:165] Memory required for data: 4294967328
I0401 12:29:42.369976  1777 layer_factory.hpp:77] Creating layer relu3_3
I0401 12:29:42.369988  1777 net.cpp:100] Creating Layer relu3_3
I0401 12:29:42.370002  1777 net.cpp:434] relu3_3 <- conv3_3
I0401 12:29:42.370013  1777 net.cpp:395] relu3_3 -> conv3_3 (in-place)
I0401 12:29:42.370455  1777 net.cpp:150] Setting up relu3_3
I0401 12:29:42.370476  1777 net.cpp:157] Top shape: 8 256 128 128 (33554432)
I0401 12:29:42.370484  1777 net.cpp:165] Memory required for data: 4429185056
I0401 12:29:42.370493  1777 layer_factory.hpp:77] Creating layer pool3
I0401 12:29:42.370508  1777 net.cpp:100] Creating Layer pool3
I0401 12:29:42.370517  1777 net.cpp:434] pool3 <- conv3_3
I0401 12:29:42.370528  1777 net.cpp:408] pool3 -> pool3
I0401 12:29:42.370602  1777 net.cpp:150] Setting up pool3
I0401 12:29:42.370635  1777 net.cpp:157] Top shape: 8 256 64 64 (8388608)
I0401 12:29:42.370645  1777 net.cpp:165] Memory required for data: 4462739488
I0401 12:29:42.370652  1777 layer_factory.hpp:77] Creating layer conv4_1
I0401 12:29:42.370671  1777 net.cpp:100] Creating Layer conv4_1
I0401 12:29:42.370682  1777 net.cpp:434] conv4_1 <- pool3
I0401 12:29:42.370697  1777 net.cpp:408] conv4_1 -> conv4_1
I0401 12:29:42.383911  1777 net.cpp:150] Setting up conv4_1
I0401 12:29:42.383934  1777 net.cpp:157] Top shape: 8 512 64 64 (16777216)
I0401 12:29:42.383940  1777 net.cpp:165] Memory required for data: 4529848352
I0401 12:29:42.383951  1777 layer_factory.hpp:77] Creating layer relu4_1
I0401 12:29:42.383960  1777 net.cpp:100] Creating Layer relu4_1
I0401 12:29:42.383968  1777 net.cpp:434] relu4_1 <- conv4_1
I0401 12:29:42.383976  1777 net.cpp:395] relu4_1 -> conv4_1 (in-place)
I0401 12:29:42.384176  1777 net.cpp:150] Setting up relu4_1
I0401 12:29:42.384188  1777 net.cpp:157] Top shape: 8 512 64 64 (16777216)
I0401 12:29:42.384193  1777 net.cpp:165] Memory required for data: 4596957216
I0401 12:29:42.384198  1777 layer_factory.hpp:77] Creating layer conv4_2
I0401 12:29:42.384213  1777 net.cpp:100] Creating Layer conv4_2
I0401 12:29:42.384222  1777 net.cpp:434] conv4_2 <- conv4_1
I0401 12:29:42.384229  1777 net.cpp:408] conv4_2 -> conv4_2
I0401 12:29:42.408005  1777 net.cpp:150] Setting up conv4_2
I0401 12:29:42.408032  1777 net.cpp:157] Top shape: 8 512 64 64 (16777216)
I0401 12:29:42.408038  1777 net.cpp:165] Memory required for data: 4664066080
I0401 12:29:42.408054  1777 layer_factory.hpp:77] Creating layer relu4_2
I0401 12:29:42.408067  1777 net.cpp:100] Creating Layer relu4_2
I0401 12:29:42.408074  1777 net.cpp:434] relu4_2 <- conv4_2
I0401 12:29:42.408082  1777 net.cpp:395] relu4_2 -> conv4_2 (in-place)
I0401 12:29:42.408290  1777 net.cpp:150] Setting up relu4_2
I0401 12:29:42.408303  1777 net.cpp:157] Top shape: 8 512 64 64 (16777216)
I0401 12:29:42.408308  1777 net.cpp:165] Memory required for data: 4731174944
I0401 12:29:42.408313  1777 layer_factory.hpp:77] Creating layer conv4_3
I0401 12:29:42.408329  1777 net.cpp:100] Creating Layer conv4_3
I0401 12:29:42.408336  1777 net.cpp:434] conv4_3 <- conv4_2
I0401 12:29:42.408347  1777 net.cpp:408] conv4_3 -> conv4_3
I0401 12:29:42.431917  1777 net.cpp:150] Setting up conv4_3
I0401 12:29:42.431942  1777 net.cpp:157] Top shape: 8 512 64 64 (16777216)
I0401 12:29:42.431948  1777 net.cpp:165] Memory required for data: 4798283808
I0401 12:29:42.431959  1777 layer_factory.hpp:77] Creating layer relu4_3
I0401 12:29:42.431972  1777 net.cpp:100] Creating Layer relu4_3
I0401 12:29:42.431978  1777 net.cpp:434] relu4_3 <- conv4_3
I0401 12:29:42.431988  1777 net.cpp:395] relu4_3 -> conv4_3 (in-place)
I0401 12:29:42.432314  1777 net.cpp:150] Setting up relu4_3
I0401 12:29:42.432330  1777 net.cpp:157] Top shape: 8 512 64 64 (16777216)
I0401 12:29:42.432337  1777 net.cpp:165] Memory required for data: 4865392672
I0401 12:29:42.432341  1777 layer_factory.hpp:77] Creating layer conv4_3_relu4_3_0_split
I0401 12:29:42.432349  1777 net.cpp:100] Creating Layer conv4_3_relu4_3_0_split
I0401 12:29:42.432355  1777 net.cpp:434] conv4_3_relu4_3_0_split <- conv4_3
I0401 12:29:42.432364  1777 net.cpp:408] conv4_3_relu4_3_0_split -> conv4_3_relu4_3_0_split_0
I0401 12:29:42.432374  1777 net.cpp:408] conv4_3_relu4_3_0_split -> conv4_3_relu4_3_0_split_1
I0401 12:29:42.432430  1777 net.cpp:150] Setting up conv4_3_relu4_3_0_split
I0401 12:29:42.432440  1777 net.cpp:157] Top shape: 8 512 64 64 (16777216)
I0401 12:29:42.432446  1777 net.cpp:157] Top shape: 8 512 64 64 (16777216)
I0401 12:29:42.432451  1777 net.cpp:165] Memory required for data: 4999610400
I0401 12:29:42.432456  1777 layer_factory.hpp:77] Creating layer pool4
I0401 12:29:42.432471  1777 net.cpp:100] Creating Layer pool4
I0401 12:29:42.432476  1777 net.cpp:434] pool4 <- conv4_3_relu4_3_0_split_0
I0401 12:29:42.432485  1777 net.cpp:408] pool4 -> pool4
I0401 12:29:42.432530  1777 net.cpp:150] Setting up pool4
I0401 12:29:42.432556  1777 net.cpp:157] Top shape: 8 512 32 32 (4194304)
I0401 12:29:42.432562  1777 net.cpp:165] Memory required for data: 5016387616
I0401 12:29:42.432567  1777 layer_factory.hpp:77] Creating layer conv5_1
I0401 12:29:42.432585  1777 net.cpp:100] Creating Layer conv5_1
I0401 12:29:42.432591  1777 net.cpp:434] conv5_1 <- pool4
I0401 12:29:42.432600  1777 net.cpp:408] conv5_1 -> conv5_1
I0401 12:29:42.456084  1777 net.cpp:150] Setting up conv5_1
I0401 12:29:42.456111  1777 net.cpp:157] Top shape: 8 512 32 32 (4194304)
I0401 12:29:42.456122  1777 net.cpp:165] Memory required for data: 5033164832
I0401 12:29:42.456132  1777 layer_factory.hpp:77] Creating layer relu5_1
I0401 12:29:42.456146  1777 net.cpp:100] Creating Layer relu5_1
I0401 12:29:42.456153  1777 net.cpp:434] relu5_1 <- conv5_1
I0401 12:29:42.456161  1777 net.cpp:395] relu5_1 -> conv5_1 (in-place)
I0401 12:29:42.456364  1777 net.cpp:150] Setting up relu5_1
I0401 12:29:42.456377  1777 net.cpp:157] Top shape: 8 512 32 32 (4194304)
I0401 12:29:42.456383  1777 net.cpp:165] Memory required for data: 5049942048
I0401 12:29:42.456388  1777 layer_factory.hpp:77] Creating layer conv5_2
I0401 12:29:42.456403  1777 net.cpp:100] Creating Layer conv5_2
I0401 12:29:42.456411  1777 net.cpp:434] conv5_2 <- conv5_1
I0401 12:29:42.456423  1777 net.cpp:408] conv5_2 -> conv5_2
I0401 12:29:42.480782  1777 net.cpp:150] Setting up conv5_2
I0401 12:29:42.480808  1777 net.cpp:157] Top shape: 8 512 32 32 (4194304)
I0401 12:29:42.480814  1777 net.cpp:165] Memory required for data: 5066719264
I0401 12:29:42.480824  1777 layer_factory.hpp:77] Creating layer relu5_2
I0401 12:29:42.480839  1777 net.cpp:100] Creating Layer relu5_2
I0401 12:29:42.480846  1777 net.cpp:434] relu5_2 <- conv5_2
I0401 12:29:42.480854  1777 net.cpp:395] relu5_2 -> conv5_2 (in-place)
I0401 12:29:42.481056  1777 net.cpp:150] Setting up relu5_2
I0401 12:29:42.481070  1777 net.cpp:157] Top shape: 8 512 32 32 (4194304)
I0401 12:29:42.481076  1777 net.cpp:165] Memory required for data: 5083496480
I0401 12:29:42.481081  1777 layer_factory.hpp:77] Creating layer conv5_3
I0401 12:29:42.481096  1777 net.cpp:100] Creating Layer conv5_3
I0401 12:29:42.481104  1777 net.cpp:434] conv5_3 <- conv5_2
I0401 12:29:42.481114  1777 net.cpp:408] conv5_3 -> conv5_3
I0401 12:29:42.504832  1777 net.cpp:150] Setting up conv5_3
I0401 12:29:42.504859  1777 net.cpp:157] Top shape: 8 512 32 32 (4194304)
I0401 12:29:42.504865  1777 net.cpp:165] Memory required for data: 5100273696
I0401 12:29:42.504876  1777 layer_factory.hpp:77] Creating layer relu5_3
I0401 12:29:42.504894  1777 net.cpp:100] Creating Layer relu5_3
I0401 12:29:42.504902  1777 net.cpp:434] relu5_3 <- conv5_3
I0401 12:29:42.504912  1777 net.cpp:395] relu5_3 -> conv5_3 (in-place)
I0401 12:29:42.505242  1777 net.cpp:150] Setting up relu5_3
I0401 12:29:42.505259  1777 net.cpp:157] Top shape: 8 512 32 32 (4194304)
I0401 12:29:42.505264  1777 net.cpp:165] Memory required for data: 5117050912
I0401 12:29:42.505270  1777 layer_factory.hpp:77] Creating layer pool5
I0401 12:29:42.505281  1777 net.cpp:100] Creating Layer pool5
I0401 12:29:42.505287  1777 net.cpp:434] pool5 <- conv5_3
I0401 12:29:42.505295  1777 net.cpp:408] pool5 -> pool5
I0401 12:29:42.505352  1777 net.cpp:150] Setting up pool5
I0401 12:29:42.505362  1777 net.cpp:157] Top shape: 8 512 32 32 (4194304)
I0401 12:29:42.505367  1777 net.cpp:165] Memory required for data: 5133828128
I0401 12:29:42.505373  1777 layer_factory.hpp:77] Creating layer fc6
I0401 12:29:42.505388  1777 net.cpp:100] Creating Layer fc6
I0401 12:29:42.505395  1777 net.cpp:434] fc6 <- pool5
I0401 12:29:42.505405  1777 net.cpp:408] fc6 -> fc6
I0401 12:29:42.552168  1777 net.cpp:150] Setting up fc6
I0401 12:29:42.552198  1777 net.cpp:157] Top shape: 8 1024 32 32 (8388608)
I0401 12:29:42.552204  1777 net.cpp:165] Memory required for data: 5167382560
I0401 12:29:42.552215  1777 layer_factory.hpp:77] Creating layer relu6
I0401 12:29:42.552229  1777 net.cpp:100] Creating Layer relu6
I0401 12:29:42.552237  1777 net.cpp:434] relu6 <- fc6
I0401 12:29:42.552248  1777 net.cpp:395] relu6 -> fc6 (in-place)
I0401 12:29:42.552522  1777 net.cpp:150] Setting up relu6
I0401 12:29:42.552537  1777 net.cpp:157] Top shape: 8 1024 32 32 (8388608)
I0401 12:29:42.552543  1777 net.cpp:165] Memory required for data: 5200936992
I0401 12:29:42.552548  1777 layer_factory.hpp:77] Creating layer fc7
I0401 12:29:42.552566  1777 net.cpp:100] Creating Layer fc7
I0401 12:29:42.552573  1777 net.cpp:434] fc7 <- fc6
I0401 12:29:42.552583  1777 net.cpp:408] fc7 -> fc7
I0401 12:29:42.563786  1777 net.cpp:150] Setting up fc7
I0401 12:29:42.563818  1777 net.cpp:157] Top shape: 8 1024 32 32 (8388608)
I0401 12:29:42.563823  1777 net.cpp:165] Memory required for data: 5234491424
I0401 12:29:42.563834  1777 layer_factory.hpp:77] Creating layer relu7
I0401 12:29:42.563850  1777 net.cpp:100] Creating Layer relu7
I0401 12:29:42.563858  1777 net.cpp:434] relu7 <- fc7
I0401 12:29:42.563866  1777 net.cpp:395] relu7 -> fc7 (in-place)
I0401 12:29:42.564199  1777 net.cpp:150] Setting up relu7
I0401 12:29:42.564215  1777 net.cpp:157] Top shape: 8 1024 32 32 (8388608)
I0401 12:29:42.564226  1777 net.cpp:165] Memory required for data: 5268045856
I0401 12:29:42.564232  1777 layer_factory.hpp:77] Creating layer fc7_relu7_0_split
I0401 12:29:42.564244  1777 net.cpp:100] Creating Layer fc7_relu7_0_split
I0401 12:29:42.564251  1777 net.cpp:434] fc7_relu7_0_split <- fc7
I0401 12:29:42.564260  1777 net.cpp:408] fc7_relu7_0_split -> fc7_relu7_0_split_0
I0401 12:29:42.564270  1777 net.cpp:408] fc7_relu7_0_split -> fc7_relu7_0_split_1
I0401 12:29:42.564288  1777 net.cpp:408] fc7_relu7_0_split -> fc7_relu7_0_split_2
I0401 12:29:42.564297  1777 net.cpp:408] fc7_relu7_0_split -> fc7_relu7_0_split_3
I0401 12:29:42.564306  1777 net.cpp:408] fc7_relu7_0_split -> fc7_relu7_0_split_4
I0401 12:29:42.564402  1777 net.cpp:150] Setting up fc7_relu7_0_split
I0401 12:29:42.564412  1777 net.cpp:157] Top shape: 8 1024 32 32 (8388608)
I0401 12:29:42.564419  1777 net.cpp:157] Top shape: 8 1024 32 32 (8388608)
I0401 12:29:42.564424  1777 net.cpp:157] Top shape: 8 1024 32 32 (8388608)
I0401 12:29:42.564430  1777 net.cpp:157] Top shape: 8 1024 32 32 (8388608)
I0401 12:29:42.564435  1777 net.cpp:157] Top shape: 8 1024 32 32 (8388608)
I0401 12:29:42.564440  1777 net.cpp:165] Memory required for data: 5435818016
I0401 12:29:42.564445  1777 layer_factory.hpp:77] Creating layer conv6_1
I0401 12:29:42.564460  1777 net.cpp:100] Creating Layer conv6_1
I0401 12:29:42.564469  1777 net.cpp:434] conv6_1 <- fc7_relu7_0_split_0
I0401 12:29:42.564479  1777 net.cpp:408] conv6_1 -> conv6_1
I0401 12:29:42.568395  1777 net.cpp:150] Setting up conv6_1
I0401 12:29:42.568420  1777 net.cpp:157] Top shape: 8 256 32 32 (2097152)
I0401 12:29:42.568433  1777 net.cpp:165] Memory required for data: 5444206624
I0401 12:29:42.568442  1777 layer_factory.hpp:77] Creating layer conv6_1_relu
I0401 12:29:42.568451  1777 net.cpp:100] Creating Layer conv6_1_relu
I0401 12:29:42.568457  1777 net.cpp:434] conv6_1_relu <- conv6_1
I0401 12:29:42.568467  1777 net.cpp:395] conv6_1_relu -> conv6_1 (in-place)
I0401 12:29:42.568809  1777 net.cpp:150] Setting up conv6_1_relu
I0401 12:29:42.568825  1777 net.cpp:157] Top shape: 8 256 32 32 (2097152)
I0401 12:29:42.568836  1777 net.cpp:165] Memory required for data: 5452595232
I0401 12:29:42.568842  1777 layer_factory.hpp:77] Creating layer conv6_2
I0401 12:29:42.568858  1777 net.cpp:100] Creating Layer conv6_2
I0401 12:29:42.568864  1777 net.cpp:434] conv6_2 <- conv6_1
I0401 12:29:42.568873  1777 net.cpp:408] conv6_2 -> conv6_2
I0401 12:29:42.581673  1777 net.cpp:150] Setting up conv6_2
I0401 12:29:42.581718  1777 net.cpp:157] Top shape: 8 512 16 16 (1048576)
I0401 12:29:42.581724  1777 net.cpp:165] Memory required for data: 5456789536
I0401 12:29:42.581750  1777 layer_factory.hpp:77] Creating layer conv6_2_relu
I0401 12:29:42.581768  1777 net.cpp:100] Creating Layer conv6_2_relu
I0401 12:29:42.581775  1777 net.cpp:434] conv6_2_relu <- conv6_2
I0401 12:29:42.581784  1777 net.cpp:395] conv6_2_relu -> conv6_2 (in-place)
I0401 12:29:42.582000  1777 net.cpp:150] Setting up conv6_2_relu
I0401 12:29:42.582027  1777 net.cpp:157] Top shape: 8 512 16 16 (1048576)
I0401 12:29:42.582033  1777 net.cpp:165] Memory required for data: 5460983840
I0401 12:29:42.582039  1777 layer_factory.hpp:77] Creating layer conv6_2_conv6_2_relu_0_split
I0401 12:29:42.582051  1777 net.cpp:100] Creating Layer conv6_2_conv6_2_relu_0_split
I0401 12:29:42.582057  1777 net.cpp:434] conv6_2_conv6_2_relu_0_split <- conv6_2
I0401 12:29:42.582067  1777 net.cpp:408] conv6_2_conv6_2_relu_0_split -> conv6_2_conv6_2_relu_0_split_0
I0401 12:29:42.582077  1777 net.cpp:408] conv6_2_conv6_2_relu_0_split -> conv6_2_conv6_2_relu_0_split_1
I0401 12:29:42.582087  1777 net.cpp:408] conv6_2_conv6_2_relu_0_split -> conv6_2_conv6_2_relu_0_split_2
I0401 12:29:42.582095  1777 net.cpp:408] conv6_2_conv6_2_relu_0_split -> conv6_2_conv6_2_relu_0_split_3
I0401 12:29:42.582104  1777 net.cpp:408] conv6_2_conv6_2_relu_0_split -> conv6_2_conv6_2_relu_0_split_4
I0401 12:29:42.582196  1777 net.cpp:150] Setting up conv6_2_conv6_2_relu_0_split
I0401 12:29:42.582206  1777 net.cpp:157] Top shape: 8 512 16 16 (1048576)
I0401 12:29:42.582212  1777 net.cpp:157] Top shape: 8 512 16 16 (1048576)
I0401 12:29:42.582218  1777 net.cpp:157] Top shape: 8 512 16 16 (1048576)
I0401 12:29:42.582223  1777 net.cpp:157] Top shape: 8 512 16 16 (1048576)
I0401 12:29:42.582228  1777 net.cpp:157] Top shape: 8 512 16 16 (1048576)
I0401 12:29:42.582233  1777 net.cpp:165] Memory required for data: 5481955360
I0401 12:29:42.582238  1777 layer_factory.hpp:77] Creating layer conv7_1
I0401 12:29:42.582255  1777 net.cpp:100] Creating Layer conv7_1
I0401 12:29:42.582263  1777 net.cpp:434] conv7_1 <- conv6_2_conv6_2_relu_0_split_0
I0401 12:29:42.582273  1777 net.cpp:408] conv7_1 -> conv7_1
I0401 12:29:42.583992  1777 net.cpp:150] Setting up conv7_1
I0401 12:29:42.584009  1777 net.cpp:157] Top shape: 8 128 16 16 (262144)
I0401 12:29:42.584022  1777 net.cpp:165] Memory required for data: 5483003936
I0401 12:29:42.584030  1777 layer_factory.hpp:77] Creating layer conv7_1_relu
I0401 12:29:42.584040  1777 net.cpp:100] Creating Layer conv7_1_relu
I0401 12:29:42.584048  1777 net.cpp:434] conv7_1_relu <- conv7_1
I0401 12:29:42.584054  1777 net.cpp:395] conv7_1_relu -> conv7_1 (in-place)
I0401 12:29:42.584384  1777 net.cpp:150] Setting up conv7_1_relu
I0401 12:29:42.584401  1777 net.cpp:157] Top shape: 8 128 16 16 (262144)
I0401 12:29:42.584413  1777 net.cpp:165] Memory required for data: 5484052512
I0401 12:29:42.584417  1777 layer_factory.hpp:77] Creating layer conv7_2
I0401 12:29:42.584432  1777 net.cpp:100] Creating Layer conv7_2
I0401 12:29:42.584439  1777 net.cpp:434] conv7_2 <- conv7_1
I0401 12:29:42.584446  1777 net.cpp:408] conv7_2 -> conv7_2
I0401 12:29:42.588495  1777 net.cpp:150] Setting up conv7_2
I0401 12:29:42.588531  1777 net.cpp:157] Top shape: 8 256 8 8 (131072)
I0401 12:29:42.588537  1777 net.cpp:165] Memory required for data: 5484576800
I0401 12:29:42.588547  1777 layer_factory.hpp:77] Creating layer conv7_2_relu
I0401 12:29:42.588560  1777 net.cpp:100] Creating Layer conv7_2_relu
I0401 12:29:42.588567  1777 net.cpp:434] conv7_2_relu <- conv7_2
I0401 12:29:42.588577  1777 net.cpp:395] conv7_2_relu -> conv7_2 (in-place)
I0401 12:29:42.588914  1777 net.cpp:150] Setting up conv7_2_relu
I0401 12:29:42.588930  1777 net.cpp:157] Top shape: 8 256 8 8 (131072)
I0401 12:29:42.588942  1777 net.cpp:165] Memory required for data: 5485101088
I0401 12:29:42.588948  1777 layer_factory.hpp:77] Creating layer conv7_2_conv7_2_relu_0_split
I0401 12:29:42.588958  1777 net.cpp:100] Creating Layer conv7_2_conv7_2_relu_0_split
I0401 12:29:42.588964  1777 net.cpp:434] conv7_2_conv7_2_relu_0_split <- conv7_2
I0401 12:29:42.588973  1777 net.cpp:408] conv7_2_conv7_2_relu_0_split -> conv7_2_conv7_2_relu_0_split_0
I0401 12:29:42.588982  1777 net.cpp:408] conv7_2_conv7_2_relu_0_split -> conv7_2_conv7_2_relu_0_split_1
I0401 12:29:42.588992  1777 net.cpp:408] conv7_2_conv7_2_relu_0_split -> conv7_2_conv7_2_relu_0_split_2
I0401 12:29:42.589000  1777 net.cpp:408] conv7_2_conv7_2_relu_0_split -> conv7_2_conv7_2_relu_0_split_3
I0401 12:29:42.589025  1777 net.cpp:408] conv7_2_conv7_2_relu_0_split -> conv7_2_conv7_2_relu_0_split_4
I0401 12:29:42.589126  1777 net.cpp:150] Setting up conv7_2_conv7_2_relu_0_split
I0401 12:29:42.589136  1777 net.cpp:157] Top shape: 8 256 8 8 (131072)
I0401 12:29:42.589143  1777 net.cpp:157] Top shape: 8 256 8 8 (131072)
I0401 12:29:42.589148  1777 net.cpp:157] Top shape: 8 256 8 8 (131072)
I0401 12:29:42.589154  1777 net.cpp:157] Top shape: 8 256 8 8 (131072)
I0401 12:29:42.589159  1777 net.cpp:157] Top shape: 8 256 8 8 (131072)
I0401 12:29:42.589164  1777 net.cpp:165] Memory required for data: 5487722528
I0401 12:29:42.589169  1777 layer_factory.hpp:77] Creating layer conv8_1
I0401 12:29:42.589185  1777 net.cpp:100] Creating Layer conv8_1
I0401 12:29:42.589195  1777 net.cpp:434] conv8_1 <- conv7_2_conv7_2_relu_0_split_0
I0401 12:29:42.589205  1777 net.cpp:408] conv8_1 -> conv8_1
I0401 12:29:42.591590  1777 net.cpp:150] Setting up conv8_1
I0401 12:29:42.591620  1777 net.cpp:157] Top shape: 8 128 8 8 (65536)
I0401 12:29:42.591626  1777 net.cpp:165] Memory required for data: 5487984672
I0401 12:29:42.591635  1777 layer_factory.hpp:77] Creating layer conv8_1_relu
I0401 12:29:42.591648  1777 net.cpp:100] Creating Layer conv8_1_relu
I0401 12:29:42.591655  1777 net.cpp:434] conv8_1_relu <- conv8_1
I0401 12:29:42.591662  1777 net.cpp:395] conv8_1_relu -> conv8_1 (in-place)
I0401 12:29:42.591879  1777 net.cpp:150] Setting up conv8_1_relu
I0401 12:29:42.591892  1777 net.cpp:157] Top shape: 8 128 8 8 (65536)
I0401 12:29:42.591898  1777 net.cpp:165] Memory required for data: 5488246816
I0401 12:29:42.591903  1777 layer_factory.hpp:77] Creating layer conv8_2
I0401 12:29:42.591917  1777 net.cpp:100] Creating Layer conv8_2
I0401 12:29:42.591925  1777 net.cpp:434] conv8_2 <- conv8_1
I0401 12:29:42.591935  1777 net.cpp:408] conv8_2 -> conv8_2
I0401 12:29:42.595952  1777 net.cpp:150] Setting up conv8_2
I0401 12:29:42.595971  1777 net.cpp:157] Top shape: 8 256 6 6 (73728)
I0401 12:29:42.595978  1777 net.cpp:165] Memory required for data: 5488541728
I0401 12:29:42.595993  1777 layer_factory.hpp:77] Creating layer conv8_2_relu
I0401 12:29:42.596004  1777 net.cpp:100] Creating Layer conv8_2_relu
I0401 12:29:42.596010  1777 net.cpp:434] conv8_2_relu <- conv8_2
I0401 12:29:42.596019  1777 net.cpp:395] conv8_2_relu -> conv8_2 (in-place)
I0401 12:29:42.596351  1777 net.cpp:150] Setting up conv8_2_relu
I0401 12:29:42.596367  1777 net.cpp:157] Top shape: 8 256 6 6 (73728)
I0401 12:29:42.596379  1777 net.cpp:165] Memory required for data: 5488836640
I0401 12:29:42.596385  1777 layer_factory.hpp:77] Creating layer conv8_2_conv8_2_relu_0_split
I0401 12:29:42.596395  1777 net.cpp:100] Creating Layer conv8_2_conv8_2_relu_0_split
I0401 12:29:42.596400  1777 net.cpp:434] conv8_2_conv8_2_relu_0_split <- conv8_2
I0401 12:29:42.596408  1777 net.cpp:408] conv8_2_conv8_2_relu_0_split -> conv8_2_conv8_2_relu_0_split_0
I0401 12:29:42.596417  1777 net.cpp:408] conv8_2_conv8_2_relu_0_split -> conv8_2_conv8_2_relu_0_split_1
I0401 12:29:42.596429  1777 net.cpp:408] conv8_2_conv8_2_relu_0_split -> conv8_2_conv8_2_relu_0_split_2
I0401 12:29:42.596437  1777 net.cpp:408] conv8_2_conv8_2_relu_0_split -> conv8_2_conv8_2_relu_0_split_3
I0401 12:29:42.596449  1777 net.cpp:408] conv8_2_conv8_2_relu_0_split -> conv8_2_conv8_2_relu_0_split_4
I0401 12:29:42.596549  1777 net.cpp:150] Setting up conv8_2_conv8_2_relu_0_split
I0401 12:29:42.596560  1777 net.cpp:157] Top shape: 8 256 6 6 (73728)
I0401 12:29:42.596565  1777 net.cpp:157] Top shape: 8 256 6 6 (73728)
I0401 12:29:42.596571  1777 net.cpp:157] Top shape: 8 256 6 6 (73728)
I0401 12:29:42.596576  1777 net.cpp:157] Top shape: 8 256 6 6 (73728)
I0401 12:29:42.596582  1777 net.cpp:157] Top shape: 8 256 6 6 (73728)
I0401 12:29:42.596586  1777 net.cpp:165] Memory required for data: 5490311200
I0401 12:29:42.596591  1777 layer_factory.hpp:77] Creating layer conv9_1
I0401 12:29:42.596604  1777 net.cpp:100] Creating Layer conv9_1
I0401 12:29:42.596611  1777 net.cpp:434] conv9_1 <- conv8_2_conv8_2_relu_0_split_0
I0401 12:29:42.596637  1777 net.cpp:408] conv9_1 -> conv9_1
I0401 12:29:42.597926  1777 net.cpp:150] Setting up conv9_1
I0401 12:29:42.597944  1777 net.cpp:157] Top shape: 8 128 6 6 (36864)
I0401 12:29:42.597955  1777 net.cpp:165] Memory required for data: 5490458656
I0401 12:29:42.597964  1777 layer_factory.hpp:77] Creating layer conv9_1_relu
I0401 12:29:42.597975  1777 net.cpp:100] Creating Layer conv9_1_relu
I0401 12:29:42.597980  1777 net.cpp:434] conv9_1_relu <- conv9_1
I0401 12:29:42.597987  1777 net.cpp:395] conv9_1_relu -> conv9_1 (in-place)
I0401 12:29:42.598325  1777 net.cpp:150] Setting up conv9_1_relu
I0401 12:29:42.598340  1777 net.cpp:157] Top shape: 8 128 6 6 (36864)
I0401 12:29:42.598346  1777 net.cpp:165] Memory required for data: 5490606112
I0401 12:29:42.598352  1777 layer_factory.hpp:77] Creating layer conv9_2
I0401 12:29:42.598366  1777 net.cpp:100] Creating Layer conv9_2
I0401 12:29:42.598372  1777 net.cpp:434] conv9_2 <- conv9_1
I0401 12:29:42.598383  1777 net.cpp:408] conv9_2 -> conv9_2
I0401 12:29:42.602445  1777 net.cpp:150] Setting up conv9_2
I0401 12:29:42.602464  1777 net.cpp:157] Top shape: 8 256 4 4 (32768)
I0401 12:29:42.602473  1777 net.cpp:165] Memory required for data: 5490737184
I0401 12:29:42.602481  1777 layer_factory.hpp:77] Creating layer conv9_2_relu
I0401 12:29:42.602489  1777 net.cpp:100] Creating Layer conv9_2_relu
I0401 12:29:42.602495  1777 net.cpp:434] conv9_2_relu <- conv9_2
I0401 12:29:42.602505  1777 net.cpp:395] conv9_2_relu -> conv9_2 (in-place)
I0401 12:29:42.602831  1777 net.cpp:150] Setting up conv9_2_relu
I0401 12:29:42.602847  1777 net.cpp:157] Top shape: 8 256 4 4 (32768)
I0401 12:29:42.602852  1777 net.cpp:165] Memory required for data: 5490868256
I0401 12:29:42.602859  1777 layer_factory.hpp:77] Creating layer conv9_2_conv9_2_relu_0_split
I0401 12:29:42.602869  1777 net.cpp:100] Creating Layer conv9_2_conv9_2_relu_0_split
I0401 12:29:42.602875  1777 net.cpp:434] conv9_2_conv9_2_relu_0_split <- conv9_2
I0401 12:29:42.602882  1777 net.cpp:408] conv9_2_conv9_2_relu_0_split -> conv9_2_conv9_2_relu_0_split_0
I0401 12:29:42.602893  1777 net.cpp:408] conv9_2_conv9_2_relu_0_split -> conv9_2_conv9_2_relu_0_split_1
I0401 12:29:42.602902  1777 net.cpp:408] conv9_2_conv9_2_relu_0_split -> conv9_2_conv9_2_relu_0_split_2
I0401 12:29:42.602913  1777 net.cpp:408] conv9_2_conv9_2_relu_0_split -> conv9_2_conv9_2_relu_0_split_3
I0401 12:29:42.602999  1777 net.cpp:150] Setting up conv9_2_conv9_2_relu_0_split
I0401 12:29:42.603010  1777 net.cpp:157] Top shape: 8 256 4 4 (32768)
I0401 12:29:42.603016  1777 net.cpp:157] Top shape: 8 256 4 4 (32768)
I0401 12:29:42.603021  1777 net.cpp:157] Top shape: 8 256 4 4 (32768)
I0401 12:29:42.603027  1777 net.cpp:157] Top shape: 8 256 4 4 (32768)
I0401 12:29:42.603031  1777 net.cpp:165] Memory required for data: 5491392544
I0401 12:29:42.603036  1777 layer_factory.hpp:77] Creating layer conv4_3_norm
I0401 12:29:42.603049  1777 net.cpp:100] Creating Layer conv4_3_norm
I0401 12:29:42.603056  1777 net.cpp:434] conv4_3_norm <- conv4_3_relu4_3_0_split_1
I0401 12:29:42.603063  1777 net.cpp:408] conv4_3_norm -> conv4_3_norm
I0401 12:29:42.603251  1777 net.cpp:150] Setting up conv4_3_norm
I0401 12:29:42.603262  1777 net.cpp:157] Top shape: 8 512 64 64 (16777216)
I0401 12:29:42.603267  1777 net.cpp:165] Memory required for data: 5558501408
I0401 12:29:42.603274  1777 layer_factory.hpp:77] Creating layer conv4_3_norm_conv4_3_norm_0_split
I0401 12:29:42.603282  1777 net.cpp:100] Creating Layer conv4_3_norm_conv4_3_norm_0_split
I0401 12:29:42.603287  1777 net.cpp:434] conv4_3_norm_conv4_3_norm_0_split <- conv4_3_norm
I0401 12:29:42.603294  1777 net.cpp:408] conv4_3_norm_conv4_3_norm_0_split -> conv4_3_norm_conv4_3_norm_0_split_0
I0401 12:29:42.603312  1777 net.cpp:408] conv4_3_norm_conv4_3_norm_0_split -> conv4_3_norm_conv4_3_norm_0_split_1
I0401 12:29:42.603323  1777 net.cpp:408] conv4_3_norm_conv4_3_norm_0_split -> conv4_3_norm_conv4_3_norm_0_split_2
I0401 12:29:42.603332  1777 net.cpp:408] conv4_3_norm_conv4_3_norm_0_split -> conv4_3_norm_conv4_3_norm_0_split_3
I0401 12:29:42.603417  1777 net.cpp:150] Setting up conv4_3_norm_conv4_3_norm_0_split
I0401 12:29:42.603430  1777 net.cpp:157] Top shape: 8 512 64 64 (16777216)
I0401 12:29:42.603436  1777 net.cpp:157] Top shape: 8 512 64 64 (16777216)
I0401 12:29:42.603442  1777 net.cpp:157] Top shape: 8 512 64 64 (16777216)
I0401 12:29:42.603447  1777 net.cpp:157] Top shape: 8 512 64 64 (16777216)
I0401 12:29:42.603452  1777 net.cpp:165] Memory required for data: 5826936864
I0401 12:29:42.603457  1777 layer_factory.hpp:77] Creating layer conv4_3_norm_mbox_loc
I0401 12:29:42.603471  1777 net.cpp:100] Creating Layer conv4_3_norm_mbox_loc
I0401 12:29:42.603478  1777 net.cpp:434] conv4_3_norm_mbox_loc <- conv4_3_norm_conv4_3_norm_0_split_0
I0401 12:29:42.603489  1777 net.cpp:408] conv4_3_norm_mbox_loc -> conv4_3_norm_mbox_loc
I0401 12:29:42.605921  1777 net.cpp:150] Setting up conv4_3_norm_mbox_loc
I0401 12:29:42.605940  1777 net.cpp:157] Top shape: 8 16 64 64 (524288)
I0401 12:29:42.605952  1777 net.cpp:165] Memory required for data: 5829034016
I0401 12:29:42.605963  1777 layer_factory.hpp:77] Creating layer conv4_3_norm_mbox_loc_perm
I0401 12:29:42.605983  1777 net.cpp:100] Creating Layer conv4_3_norm_mbox_loc_perm
I0401 12:29:42.605989  1777 net.cpp:434] conv4_3_norm_mbox_loc_perm <- conv4_3_norm_mbox_loc
I0401 12:29:42.606000  1777 net.cpp:408] conv4_3_norm_mbox_loc_perm -> conv4_3_norm_mbox_loc_perm
I0401 12:29:42.606142  1777 net.cpp:150] Setting up conv4_3_norm_mbox_loc_perm
I0401 12:29:42.606153  1777 net.cpp:157] Top shape: 8 64 64 16 (524288)
I0401 12:29:42.606158  1777 net.cpp:165] Memory required for data: 5831131168
I0401 12:29:42.606163  1777 layer_factory.hpp:77] Creating layer conv4_3_norm_mbox_loc_flat
I0401 12:29:42.606178  1777 net.cpp:100] Creating Layer conv4_3_norm_mbox_loc_flat
I0401 12:29:42.606184  1777 net.cpp:434] conv4_3_norm_mbox_loc_flat <- conv4_3_norm_mbox_loc_perm
I0401 12:29:42.606192  1777 net.cpp:408] conv4_3_norm_mbox_loc_flat -> conv4_3_norm_mbox_loc_flat
I0401 12:29:42.606231  1777 net.cpp:150] Setting up conv4_3_norm_mbox_loc_flat
I0401 12:29:42.606241  1777 net.cpp:157] Top shape: 8 65536 (524288)
I0401 12:29:42.606246  1777 net.cpp:165] Memory required for data: 5833228320
I0401 12:29:42.606251  1777 layer_factory.hpp:77] Creating layer conv4_3_norm_mbox_conf
I0401 12:29:42.606273  1777 net.cpp:100] Creating Layer conv4_3_norm_mbox_conf
I0401 12:29:42.606284  1777 net.cpp:434] conv4_3_norm_mbox_conf <- conv4_3_norm_conv4_3_norm_0_split_1
I0401 12:29:42.606292  1777 net.cpp:408] conv4_3_norm_mbox_conf -> conv4_3_norm_mbox_conf
I0401 12:29:42.607908  1777 net.cpp:150] Setting up conv4_3_norm_mbox_conf
I0401 12:29:42.607934  1777 net.cpp:157] Top shape: 8 8 64 64 (262144)
I0401 12:29:42.607940  1777 net.cpp:165] Memory required for data: 5834276896
I0401 12:29:42.607949  1777 layer_factory.hpp:77] Creating layer conv4_3_norm_mbox_conf_perm
I0401 12:29:42.607961  1777 net.cpp:100] Creating Layer conv4_3_norm_mbox_conf_perm
I0401 12:29:42.607967  1777 net.cpp:434] conv4_3_norm_mbox_conf_perm <- conv4_3_norm_mbox_conf
I0401 12:29:42.607975  1777 net.cpp:408] conv4_3_norm_mbox_conf_perm -> conv4_3_norm_mbox_conf_perm
I0401 12:29:42.608113  1777 net.cpp:150] Setting up conv4_3_norm_mbox_conf_perm
I0401 12:29:42.608124  1777 net.cpp:157] Top shape: 8 64 64 8 (262144)
I0401 12:29:42.608129  1777 net.cpp:165] Memory required for data: 5835325472
I0401 12:29:42.608134  1777 layer_factory.hpp:77] Creating layer conv4_3_norm_mbox_conf_flat
I0401 12:29:42.608142  1777 net.cpp:100] Creating Layer conv4_3_norm_mbox_conf_flat
I0401 12:29:42.608149  1777 net.cpp:434] conv4_3_norm_mbox_conf_flat <- conv4_3_norm_mbox_conf_perm
I0401 12:29:42.608158  1777 net.cpp:408] conv4_3_norm_mbox_conf_flat -> conv4_3_norm_mbox_conf_flat
I0401 12:29:42.608191  1777 net.cpp:150] Setting up conv4_3_norm_mbox_conf_flat
I0401 12:29:42.608202  1777 net.cpp:157] Top shape: 8 32768 (262144)
I0401 12:29:42.608207  1777 net.cpp:165] Memory required for data: 5836374048
I0401 12:29:42.608212  1777 layer_factory.hpp:77] Creating layer conv4_3_norm_mbox_clean
I0401 12:29:42.608237  1777 net.cpp:100] Creating Layer conv4_3_norm_mbox_clean
I0401 12:29:42.608247  1777 net.cpp:434] conv4_3_norm_mbox_clean <- conv4_3_norm_conv4_3_norm_0_split_2
I0401 12:29:42.608258  1777 net.cpp:408] conv4_3_norm_mbox_clean -> conv4_3_norm_mbox_clean
I0401 12:29:42.609700  1777 net.cpp:150] Setting up conv4_3_norm_mbox_clean
I0401 12:29:42.609717  1777 net.cpp:157] Top shape: 8 4 64 64 (131072)
I0401 12:29:42.609724  1777 net.cpp:165] Memory required for data: 5836898336
I0401 12:29:42.609732  1777 layer_factory.hpp:77] Creating layer conv4_3_norm_mbox_clean_perm
I0401 12:29:42.609746  1777 net.cpp:100] Creating Layer conv4_3_norm_mbox_clean_perm
I0401 12:29:42.609753  1777 net.cpp:434] conv4_3_norm_mbox_clean_perm <- conv4_3_norm_mbox_clean
I0401 12:29:42.609761  1777 net.cpp:408] conv4_3_norm_mbox_clean_perm -> conv4_3_norm_mbox_clean_perm
I0401 12:29:42.609896  1777 net.cpp:150] Setting up conv4_3_norm_mbox_clean_perm
I0401 12:29:42.609907  1777 net.cpp:157] Top shape: 8 64 64 4 (131072)
I0401 12:29:42.609912  1777 net.cpp:165] Memory required for data: 5837422624
I0401 12:29:42.609917  1777 layer_factory.hpp:77] Creating layer conv4_3_norm_mbox_clean_flat
I0401 12:29:42.609925  1777 net.cpp:100] Creating Layer conv4_3_norm_mbox_clean_flat
I0401 12:29:42.609930  1777 net.cpp:434] conv4_3_norm_mbox_clean_flat <- conv4_3_norm_mbox_clean_perm
I0401 12:29:42.609941  1777 net.cpp:408] conv4_3_norm_mbox_clean_flat -> conv4_3_norm_mbox_clean_flat
I0401 12:29:42.609972  1777 net.cpp:150] Setting up conv4_3_norm_mbox_clean_flat
I0401 12:29:42.609982  1777 net.cpp:157] Top shape: 8 16384 (131072)
I0401 12:29:42.609987  1777 net.cpp:165] Memory required for data: 5837946912
I0401 12:29:42.609992  1777 layer_factory.hpp:77] Creating layer conv4_3_norm_mbox_priorbox
I0401 12:29:42.610003  1777 net.cpp:100] Creating Layer conv4_3_norm_mbox_priorbox
I0401 12:29:42.610011  1777 net.cpp:434] conv4_3_norm_mbox_priorbox <- conv4_3_norm_conv4_3_norm_0_split_3
I0401 12:29:42.610018  1777 net.cpp:434] conv4_3_norm_mbox_priorbox <- data_data_0_split_1
I0401 12:29:42.610028  1777 net.cpp:408] conv4_3_norm_mbox_priorbox -> conv4_3_norm_mbox_priorbox
I0401 12:29:42.610070  1777 net.cpp:150] Setting up conv4_3_norm_mbox_priorbox
I0401 12:29:42.610080  1777 net.cpp:157] Top shape: 1 2 65536 (131072)
I0401 12:29:42.610085  1777 net.cpp:165] Memory required for data: 5838471200
I0401 12:29:42.610090  1777 layer_factory.hpp:77] Creating layer fc7_mbox_loc
I0401 12:29:42.610106  1777 net.cpp:100] Creating Layer fc7_mbox_loc
I0401 12:29:42.610116  1777 net.cpp:434] fc7_mbox_loc <- fc7_relu7_0_split_1
I0401 12:29:42.610123  1777 net.cpp:408] fc7_mbox_loc -> fc7_mbox_loc
I0401 12:29:42.613625  1777 net.cpp:150] Setting up fc7_mbox_loc
I0401 12:29:42.613644  1777 net.cpp:157] Top shape: 8 24 32 32 (196608)
I0401 12:29:42.613651  1777 net.cpp:165] Memory required for data: 5839257632
I0401 12:29:42.613659  1777 layer_factory.hpp:77] Creating layer fc7_mbox_loc_perm
I0401 12:29:42.613672  1777 net.cpp:100] Creating Layer fc7_mbox_loc_perm
I0401 12:29:42.613680  1777 net.cpp:434] fc7_mbox_loc_perm <- fc7_mbox_loc
I0401 12:29:42.613690  1777 net.cpp:408] fc7_mbox_loc_perm -> fc7_mbox_loc_perm
I0401 12:29:42.613827  1777 net.cpp:150] Setting up fc7_mbox_loc_perm
I0401 12:29:42.613840  1777 net.cpp:157] Top shape: 8 32 32 24 (196608)
I0401 12:29:42.613847  1777 net.cpp:165] Memory required for data: 5840044064
I0401 12:29:42.613852  1777 layer_factory.hpp:77] Creating layer fc7_mbox_loc_flat
I0401 12:29:42.613858  1777 net.cpp:100] Creating Layer fc7_mbox_loc_flat
I0401 12:29:42.613864  1777 net.cpp:434] fc7_mbox_loc_flat <- fc7_mbox_loc_perm
I0401 12:29:42.613873  1777 net.cpp:408] fc7_mbox_loc_flat -> fc7_mbox_loc_flat
I0401 12:29:42.613905  1777 net.cpp:150] Setting up fc7_mbox_loc_flat
I0401 12:29:42.613914  1777 net.cpp:157] Top shape: 8 24576 (196608)
I0401 12:29:42.613919  1777 net.cpp:165] Memory required for data: 5840830496
I0401 12:29:42.613924  1777 layer_factory.hpp:77] Creating layer fc7_mbox_conf
I0401 12:29:42.613950  1777 net.cpp:100] Creating Layer fc7_mbox_conf
I0401 12:29:42.613960  1777 net.cpp:434] fc7_mbox_conf <- fc7_relu7_0_split_2
I0401 12:29:42.613968  1777 net.cpp:408] fc7_mbox_conf -> fc7_mbox_conf
I0401 12:29:42.616159  1777 net.cpp:150] Setting up fc7_mbox_conf
I0401 12:29:42.616178  1777 net.cpp:157] Top shape: 8 12 32 32 (98304)
I0401 12:29:42.616185  1777 net.cpp:165] Memory required for data: 5841223712
I0401 12:29:42.616195  1777 layer_factory.hpp:77] Creating layer fc7_mbox_conf_perm
I0401 12:29:42.616205  1777 net.cpp:100] Creating Layer fc7_mbox_conf_perm
I0401 12:29:42.616212  1777 net.cpp:434] fc7_mbox_conf_perm <- fc7_mbox_conf
I0401 12:29:42.616220  1777 net.cpp:408] fc7_mbox_conf_perm -> fc7_mbox_conf_perm
I0401 12:29:42.616360  1777 net.cpp:150] Setting up fc7_mbox_conf_perm
I0401 12:29:42.616371  1777 net.cpp:157] Top shape: 8 32 32 12 (98304)
I0401 12:29:42.616376  1777 net.cpp:165] Memory required for data: 5841616928
I0401 12:29:42.616381  1777 layer_factory.hpp:77] Creating layer fc7_mbox_conf_flat
I0401 12:29:42.616390  1777 net.cpp:100] Creating Layer fc7_mbox_conf_flat
I0401 12:29:42.616396  1777 net.cpp:434] fc7_mbox_conf_flat <- fc7_mbox_conf_perm
I0401 12:29:42.616405  1777 net.cpp:408] fc7_mbox_conf_flat -> fc7_mbox_conf_flat
I0401 12:29:42.616437  1777 net.cpp:150] Setting up fc7_mbox_conf_flat
I0401 12:29:42.616446  1777 net.cpp:157] Top shape: 8 12288 (98304)
I0401 12:29:42.616451  1777 net.cpp:165] Memory required for data: 5842010144
I0401 12:29:42.616456  1777 layer_factory.hpp:77] Creating layer fc7_mbox_clean
I0401 12:29:42.616469  1777 net.cpp:100] Creating Layer fc7_mbox_clean
I0401 12:29:42.616477  1777 net.cpp:434] fc7_mbox_clean <- fc7_relu7_0_split_3
I0401 12:29:42.616487  1777 net.cpp:408] fc7_mbox_clean -> fc7_mbox_clean
I0401 12:29:42.618415  1777 net.cpp:150] Setting up fc7_mbox_clean
I0401 12:29:42.618433  1777 net.cpp:157] Top shape: 8 6 32 32 (49152)
I0401 12:29:42.618444  1777 net.cpp:165] Memory required for data: 5842206752
I0401 12:29:42.618453  1777 layer_factory.hpp:77] Creating layer fc7_mbox_clean_perm
I0401 12:29:42.618464  1777 net.cpp:100] Creating Layer fc7_mbox_clean_perm
I0401 12:29:42.618471  1777 net.cpp:434] fc7_mbox_clean_perm <- fc7_mbox_clean
I0401 12:29:42.618481  1777 net.cpp:408] fc7_mbox_clean_perm -> fc7_mbox_clean_perm
I0401 12:29:42.618623  1777 net.cpp:150] Setting up fc7_mbox_clean_perm
I0401 12:29:42.618638  1777 net.cpp:157] Top shape: 8 32 32 6 (49152)
I0401 12:29:42.618643  1777 net.cpp:165] Memory required for data: 5842403360
I0401 12:29:42.618647  1777 layer_factory.hpp:77] Creating layer fc7_mbox_clean_flat
I0401 12:29:42.618655  1777 net.cpp:100] Creating Layer fc7_mbox_clean_flat
I0401 12:29:42.618661  1777 net.cpp:434] fc7_mbox_clean_flat <- fc7_mbox_clean_perm
I0401 12:29:42.618669  1777 net.cpp:408] fc7_mbox_clean_flat -> fc7_mbox_clean_flat
I0401 12:29:42.618701  1777 net.cpp:150] Setting up fc7_mbox_clean_flat
I0401 12:29:42.618711  1777 net.cpp:157] Top shape: 8 6144 (49152)
I0401 12:29:42.618716  1777 net.cpp:165] Memory required for data: 5842599968
I0401 12:29:42.618721  1777 layer_factory.hpp:77] Creating layer fc7_mbox_priorbox
I0401 12:29:42.618731  1777 net.cpp:100] Creating Layer fc7_mbox_priorbox
I0401 12:29:42.618738  1777 net.cpp:434] fc7_mbox_priorbox <- fc7_relu7_0_split_4
I0401 12:29:42.618746  1777 net.cpp:434] fc7_mbox_priorbox <- data_data_0_split_2
I0401 12:29:42.618753  1777 net.cpp:408] fc7_mbox_priorbox -> fc7_mbox_priorbox
I0401 12:29:42.618787  1777 net.cpp:150] Setting up fc7_mbox_priorbox
I0401 12:29:42.618796  1777 net.cpp:157] Top shape: 1 2 24576 (49152)
I0401 12:29:42.618801  1777 net.cpp:165] Memory required for data: 5842796576
I0401 12:29:42.618805  1777 layer_factory.hpp:77] Creating layer conv6_2_mbox_loc
I0401 12:29:42.618820  1777 net.cpp:100] Creating Layer conv6_2_mbox_loc
I0401 12:29:42.618827  1777 net.cpp:434] conv6_2_mbox_loc <- conv6_2_conv6_2_relu_0_split_1
I0401 12:29:42.618839  1777 net.cpp:408] conv6_2_mbox_loc -> conv6_2_mbox_loc
I0401 12:29:42.621542  1777 net.cpp:150] Setting up conv6_2_mbox_loc
I0401 12:29:42.621562  1777 net.cpp:157] Top shape: 8 24 16 16 (49152)
I0401 12:29:42.621572  1777 net.cpp:165] Memory required for data: 5842993184
I0401 12:29:42.621582  1777 layer_factory.hpp:77] Creating layer conv6_2_mbox_loc_perm
I0401 12:29:42.621592  1777 net.cpp:100] Creating Layer conv6_2_mbox_loc_perm
I0401 12:29:42.621598  1777 net.cpp:434] conv6_2_mbox_loc_perm <- conv6_2_mbox_loc
I0401 12:29:42.621606  1777 net.cpp:408] conv6_2_mbox_loc_perm -> conv6_2_mbox_loc_perm
I0401 12:29:42.621739  1777 net.cpp:150] Setting up conv6_2_mbox_loc_perm
I0401 12:29:42.621750  1777 net.cpp:157] Top shape: 8 16 16 24 (49152)
I0401 12:29:42.621755  1777 net.cpp:165] Memory required for data: 5843189792
I0401 12:29:42.621762  1777 layer_factory.hpp:77] Creating layer conv6_2_mbox_loc_flat
I0401 12:29:42.621769  1777 net.cpp:100] Creating Layer conv6_2_mbox_loc_flat
I0401 12:29:42.621774  1777 net.cpp:434] conv6_2_mbox_loc_flat <- conv6_2_mbox_loc_perm
I0401 12:29:42.621783  1777 net.cpp:408] conv6_2_mbox_loc_flat -> conv6_2_mbox_loc_flat
I0401 12:29:42.621814  1777 net.cpp:150] Setting up conv6_2_mbox_loc_flat
I0401 12:29:42.621825  1777 net.cpp:157] Top shape: 8 6144 (49152)
I0401 12:29:42.621830  1777 net.cpp:165] Memory required for data: 5843386400
I0401 12:29:42.621835  1777 layer_factory.hpp:77] Creating layer conv6_2_mbox_conf
I0401 12:29:42.621847  1777 net.cpp:100] Creating Layer conv6_2_mbox_conf
I0401 12:29:42.621855  1777 net.cpp:434] conv6_2_mbox_conf <- conv6_2_conv6_2_relu_0_split_2
I0401 12:29:42.621865  1777 net.cpp:408] conv6_2_mbox_conf -> conv6_2_mbox_conf
I0401 12:29:42.623651  1777 net.cpp:150] Setting up conv6_2_mbox_conf
I0401 12:29:42.623670  1777 net.cpp:157] Top shape: 8 12 16 16 (24576)
I0401 12:29:42.623675  1777 net.cpp:165] Memory required for data: 5843484704
I0401 12:29:42.623685  1777 layer_factory.hpp:77] Creating layer conv6_2_mbox_conf_perm
I0401 12:29:42.623697  1777 net.cpp:100] Creating Layer conv6_2_mbox_conf_perm
I0401 12:29:42.623703  1777 net.cpp:434] conv6_2_mbox_conf_perm <- conv6_2_mbox_conf
I0401 12:29:42.623711  1777 net.cpp:408] conv6_2_mbox_conf_perm -> conv6_2_mbox_conf_perm
I0401 12:29:42.623845  1777 net.cpp:150] Setting up conv6_2_mbox_conf_perm
I0401 12:29:42.623857  1777 net.cpp:157] Top shape: 8 16 16 12 (24576)
I0401 12:29:42.623862  1777 net.cpp:165] Memory required for data: 5843583008
I0401 12:29:42.623867  1777 layer_factory.hpp:77] Creating layer conv6_2_mbox_conf_flat
I0401 12:29:42.623875  1777 net.cpp:100] Creating Layer conv6_2_mbox_conf_flat
I0401 12:29:42.623880  1777 net.cpp:434] conv6_2_mbox_conf_flat <- conv6_2_mbox_conf_perm
I0401 12:29:42.623890  1777 net.cpp:408] conv6_2_mbox_conf_flat -> conv6_2_mbox_conf_flat
I0401 12:29:42.623924  1777 net.cpp:150] Setting up conv6_2_mbox_conf_flat
I0401 12:29:42.623932  1777 net.cpp:157] Top shape: 8 3072 (24576)
I0401 12:29:42.623942  1777 net.cpp:165] Memory required for data: 5843681312
I0401 12:29:42.623947  1777 layer_factory.hpp:77] Creating layer conv6_2_mbox_clean
I0401 12:29:42.623962  1777 net.cpp:100] Creating Layer conv6_2_mbox_clean
I0401 12:29:42.623970  1777 net.cpp:434] conv6_2_mbox_clean <- conv6_2_conv6_2_relu_0_split_3
I0401 12:29:42.623978  1777 net.cpp:408] conv6_2_mbox_clean -> conv6_2_mbox_clean
I0401 12:29:42.625424  1777 net.cpp:150] Setting up conv6_2_mbox_clean
I0401 12:29:42.625442  1777 net.cpp:157] Top shape: 8 6 16 16 (12288)
I0401 12:29:42.625447  1777 net.cpp:165] Memory required for data: 5843730464
I0401 12:29:42.625473  1777 layer_factory.hpp:77] Creating layer conv6_2_mbox_clean_perm
I0401 12:29:42.625483  1777 net.cpp:100] Creating Layer conv6_2_mbox_clean_perm
I0401 12:29:42.625489  1777 net.cpp:434] conv6_2_mbox_clean_perm <- conv6_2_mbox_clean
I0401 12:29:42.625497  1777 net.cpp:408] conv6_2_mbox_clean_perm -> conv6_2_mbox_clean_perm
I0401 12:29:42.625638  1777 net.cpp:150] Setting up conv6_2_mbox_clean_perm
I0401 12:29:42.625651  1777 net.cpp:157] Top shape: 8 16 16 6 (12288)
I0401 12:29:42.625656  1777 net.cpp:165] Memory required for data: 5843779616
I0401 12:29:42.625674  1777 layer_factory.hpp:77] Creating layer conv6_2_mbox_clean_flat
I0401 12:29:42.625684  1777 net.cpp:100] Creating Layer conv6_2_mbox_clean_flat
I0401 12:29:42.625689  1777 net.cpp:434] conv6_2_mbox_clean_flat <- conv6_2_mbox_clean_perm
I0401 12:29:42.625696  1777 net.cpp:408] conv6_2_mbox_clean_flat -> conv6_2_mbox_clean_flat
I0401 12:29:42.625731  1777 net.cpp:150] Setting up conv6_2_mbox_clean_flat
I0401 12:29:42.625741  1777 net.cpp:157] Top shape: 8 1536 (12288)
I0401 12:29:42.625746  1777 net.cpp:165] Memory required for data: 5843828768
I0401 12:29:42.625751  1777 layer_factory.hpp:77] Creating layer conv6_2_mbox_priorbox
I0401 12:29:42.625762  1777 net.cpp:100] Creating Layer conv6_2_mbox_priorbox
I0401 12:29:42.625767  1777 net.cpp:434] conv6_2_mbox_priorbox <- conv6_2_conv6_2_relu_0_split_4
I0401 12:29:42.625774  1777 net.cpp:434] conv6_2_mbox_priorbox <- data_data_0_split_3
I0401 12:29:42.625782  1777 net.cpp:408] conv6_2_mbox_priorbox -> conv6_2_mbox_priorbox
I0401 12:29:42.625819  1777 net.cpp:150] Setting up conv6_2_mbox_priorbox
I0401 12:29:42.625829  1777 net.cpp:157] Top shape: 1 2 6144 (12288)
I0401 12:29:42.625834  1777 net.cpp:165] Memory required for data: 5843877920
I0401 12:29:42.625839  1777 layer_factory.hpp:77] Creating layer conv7_2_mbox_loc
I0401 12:29:42.625852  1777 net.cpp:100] Creating Layer conv7_2_mbox_loc
I0401 12:29:42.625860  1777 net.cpp:434] conv7_2_mbox_loc <- conv7_2_conv7_2_relu_0_split_1
I0401 12:29:42.625870  1777 net.cpp:408] conv7_2_mbox_loc -> conv7_2_mbox_loc
I0401 12:29:42.628221  1777 net.cpp:150] Setting up conv7_2_mbox_loc
I0401 12:29:42.628238  1777 net.cpp:157] Top shape: 8 24 8 8 (12288)
I0401 12:29:42.628244  1777 net.cpp:165] Memory required for data: 5843927072
I0401 12:29:42.628257  1777 layer_factory.hpp:77] Creating layer conv7_2_mbox_loc_perm
I0401 12:29:42.628268  1777 net.cpp:100] Creating Layer conv7_2_mbox_loc_perm
I0401 12:29:42.628273  1777 net.cpp:434] conv7_2_mbox_loc_perm <- conv7_2_mbox_loc
I0401 12:29:42.628281  1777 net.cpp:408] conv7_2_mbox_loc_perm -> conv7_2_mbox_loc_perm
I0401 12:29:42.628422  1777 net.cpp:150] Setting up conv7_2_mbox_loc_perm
I0401 12:29:42.628434  1777 net.cpp:157] Top shape: 8 8 8 24 (12288)
I0401 12:29:42.628439  1777 net.cpp:165] Memory required for data: 5843976224
I0401 12:29:42.628444  1777 layer_factory.hpp:77] Creating layer conv7_2_mbox_loc_flat
I0401 12:29:42.628451  1777 net.cpp:100] Creating Layer conv7_2_mbox_loc_flat
I0401 12:29:42.628458  1777 net.cpp:434] conv7_2_mbox_loc_flat <- conv7_2_mbox_loc_perm
I0401 12:29:42.628466  1777 net.cpp:408] conv7_2_mbox_loc_flat -> conv7_2_mbox_loc_flat
I0401 12:29:42.628501  1777 net.cpp:150] Setting up conv7_2_mbox_loc_flat
I0401 12:29:42.628511  1777 net.cpp:157] Top shape: 8 1536 (12288)
I0401 12:29:42.628515  1777 net.cpp:165] Memory required for data: 5844025376
I0401 12:29:42.628520  1777 layer_factory.hpp:77] Creating layer conv7_2_mbox_conf
I0401 12:29:42.628533  1777 net.cpp:100] Creating Layer conv7_2_mbox_conf
I0401 12:29:42.628541  1777 net.cpp:434] conv7_2_mbox_conf <- conv7_2_conv7_2_relu_0_split_2
I0401 12:29:42.628551  1777 net.cpp:408] conv7_2_mbox_conf -> conv7_2_mbox_conf
I0401 12:29:42.630190  1777 net.cpp:150] Setting up conv7_2_mbox_conf
I0401 12:29:42.630208  1777 net.cpp:157] Top shape: 8 12 8 8 (6144)
I0401 12:29:42.630214  1777 net.cpp:165] Memory required for data: 5844049952
I0401 12:29:42.630225  1777 layer_factory.hpp:77] Creating layer conv7_2_mbox_conf_perm
I0401 12:29:42.630236  1777 net.cpp:100] Creating Layer conv7_2_mbox_conf_perm
I0401 12:29:42.630242  1777 net.cpp:434] conv7_2_mbox_conf_perm <- conv7_2_mbox_conf
I0401 12:29:42.630250  1777 net.cpp:408] conv7_2_mbox_conf_perm -> conv7_2_mbox_conf_perm
I0401 12:29:42.630398  1777 net.cpp:150] Setting up conv7_2_mbox_conf_perm
I0401 12:29:42.630409  1777 net.cpp:157] Top shape: 8 8 8 12 (6144)
I0401 12:29:42.630414  1777 net.cpp:165] Memory required for data: 5844074528
I0401 12:29:42.630419  1777 layer_factory.hpp:77] Creating layer conv7_2_mbox_conf_flat
I0401 12:29:42.630439  1777 net.cpp:100] Creating Layer conv7_2_mbox_conf_flat
I0401 12:29:42.630448  1777 net.cpp:434] conv7_2_mbox_conf_flat <- conv7_2_mbox_conf_perm
I0401 12:29:42.630457  1777 net.cpp:408] conv7_2_mbox_conf_flat -> conv7_2_mbox_conf_flat
I0401 12:29:42.630496  1777 net.cpp:150] Setting up conv7_2_mbox_conf_flat
I0401 12:29:42.630506  1777 net.cpp:157] Top shape: 8 768 (6144)
I0401 12:29:42.630511  1777 net.cpp:165] Memory required for data: 5844099104
I0401 12:29:42.630515  1777 layer_factory.hpp:77] Creating layer conv7_2_mbox_clean
I0401 12:29:42.630528  1777 net.cpp:100] Creating Layer conv7_2_mbox_clean
I0401 12:29:42.630537  1777 net.cpp:434] conv7_2_mbox_clean <- conv7_2_conv7_2_relu_0_split_3
I0401 12:29:42.630548  1777 net.cpp:408] conv7_2_mbox_clean -> conv7_2_mbox_clean
I0401 12:29:42.632027  1777 net.cpp:150] Setting up conv7_2_mbox_clean
I0401 12:29:42.632045  1777 net.cpp:157] Top shape: 8 6 8 8 (3072)
I0401 12:29:42.632055  1777 net.cpp:165] Memory required for data: 5844111392
I0401 12:29:42.632066  1777 layer_factory.hpp:77] Creating layer conv7_2_mbox_clean_perm
I0401 12:29:42.632076  1777 net.cpp:100] Creating Layer conv7_2_mbox_clean_perm
I0401 12:29:42.632082  1777 net.cpp:434] conv7_2_mbox_clean_perm <- conv7_2_mbox_clean
I0401 12:29:42.632089  1777 net.cpp:408] conv7_2_mbox_clean_perm -> conv7_2_mbox_clean_perm
I0401 12:29:42.632236  1777 net.cpp:150] Setting up conv7_2_mbox_clean_perm
I0401 12:29:42.632246  1777 net.cpp:157] Top shape: 8 8 8 6 (3072)
I0401 12:29:42.632251  1777 net.cpp:165] Memory required for data: 5844123680
I0401 12:29:42.632256  1777 layer_factory.hpp:77] Creating layer conv7_2_mbox_clean_flat
I0401 12:29:42.632264  1777 net.cpp:100] Creating Layer conv7_2_mbox_clean_flat
I0401 12:29:42.632271  1777 net.cpp:434] conv7_2_mbox_clean_flat <- conv7_2_mbox_clean_perm
I0401 12:29:42.632279  1777 net.cpp:408] conv7_2_mbox_clean_flat -> conv7_2_mbox_clean_flat
I0401 12:29:42.632314  1777 net.cpp:150] Setting up conv7_2_mbox_clean_flat
I0401 12:29:42.632323  1777 net.cpp:157] Top shape: 8 384 (3072)
I0401 12:29:42.632328  1777 net.cpp:165] Memory required for data: 5844135968
I0401 12:29:42.632333  1777 layer_factory.hpp:77] Creating layer conv7_2_mbox_priorbox
I0401 12:29:42.632341  1777 net.cpp:100] Creating Layer conv7_2_mbox_priorbox
I0401 12:29:42.632349  1777 net.cpp:434] conv7_2_mbox_priorbox <- conv7_2_conv7_2_relu_0_split_4
I0401 12:29:42.632355  1777 net.cpp:434] conv7_2_mbox_priorbox <- data_data_0_split_4
I0401 12:29:42.632364  1777 net.cpp:408] conv7_2_mbox_priorbox -> conv7_2_mbox_priorbox
I0401 12:29:42.632403  1777 net.cpp:150] Setting up conv7_2_mbox_priorbox
I0401 12:29:42.632413  1777 net.cpp:157] Top shape: 1 2 1536 (3072)
I0401 12:29:42.632417  1777 net.cpp:165] Memory required for data: 5844148256
I0401 12:29:42.632422  1777 layer_factory.hpp:77] Creating layer conv8_2_mbox_loc
I0401 12:29:42.632437  1777 net.cpp:100] Creating Layer conv8_2_mbox_loc
I0401 12:29:42.632446  1777 net.cpp:434] conv8_2_mbox_loc <- conv8_2_conv8_2_relu_0_split_1
I0401 12:29:42.632457  1777 net.cpp:408] conv8_2_mbox_loc -> conv8_2_mbox_loc
I0401 12:29:42.634097  1777 net.cpp:150] Setting up conv8_2_mbox_loc
I0401 12:29:42.634115  1777 net.cpp:157] Top shape: 8 16 6 6 (4608)
I0401 12:29:42.634127  1777 net.cpp:165] Memory required for data: 5844166688
I0401 12:29:42.634136  1777 layer_factory.hpp:77] Creating layer conv8_2_mbox_loc_perm
I0401 12:29:42.634147  1777 net.cpp:100] Creating Layer conv8_2_mbox_loc_perm
I0401 12:29:42.634155  1777 net.cpp:434] conv8_2_mbox_loc_perm <- conv8_2_mbox_loc
I0401 12:29:42.634161  1777 net.cpp:408] conv8_2_mbox_loc_perm -> conv8_2_mbox_loc_perm
I0401 12:29:42.634310  1777 net.cpp:150] Setting up conv8_2_mbox_loc_perm
I0401 12:29:42.634321  1777 net.cpp:157] Top shape: 8 6 6 16 (4608)
I0401 12:29:42.634326  1777 net.cpp:165] Memory required for data: 5844185120
I0401 12:29:42.634331  1777 layer_factory.hpp:77] Creating layer conv8_2_mbox_loc_flat
I0401 12:29:42.634340  1777 net.cpp:100] Creating Layer conv8_2_mbox_loc_flat
I0401 12:29:42.634356  1777 net.cpp:434] conv8_2_mbox_loc_flat <- conv8_2_mbox_loc_perm
I0401 12:29:42.634369  1777 net.cpp:408] conv8_2_mbox_loc_flat -> conv8_2_mbox_loc_flat
I0401 12:29:42.634405  1777 net.cpp:150] Setting up conv8_2_mbox_loc_flat
I0401 12:29:42.634418  1777 net.cpp:157] Top shape: 8 576 (4608)
I0401 12:29:42.634423  1777 net.cpp:165] Memory required for data: 5844203552
I0401 12:29:42.634428  1777 layer_factory.hpp:77] Creating layer conv8_2_mbox_conf
I0401 12:29:42.634441  1777 net.cpp:100] Creating Layer conv8_2_mbox_conf
I0401 12:29:42.634449  1777 net.cpp:434] conv8_2_mbox_conf <- conv8_2_conv8_2_relu_0_split_2
I0401 12:29:42.634457  1777 net.cpp:408] conv8_2_mbox_conf -> conv8_2_mbox_conf
I0401 12:29:42.635848  1777 net.cpp:150] Setting up conv8_2_mbox_conf
I0401 12:29:42.635869  1777 net.cpp:157] Top shape: 8 8 6 6 (2304)
I0401 12:29:42.635875  1777 net.cpp:165] Memory required for data: 5844212768
I0401 12:29:42.635885  1777 layer_factory.hpp:77] Creating layer conv8_2_mbox_conf_perm
I0401 12:29:42.635895  1777 net.cpp:100] Creating Layer conv8_2_mbox_conf_perm
I0401 12:29:42.635901  1777 net.cpp:434] conv8_2_mbox_conf_perm <- conv8_2_mbox_conf
I0401 12:29:42.635911  1777 net.cpp:408] conv8_2_mbox_conf_perm -> conv8_2_mbox_conf_perm
I0401 12:29:42.636059  1777 net.cpp:150] Setting up conv8_2_mbox_conf_perm
I0401 12:29:42.636071  1777 net.cpp:157] Top shape: 8 6 6 8 (2304)
I0401 12:29:42.636077  1777 net.cpp:165] Memory required for data: 5844221984
I0401 12:29:42.636082  1777 layer_factory.hpp:77] Creating layer conv8_2_mbox_conf_flat
I0401 12:29:42.636092  1777 net.cpp:100] Creating Layer conv8_2_mbox_conf_flat
I0401 12:29:42.636098  1777 net.cpp:434] conv8_2_mbox_conf_flat <- conv8_2_mbox_conf_perm
I0401 12:29:42.636106  1777 net.cpp:408] conv8_2_mbox_conf_flat -> conv8_2_mbox_conf_flat
I0401 12:29:42.636142  1777 net.cpp:150] Setting up conv8_2_mbox_conf_flat
I0401 12:29:42.636152  1777 net.cpp:157] Top shape: 8 288 (2304)
I0401 12:29:42.636157  1777 net.cpp:165] Memory required for data: 5844231200
I0401 12:29:42.636162  1777 layer_factory.hpp:77] Creating layer conv8_2_mbox_clean
I0401 12:29:42.636174  1777 net.cpp:100] Creating Layer conv8_2_mbox_clean
I0401 12:29:42.636183  1777 net.cpp:434] conv8_2_mbox_clean <- conv8_2_conv8_2_relu_0_split_3
I0401 12:29:42.636194  1777 net.cpp:408] conv8_2_mbox_clean -> conv8_2_mbox_clean
I0401 12:29:42.637601  1777 net.cpp:150] Setting up conv8_2_mbox_clean
I0401 12:29:42.637621  1777 net.cpp:157] Top shape: 8 4 6 6 (1152)
I0401 12:29:42.637627  1777 net.cpp:165] Memory required for data: 5844235808
I0401 12:29:42.637636  1777 layer_factory.hpp:77] Creating layer conv8_2_mbox_clean_perm
I0401 12:29:42.637645  1777 net.cpp:100] Creating Layer conv8_2_mbox_clean_perm
I0401 12:29:42.637651  1777 net.cpp:434] conv8_2_mbox_clean_perm <- conv8_2_mbox_clean
I0401 12:29:42.637658  1777 net.cpp:408] conv8_2_mbox_clean_perm -> conv8_2_mbox_clean_perm
I0401 12:29:42.637804  1777 net.cpp:150] Setting up conv8_2_mbox_clean_perm
I0401 12:29:42.637816  1777 net.cpp:157] Top shape: 8 6 6 4 (1152)
I0401 12:29:42.637821  1777 net.cpp:165] Memory required for data: 5844240416
I0401 12:29:42.637826  1777 layer_factory.hpp:77] Creating layer conv8_2_mbox_clean_flat
I0401 12:29:42.637836  1777 net.cpp:100] Creating Layer conv8_2_mbox_clean_flat
I0401 12:29:42.637842  1777 net.cpp:434] conv8_2_mbox_clean_flat <- conv8_2_mbox_clean_perm
I0401 12:29:42.637850  1777 net.cpp:408] conv8_2_mbox_clean_flat -> conv8_2_mbox_clean_flat
I0401 12:29:42.637887  1777 net.cpp:150] Setting up conv8_2_mbox_clean_flat
I0401 12:29:42.637897  1777 net.cpp:157] Top shape: 8 144 (1152)
I0401 12:29:42.637902  1777 net.cpp:165] Memory required for data: 5844245024
I0401 12:29:42.637907  1777 layer_factory.hpp:77] Creating layer conv8_2_mbox_priorbox
I0401 12:29:42.637914  1777 net.cpp:100] Creating Layer conv8_2_mbox_priorbox
I0401 12:29:42.637922  1777 net.cpp:434] conv8_2_mbox_priorbox <- conv8_2_conv8_2_relu_0_split_4
I0401 12:29:42.637928  1777 net.cpp:434] conv8_2_mbox_priorbox <- data_data_0_split_5
I0401 12:29:42.637949  1777 net.cpp:408] conv8_2_mbox_priorbox -> conv8_2_mbox_priorbox
I0401 12:29:42.637991  1777 net.cpp:150] Setting up conv8_2_mbox_priorbox
I0401 12:29:42.638001  1777 net.cpp:157] Top shape: 1 2 576 (1152)
I0401 12:29:42.638006  1777 net.cpp:165] Memory required for data: 5844249632
I0401 12:29:42.638011  1777 layer_factory.hpp:77] Creating layer conv9_2_mbox_loc
I0401 12:29:42.638025  1777 net.cpp:100] Creating Layer conv9_2_mbox_loc
I0401 12:29:42.638034  1777 net.cpp:434] conv9_2_mbox_loc <- conv9_2_conv9_2_relu_0_split_0
I0401 12:29:42.638044  1777 net.cpp:408] conv9_2_mbox_loc -> conv9_2_mbox_loc
I0401 12:29:42.639704  1777 net.cpp:150] Setting up conv9_2_mbox_loc
I0401 12:29:42.639722  1777 net.cpp:157] Top shape: 8 16 4 4 (2048)
I0401 12:29:42.639732  1777 net.cpp:165] Memory required for data: 5844257824
I0401 12:29:42.639744  1777 layer_factory.hpp:77] Creating layer conv9_2_mbox_loc_perm
I0401 12:29:42.639752  1777 net.cpp:100] Creating Layer conv9_2_mbox_loc_perm
I0401 12:29:42.639758  1777 net.cpp:434] conv9_2_mbox_loc_perm <- conv9_2_mbox_loc
I0401 12:29:42.639768  1777 net.cpp:408] conv9_2_mbox_loc_perm -> conv9_2_mbox_loc_perm
I0401 12:29:42.639919  1777 net.cpp:150] Setting up conv9_2_mbox_loc_perm
I0401 12:29:42.639935  1777 net.cpp:157] Top shape: 8 4 4 16 (2048)
I0401 12:29:42.639940  1777 net.cpp:165] Memory required for data: 5844266016
I0401 12:29:42.639945  1777 layer_factory.hpp:77] Creating layer conv9_2_mbox_loc_flat
I0401 12:29:42.639953  1777 net.cpp:100] Creating Layer conv9_2_mbox_loc_flat
I0401 12:29:42.639958  1777 net.cpp:434] conv9_2_mbox_loc_flat <- conv9_2_mbox_loc_perm
I0401 12:29:42.639966  1777 net.cpp:408] conv9_2_mbox_loc_flat -> conv9_2_mbox_loc_flat
I0401 12:29:42.640000  1777 net.cpp:150] Setting up conv9_2_mbox_loc_flat
I0401 12:29:42.640009  1777 net.cpp:157] Top shape: 8 256 (2048)
I0401 12:29:42.640014  1777 net.cpp:165] Memory required for data: 5844274208
I0401 12:29:42.640019  1777 layer_factory.hpp:77] Creating layer conv9_2_mbox_conf
I0401 12:29:42.640033  1777 net.cpp:100] Creating Layer conv9_2_mbox_conf
I0401 12:29:42.640040  1777 net.cpp:434] conv9_2_mbox_conf <- conv9_2_conv9_2_relu_0_split_1
I0401 12:29:42.640051  1777 net.cpp:408] conv9_2_mbox_conf -> conv9_2_mbox_conf
I0401 12:29:42.641608  1777 net.cpp:150] Setting up conv9_2_mbox_conf
I0401 12:29:42.641626  1777 net.cpp:157] Top shape: 8 8 4 4 (1024)
I0401 12:29:42.641638  1777 net.cpp:165] Memory required for data: 5844278304
I0401 12:29:42.641647  1777 layer_factory.hpp:77] Creating layer conv9_2_mbox_conf_perm
I0401 12:29:42.641659  1777 net.cpp:100] Creating Layer conv9_2_mbox_conf_perm
I0401 12:29:42.641665  1777 net.cpp:434] conv9_2_mbox_conf_perm <- conv9_2_mbox_conf
I0401 12:29:42.641675  1777 net.cpp:408] conv9_2_mbox_conf_perm -> conv9_2_mbox_conf_perm
I0401 12:29:42.641827  1777 net.cpp:150] Setting up conv9_2_mbox_conf_perm
I0401 12:29:42.641839  1777 net.cpp:157] Top shape: 8 4 4 8 (1024)
I0401 12:29:42.641845  1777 net.cpp:165] Memory required for data: 5844282400
I0401 12:29:42.641850  1777 layer_factory.hpp:77] Creating layer conv9_2_mbox_conf_flat
I0401 12:29:42.641857  1777 net.cpp:100] Creating Layer conv9_2_mbox_conf_flat
I0401 12:29:42.641863  1777 net.cpp:434] conv9_2_mbox_conf_flat <- conv9_2_mbox_conf_perm
I0401 12:29:42.641870  1777 net.cpp:408] conv9_2_mbox_conf_flat -> conv9_2_mbox_conf_flat
I0401 12:29:42.641904  1777 net.cpp:150] Setting up conv9_2_mbox_conf_flat
I0401 12:29:42.641914  1777 net.cpp:157] Top shape: 8 128 (1024)
I0401 12:29:42.641919  1777 net.cpp:165] Memory required for data: 5844286496
I0401 12:29:42.641923  1777 layer_factory.hpp:77] Creating layer conv9_2_mbox_clean
I0401 12:29:42.641937  1777 net.cpp:100] Creating Layer conv9_2_mbox_clean
I0401 12:29:42.641945  1777 net.cpp:434] conv9_2_mbox_clean <- conv9_2_conv9_2_relu_0_split_2
I0401 12:29:42.641954  1777 net.cpp:408] conv9_2_mbox_clean -> conv9_2_mbox_clean
I0401 12:29:42.643497  1777 net.cpp:150] Setting up conv9_2_mbox_clean
I0401 12:29:42.643520  1777 net.cpp:157] Top shape: 8 4 4 4 (512)
I0401 12:29:42.643544  1777 net.cpp:165] Memory required for data: 5844288544
I0401 12:29:42.643560  1777 layer_factory.hpp:77] Creating layer conv9_2_mbox_clean_perm
I0401 12:29:42.643604  1777 net.cpp:100] Creating Layer conv9_2_mbox_clean_perm
I0401 12:29:42.643615  1777 net.cpp:434] conv9_2_mbox_clean_perm <- conv9_2_mbox_clean
I0401 12:29:42.643630  1777 net.cpp:408] conv9_2_mbox_clean_perm -> conv9_2_mbox_clean_perm
I0401 12:29:42.643848  1777 net.cpp:150] Setting up conv9_2_mbox_clean_perm
I0401 12:29:42.643863  1777 net.cpp:157] Top shape: 8 4 4 4 (512)
I0401 12:29:42.643869  1777 net.cpp:165] Memory required for data: 5844290592
I0401 12:29:42.643874  1777 layer_factory.hpp:77] Creating layer conv9_2_mbox_clean_flat
I0401 12:29:42.643884  1777 net.cpp:100] Creating Layer conv9_2_mbox_clean_flat
I0401 12:29:42.643890  1777 net.cpp:434] conv9_2_mbox_clean_flat <- conv9_2_mbox_clean_perm
I0401 12:29:42.643898  1777 net.cpp:408] conv9_2_mbox_clean_flat -> conv9_2_mbox_clean_flat
I0401 12:29:42.643935  1777 net.cpp:150] Setting up conv9_2_mbox_clean_flat
I0401 12:29:42.643951  1777 net.cpp:157] Top shape: 8 64 (512)
I0401 12:29:42.643956  1777 net.cpp:165] Memory required for data: 5844292640
I0401 12:29:42.643961  1777 layer_factory.hpp:77] Creating layer conv9_2_mbox_priorbox
I0401 12:29:42.643971  1777 net.cpp:100] Creating Layer conv9_2_mbox_priorbox
I0401 12:29:42.643977  1777 net.cpp:434] conv9_2_mbox_priorbox <- conv9_2_conv9_2_relu_0_split_3
I0401 12:29:42.643983  1777 net.cpp:434] conv9_2_mbox_priorbox <- data_data_0_split_6
I0401 12:29:42.643991  1777 net.cpp:408] conv9_2_mbox_priorbox -> conv9_2_mbox_priorbox
I0401 12:29:42.644028  1777 net.cpp:150] Setting up conv9_2_mbox_priorbox
I0401 12:29:42.644038  1777 net.cpp:157] Top shape: 1 2 256 (512)
I0401 12:29:42.644043  1777 net.cpp:165] Memory required for data: 5844294688
I0401 12:29:42.644048  1777 layer_factory.hpp:77] Creating layer mbox_loc
I0401 12:29:42.644064  1777 net.cpp:100] Creating Layer mbox_loc
I0401 12:29:42.644073  1777 net.cpp:434] mbox_loc <- conv4_3_norm_mbox_loc_flat
I0401 12:29:42.644081  1777 net.cpp:434] mbox_loc <- fc7_mbox_loc_flat
I0401 12:29:42.644088  1777 net.cpp:434] mbox_loc <- conv6_2_mbox_loc_flat
I0401 12:29:42.644094  1777 net.cpp:434] mbox_loc <- conv7_2_mbox_loc_flat
I0401 12:29:42.644100  1777 net.cpp:434] mbox_loc <- conv8_2_mbox_loc_flat
I0401 12:29:42.644106  1777 net.cpp:434] mbox_loc <- conv9_2_mbox_loc_flat
I0401 12:29:42.644115  1777 net.cpp:408] mbox_loc -> mbox_loc
I0401 12:29:42.644171  1777 net.cpp:150] Setting up mbox_loc
I0401 12:29:42.644182  1777 net.cpp:157] Top shape: 8 98624 (788992)
I0401 12:29:42.644187  1777 net.cpp:165] Memory required for data: 5847450656
I0401 12:29:42.644192  1777 layer_factory.hpp:77] Creating layer mbox_conf
I0401 12:29:42.644202  1777 net.cpp:100] Creating Layer mbox_conf
I0401 12:29:42.644208  1777 net.cpp:434] mbox_conf <- conv4_3_norm_mbox_conf_flat
I0401 12:29:42.644215  1777 net.cpp:434] mbox_conf <- fc7_mbox_conf_flat
I0401 12:29:42.644223  1777 net.cpp:434] mbox_conf <- conv6_2_mbox_conf_flat
I0401 12:29:42.644229  1777 net.cpp:434] mbox_conf <- conv7_2_mbox_conf_flat
I0401 12:29:42.644234  1777 net.cpp:434] mbox_conf <- conv8_2_mbox_conf_flat
I0401 12:29:42.644240  1777 net.cpp:434] mbox_conf <- conv9_2_mbox_conf_flat
I0401 12:29:42.644248  1777 net.cpp:408] mbox_conf -> mbox_conf
I0401 12:29:42.644281  1777 net.cpp:150] Setting up mbox_conf
I0401 12:29:42.644290  1777 net.cpp:157] Top shape: 8 49312 (394496)
I0401 12:29:42.644295  1777 net.cpp:165] Memory required for data: 5849028640
I0401 12:29:42.644300  1777 layer_factory.hpp:77] Creating layer mbox_priorbox
I0401 12:29:42.644307  1777 net.cpp:100] Creating Layer mbox_priorbox
I0401 12:29:42.644314  1777 net.cpp:434] mbox_priorbox <- conv4_3_norm_mbox_priorbox
I0401 12:29:42.644320  1777 net.cpp:434] mbox_priorbox <- fc7_mbox_priorbox
I0401 12:29:42.644326  1777 net.cpp:434] mbox_priorbox <- conv6_2_mbox_priorbox
I0401 12:29:42.644332  1777 net.cpp:434] mbox_priorbox <- conv7_2_mbox_priorbox
I0401 12:29:42.644347  1777 net.cpp:434] mbox_priorbox <- conv8_2_mbox_priorbox
I0401 12:29:42.644354  1777 net.cpp:434] mbox_priorbox <- conv9_2_mbox_priorbox
I0401 12:29:42.644362  1777 net.cpp:408] mbox_priorbox -> mbox_priorbox
I0401 12:29:42.644402  1777 net.cpp:150] Setting up mbox_priorbox
I0401 12:29:42.644412  1777 net.cpp:157] Top shape: 1 2 98624 (197248)
I0401 12:29:42.644417  1777 net.cpp:165] Memory required for data: 5849817632
I0401 12:29:42.644423  1777 layer_factory.hpp:77] Creating layer mbox_clean
I0401 12:29:42.644429  1777 net.cpp:100] Creating Layer mbox_clean
I0401 12:29:42.644436  1777 net.cpp:434] mbox_clean <- conv4_3_norm_mbox_clean_flat
I0401 12:29:42.644443  1777 net.cpp:434] mbox_clean <- fc7_mbox_clean_flat
I0401 12:29:42.644450  1777 net.cpp:434] mbox_clean <- conv6_2_mbox_clean_flat
I0401 12:29:42.644456  1777 net.cpp:434] mbox_clean <- conv7_2_mbox_clean_flat
I0401 12:29:42.644461  1777 net.cpp:434] mbox_clean <- conv8_2_mbox_clean_flat
I0401 12:29:42.644467  1777 net.cpp:434] mbox_clean <- conv9_2_mbox_clean_flat
I0401 12:29:42.644474  1777 net.cpp:408] mbox_clean -> mbox_clean
I0401 12:29:42.644510  1777 net.cpp:150] Setting up mbox_clean
I0401 12:29:42.644520  1777 net.cpp:157] Top shape: 8 24656 (197248)
I0401 12:29:42.644526  1777 net.cpp:165] Memory required for data: 5850606624
I0401 12:29:42.644531  1777 layer_factory.hpp:77] Creating layer mbox_loss
I0401 12:29:42.644546  1777 net.cpp:100] Creating Layer mbox_loss
I0401 12:29:42.644552  1777 net.cpp:434] mbox_loss <- mbox_loc
I0401 12:29:42.644559  1777 net.cpp:434] mbox_loss <- mbox_conf
I0401 12:29:42.644564  1777 net.cpp:434] mbox_loss <- mbox_priorbox
…
  top: "label"
  include {
    phase: TEST
  }
  transform_param {
    mean_value: 104
    mean_value: 117
    mean_value: 123
    force_color: true
    resize_param {
      prob: 1
      resize_mode: WARP
      height: 512
      width: 512
      interp_mode: LINEAR
    }
  }
  data_param {
    source: "/data/siyu/dataset/coco/lmdb/COCO_Val2014_person_lmdb"
    batch_size: 2
    backend: LMDB
  }
  annotated_data_param {
    batch_sampler {
    }
    label_map_file: "/data/siyu/dataset/coco/labelmap_coco-person.prototxt"
    part_sampler_prob: 0
  }
}
layer {
  name: "conv1_1"
  type: "Convolution"
  bottom: "data"
  top: "conv1_1"
  param {
    lr_mult: 1
    decay_mult: 1
  }
  param {
    lr_mult: 2
    decay_mult: 0
  }
  convolution_param {
    num_output: 64
    pad: 1
    kernel_size: 3
    weight_filler {
      type: "xavier"
    }
    bias_filler {
      type: "constant"
      value: 0
    }
  }
}
layer {
  name: "relu1_1"
  type: "ReLU"
  bottom: "conv1_1"
  top: "conv1_1"
}
layer {
  name: "conv1_2"
  type: "Convolution"
  bottom: "conv1_1"
  top: "conv1_2"
  param {
    lr_mult: 1
    decay_mult: 1
  }
  param {
    lr_mult: 2
    decay_mult: 0
  }
  convolution_param {
    num_output: 64
    pad: 1
    kernel_size: 3
    weight_filler {
      type: "xavier"
    }
    bias_filler {
      type: "constant"
      value: 0
    }
  }
}
layer {
  name: "relu1_2"
  type: "ReLU"
  bottom: "conv1_2"
  top: "conv1_2"
}
layer {
  name: "pool1"
  type: "Pooling"
  bottom: "conv1_2"
  top: "pool1"
  pooling_param {
    pool: MAX
    kernel_size: 2
    stride: 2
  }
}
layer {
  name: "conv2_1"
  type: "Convolution"
  bottom: "pool1"
  top: "conv2_1"
  param {
    lr_mult: 1
    decay_mult: 1
  }
  param {
    lr_mult: 2
    decay_mult: 0
  }
  convolution_param {
    num_output: 128
    pad: 1
    kernel_size: 3
    weight_filler {
      type: "xavier"
    }
    bias_filler {
      type: "constant"
      value: 0
    }
  }
}
layer {
  name: "relu2_1"
  type: "ReLU"
  bottom: "conv2_1"
  top: "conv2_1"
}
layer {
  name: "conv2_2"
  type: "Convolution"
  bottom: "conv2_1"
  top: "conv2_2"
  param {
    lr_mult: 1
    decay_mult: 1
  }
  param {
    lr_mult: 2
    decay_mult: 0
  }
  convolution_param {
    num_output: 128
    pad: 1
    kernel_size: 3
    weight_filler {
      type: "xavier"
    }
    bias_filler {
      type: "constant"
      value: 0
    }
  }
}
layer {
  name: "relu2_2"
  type: "ReLU"
  bottom: "conv2_2"
  top: "conv2_2"
}
layer {
  name: "pool2"
  type: "Pooling"
  bottom: "conv2_2"
  top: "pool2"
  pooling_param {
    pool: MAX
    kernel_size: 2
    stride: 2
  }
}
layer {
  name: "conv3_1"
  type: "Convolution"
  bottom: "pool2"
  top: "conv3_1"
  param {
    lr_mult: 1
    decay_mult: 1
  }
  param {
    lr_mult: 2
    decay_mult: 0
  }
  convolution_param {
    num_output: 256
    pad: 1
    kernel_size: 3
    weight_filler {
      type: "xavier"
    }
    bias_filler {
      type: "constant"
      value: 0
    }
  }
}
layer {
  name: "relu3_1"
  type: "ReLU"
  bottom: "conv3_1"
  top: "conv3_1"
}
layer {
  name: "conv3_2"
  type: "Convolution"
  bottom: "conv3_1"
  top: "conv3_2"
  param {
    lr_mult: 1
    decay_mult: 1
  }
  param {
    lr_mult: 2
    decay_mult: 0
  }
  convolution_param {
    num_output: 256
    pad: 1
    kernel_size: 3
    weight_filler {
      type: "xavier"
    }
    bias_filler {
      type: "constant"
      value: 0
    }
  }
}
layer {
  name: "relu3_2"
  type: "ReLU"
  bottom: "conv3_2"
  top: "conv3_2"
}
layer {
  name: "conv3_3"
  type: "Convolution"
  bottom: "conv3_2"
  top: "conv3_3"
  param {
    lr_mult: 1
    decay_mult: 1
  }
  param {
    lr_mult: 2
    decay_mult: 0
  }
  convolution_param {
    num_output: 256
    pad: 1
    kernel_size: 3
    weight_filler {
      type: "xavier"
    }
    bias_filler {
      type: "constant"
      value: 0
    }
  }
}
layer {
  name: "relu3_3"
  type: "ReLU"
  bottom: "conv3_3"
  top: "conv3_3"
}
layer {
  name: "pool3"
  type: "Pooling"
  bottom: "conv3_3"
  top: "pool3"
  pooling_param {
    pool: MAX
    kernel_size: 2
    stride: 2
  }
}
layer {
  name: "conv4_1"
  type: "Convolution"
  bottom: "pool3"
  top: "conv4_1"
  param {
    lr_mult: 1
    decay_mult: 1
  }
  param {
    lr_mult: 2
    decay_mult: 0
  }
  convolution_param {
    num_output: 512
    pad: 1
    kernel_size: 3
    weight_filler {
      type: "xavier"
    }
    bias_filler {
      type: "constant"
      value: 0
    }
  }
}
layer {
  name: "relu4_1"
  type: "ReLU"
  bottom: "conv4_1"
  top: "conv4_1"
}
layer {
  name: "conv4_2"
  type: "Convolution"
  bottom: "conv4_1"
  top: "conv4_2"
  param {
    lr_mult: 1
    decay_mult: 1
  }
  param {
    lr_mult: 2
    decay_mult: 0
  }
  convolution_param {
    num_output: 512
    pad: 1
    kernel_size: 3
    weight_filler {
      type: "xavier"
    }
    bias_filler {
      type: "constant"
      value: 0
    }
  }
}
layer {
  name: "relu4_2"
  type: "ReLU"
  bottom: "conv4_2"
  top: "conv4_2"
}
layer {
  name: "conv4_3"
  type: "Convolution"
  bottom: "conv4_2"
  top: "conv4_3"
  param {
    lr_mult: 1
    decay_mult: 1
  }
  param {
    lr_mult: 2
    decay_mult: 0
  }
  convolution_param {
    num_output: 512
    pad: 1
    kernel_size: 3
    weight_filler {
      type: "xavier"
    }
    bias_filler {
      type: "constant"
      value: 0
    }
  }
}
layer {
  name: "relu4_3"
  type: "ReLU"
  bottom: "conv4_3"
  top: "conv4_3"
}
layer {
  name: "pool4"
  type: "Pooling"
  bottom: "conv4_3"
  top: "pool4"
  pooling_param {
    pool: MAX
    kernel_size: 2
    stride: 2
  }
}
layer {
  name: "conv5_1"
  type: "Convolution"
  bottom: "pool4"
  top: "conv5_1"
  param {
    lr_mult: 1
    decay_mult: 1
  }
  param {
    lr_mult: 2
    decay_mult: 0
  }
  convolution_param {
    num_output: 512
    pad: 1
    kernel_size: 3
    weight_filler {
      type: "xavier"
    }
    bias_filler {
      type: "constant"
      value: 0
    }
    dilation: 1
  }
}
layer {
  name: "relu5_1"
  type: "ReLU"
  bottom: "conv5_1"
  top: "conv5_1"
}
layer {
  name: "conv5_2"
  type: "Convolution"
  bottom: "conv5_1"
  top: "conv5_2"
  param {
    lr_mult: 1
    decay_mult: 1
  }
  param {
    lr_mult: 2
    decay_mult: 0
  }
  convolution_param {
    num_output: 512
    pad: 1
    kernel_size: 3
    weight_filler {
      type: "xavier"
    }
    bias_filler {
      type: "constant"
      value: 0
    }
    dilation: 1
  }
}
layer {
  name: "relu5_2"
  type: "ReLU"
  bottom: "conv5_2"
  top: "conv5_2"
}
layer {
  name: "conv5_3"
  type: "Convolution"
  bottom: "conv5_2"
  top: "conv5_3"
  param {
    lr_mult: 1
    decay_mult: 1
  }
  param {
    lr_mult: 2
    decay_mult: 0
  }
  convolution_param {
    num_output: 512
    pad: 1
    kernel_size: 3
    weight_filler {
      type: "xavier"
    }
    bias_filler {
      type: "constant"
      value: 0
    }
    dilation: 1
  }
}
layer {
  name: "relu5_3"
  type: "ReLU"
  bottom: "conv5_3"
  top: "conv5_3"
}
layer {
  name: "pool5"
  type: "Pooling"
  bottom: "conv5_3"
  top: "pool5"
  pooling_param {
    pool: MAX
    kernel_size: 3
    stride: 1
    pad: 1
  }
}
layer {
  name: "fc6"
  type: "Convolution"
  bottom: "pool5"
  top: "fc6"
  param {
    lr_mult: 1
    decay_mult: 1
  }
  param {
    lr_mult: 2
    decay_mult: 0
  }
  convolution_param {
    num_output: 1024
    pad: 6
    kernel_size: 3
    weight_filler {
      type: "xavier"
    }
    bias_filler {
      type: "constant"
      value: 0
    }
    dilation: 6
  }
}
layer {
  name: "relu6"
  type: "ReLU"
  bottom: "fc6"
  top: "fc6"
}
layer {
  name: "fc7"
  type: "Convolution"
  bottom: "fc6"
  top: "fc7"
  param {
    lr_mult: 1
    decay_mult: 1
  }
  param {
    lr_mult: 2
    decay_mult: 0
  }
  convolution_param {
    num_output: 1024
    kernel_size: 1
    weight_filler {
      type: "xavier"
    }
    bias_filler {
      type: "constant"
      value: 0
    }
  }
}
layer {
  name: "relu7"
  type: "ReLU"
  bottom: "fc7"
  top: "fc7"
}
layer {
  name: "conv6_1"
  type: "Convolution"
  bottom: "fc7"
  top: "conv6_1"
  param {
    lr_mult: 1
    decay_mult: 1
  }
  param {
    lr_mult: 2
    decay_mult: 0
  }
  convolution_param {
    num_output: 256
    pad: 0
    kernel_size: 1
    stride: 1
    weight_filler {
      type: "xavier"
    }
    bias_filler {
      type: "constant"
      value: 0
    }
  }
}
layer {
  name: "conv6_1_relu"
  type: "ReLU"
  bottom: "conv6_1"
  top: "conv6_1"
}
layer {
  name: "conv6_2"
  type: "Convolution"
  bottom: "conv6_1"
  top: "conv6_2"
  param {
    lr_mult: 1
    decay_mult: 1
  }
  param {
    lr_mult: 2
    decay_mult: 0
  }
  convolution_param {
    num_output: 512
    pad: 1
    kernel_size: 3
    stride: 2
    weight_filler {
      type: "xavier"
    }
    bias_filler {
      type: "constant"
      value: 0
    }
  }
}
layer {
  name: "conv6_2_relu"
  type: "ReLU"
  bottom: "conv6_2"
  top: "conv6_2"
}
layer {
  name: "conv7_1"
  type: "Convolution"
  bottom: "conv6_2"
  top: "conv7_1"
  param {
    lr_mult: 1
    decay_mult: 1
  }
  param {
    lr_mult: 2
    decay_mult: 0
  }
  convolution_param {
    num_output: 128
    pad: 0
    kernel_size: 1
    stride: 1
    weight_filler {
      type: "xavier"
    }
    bias_filler {
      type: "constant"
      value: 0
    }
  }
}
layer {
  name: "conv7_1_relu"
  type: "ReLU"
  bottom: "conv7_1"
  top: "conv7_1"
}
layer {
  name: "conv7_2"
  type: "Convolution"
  bottom: "conv7_1"
  top: "conv7_2"
  param {
    lr_mult: 1
    decay_mult: 1
  }
  param {
    lr_mult: 2
    decay_mult: 0
  }
  convolution_param {
    num_output: 256
    pad: 1
    kernel_size: 3
    stride: 2
    weight_filler {
      type: "xavier"
    }
    bias_filler {
      type: "constant"
      value: 0
    }
  }
}
layer {
  name: "conv7_2_relu"
  type: "ReLU"
  bottom: "conv7_2"
  top: "conv7_2"
}
layer {
  name: "conv8_1"
  type: "Convolution"
  bottom: "conv7_2"
  top: "conv8_1"
  param {
    lr_mult: 1
    decay_mult: 1
  }
  param {
    lr_mult: 2
    decay_mult: 0
  }
  convolution_param {
    num_output: 128
    pad: 0
    kernel_size: 1
    stride: 1
    weight_filler {
      type: "xavier"
    }
    bias_filler {
      type: "constant"
      value: 0
    }
  }
}
layer {
  name: "conv8_1_relu"
  type: "ReLU"
  bottom: "conv8_1"
  top: "conv8_1"
}
layer {
  name: "conv8_2"
  type: "Convolution"
  bottom: "conv8_1"
  top: "conv8_2"
  param {
    lr_mult: 1
    decay_mult: 1
  }
  param {
    lr_mult: 2
    decay_mult: 0
  }
  convolution_param {
    num_output: 256
    pad: 0
    kernel_size: 3
    stride: 1
    weight_filler {
      type: "xavier"
    }
    bias_filler {
      type: "constant"
      value: 0
    }
  }
}
layer {
  name: "conv8_2_relu"
  type: "ReLU"
  bottom: "conv8_2"
  top: "conv8_2"
}
layer {
  name: "conv9_1"
  type: "Convolution"
  bottom: "conv8_2"
  top: "conv9_1"
  param {
    lr_mult: 1
    decay_mult: 1
  }
  param {
    lr_mult: 2
    decay_mult: 0
  }
  convolution_param {
    num_output: 128
    pad: 0
    kernel_size: 1
    stride: 1
    weight_filler {
      type: "xavier"
    }
    bias_filler {
      type: "constant"
      value: 0
    }
  }
}
layer {
  name: "conv9_1_relu"
  type: "ReLU"
  bottom: "conv9_1"
  top: "conv9_1"
}
layer {
  name: "conv9_2"
  type: "Convolution"
  bottom: "conv9_1"
  top: "conv9_2"
  param {
    lr_mult: 1
    decay_mult: 1
  }
  param {
    lr_mult: 2
    decay_mult: 0
  }
  convolution_param {
    num_output: 256
    pad: 0
    kernel_size: 3
    stride: 1
    weight_filler {
      type: "xavier"
    }
    bias_filler {
      type: "constant"
      value: 0
    }
  }
}
layer {
  name: "conv9_2_relu"
  type: "ReLU"
  bottom: "conv9_2"
  top: "conv9_2"
}
layer {
  name: "conv4_3_norm"
  type: "Normalize"
  bottom: "conv4_3"
  top: "conv4_3_norm"
  norm_param {
    across_spatial: false
    scale_filler {
      type: "constant"
      value: 20
    }
    channel_shared: false
  }
}
layer {
  name: "conv4_3_norm_mbox_loc"
  type: "Convolution"
  bottom: "conv4_3_norm"
  top: "conv4_3_norm_mbox_loc"
  param {
    lr_mult: 1
    decay_mult: 1
  }
  param {
    lr_mult: 2
    decay_mult: 0
  }
  convolution_param {
    num_output: 16
    pad: 1
    kernel_size: 3
    stride: 1
    weight_filler {
      type: "xavier"
    }
    bias_filler {
      type: "constant"
      value: 0
    }
  }
}
layer {
  name: "conv4_3_norm_mbox_loc_perm"
  type: "Permute"
  bottom: "conv4_3_norm_mbox_loc"
  top: "conv4_3_norm_mbox_loc_perm"
  permute_param {
    order: 0
    order: 2
    order: 3
    order: 1
  }
}
layer {
  name: "conv4_3_norm_mbox_loc_flat"
  type: "Flatten"
  bottom: "conv4_3_norm_mbox_loc_perm"
  top: "conv4_3_norm_mbox_loc_flat"
  flatten_param {
    axis: 1
  }
}
layer {
  name: "conv4_3_norm_mbox_conf"
  type: "Convolution"
  bottom: "conv4_3_norm"
  top: "conv4_3_norm_mbox_conf"
  param {
    lr_mult: 1
    decay_mult: 1
  }
  param {
    lr_mult: 2
    decay_mult: 0
  }
  convolution_param {
    num_output: 8
    pad: 1
    kernel_size: 3
    stride: 1
    weight_filler {
      type: "xavier"
    }
    bias_filler {
      type: "constant"
      value: 0
    }
  }
}
layer {
  name: "conv4_3_norm_mbox_conf_perm"
  type: "Permute"
  bottom: "conv4_3_norm_mbox_conf"
  top: "conv4_3_norm_mbox_conf_perm"
  permute_param {
    order: 0
    order: 2
    order: 3
    order: 1
  }
}
layer {
  name: "conv4_3_norm_mbox_conf_flat"
  type: "Flatten"
  bottom: "conv4_3_norm_mbox_conf_perm"
  top: "conv4_3_norm_mbox_conf_flat"
  flatten_param {
    axis: 1
  }
}
layer {
  name: "conv4_3_norm_mbox_clean"
  type: "Convolution"
  bottom: "conv4_3_norm"
  top: "conv4_3_norm_mbox_clean"
  param {
    lr_mult: 1
    decay_mult: 1
  }
  param {
    lr_mult: 2
    decay_mult: 0
  }
  convolution_param {
    num_output: 4
    pad: 1
    kernel_size: 3
    stride: 1
    weight_filler {
      type: "xavier"
    }
    bias_filler {
      type: "constant"
      value: 0
    }
  }
}
layer {
  name: "conv4_3_norm_mbox_clean_perm"
  type: "Permute"
  bottom: "conv4_3_norm_mbox_clean"
  top: "conv4_3_norm_mbox_clean_perm"
  permute_param {
    order: 0
    order: 2
    order: 3
    order: 1
  }
}
layer {
  name: "conv4_3_norm_mbox_clean_flat"
  type: "Flatten"
  bottom: "conv4_3_norm_mbox_clean_perm"
  top: "conv4_3_norm_mbox_clean_flat"
  flatten_param {
    axis: 1
  }
}
layer {
  name: "conv4_3_norm_mbox_priorbox"
  type: "PriorBox"
  bottom: "conv4_3_norm"
  bottom: "data"
  top: "conv4_3_norm_mbox_priorbox"
  prior_box_param {
    min_size: 35.84
    max_size: 76.8
    aspect_ratio: 2
    flip: true
    clip: false
    variance: 0.1
    variance: 0.1
    variance: 0.2
    variance: 0.2
    step: 8
    offset: 0.5
  }
}
layer {
  name: "fc7_mbox_loc"
  type: "Convolution"
  bottom: "fc7"
  top: "fc7_mbox_loc"
  param {
    lr_mult: 1
    decay_mult: 1
  }
  param {
    lr_mult: 2
    decay_mult: 0
  }
  convolution_param {
    num_output: 24
    pad: 1
    kernel_size: 3
    stride: 1
    weight_filler {
      type: "xavier"
    }
    bias_filler {
      type: "constant"
      value: 0
    }
  }
}
layer {
  name: "fc7_mbox_loc_perm"
  type: "Permute"
  bottom: "fc7_mbox_loc"
  top: "fc7_mbox_loc_perm"
  permute_param {
    order: 0
    order: 2
    order: 3
    order: 1
  }
}
layer {
  name: "fc7_mbox_loc_flat"
  type: "Flatten"
  bottom: "fc7_mbox_loc_perm"
  top: "fc7_mbox_loc_flat"
  flatten_param {
    axis: 1
  }
}
layer {
  name: "fc7_mbox_conf"
  type: "Convolution"
  bottom: "fc7"
  top: "fc7_mbox_conf"
  param {
    lr_mult: 1
    decay_mult: 1
  }
  param {
    lr_mult: 2
    decay_mult: 0
  }
  convolution_param {
    num_output: 12
    pad: 1
    kernel_size: 3
    stride: 1
    weight_filler {
      type: "xavier"
    }
    bias_filler {
      type: "constant"
      value: 0
    }
  }
}
layer {
  name: "fc7_mbox_conf_perm"
  type: "Permute"
  bottom: "fc7_mbox_conf"
  top: "fc7_mbox_conf_perm"
  permute_param {
    order: 0
    order: 2
    order: 3
    order: 1
  }
}
layer {
  name: "fc7_mbox_conf_flat"
  type: "Flatten"
  bottom: "fc7_mbox_conf_perm"
  top: "fc7_mbox_conf_flat"
  flatten_param {
    axis: 1
  }
}
layer {
  name: "fc7_mbox_clean"
  type: "Convolution"
  bottom: "fc7"
  top: "fc7_mbox_clean"
  param {
    lr_mult: 1
    decay_mult: 1
  }
  param {
    lr_mult: 2
    decay_mult: 0
  }
  convolution_param {
    num_output: 6
    pad: 1
    kernel_size: 3
    stride: 1
    weight_filler {
      type: "xavier"
    }
    bias_filler {
      type: "constant"
      value: 0
    }
  }
}
layer {
  name: "fc7_mbox_clean_perm"
  type: "Permute"
  bottom: "fc7_mbox_clean"
  top: "fc7_mbox_clean_perm"
  permute_param {
    order: 0
    order: 2
    order: 3
    order: 1
  }
}
layer {
  name: "fc7_mbox_clean_flat"
  type: "Flatten"
  bottom: "fc7_mbox_clean_perm"
  top: "fc7_mbox_clean_flat"
  flatten_param {
    axis: 1
  }
}
layer {
  name: "fc7_mbox_priorbox"
  type: "PriorBox"
  bottom: "fc7"
  bottom: "data"
  top: "fc7_mbox_priorbox"
  prior_box_param {
    min_size: 76.8
    max_size: 168.96
    aspect_ratio: 2
    aspect_ratio: 3
    flip: true
    clip: false
    variance: 0.1
    variance: 0.1
    variance: 0.2
    variance: 0.2
    step: 16
    offset: 0.5
  }
}
layer {
  name: "conv6_2_mbox_loc"
  type: "Convolution"
  bottom: "conv6_2"
  top: "conv6_2_mbox_loc"
  param {
    lr_mult: 1
    decay_mult: 1
  }
  param {
    lr_mult: 2
    decay_mult: 0
  }
  convolution_param {
    num_output: 24
    pad: 1
    kernel_size: 3
    stride: 1
    weight_filler {
      type: "xavier"
    }
    bias_filler {
      type: "constant"
      value: 0
    }
  }
}
layer {
  name: "conv6_2_mbox_loc_perm"
  type: "Permute"
  bottom: "conv6_2_mbox_loc"
  top: "conv6_2_mbox_loc_perm"
  permute_param {
    order: 0
    order: 2
    order: 3
    order: 1
  }
}
layer {
  name: "conv6_2_mbox_loc_flat"
  type: "Flatten"
  bottom: "conv6_2_mbox_loc_perm"
  top: "conv6_2_mbox_loc_flat"
  flatten_param {
    axis: 1
  }
}
layer {
  name: "conv6_2_mbox_conf"
  type: "Convolution"
  bottom: "conv6_2"
  top: "conv6_2_mbox_conf"
  param {
    lr_mult: 1
    decay_mult: 1
  }
  param {
    lr_mult: 2
    decay_mult: 0
  }
  convolution_param {
    num_output: 12
    pad: 1
    kernel_size: 3
    stride: 1
    weight_filler {
      type: "xavier"
    }
    bias_filler {
      type: "constant"
      value: 0
    }
  }
}
layer {
  name: "conv6_2_mbox_conf_perm"
  type: "Permute"
  bottom: "conv6_2_mbox_conf"
  top: "conv6_2_mbox_conf_perm"
  permute_param {
    order: 0
    order: 2
    order: 3
    order: 1
  }
}
layer {
  name: "conv6_2_mbox_conf_flat"
  type: "Flatten"
  bottom: "conv6_2_mbox_conf_perm"
  top: "conv6_2_mbox_conf_flat"
  flatten_param {
    axis: 1
  }
}
layer {
  name: "conv6_2_mbox_clean"
  type: "Convolution"
  bottom: "conv6_2"
  top: "conv6_2_mbox_clean"
  param {
    lr_mult: 1
    decay_mult: 1
  }
  param {
    lr_mult: 2
    decay_mult: 0
  }
  convolution_param {
    num_output: 6
    pad: 1
    kernel_size: 3
    stride: 1
    weight_filler {
      type: "xavier"
    }
    bias_filler {
      type: "constant"
      value: 0
    }
  }
}
layer {
  name: "conv6_2_mbox_clean_perm"
  type: "Permute"
  bottom: "conv6_2_mbox_clean"
  top: "conv6_2_mbox_clean_perm"
  permute_param {
    order: 0
    order: 2
    order: 3
    order: 1
  }
}
layer {
  name: "conv6_2_mbox_clean_flat"
  type: "Flatten"
  bottom: "conv6_2_mbox_clean_perm"
  top: "conv6_2_mbox_clean_flat"
  flatten_param {
    axis: 1
  }
}
layer {
  name: "conv6_2_mbox_priorbox"
  type: "PriorBox"
  bottom: "conv6_2"
  bottom: "data"
  top: "conv6_2_mbox_priorbox"
  prior_box_param {
    min_size: 168.96
    max_size: 261.12
    aspect_ratio: 2
    aspect_ratio: 3
    flip: true
    clip: false
    variance: 0.1
    variance: 0.1
    variance: 0.2
    variance: 0.2
    step: 32
    offset: 0.5
  }
}
layer {
  name: "conv7_2_mbox_loc"
  type: "Convolution"
  bottom: "conv7_2"
  top: "conv7_2_mbox_loc"
  param {
    lr_mult: 1
    decay_mult: 1
  }
  param {
    lr_mult: 2
    decay_mult: 0
  }
  convolution_param {
    num_output: 24
    pad: 1
    kernel_size: 3
    stride: 1
    weight_filler {
      type: "xavier"
    }
    bias_filler {
      type: "constant"
      value: 0
    }
  }
}
layer {
  name: "conv7_2_mbox_loc_perm"
  type: "Permute"
  bottom: "conv7_2_mbox_loc"
  top: "conv7_2_mbox_loc_perm"
  permute_param {
    order: 0
    order: 2
    order: 3
    order: 1
  }
}
layer {
  name: "conv7_2_mbox_loc_flat"
  type: "Flatten"
  bottom: "conv7_2_mbox_loc_perm"
  top: "conv7_2_mbox_loc_flat"
  flatten_param {
    axis: 1
  }
}
layer {
  name: "conv7_2_mbox_conf"
  type: "Convolution"
  bottom: "conv7_2"
  top: "conv7_2_mbox_conf"
  param {
    lr_mult: 1
    decay_mult: 1
  }
  param {
    lr_mult: 2
    decay_mult: 0
  }
  convolution_param {
    num_output: 12
    pad: 1
    kernel_size: 3
    stride: 1
    weight_filler {
      type: "xavier"
    }
    bias_filler {
      type: "constant"
      value: 0
    }
  }
}
layer {
  name: "conv7_2_mbox_conf_perm"
  type: "Permute"
  bottom: "conv7_2_mbox_conf"
  top: "conv7_2_mbox_conf_perm"
  permute_param {
    order: 0
    order: 2
    order: 3
    order: 1
  }
}
layer {
  name: "conv7_2_mbox_conf_flat"
  type: "Flatten"
  bottom: "conv7_2_mbox_conf_perm"
  top: "conv7_2_mbox_conf_flat"
  flatten_param {
    axis: 1
  }
}
layer {
  name: "conv7_2_mbox_clean"
  type: "Convolution"
  bottom: "conv7_2"
  top: "conv7_2_mbox_clean"
  param {
    lr_mult: 1
    decay_mult: 1
  }
  param {
    lr_mult: 2
    decay_mult: 0
  }
  convolution_param {
    num_output: 6
    pad: 1
    kernel_size: 3
    stride: 1
    weight_filler {
      type: "xavier"
    }
    bias_filler {
      type: "constant"
      value: 0
    }
  }
}
layer {
  name: "conv7_2_mbox_clean_perm"
  type: "Permute"
  bottom: "conv7_2_mbox_clean"
  top: "conv7_2_mbox_clean_perm"
  permute_param {
    order: 0
    order: 2
    order: 3
    order: 1
  }
}
layer {
  name: "conv7_2_mbox_clean_flat"
  type: "Flatten"
  bottom: "conv7_2_mbox_clean_perm"
  top: "conv7_2_mbox_clean_flat"
  flatten_param {
    axis: 1
  }
}
layer {
  name: "conv7_2_mbox_priorbox"
  type: "PriorBox"
  bottom: "conv7_2"
  bottom: "data"
  top: "conv7_2_mbox_priorbox"
  prior_box_param {
    min_size: 261.12
    max_size: 353.28
    aspect_ratio: 2
    aspect_ratio: 3
    flip: true
    clip: false
    variance: 0.1
    variance: 0.1
    variance: 0.2
    variance: 0.2
    step: 64
    offset: 0.5
  }
}
layer {
  name: "conv8_2_mbox_loc"
  type: "Convolution"
  bottom: "conv8_2"
  top: "conv8_2_mbox_loc"
  param {
    lr_mult: 1
    decay_mult: 1
  }
  param {
    lr_mult: 2
    decay_mult: 0
  }
  convolution_param {
    num_output: 16
    pad: 1
    kernel_size: 3
    stride: 1
    weight_filler {
      type: "xavier"
    }
    bias_filler {
      type: "constant"
      value: 0
    }
  }
}
layer {
  name: "conv8_2_mbox_loc_perm"
  type: "Permute"
  bottom: "conv8_2_mbox_loc"
  top: "conv8_2_mbox_loc_perm"
  permute_param {
    order: 0
    order: 2
    order: 3
    order: 1
  }
}
layer {
  name: "conv8_2_mbox_loc_flat"
  type: "Flatten"
  bottom: "conv8_2_mbox_loc_perm"
  top: "conv8_2_mbox_loc_flat"
  flatten_param {
    axis: 1
  }
}
layer {
  name: "conv8_2_mbox_conf"
  type: "Convolution"
  bottom: "conv8_2"
  top: "conv8_2_mbox_conf"
  param {
    lr_mult: 1
    decay_mult: 1
  }
  param {
    lr_mult: 2
    decay_mult: 0
  }
  convolution_param {
    num_output: 8
    pad: 1
    kernel_size: 3
    stride: 1
    weight_filler {
      type: "xavier"
    }
    bias_filler {
      type: "constant"
      value: 0
    }
  }
}
layer {
  name: "conv8_2_mbox_conf_perm"
  type: "Permute"
  bottom: "conv8_2_mbox_conf"
  top: "conv8_2_mbox_conf_perm"
  permute_param {
    order: 0
    order: 2
    order: 3
    order: 1
  }
}
layer {
  name: "conv8_2_mbox_conf_flat"
  type: "Flatten"
  bottom: "conv8_2_mbox_conf_perm"
  top: "conv8_2_mbox_conf_flat"
  flatten_param {
    axis: 1
  }
}
layer {
  name: "conv8_2_mbox_clean"
  type: "Convolution"
  bottom: "conv8_2"
  top: "conv8_2_mbox_clean"
  param {
    lr_mult: 1
    decay_mult: 1
  }
  param {
    lr_mult: 2
    decay_mult: 0
  }
  convolution_param {
    num_output: 4
    pad: 1
    kernel_size: 3
    stride: 1
    weight_filler {
      type: "xavier"
    }
    bias_filler {
      type: "constant"
      value: 0
    }
  }
}
layer {
  name: "conv8_2_mbox_clean_perm"
  type: "Permute"
  bottom: "conv8_2_mbox_clean"
  top: "conv8_2_mbox_clean_perm"
  permute_param {
    order: 0
    order: 2
    order: 3
    order: 1
  }
}
layer {
  name: "conv8_2_mbox_clean_flat"
  type: "Flatten"
  bottom: "conv8_2_mbox_clean_perm"
  top: "conv8_2_mbox_clean_flat"
  flatten_param {
    axis: 1
  }
}
layer {
  name: "conv8_2_mbox_priorbox"
  type: "PriorBox"
  bottom: "conv8_2"
  bottom: "data"
  top: "conv8_2_mbox_priorbox"
  prior_box_param {
    min_size: 353.28
    max_size: 445.44
    aspect_ratio: 2
    flip: true
    clip: false
    variance: 0.1
    variance: 0.1
    variance: 0.2
    variance: 0.2
    step: 100
    offset: 0.5
  }
}
layer {
  name: "conv9_2_mbox_loc"
  type: "Convolution"
  bottom: "conv9_2"
  top: "conv9_2_mbox_loc"
  param {
    lr_mult: 1
    decay_mult: 1
  }
  param {
    lr_mult: 2
    decay_mult: 0
  }
  convolution_param {
    num_output: 16
    pad: 1
    kernel_size: 3
    stride: 1
    weight_filler {
      type: "xavier"
    }
    bias_filler {
      type: "constant"
      value: 0
    }
  }
}
layer {
  name: "conv9_2_mbox_loc_perm"
  type: "Permute"
  bottom: "conv9_2_mbox_loc"
  top: "conv9_2_mbox_loc_perm"
  permute_param {
    order: 0
    order: 2
    order: 3
    order: 1
  }
}
layer {
  name: "conv9_2_mbox_loc_flat"
  type: "Flatten"
  bottom: "conv9_2_mbox_loc_perm"
  top: "conv9_2_mbox_loc_flat"
  flatten_param {
    axis: 1
  }
}
layer {
  name: "conv9_2_mbox_conf"
  type: "Convolution"
  bottom: "conv9_2"
  top: "conv9_2_mbox_conf"
  param {
    lr_mult: 1
    decay_mult: 1
  }
  param {
    lr_mult: 2
    decay_mult: 0
  }
  convolution_param {
    num_output: 8
    pad: 1
    kernel_size: 3
    stride: 1
    weight_filler {
      type: "xavier"
    }
    bias_filler {
      type: "constant"
      value: 0
    }
  }
}
layer {
  name: "conv9_2_mbox_conf_perm"
  type: "Permute"
  bottom: "conv9_2_mbox_conf"
  top: "conv9_2_mbox_conf_perm"
  permute_param {
    order: 0
    order: 2
    order: 3
    order: 1
  }
}
layer {
  name: "conv9_2_mbox_conf_flat"
  type: "Flatten"
  bottom: "conv9_2_mbox_conf_perm"
  top: "conv9_2_mbox_conf_flat"
  flatten_param {
    axis: 1
  }
}
layer {
  name: "conv9_2_mbox_clean"
  type: "Convolution"
  bottom: "conv9_2"
  top: "conv9_2_mbox_clean"
  param {
    lr_mult: 1
    decay_mult: 1
  }
  param {
    lr_mult: 2
    decay_mult: 0
  }
  convolution_param {
    num_output: 4
    pad: 1
    kernel_size: 3
    stride: 1
    weight_filler {
      type: "xavier"
    }
    bias_filler {
      type: "constant"
      value: 0
    }
  }
}
layer {
  name: "conv9_2_mbox_clean_perm"
  type: "Permute"
  bottom: "conv9_2_mbox_clean"
  top: "conv9_2_mbox_clean_perm"
  permute_param {
    order: 0
    order: 2
    order: 3
    order: 1
  }
}
layer {
  name: "conv9_2_mbox_clean_flat"
  type: "Flatten"
  bottom: "conv9_2_mbox_clean_perm"
  top: "conv9_2_mbox_clean_flat"
  flatten_param {
    axis: 1
  }
}
layer {
  name: "conv9_2_mbox_priorbox"
  type: "PriorBox"
  bottom: "conv9_2"
  bottom: "data"
  top: "conv9_2_mbox_priorbox"
  prior_box_param {
    min_size: 445.44
    max_size: 537.6
    aspect_ratio: 2
    flip: true
    clip: false
    variance: 0.1
    variance: 0.1
    variance: 0.2
    variance: 0.2
    step: 300
    offset: 0.5
  }
}
layer {
  name: "mbox_loc"
  type: "Concat"
  bottom: "conv4_3_norm_mbox_loc_flat"
  bottom: "fc7_mbox_loc_flat"
  bottom: "conv6_2_mbox_loc_flat"
  bottom: "conv7_2_mbox_loc_flat"
  bottom: "conv8_2_mbox_loc_flat"
  bottom: "conv9_2_mbox_loc_flat"
  top: "mbox_loc"
  concat_param {
    axis: 1
  }
}
layer {
  name: "mbox_conf"
  type: "Concat"
  bottom: "conv4_3_norm_mbox_conf_flat"
  bottom: "fc7_mbox_conf_flat"
  bottom: "conv6_2_mbox_conf_flat"
  bottom: "conv7_2_mbox_conf_flat"
  bottom: "conv8_2_mbox_conf_flat"
  bottom: "conv9_2_mbox_conf_flat"
  top: "mbox_conf"
  concat_param {
    axis: 1
  }
}
layer {
  name: "mbox_priorbox"
  type: "Concat"
  bottom: "conv4_3_norm_mbox_priorbox"
  bottom: "fc7_mbox_priorbox"
  bottom: "conv6_2_mbox_priorbox"
  bottom: "conv7_2_mbox_priorbox"
  bottom: "conv8_2_mbox_priorbox"
  bottom: "conv9_2_mbox_priorbox"
  top: "mbox_priorbox"
  concat_param {
    axis: 2
  }
}
layer {
  name: "mbox_clean"
  type: "Concat"
  bottom: "conv4_3_norm_mbox_clean_flat"
  bottom: "fc7_mbox_clean_flat"
  bottom: "conv6_2_mbox_clean_flat"
  bottom: "conv7_2_mbox_clean_flat"
  bottom: "conv8_2_mbox_clean_flat"
  bottom: "conv9_2_mbox_clean_flat"
  top: "mbox_clean"
  concat_param {
    axis: 1
  }
}
layer {
  name: "mbox_conf_reshape"
  type: "Reshape"
  bottom: "mbox_conf"
  top: "mbox_conf_reshape"
  reshape_param {
    shape {
      dim: 0
      dim: -1
      dim: 2
    }
  }
}
layer {
  name: "mbox_conf_softmax"
  type: "Softmax"
  bottom: "mbox_conf_reshape"
  top: "mbox_conf_softmax"
  softmax_param {
    axis: 2
  }
}
layer {
  name: "mbox_conf_flatten"
  type: "Flatten"
  bottom: "mbox_conf_softmax"
  top: "mbox_conf_flatten"
  flatten_param {
    axis: 1
  }
}
layer {
  name: "mbox_clean_sigmoid"
  type: "Sigmoid"
  bottom: "mbox_clean"
  top: "mbox_clean_sigmoid"
}
layer {
  name: "detection_out"
  type: "DetectionOutput"
  bottom: "mbox_loc"
  bottom: "mbox_conf_flatten"
  bottom: "mbox_priorbox"
  bottom: "mbox_clean_sigmoid"
  top: "detection_out"
  include {
    phase: TEST
  }
I0401 12:29:42.650749  1777 layer_factory.hpp:77] Creating layer data
I0401 12:29:42.650827  1777 net.cpp:100] Creating Layer data
I0401 12:29:42.650843  1777 net.cpp:408] data -> data
I0401 12:29:42.650857  1777 net.cpp:408] data -> label
I0401 12:29:42.652261  1849 db_lmdb.cpp:35] Opened lmdb /data/siyu/dataset/coco/lmdb/COCO_Val2014_person_lmdb
I0401 12:29:42.656244  1777 annotated_data_layer.cpp:62] output data size: 2,3,512,512
I0401 12:29:42.667688  1777 net.cpp:150] Setting up data
I0401 12:29:42.667732  1777 net.cpp:157] Top shape: 2 3 512 512 (1572864)
I0401 12:29:42.667743  1777 net.cpp:157] Top shape: 1 1 6 8 (48)
I0401 12:29:42.667750  1777 net.cpp:165] Memory required for data: 6291648
I0401 12:29:42.667762  1777 layer_factory.hpp:77] Creating layer data_data_0_split
I0401 12:29:42.667784  1777 net.cpp:100] Creating Layer data_data_0_split
I0401 12:29:42.667795  1777 net.cpp:434] data_data_0_split <- data
I0401 12:29:42.667809  1777 net.cpp:408] data_data_0_split -> data_data_0_split_0
I0401 12:29:42.667829  1777 net.cpp:408] data_data_0_split -> data_data_0_split_1
I0401 12:29:42.667843  1777 net.cpp:408] data_data_0_split -> data_data_0_split_2
I0401 12:29:42.667855  1777 net.cpp:408] data_data_0_split -> data_data_0_split_3
I0401 12:29:42.667867  1777 net.cpp:408] data_data_0_split -> data_data_0_split_4
I0401 12:29:42.667877  1777 net.cpp:408] data_data_0_split -> data_data_0_split_5
I0401 12:29:42.667887  1777 net.cpp:408] data_data_0_split -> data_data_0_split_6
I0401 12:29:42.668110  1777 net.cpp:150] Setting up data_data_0_split
I0401 12:29:42.668126  1777 net.cpp:157] Top shape: 2 3 512 512 (1572864)
I0401 12:29:42.668135  1777 net.cpp:157] Top shape: 2 3 512 512 (1572864)
I0401 12:29:42.668143  1777 net.cpp:157] Top shape: 2 3 512 512 (1572864)
I0401 12:29:42.668153  1777 net.cpp:157] Top shape: 2 3 512 512 (1572864)
I0401 12:29:42.668160  1777 net.cpp:157] Top shape: 2 3 512 512 (1572864)
I0401 12:29:42.668167  1777 net.cpp:157] Top shape: 2 3 512 512 (1572864)
I0401 12:29:42.668176  1777 net.cpp:157] Top shape: 2 3 512 512 (1572864)
I0401 12:29:42.668186  1777 net.cpp:165] Memory required for data: 50331840
I0401 12:29:42.668193  1777 layer_factory.hpp:77] Creating layer conv1_1
I0401 12:29:42.668216  1777 net.cpp:100] Creating Layer conv1_1
I0401 12:29:42.668227  1777 net.cpp:434] conv1_1 <- data_data_0_split_0
I0401 12:29:42.668238  1777 net.cpp:408] conv1_1 -> conv1_1
I0401 12:29:42.670598  1777 net.cpp:150] Setting up conv1_1
I0401 12:29:42.670625  1777 net.cpp:157] Top shape: 2 64 512 512 (33554432)
I0401 12:29:42.670630  1777 net.cpp:165] Memory required for data: 184549568
I0401 12:29:42.670644  1777 layer_factory.hpp:77] Creating layer relu1_1
I0401 12:29:42.670653  1777 net.cpp:100] Creating Layer relu1_1
I0401 12:29:42.670658  1777 net.cpp:434] relu1_1 <- conv1_1
I0401 12:29:42.670665  1777 net.cpp:395] relu1_1 -> conv1_1 (in-place)
I0401 12:29:42.670995  1777 net.cpp:150] Setting up relu1_1
I0401 12:29:42.671010  1777 net.cpp:157] Top shape: 2 64 512 512 (33554432)
I0401 12:29:42.671025  1777 net.cpp:165] Memory required for data: 318767296
I0401 12:29:42.671031  1777 layer_factory.hpp:77] Creating layer conv1_2
I0401 12:29:42.671043  1777 net.cpp:100] Creating Layer conv1_2
I0401 12:29:42.671048  1777 net.cpp:434] conv1_2 <- conv1_1
I0401 12:29:42.671056  1777 net.cpp:408] conv1_2 -> conv1_2
I0401 12:29:42.673182  1777 net.cpp:150] Setting up conv1_2
I0401 12:29:42.673209  1777 net.cpp:157] Top shape: 2 64 512 512 (33554432)
I0401 12:29:42.673214  1777 net.cpp:165] Memory required for data: 452985024
I0401 12:29:42.673225  1777 layer_factory.hpp:77] Creating layer relu1_2
I0401 12:29:42.673234  1777 net.cpp:100] Creating Layer relu1_2
I0401 12:29:42.673239  1777 net.cpp:434] relu1_2 <- conv1_2
I0401 12:29:42.673245  1777 net.cpp:395] relu1_2 -> conv1_2 (in-place)
I0401 12:29:42.673563  1777 net.cpp:150] Setting up relu1_2
I0401 12:29:42.673578  1777 net.cpp:157] Top shape: 2 64 512 512 (33554432)
I0401 12:29:42.673593  1777 net.cpp:165] Memory required for data: 587202752
I0401 12:29:42.673599  1777 layer_factory.hpp:77] Creating layer pool1
I0401 12:29:42.673609  1777 net.cpp:100] Creating Layer pool1
I0401 12:29:42.673614  1777 net.cpp:434] pool1 <- conv1_2
I0401 12:29:42.673620  1777 net.cpp:408] pool1 -> pool1
I0401 12:29:42.673679  1777 net.cpp:150] Setting up pool1
I0401 12:29:42.673689  1777 net.cpp:157] Top shape: 2 64 256 256 (8388608)
I0401 12:29:42.673693  1777 net.cpp:165] Memory required for data: 620757184
I0401 12:29:42.673697  1777 layer_factory.hpp:77] Creating layer conv2_1
I0401 12:29:42.673708  1777 net.cpp:100] Creating Layer conv2_1
I0401 12:29:42.673715  1777 net.cpp:434] conv2_1 <- pool1
I0401 12:29:42.673722  1777 net.cpp:408] conv2_1 -> conv2_1
I0401 12:29:42.676493  1777 net.cpp:150] Setting up conv2_1
I0401 12:29:42.676513  1777 net.cpp:157] Top shape: 2 128 256 256 (16777216)
I0401 12:29:42.676519  1777 net.cpp:165] Memory required for data: 687866048
I0401 12:29:42.676532  1777 layer_factory.hpp:77] Creating layer relu2_1
I0401 12:29:42.676542  1777 net.cpp:100] Creating Layer relu2_1
I0401 12:29:42.676551  1777 net.cpp:434] relu2_1 <- conv2_1
I0401 12:29:42.676558  1777 net.cpp:395] relu2_1 -> conv2_1 (in-place)
I0401 12:29:42.676782  1777 net.cpp:150] Setting up relu2_1
I0401 12:29:42.676795  1777 net.cpp:157] Top shape: 2 128 256 256 (16777216)
I0401 12:29:42.676800  1777 net.cpp:165] Memory required for data: 754974912
I0401 12:29:42.676805  1777 layer_factory.hpp:77] Creating layer conv2_2
I0401 12:29:42.676817  1777 net.cpp:100] Creating Layer conv2_2
I0401 12:29:42.676837  1777 net.cpp:434] conv2_2 <- conv2_1
I0401 12:29:42.676847  1777 net.cpp:408] conv2_2 -> conv2_2
I0401 12:29:42.679800  1777 net.cpp:150] Setting up conv2_2
I0401 12:29:42.679818  1777 net.cpp:157] Top shape: 2 128 256 256 (16777216)
I0401 12:29:42.679824  1777 net.cpp:165] Memory required for data: 822083776
I0401 12:29:42.679833  1777 layer_factory.hpp:77] Creating layer relu2_2
I0401 12:29:42.679841  1777 net.cpp:100] Creating Layer relu2_2
I0401 12:29:42.679847  1777 net.cpp:434] relu2_2 <- conv2_2
I0401 12:29:42.679854  1777 net.cpp:395] relu2_2 -> conv2_2 (in-place)
I0401 12:29:42.680207  1777 net.cpp:150] Setting up relu2_2
I0401 12:29:42.680222  1777 net.cpp:157] Top shape: 2 128 256 256 (16777216)
I0401 12:29:42.680227  1777 net.cpp:165] Memory required for data: 889192640
I0401 12:29:42.680233  1777 layer_factory.hpp:77] Creating layer pool2
I0401 12:29:42.680240  1777 net.cpp:100] Creating Layer pool2
I0401 12:29:42.680245  1777 net.cpp:434] pool2 <- conv2_2
I0401 12:29:42.680253  1777 net.cpp:408] pool2 -> pool2
I0401 12:29:42.680311  1777 net.cpp:150] Setting up pool2
I0401 12:29:42.680320  1777 net.cpp:157] Top shape: 2 128 128 128 (4194304)
I0401 12:29:42.680325  1777 net.cpp:165] Memory required for data: 905969856
I0401 12:29:42.680330  1777 layer_factory.hpp:77] Creating layer conv3_1
I0401 12:29:42.680341  1777 net.cpp:100] Creating Layer conv3_1
I0401 12:29:42.680347  1777 net.cpp:434] conv3_1 <- pool2
I0401 12:29:42.680356  1777 net.cpp:408] conv3_1 -> conv3_1
I0401 12:29:42.684267  1777 net.cpp:150] Setting up conv3_1
I0401 12:29:42.684296  1777 net.cpp:157] Top shape: 2 256 128 128 (8388608)
I0401 12:29:42.684303  1777 net.cpp:165] Memory required for data: 939524288
I0401 12:29:42.684314  1777 layer_factory.hpp:77] Creating layer relu3_1
I0401 12:29:42.684321  1777 net.cpp:100] Creating Layer relu3_1
I0401 12:29:42.684326  1777 net.cpp:434] relu3_1 <- conv3_1
I0401 12:29:42.684339  1777 net.cpp:395] relu3_1 -> conv3_1 (in-place)
I0401 12:29:42.684664  1777 net.cpp:150] Setting up relu3_1
I0401 12:29:42.684679  1777 net.cpp:157] Top shape: 2 256 128 128 (8388608)
I0401 12:29:42.684695  1777 net.cpp:165] Memory required for data: 973078720
I0401 12:29:42.684701  1777 layer_factory.hpp:77] Creating layer conv3_2
I0401 12:29:42.684713  1777 net.cpp:100] Creating Layer conv3_2
I0401 12:29:42.684718  1777 net.cpp:434] conv3_2 <- conv3_1
I0401 12:29:42.684727  1777 net.cpp:408] conv3_2 -> conv3_2
I0401 12:29:42.691124  1777 net.cpp:150] Setting up conv3_2
I0401 12:29:42.691155  1777 net.cpp:157] Top shape: 2 256 128 128 (8388608)
I0401 12:29:42.691160  1777 net.cpp:165] Memory required for data: 1006633152
I0401 12:29:42.691169  1777 layer_factory.hpp:77] Creating layer relu3_2
I0401 12:29:42.691179  1777 net.cpp:100] Creating Layer relu3_2
I0401 12:29:42.691185  1777 net.cpp:434] relu3_2 <- conv3_2
I0401 12:29:42.691191  1777 net.cpp:395] relu3_2 -> conv3_2 (in-place)
I0401 12:29:42.691406  1777 net.cpp:150] Setting up relu3_2
I0401 12:29:42.691419  1777 net.cpp:157] Top shape: 2 256 128 128 (8388608)
I0401 12:29:42.691424  1777 net.cpp:165] Memory required for data: 1040187584
I0401 12:29:42.691429  1777 layer_factory.hpp:77] Creating layer conv3_3
I0401 12:29:42.691444  1777 net.cpp:100] Creating Layer conv3_3
I0401 12:29:42.691452  1777 net.cpp:434] conv3_3 <- conv3_2
I0401 12:29:42.691460  1777 net.cpp:408] conv3_3 -> conv3_3
I0401 12:29:42.697716  1777 net.cpp:150] Setting up conv3_3
I0401 12:29:42.697747  1777 net.cpp:157] Top shape: 2 256 128 128 (8388608)
I0401 12:29:42.697753  1777 net.cpp:165] Memory required for data: 1073742016
I0401 12:29:42.697762  1777 layer_factory.hpp:77] Creating layer relu3_3
I0401 12:29:42.697772  1777 net.cpp:100] Creating Layer relu3_3
I0401 12:29:42.697777  1777 net.cpp:434] relu3_3 <- conv3_3
I0401 12:29:42.697784  1777 net.cpp:395] relu3_3 -> conv3_3 (in-place)
I0401 12:29:42.698129  1777 net.cpp:150] Setting up relu3_3
I0401 12:29:42.698144  1777 net.cpp:157] Top shape: 2 256 128 128 (8388608)
I0401 12:29:42.698173  1777 net.cpp:165] Memory required for data: 1107296448
I0401 12:29:42.698179  1777 layer_factory.hpp:77] Creating layer pool3
I0401 12:29:42.698190  1777 net.cpp:100] Creating Layer pool3
I0401 12:29:42.698200  1777 net.cpp:434] pool3 <- conv3_3
I0401 12:29:42.698207  1777 net.cpp:408] pool3 -> pool3
I0401 12:29:42.698276  1777 net.cpp:150] Setting up pool3
I0401 12:29:42.698287  1777 net.cpp:157] Top shape: 2 256 64 64 (2097152)
I0401 12:29:42.698290  1777 net.cpp:165] Memory required for data: 1115685056
I0401 12:29:42.698295  1777 layer_factory.hpp:77] Creating layer conv4_1
I0401 12:29:42.698307  1777 net.cpp:100] Creating Layer conv4_1
I0401 12:29:42.698314  1777 net.cpp:434] conv4_1 <- pool3
I0401 12:29:42.698324  1777 net.cpp:408] conv4_1 -> conv4_1
I0401 12:29:42.712287  1777 net.cpp:150] Setting up conv4_1
I0401 12:29:42.712321  1777 net.cpp:157] Top shape: 2 512 64 64 (4194304)
I0401 12:29:42.712327  1777 net.cpp:165] Memory required for data: 1132462272
I0401 12:29:42.712342  1777 layer_factory.hpp:77] Creating layer relu4_1
I0401 12:29:42.712358  1777 net.cpp:100] Creating Layer relu4_1
I0401 12:29:42.712368  1777 net.cpp:434] relu4_1 <- conv4_1
I0401 12:29:42.712379  1777 net.cpp:395] relu4_1 -> conv4_1 (in-place)
I0401 12:29:42.712810  1777 net.cpp:150] Setting up relu4_1
I0401 12:29:42.712826  1777 net.cpp:157] Top shape: 2 512 64 64 (4194304)
I0401 12:29:42.712834  1777 net.cpp:165] Memory required for data: 1149239488
I0401 12:29:42.712842  1777 layer_factory.hpp:77] Creating layer conv4_2
I0401 12:29:42.712862  1777 net.cpp:100] Creating Layer conv4_2
I0401 12:29:42.712872  1777 net.cpp:434] conv4_2 <- conv4_1
I0401 12:29:42.712882  1777 net.cpp:408] conv4_2 -> conv4_2
I0401 12:29:42.736112  1777 net.cpp:150] Setting up conv4_2
I0401 12:29:42.736150  1777 net.cpp:157] Top shape: 2 512 64 64 (4194304)
I0401 12:29:42.736158  1777 net.cpp:165] Memory required for data: 1166016704
I0401 12:29:42.736176  1777 layer_factory.hpp:77] Creating layer relu4_2
I0401 12:29:42.736188  1777 net.cpp:100] Creating Layer relu4_2
I0401 12:29:42.736196  1777 net.cpp:434] relu4_2 <- conv4_2
I0401 12:29:42.736207  1777 net.cpp:395] relu4_2 -> conv4_2 (in-place)
I0401 12:29:42.736850  1777 net.cpp:150] Setting up relu4_2
I0401 12:29:42.736870  1777 net.cpp:157] Top shape: 2 512 64 64 (4194304)
I0401 12:29:42.736883  1777 net.cpp:165] Memory required for data: 1182793920
I0401 12:29:42.736889  1777 layer_factory.hpp:77] Creating layer conv4_3
I0401 12:29:42.736906  1777 net.cpp:100] Creating Layer conv4_3
I0401 12:29:42.736912  1777 net.cpp:434] conv4_3 <- conv4_2
I0401 12:29:42.736922  1777 net.cpp:408] conv4_3 -> conv4_3
I0401 12:29:42.762398  1777 net.cpp:150] Setting up conv4_3
I0401 12:29:42.762447  1777 net.cpp:157] Top shape: 2 512 64 64 (4194304)
I0401 12:29:42.762454  1777 net.cpp:165] Memory required for data: 1199571136
I0401 12:29:42.762466  1777 layer_factory.hpp:77] Creating layer relu4_3
I0401 12:29:42.762481  1777 net.cpp:100] Creating Layer relu4_3
I0401 12:29:42.762492  1777 net.cpp:434] relu4_3 <- conv4_3
I0401 12:29:42.762502  1777 net.cpp:395] relu4_3 -> conv4_3 (in-place)
I0401 12:29:42.762853  1777 net.cpp:150] Setting up relu4_3
I0401 12:29:42.762867  1777 net.cpp:157] Top shape: 2 512 64 64 (4194304)
I0401 12:29:42.762884  1777 net.cpp:165] Memory required for data: 1216348352
I0401 12:29:42.762890  1777 layer_factory.hpp:77] Creating layer conv4_3_relu4_3_0_split
I0401 12:29:42.762900  1777 net.cpp:100] Creating Layer conv4_3_relu4_3_0_split
I0401 12:29:42.762907  1777 net.cpp:434] conv4_3_relu4_3_0_split <- conv4_3
I0401 12:29:42.762913  1777 net.cpp:408] conv4_3_relu4_3_0_split -> conv4_3_relu4_3_0_split_0
I0401 12:29:42.762923  1777 net.cpp:408] conv4_3_relu4_3_0_split -> conv4_3_relu4_3_0_split_1
I0401 12:29:42.762984  1777 net.cpp:150] Setting up conv4_3_relu4_3_0_split
I0401 12:29:42.762995  1777 net.cpp:157] Top shape: 2 512 64 64 (4194304)
I0401 12:29:42.763000  1777 net.cpp:157] Top shape: 2 512 64 64 (4194304)
I0401 12:29:42.763005  1777 net.cpp:165] Memory required for data: 1249902784
I0401 12:29:42.763025  1777 layer_factory.hpp:77] Creating layer pool4
I0401 12:29:42.763037  1777 net.cpp:100] Creating Layer pool4
I0401 12:29:42.763043  1777 net.cpp:434] pool4 <- conv4_3_relu4_3_0_split_0
I0401 12:29:42.763053  1777 net.cpp:408] pool4 -> pool4
I0401 12:29:42.763113  1777 net.cpp:150] Setting up pool4
I0401 12:29:42.763123  1777 net.cpp:157] Top shape: 2 512 32 32 (1048576)
I0401 12:29:42.763126  1777 net.cpp:165] Memory required for data: 1254097088
I0401 12:29:42.763130  1777 layer_factory.hpp:77] Creating layer conv5_1
I0401 12:29:42.763150  1777 net.cpp:100] Creating Layer conv5_1
I0401 12:29:42.763157  1777 net.cpp:434] conv5_1 <- pool4
I0401 12:29:42.763164  1777 net.cpp:408] conv5_1 -> conv5_1
I0401 12:29:42.783903  1777 net.cpp:150] Setting up conv5_1
I0401 12:29:42.783937  1777 net.cpp:157] Top shape: 2 512 32 32 (1048576)
I0401 12:29:42.783944  1777 net.cpp:165] Memory required for data: 1258291392
I0401 12:29:42.783957  1777 layer_factory.hpp:77] Creating layer relu5_1
I0401 12:29:42.783972  1777 net.cpp:100] Creating Layer relu5_1
I0401 12:29:42.783979  1777 net.cpp:434] relu5_1 <- conv5_1
I0401 12:29:42.783991  1777 net.cpp:395] relu5_1 -> conv5_1 (in-place)
I0401 12:29:42.784330  1777 net.cpp:150] Setting up relu5_1
I0401 12:29:42.784344  1777 net.cpp:157] Top shape: 2 512 32 32 (1048576)
I0401 12:29:42.784360  1777 net.cpp:165] Memory required for data: 1262485696
I0401 12:29:42.784366  1777 layer_factory.hpp:77] Creating layer conv5_2
I0401 12:29:42.784384  1777 net.cpp:100] Creating Layer conv5_2
I0401 12:29:42.784389  1777 net.cpp:434] conv5_2 <- conv5_1
I0401 12:29:42.784396  1777 net.cpp:408] conv5_2 -> conv5_2
I0401 12:29:42.805542  1777 net.cpp:150] Setting up conv5_2
I0401 12:29:42.805583  1777 net.cpp:157] Top shape: 2 512 32 32 (1048576)
I0401 12:29:42.805593  1777 net.cpp:165] Memory required for data: 1266680000
I0401 12:29:42.805603  1777 layer_factory.hpp:77] Creating layer relu5_2
I0401 12:29:42.805618  1777 net.cpp:100] Creating Layer relu5_2
I0401 12:29:42.805624  1777 net.cpp:434] relu5_2 <- conv5_2
I0401 12:29:42.805634  1777 net.cpp:395] relu5_2 -> conv5_2 (in-place)
I0401 12:29:42.805841  1777 net.cpp:150] Setting up relu5_2
I0401 12:29:42.805853  1777 net.cpp:157] Top shape: 2 512 32 32 (1048576)
I0401 12:29:42.805858  1777 net.cpp:165] Memory required for data: 1270874304
I0401 12:29:42.805863  1777 layer_factory.hpp:77] Creating layer conv5_3
I0401 12:29:42.805879  1777 net.cpp:100] Creating Layer conv5_3
I0401 12:29:42.805887  1777 net.cpp:434] conv5_3 <- conv5_2
I0401 12:29:42.805896  1777 net.cpp:408] conv5_3 -> conv5_3
I0401 12:29:42.827152  1777 net.cpp:150] Setting up conv5_3
I0401 12:29:42.827194  1777 net.cpp:157] Top shape: 2 512 32 32 (1048576)
I0401 12:29:42.827200  1777 net.cpp:165] Memory required for data: 1275068608
I0401 12:29:42.827213  1777 layer_factory.hpp:77] Creating layer relu5_3
I0401 12:29:42.827239  1777 net.cpp:100] Creating Layer relu5_3
I0401 12:29:42.827246  1777 net.cpp:434] relu5_3 <- conv5_3
I0401 12:29:42.827260  1777 net.cpp:395] relu5_3 -> conv5_3 (in-place)
I0401 12:29:42.827623  1777 net.cpp:150] Setting up relu5_3
I0401 12:29:42.827641  1777 net.cpp:157] Top shape: 2 512 32 32 (1048576)
I0401 12:29:42.827646  1777 net.cpp:165] Memory required for data: 1279262912
I0401 12:29:42.827651  1777 layer_factory.hpp:77] Creating layer pool5
I0401 12:29:42.827662  1777 net.cpp:100] Creating Layer pool5
I0401 12:29:42.827668  1777 net.cpp:434] pool5 <- conv5_3
I0401 12:29:42.827677  1777 net.cpp:408] pool5 -> pool5
I0401 12:29:42.827740  1777 net.cpp:150] Setting up pool5
I0401 12:29:42.827751  1777 net.cpp:157] Top shape: 2 512 32 32 (1048576)
I0401 12:29:42.827755  1777 net.cpp:165] Memory required for data: 1283457216
I0401 12:29:42.827760  1777 layer_factory.hpp:77] Creating layer fc6
I0401 12:29:42.827775  1777 net.cpp:100] Creating Layer fc6
I0401 12:29:42.827781  1777 net.cpp:434] fc6 <- pool5
I0401 12:29:42.827790  1777 net.cpp:408] fc6 -> fc6
I0401 12:29:42.868250  1777 net.cpp:150] Setting up fc6
I0401 12:29:42.868297  1777 net.cpp:157] Top shape: 2 1024 32 32 (2097152)
I0401 12:29:42.868324  1777 net.cpp:165] Memory required for data: 1291845824
I0401 12:29:42.868337  1777 layer_factory.hpp:77] Creating layer relu6
I0401 12:29:42.868350  1777 net.cpp:100] Creating Layer relu6
I0401 12:29:42.868362  1777 net.cpp:434] relu6 <- fc6
I0401 12:29:42.868371  1777 net.cpp:395] relu6 -> fc6 (in-place)
I0401 12:29:42.868631  1777 net.cpp:150] Setting up relu6
I0401 12:29:42.868644  1777 net.cpp:157] Top shape: 2 1024 32 32 (2097152)
I0401 12:29:42.868649  1777 net.cpp:165] Memory required for data: 1300234432
I0401 12:29:42.868654  1777 layer_factory.hpp:77] Creating layer fc7
I0401 12:29:42.868671  1777 net.cpp:100] Creating Layer fc7
I0401 12:29:42.868679  1777 net.cpp:434] fc7 <- fc6
I0401 12:29:42.868685  1777 net.cpp:408] fc7 -> fc7
I0401 12:29:42.878556  1777 net.cpp:150] Setting up fc7
I0401 12:29:42.878602  1777 net.cpp:157] Top shape: 2 1024 32 32 (2097152)
I0401 12:29:42.878607  1777 net.cpp:165] Memory required for data: 1308623040
I0401 12:29:42.878618  1777 layer_factory.hpp:77] Creating layer relu7
I0401 12:29:42.878633  1777 net.cpp:100] Creating Layer relu7
I0401 12:29:42.878640  1777 net.cpp:434] relu7 <- fc7
I0401 12:29:42.878651  1777 net.cpp:395] relu7 -> fc7 (in-place)
I0401 12:29:42.878849  1777 net.cpp:150] Setting up relu7
I0401 12:29:42.878861  1777 net.cpp:157] Top shape: 2 1024 32 32 (2097152)
I0401 12:29:42.878866  1777 net.cpp:165] Memory required for data: 1317011648
I0401 12:29:42.878871  1777 layer_factory.hpp:77] Creating layer fc7_relu7_0_split
I0401 12:29:42.878885  1777 net.cpp:100] Creating Layer fc7_relu7_0_split
I0401 12:29:42.878892  1777 net.cpp:434] fc7_relu7_0_split <- fc7
I0401 12:29:42.878900  1777 net.cpp:408] fc7_relu7_0_split -> fc7_relu7_0_split_0
…
I0401 12:29:42.900249  1777 net.cpp:150] Setting up conv7_2_conv7_2_relu_0_split
I0401 12:29:42.900259  1777 net.cpp:157] Top shape: 2 256 8 8 (32768)
I0401 12:29:42.900265  1777 net.cpp:157] Top shape: 2 256 8 8 (32768)
I0401 12:29:42.900269  1777 net.cpp:157] Top shape: 2 256 8 8 (32768)
I0401 12:29:42.900274  1777 net.cpp:157] Top shape: 2 256 8 8 (32768)
I0401 12:29:42.900279  1777 net.cpp:157] Top shape: 2 256 8 8 (32768)
I0401 12:29:42.900283  1777 net.cpp:165] Memory required for data: 1371930816
I0401 12:29:42.900287  1777 layer_factory.hpp:77] Creating layer conv8_1
I0401 12:29:42.900300  1777 net.cpp:100] Creating Layer conv8_1
I0401 12:29:42.900307  1777 net.cpp:434] conv8_1 <- conv7_2_conv7_2_relu_0_split_0
I0401 12:29:42.900319  1777 net.cpp:408] conv8_1 -> conv8_1
I0401 12:29:42.901695  1777 net.cpp:150] Setting up conv8_1
I0401 12:29:42.901710  1777 net.cpp:157] Top shape: 2 128 8 8 (16384)
I0401 12:29:42.901727  1777 net.cpp:165] Memory required for data: 1371996352
I0401 12:29:42.901734  1777 layer_factory.hpp:77] Creating layer conv8_1_relu
I0401 12:29:42.901741  1777 net.cpp:100] Creating Layer conv8_1_relu
I0401 12:29:42.901749  1777 net.cpp:434] conv8_1_relu <- conv8_1
I0401 12:29:42.901756  1777 net.cpp:395] conv8_1_relu -> conv8_1 (in-place)
I0401 12:29:42.901945  1777 net.cpp:150] Setting up conv8_1_relu
I0401 12:29:42.901957  1777 net.cpp:157] Top shape: 2 128 8 8 (16384)
I0401 12:29:42.901962  1777 net.cpp:165] Memory required for data: 1372061888
I0401 12:29:42.901968  1777 layer_factory.hpp:77] Creating layer conv8_2
I0401 12:29:42.901983  1777 net.cpp:100] Creating Layer conv8_2
I0401 12:29:42.901989  1777 net.cpp:434] conv8_2 <- conv8_1
I0401 12:29:42.901998  1777 net.cpp:408] conv8_2 -> conv8_2
I0401 12:29:42.905532  1777 net.cpp:150] Setting up conv8_2
I0401 12:29:42.905549  1777 net.cpp:157] Top shape: 2 256 6 6 (18432)
I0401 12:29:42.905565  1777 net.cpp:165] Memory required for data: 1372135616
I0401 12:29:42.905572  1777 layer_factory.hpp:77] Creating layer conv8_2_relu
I0401 12:29:42.905580  1777 net.cpp:100] Creating Layer conv8_2_relu
I0401 12:29:42.905586  1777 net.cpp:434] conv8_2_relu <- conv8_2
I0401 12:29:42.905593  1777 net.cpp:395] conv8_2_relu -> conv8_2 (in-place)
I0401 12:29:42.905784  1777 net.cpp:150] Setting up conv8_2_relu
I0401 12:29:42.905797  1777 net.cpp:157] Top shape: 2 256 6 6 (18432)
I0401 12:29:42.905800  1777 net.cpp:165] Memory required for data: 1372209344
I0401 12:29:42.905805  1777 layer_factory.hpp:77] Creating layer conv8_2_conv8_2_relu_0_split
I0401 12:29:42.905814  1777 net.cpp:100] Creating Layer conv8_2_conv8_2_relu_0_split
I0401 12:29:42.905822  1777 net.cpp:434] conv8_2_conv8_2_relu_0_split <- conv8_2
I0401 12:29:42.905827  1777 net.cpp:408] conv8_2_conv8_2_relu_0_split -> conv8_2_conv8_2_relu_0_split_0
I0401 12:29:42.905835  1777 net.cpp:408] conv8_2_conv8_2_relu_0_split -> conv8_2_conv8_2_relu_0_split_1
I0401 12:29:42.905843  1777 net.cpp:408] conv8_2_conv8_2_relu_0_split -> conv8_2_conv8_2_relu_0_split_2
I0401 12:29:42.905853  1777 net.cpp:408] conv8_2_conv8_2_relu_0_split -> conv8_2_conv8_2_relu_0_split_3
I0401 12:29:42.905859  1777 net.cpp:408] conv8_2_conv8_2_relu_0_split -> conv8_2_conv8_2_relu_0_split_4
I0401 12:29:42.905977  1777 net.cpp:150] Setting up conv8_2_conv8_2_relu_0_split
I0401 12:29:42.905987  1777 net.cpp:157] Top shape: 2 256 6 6 (18432)
I0401 12:29:42.905992  1777 net.cpp:157] Top shape: 2 256 6 6 (18432)
I0401 12:29:42.905995  1777 net.cpp:157] Top shape: 2 256 6 6 (18432)
I0401 12:29:42.906000  1777 net.cpp:157] Top shape: 2 256 6 6 (18432)
I0401 12:29:42.906005  1777 net.cpp:157] Top shape: 2 256 6 6 (18432)
I0401 12:29:42.906019  1777 net.cpp:165] Memory required for data: 1372577984
I0401 12:29:42.906024  1777 layer_factory.hpp:77] Creating layer conv9_1
I0401 12:29:42.906035  1777 net.cpp:100] Creating Layer conv9_1
I0401 12:29:42.906042  1777 net.cpp:434] conv9_1 <- conv8_2_conv8_2_relu_0_split_0
I0401 12:29:42.906051  1777 net.cpp:408] conv9_1 -> conv9_1
I0401 12:29:42.907430  1777 net.cpp:150] Setting up conv9_1
I0401 12:29:42.907459  1777 net.cpp:157] Top shape: 2 128 6 6 (9216)
I0401 12:29:42.907464  1777 net.cpp:165] Memory required for data: 1372614848
I0401 12:29:42.907474  1777 layer_factory.hpp:77] Creating layer conv9_1_relu
I0401 12:29:42.907480  1777 net.cpp:100] Creating Layer conv9_1_relu
I0401 12:29:42.907485  1777 net.cpp:434] conv9_1_relu <- conv9_1
I0401 12:29:42.907491  1777 net.cpp:395] conv9_1_relu -> conv9_1 (in-place)
I0401 12:29:42.907860  1777 net.cpp:150] Setting up conv9_1_relu
I0401 12:29:42.907874  1777 net.cpp:157] Top shape: 2 128 6 6 (9216)
I0401 12:29:42.907891  1777 net.cpp:165] Memory required for data: 1372651712
I0401 12:29:42.907896  1777 layer_factory.hpp:77] Creating layer conv9_2
I0401 12:29:42.907907  1777 net.cpp:100] Creating Layer conv9_2
I0401 12:29:42.907913  1777 net.cpp:434] conv9_2 <- conv9_1
I0401 12:29:42.907934  1777 net.cpp:408] conv9_2 -> conv9_2
I0401 12:29:42.911584  1777 net.cpp:150] Setting up conv9_2
I0401 12:29:42.911614  1777 net.cpp:157] Top shape: 2 256 4 4 (8192)
I0401 12:29:42.911630  1777 net.cpp:165] Memory required for data: 1372684480
I0401 12:29:42.911638  1777 layer_factory.hpp:77] Creating layer conv9_2_relu
I0401 12:29:42.911645  1777 net.cpp:100] Creating Layer conv9_2_relu
I0401 12:29:42.911651  1777 net.cpp:434] conv9_2_relu <- conv9_2
I0401 12:29:42.911658  1777 net.cpp:395] conv9_2_relu -> conv9_2 (in-place)
I0401 12:29:42.911847  1777 net.cpp:150] Setting up conv9_2_relu
I0401 12:29:42.911860  1777 net.cpp:157] Top shape: 2 256 4 4 (8192)
I0401 12:29:42.911865  1777 net.cpp:165] Memory required for data: 1372717248
I0401 12:29:42.911871  1777 layer_factory.hpp:77] Creating layer conv9_2_conv9_2_relu_0_split
I0401 12:29:42.911880  1777 net.cpp:100] Creating Layer conv9_2_conv9_2_relu_0_split
I0401 12:29:42.911885  1777 net.cpp:434] conv9_2_conv9_2_relu_0_split <- conv9_2
I0401 12:29:42.911892  1777 net.cpp:408] conv9_2_conv9_2_relu_0_split -> conv9_2_conv9_2_relu_0_split_0
I0401 12:29:42.911900  1777 net.cpp:408] conv9_2_conv9_2_relu_0_split -> conv9_2_conv9_2_relu_0_split_1
I0401 12:29:42.911921  1777 net.cpp:408] conv9_2_conv9_2_relu_0_split -> conv9_2_conv9_2_relu_0_split_2
I0401 12:29:42.911928  1777 net.cpp:408] conv9_2_conv9_2_relu_0_split -> conv9_2_conv9_2_relu_0_split_3
I0401 12:29:42.912029  1777 net.cpp:150] Setting up conv9_2_conv9_2_relu_0_split
I0401 12:29:42.912039  1777 net.cpp:157] Top shape: 2 256 4 4 (8192)
I0401 12:29:42.912045  1777 net.cpp:157] Top shape: 2 256 4 4 (8192)
I0401 12:29:42.912050  1777 net.cpp:157] Top shape: 2 256 4 4 (8192)
I0401 12:29:42.912055  1777 net.cpp:157] Top shape: 2 256 4 4 (8192)
I0401 12:29:42.912058  1777 net.cpp:165] Memory required for data: 1372848320
I0401 12:29:42.912062  1777 layer_factory.hpp:77] Creating layer conv4_3_norm
I0401 12:29:42.912073  1777 net.cpp:100] Creating Layer conv4_3_norm
I0401 12:29:42.912081  1777 net.cpp:434] conv4_3_norm <- conv4_3_relu4_3_0_split_1
I0401 12:29:42.912086  1777 net.cpp:408] conv4_3_norm -> conv4_3_norm
I0401 12:29:42.912305  1777 net.cpp:150] Setting up conv4_3_norm
I0401 12:29:42.912315  1777 net.cpp:157] Top shape: 2 512 64 64 (4194304)
I0401 12:29:42.912319  1777 net.cpp:165] Memory required for data: 1389625536
I0401 12:29:42.912325  1777 layer_factory.hpp:77] Creating layer conv4_3_norm_conv4_3_norm_0_split
I0401 12:29:42.912335  1777 net.cpp:100] Creating Layer conv4_3_norm_conv4_3_norm_0_split
I0401 12:29:42.912340  1777 net.cpp:434] conv4_3_norm_conv4_3_norm_0_split <- conv4_3_norm
I0401 12:29:42.912348  1777 net.cpp:408] conv4_3_norm_conv4_3_norm_0_split -> conv4_3_norm_conv4_3_norm_0_split_0
I0401 12:29:42.912371  1777 net.cpp:408] conv4_3_norm_conv4_3_norm_0_split -> conv4_3_norm_conv4_3_norm_0_split_1
I0401 12:29:42.912382  1777 net.cpp:408] conv4_3_norm_conv4_3_norm_0_split -> conv4_3_norm_conv4_3_norm_0_split_2
I0401 12:29:42.912390  1777 net.cpp:408] conv4_3_norm_conv4_3_norm_0_split -> conv4_3_norm_conv4_3_norm_0_split_3
I0401 12:29:42.912475  1777 net.cpp:150] Setting up conv4_3_norm_conv4_3_norm_0_split
I0401 12:29:42.912485  1777 net.cpp:157] Top shape: 2 512 64 64 (4194304)
I0401 12:29:42.912490  1777 net.cpp:157] Top shape: 2 512 64 64 (4194304)
I0401 12:29:42.912494  1777 net.cpp:157] Top shape: 2 512 64 64 (4194304)
I0401 12:29:42.912499  1777 net.cpp:157] Top shape: 2 512 64 64 (4194304)
I0401 12:29:42.912503  1777 net.cpp:165] Memory required for data: 1456734400
I0401 12:29:42.912508  1777 layer_factory.hpp:77] Creating layer conv4_3_norm_mbox_loc
I0401 12:29:42.912521  1777 net.cpp:100] Creating Layer conv4_3_norm_mbox_loc
I0401 12:29:42.912528  1777 net.cpp:434] conv4_3_norm_mbox_loc <- conv4_3_norm_conv4_3_norm_0_split_0
I0401 12:29:42.912536  1777 net.cpp:408] conv4_3_norm_mbox_loc -> conv4_3_norm_mbox_loc
I0401 12:29:42.914314  1777 net.cpp:150] Setting up conv4_3_norm_mbox_loc
I0401 12:29:42.914331  1777 net.cpp:157] Top shape: 2 16 64 64 (131072)
I0401 12:29:42.914348  1777 net.cpp:165] Memory required for data: 1457258688
I0401 12:29:42.914357  1777 layer_factory.hpp:77] Creating layer conv4_3_norm_mbox_loc_perm
I0401 12:29:42.914367  1777 net.cpp:100] Creating Layer conv4_3_norm_mbox_loc_perm
I0401 12:29:42.914372  1777 net.cpp:434] conv4_3_norm_mbox_loc_perm <- conv4_3_norm_mbox_loc
I0401 12:29:42.914381  1777 net.cpp:408] conv4_3_norm_mbox_loc_perm -> conv4_3_norm_mbox_loc_perm
I0401 12:29:42.914537  1777 net.cpp:150] Setting up conv4_3_norm_mbox_loc_perm
I0401 12:29:42.914547  1777 net.cpp:157] Top shape: 2 64 64 16 (131072)
I0401 12:29:42.914552  1777 net.cpp:165] Memory required for data: 1457782976
I0401 12:29:42.914556  1777 layer_factory.hpp:77] Creating layer conv4_3_norm_mbox_loc_flat
I0401 12:29:42.914566  1777 net.cpp:100] Creating Layer conv4_3_norm_mbox_loc_flat
I0401 12:29:42.914573  1777 net.cpp:434] conv4_3_norm_mbox_loc_flat <- conv4_3_norm_mbox_loc_perm
I0401 12:29:42.914579  1777 net.cpp:408] conv4_3_norm_mbox_loc_flat -> conv4_3_norm_mbox_loc_flat
I0401 12:29:42.914618  1777 net.cpp:150] Setting up conv4_3_norm_mbox_loc_flat
I0401 12:29:42.914626  1777 net.cpp:157] Top shape: 2 65536 (131072)
I0401 12:29:42.914630  1777 net.cpp:165] Memory required for data: 1458307264
I0401 12:29:42.914634  1777 layer_factory.hpp:77] Creating layer conv4_3_norm_mbox_conf
I0401 12:29:42.914655  1777 net.cpp:100] Creating Layer conv4_3_norm_mbox_conf
I0401 12:29:42.914662  1777 net.cpp:434] conv4_3_norm_mbox_conf <- conv4_3_norm_conv4_3_norm_0_split_1
I0401 12:29:42.914671  1777 net.cpp:408] conv4_3_norm_mbox_conf -> conv4_3_norm_mbox_conf
I0401 12:29:42.916769  1777 net.cpp:150] Setting up conv4_3_norm_mbox_conf
I0401 12:29:42.916785  1777 net.cpp:157] Top shape: 2 8 64 64 (65536)
I0401 12:29:42.916801  1777 net.cpp:165] Memory required for data: 1458569408
I0401 12:29:42.916810  1777 layer_factory.hpp:77] Creating layer conv4_3_norm_mbox_conf_perm
I0401 12:29:42.916821  1777 net.cpp:100] Creating Layer conv4_3_norm_mbox_conf_perm
I0401 12:29:42.916826  1777 net.cpp:434] conv4_3_norm_mbox_conf_perm <- conv4_3_norm_mbox_conf
I0401 12:29:42.916834  1777 net.cpp:408] conv4_3_norm_mbox_conf_perm -> conv4_3_norm_mbox_conf_perm
I0401 12:29:42.916986  1777 net.cpp:150] Setting up conv4_3_norm_mbox_conf_perm
I0401 12:29:42.916999  1777 net.cpp:157] Top shape: 2 64 64 8 (65536)
I0401 12:29:42.917004  1777 net.cpp:165] Memory required for data: 1458831552
I0401 12:29:42.917008  1777 layer_factory.hpp:77] Creating layer conv4_3_norm_mbox_conf_flat
I0401 12:29:42.917016  1777 net.cpp:100] Creating Layer conv4_3_norm_mbox_conf_flat
I0401 12:29:42.917021  1777 net.cpp:434] conv4_3_norm_mbox_conf_flat <- conv4_3_norm_mbox_conf_perm
I0401 12:29:42.917027  1777 net.cpp:408] conv4_3_norm_mbox_conf_flat -> conv4_3_norm_mbox_conf_flat
I0401 12:29:42.917080  1777 net.cpp:150] Setting up conv4_3_norm_mbox_conf_flat
I0401 12:29:42.917090  1777 net.cpp:157] Top shape: 2 32768 (65536)
I0401 12:29:42.917095  1777 net.cpp:165] Memory required for data: 1459093696
I0401 12:29:42.917099  1777 layer_factory.hpp:77] Creating layer conv4_3_norm_mbox_clean
I0401 12:29:42.917111  1777 net.cpp:100] Creating Layer conv4_3_norm_mbox_clean
I0401 12:29:42.917119  1777 net.cpp:434] conv4_3_norm_mbox_clean <- conv4_3_norm_conv4_3_norm_0_split_2
I0401 12:29:42.917129  1777 net.cpp:408] conv4_3_norm_mbox_clean -> conv4_3_norm_mbox_clean
I0401 12:29:42.918679  1777 net.cpp:150] Setting up conv4_3_norm_mbox_clean
I0401 12:29:42.918694  1777 net.cpp:157] Top shape: 2 4 64 64 (32768)
I0401 12:29:42.918699  1777 net.cpp:165] Memory required for data: 1459224768
I0401 12:29:42.918706  1777 layer_factory.hpp:77] Creating layer conv4_3_norm_mbox_clean_perm
I0401 12:29:42.918716  1777 net.cpp:100] Creating Layer conv4_3_norm_mbox_clean_perm
I0401 12:29:42.918725  1777 net.cpp:434] conv4_3_norm_mbox_clean_perm <- conv4_3_norm_mbox_clean
I0401 12:29:42.918731  1777 net.cpp:408] conv4_3_norm_mbox_clean_perm -> conv4_3_norm_mbox_clean_perm
I0401 12:29:42.918887  1777 net.cpp:150] Setting up conv4_3_norm_mbox_clean_perm
I0401 12:29:42.918898  1777 net.cpp:157] Top shape: 2 64 64 4 (32768)
I0401 12:29:42.918902  1777 net.cpp:165] Memory required for data: 1459355840
I0401 12:29:42.918908  1777 layer_factory.hpp:77] Creating layer conv4_3_norm_mbox_clean_flat
I0401 12:29:42.918917  1777 net.cpp:100] Creating Layer conv4_3_norm_mbox_clean_flat
I0401 12:29:42.918922  1777 net.cpp:434] conv4_3_norm_mbox_clean_flat <- conv4_3_norm_mbox_clean_perm
I0401 12:29:42.918928  1777 net.cpp:408] conv4_3_norm_mbox_clean_flat -> conv4_3_norm_mbox_clean_flat
I0401 12:29:42.918965  1777 net.cpp:150] Setting up conv4_3_norm_mbox_clean_flat
I0401 12:29:42.918975  1777 net.cpp:157] Top shape: 2 16384 (32768)
I0401 12:29:42.918979  1777 net.cpp:165] Memory required for data: 1459486912
I0401 12:29:42.918983  1777 layer_factory.hpp:77] Creating layer conv4_3_norm_mbox_priorbox
I0401 12:29:42.918992  1777 net.cpp:100] Creating Layer conv4_3_norm_mbox_priorbox
I0401 12:29:42.918998  1777 net.cpp:434] conv4_3_norm_mbox_priorbox <- conv4_3_norm_conv4_3_norm_0_split_3
I0401 12:29:42.919004  1777 net.cpp:434] conv4_3_norm_mbox_priorbox <- data_data_0_split_1
I0401 12:29:42.919013  1777 net.cpp:408] conv4_3_norm_mbox_priorbox -> conv4_3_norm_mbox_priorbox
I0401 12:29:42.919049  1777 net.cpp:150] Setting up conv4_3_norm_mbox_priorbox
I0401 12:29:42.919059  1777 net.cpp:157] Top shape: 1 2 65536 (131072)
I0401 12:29:42.919064  1777 net.cpp:165] Memory required for data: 1460011200
I0401 12:29:42.919067  1777 layer_factory.hpp:77] Creating layer fc7_mbox_loc
I0401 12:29:42.919081  1777 net.cpp:100] Creating Layer fc7_mbox_loc
I0401 12:29:42.919088  1777 net.cpp:434] fc7_mbox_loc <- fc7_relu7_0_split_1
I0401 12:29:42.919095  1777 net.cpp:408] fc7_mbox_loc -> fc7_mbox_loc
I0401 12:29:42.922318  1777 net.cpp:150] Setting up fc7_mbox_loc
I0401 12:29:42.922334  1777 net.cpp:157] Top shape: 2 24 32 32 (49152)
I0401 12:29:42.922339  1777 net.cpp:165] Memory required for data: 1460207808
I0401 12:29:42.922348  1777 layer_factory.hpp:77] Creating layer fc7_mbox_loc_perm
I0401 12:29:42.922358  1777 net.cpp:100] Creating Layer fc7_mbox_loc_perm
I0401 12:29:42.922363  1777 net.cpp:434] fc7_mbox_loc_perm <- fc7_mbox_loc
I0401 12:29:42.922371  1777 net.cpp:408] fc7_mbox_loc_perm -> fc7_mbox_loc_perm
I0401 12:29:42.922531  1777 net.cpp:150] Setting up fc7_mbox_loc_perm
I0401 12:29:42.922566  1777 net.cpp:157] Top shape: 2 32 32 24 (49152)
I0401 12:29:42.922572  1777 net.cpp:165] Memory required for data: 1460404416
I0401 12:29:42.922579  1777 layer_factory.hpp:77] Creating layer fc7_mbox_loc_flat
I0401 12:29:42.922592  1777 net.cpp:100] Creating Layer fc7_mbox_loc_flat
I0401 12:29:42.922597  1777 net.cpp:434] fc7_mbox_loc_flat <- fc7_mbox_loc_perm
I0401 12:29:42.922616  1777 net.cpp:408] fc7_mbox_loc_flat -> fc7_mbox_loc_flat
I0401 12:29:42.922699  1777 net.cpp:150] Setting up fc7_mbox_loc_flat
I0401 12:29:42.922716  1777 net.cpp:157] Top shape: 2 24576 (49152)
I0401 12:29:42.922740  1777 net.cpp:165] Memory required for data: 1460601024
I0401 12:29:42.922757  1777 layer_factory.hpp:77] Creating layer fc7_mbox_conf
I0401 12:29:42.922796  1777 net.cpp:100] Creating Layer fc7_mbox_conf
I0401 12:29:42.922811  1777 net.cpp:434] fc7_mbox_conf <- fc7_relu7_0_split_2
I0401 12:29:42.922821  1777 net.cpp:408] fc7_mbox_conf -> fc7_mbox_conf
I0401 12:29:42.925374  1777 net.cpp:150] Setting up fc7_mbox_conf
I0401 12:29:42.925390  1777 net.cpp:157] Top shape: 2 12 32 32 (24576)
I0401 12:29:42.925407  1777 net.cpp:165] Memory required for data: 1460699328
I0401 12:29:42.925415  1777 layer_factory.hpp:77] Creating layer fc7_mbox_conf_perm
I0401 12:29:42.925426  1777 net.cpp:100] Creating Layer fc7_mbox_conf_perm
I0401 12:29:42.925434  1777 net.cpp:434] fc7_mbox_conf_perm <- fc7_mbox_conf
I0401 12:29:42.925441  1777 net.cpp:408] fc7_mbox_conf_perm -> fc7_mbox_conf_perm
I0401 12:29:42.925601  1777 net.cpp:150] Setting up fc7_mbox_conf_perm
I0401 12:29:42.925611  1777 net.cpp:157] Top shape: 2 32 32 12 (24576)
I0401 12:29:42.925616  1777 net.cpp:165] Memory required for data: 1460797632
I0401 12:29:42.925621  1777 layer_factory.hpp:77] Creating layer fc7_mbox_conf_flat
I0401 12:29:42.925631  1777 net.cpp:100] Creating Layer fc7_mbox_conf_flat
I0401 12:29:42.925637  1777 net.cpp:434] fc7_mbox_conf_flat <- fc7_mbox_conf_perm
I0401 12:29:42.925644  1777 net.cpp:408] fc7_mbox_conf_flat -> fc7_mbox_conf_flat
I0401 12:29:42.925681  1777 net.cpp:150] Setting up fc7_mbox_conf_flat
I0401 12:29:42.925690  1777 net.cpp:157] Top shape: 2 12288 (24576)
I0401 12:29:42.925694  1777 net.cpp:165] Memory required for data: 1460895936
I0401 12:29:42.925699  1777 layer_factory.hpp:77] Creating layer fc7_mbox_clean
I0401 12:29:42.925712  1777 net.cpp:100] Creating Layer fc7_mbox_clean
I0401 12:29:42.925719  1777 net.cpp:434] fc7_mbox_clean <- fc7_relu7_0_split_3
I0401 12:29:42.925726  1777 net.cpp:408] fc7_mbox_clean -> fc7_mbox_clean
I0401 12:29:42.927466  1777 net.cpp:150] Setting up fc7_mbox_clean
I0401 12:29:42.927484  1777 net.cpp:157] Top shape: 2 6 32 32 (12288)
I0401 12:29:42.927490  1777 net.cpp:165] Memory required for data: 1460945088
I0401 12:29:42.927498  1777 layer_factory.hpp:77] Creating layer fc7_mbox_clean_perm
I0401 12:29:42.927507  1777 net.cpp:100] Creating Layer fc7_mbox_clean_perm
I0401 12:29:42.927515  1777 net.cpp:434] fc7_mbox_clean_perm <- fc7_mbox_clean
I0401 12:29:42.927522  1777 net.cpp:408] fc7_mbox_clean_perm -> fc7_mbox_clean_perm
I0401 12:29:42.927700  1777 net.cpp:150] Setting up fc7_mbox_clean_perm
I0401 12:29:42.927711  1777 net.cpp:157] Top shape: 2 32 32 6 (12288)
I0401 12:29:42.927714  1777 net.cpp:165] Memory required for data: 1460994240
I0401 12:29:42.927719  1777 layer_factory.hpp:77] Creating layer fc7_mbox_clean_flat
I0401 12:29:42.927731  1777 net.cpp:100] Creating Layer fc7_mbox_clean_flat
I0401 12:29:42.927738  1777 net.cpp:434] fc7_mbox_clean_flat <- fc7_mbox_clean_perm
I0401 12:29:42.927744  1777 net.cpp:408] fc7_mbox_clean_flat -> fc7_mbox_clean_flat
I0401 12:29:42.927784  1777 net.cpp:150] Setting up fc7_mbox_clean_flat
I0401 12:29:42.927794  1777 net.cpp:157] Top shape: 2 6144 (12288)
I0401 12:29:42.927798  1777 net.cpp:165] Memory required for data: 1461043392
I0401 12:29:42.927803  1777 layer_factory.hpp:77] Creating layer fc7_mbox_priorbox
I0401 12:29:42.927812  1777 net.cpp:100] Creating Layer fc7_mbox_priorbox
I0401 12:29:42.927819  1777 net.cpp:434] fc7_mbox_priorbox <- fc7_relu7_0_split_4
I0401 12:29:42.927825  1777 net.cpp:434] fc7_mbox_priorbox <- data_data_0_split_2
I0401 12:29:42.927832  1777 net.cpp:408] fc7_mbox_priorbox -> fc7_mbox_priorbox
I0401 12:29:42.927873  1777 net.cpp:150] Setting up fc7_mbox_priorbox
I0401 12:29:42.927882  1777 net.cpp:157] Top shape: 1 2 24576 (49152)
I0401 12:29:42.927887  1777 net.cpp:165] Memory required for data: 1461240000
I0401 12:29:42.927891  1777 layer_factory.hpp:77] Creating layer conv6_2_mbox_loc
I0401 12:29:42.927913  1777 net.cpp:100] Creating Layer conv6_2_mbox_loc
I0401 12:29:42.927922  1777 net.cpp:434] conv6_2_mbox_loc <- conv6_2_conv6_2_relu_0_split_1
I0401 12:29:42.927930  1777 net.cpp:408] conv6_2_mbox_loc -> conv6_2_mbox_loc
I0401 12:29:42.929992  1777 net.cpp:150] Setting up conv6_2_mbox_loc
I0401 12:29:42.930007  1777 net.cpp:157] Top shape: 2 24 16 16 (12288)
I0401 12:29:42.930012  1777 net.cpp:165] Memory required for data: 1461289152
I0401 12:29:42.930022  1777 layer_factory.hpp:77] Creating layer conv6_2_mbox_loc_perm
I0401 12:29:42.930032  1777 net.cpp:100] Creating Layer conv6_2_mbox_loc_perm
I0401 12:29:42.930037  1777 net.cpp:434] conv6_2_mbox_loc_perm <- conv6_2_mbox_loc
I0401 12:29:42.930043  1777 net.cpp:408] conv6_2_mbox_loc_perm -> conv6_2_mbox_loc_perm
I0401 12:29:42.930198  1777 net.cpp:150] Setting up conv6_2_mbox_loc_perm
I0401 12:29:42.930208  1777 net.cpp:157] Top shape: 2 16 16 24 (12288)
I0401 12:29:42.930213  1777 net.cpp:165] Memory required for data: 1461338304
I0401 12:29:42.930219  1777 layer_factory.hpp:77] Creating layer conv6_2_mbox_loc_flat
I0401 12:29:42.930227  1777 net.cpp:100] Creating Layer conv6_2_mbox_loc_flat
I0401 12:29:42.930233  1777 net.cpp:434] conv6_2_mbox_loc_flat <- conv6_2_mbox_loc_perm
I0401 12:29:42.930240  1777 net.cpp:408] conv6_2_mbox_loc_flat -> conv6_2_mbox_loc_flat
I0401 12:29:42.930277  1777 net.cpp:150] Setting up conv6_2_mbox_loc_flat
I0401 12:29:42.930289  1777 net.cpp:157] Top shape: 2 6144 (12288)
I0401 12:29:42.930294  1777 net.cpp:165] Memory required for data: 1461387456
I0401 12:29:42.930297  1777 layer_factory.hpp:77] Creating layer conv6_2_mbox_conf
I0401 12:29:42.930310  1777 net.cpp:100] Creating Layer conv6_2_mbox_conf
I0401 12:29:42.930316  1777 net.cpp:434] conv6_2_mbox_conf <- conv6_2_conv6_2_relu_0_split_2
I0401 12:29:42.930326  1777 net.cpp:408] conv6_2_mbox_conf -> conv6_2_mbox_conf
I0401 12:29:42.932083  1777 net.cpp:150] Setting up conv6_2_mbox_conf
I0401 12:29:42.932098  1777 net.cpp:157] Top shape: 2 12 16 16 (6144)
I0401 12:29:42.932116  1777 net.cpp:165] Memory required for data: 1461412032
I0401 12:29:42.932124  1777 layer_factory.hpp:77] Creating layer conv6_2_mbox_conf_perm
I0401 12:29:42.932133  1777 net.cpp:100] Creating Layer conv6_2_mbox_conf_perm
I0401 12:29:42.932139  1777 net.cpp:434] conv6_2_mbox_conf_perm <- conv6_2_mbox_conf
I0401 12:29:42.932147  1777 net.cpp:408] conv6_2_mbox_conf_perm -> conv6_2_mbox_conf_perm
I0401 12:29:42.932299  1777 net.cpp:150] Setting up conv6_2_mbox_conf_perm
I0401 12:29:42.932309  1777 net.cpp:157] Top shape: 2 16 16 12 (6144)
I0401 12:29:42.932314  1777 net.cpp:165] Memory required for data: 1461436608
I0401 12:29:42.932319  1777 layer_factory.hpp:77] Creating layer conv6_2_mbox_conf_flat
I0401 12:29:42.932327  1777 net.cpp:100] Creating Layer conv6_2_mbox_conf_flat
I0401 12:29:42.932332  1777 net.cpp:434] conv6_2_mbox_conf_flat <- conv6_2_mbox_conf_perm
I0401 12:29:42.932339  1777 net.cpp:408] conv6_2_mbox_conf_flat -> conv6_2_mbox_conf_flat
I0401 12:29:42.932379  1777 net.cpp:150] Setting up conv6_2_mbox_conf_flat
I0401 12:29:42.932387  1777 net.cpp:157] Top shape: 2 3072 (6144)
I0401 12:29:42.932392  1777 net.cpp:165] Memory required for data: 1461461184
I0401 12:29:42.932396  1777 layer_factory.hpp:77] Creating layer conv6_2_mbox_clean
I0401 12:29:42.932409  1777 net.cpp:100] Creating Layer conv6_2_mbox_clean
I0401 12:29:42.932415  1777 net.cpp:434] conv6_2_mbox_clean <- conv6_2_conv6_2_relu_0_split_3
I0401 12:29:42.932422  1777 net.cpp:408] conv6_2_mbox_clean -> conv6_2_mbox_clean
I0401 12:29:42.933821  1777 net.cpp:150] Setting up conv6_2_mbox_clean
I0401 12:29:42.933836  1777 net.cpp:157] Top shape: 2 6 16 16 (3072)
I0401 12:29:42.933853  1777 net.cpp:165] Memory required for data: 1461473472
I0401 12:29:42.933876  1777 layer_factory.hpp:77] Creating layer conv6_2_mbox_clean_perm
I0401 12:29:42.933884  1777 net.cpp:100] Creating Layer conv6_2_mbox_clean_perm
I0401 12:29:42.933890  1777 net.cpp:434] conv6_2_mbox_clean_perm <- conv6_2_mbox_clean
I0401 12:29:42.933907  1777 net.cpp:408] conv6_2_mbox_clean_perm -> conv6_2_mbox_clean_perm
I0401 12:29:42.934073  1777 net.cpp:150] Setting up conv6_2_mbox_clean_perm
I0401 12:29:42.934083  1777 net.cpp:157] Top shape: 2 16 16 6 (3072)
I0401 12:29:42.934088  1777 net.cpp:165] Memory required for data: 1461485760
I0401 12:29:42.934092  1777 layer_factory.hpp:77] Creating layer conv6_2_mbox_clean_flat
I0401 12:29:42.934099  1777 net.cpp:100] Creating Layer conv6_2_mbox_clean_flat
I0401 12:29:42.934104  1777 net.cpp:434] conv6_2_mbox_clean_flat <- conv6_2_mbox_clean_perm
I0401 12:29:42.934110  1777 net.cpp:408] conv6_2_mbox_clean_flat -> conv6_2_mbox_clean_flat
I0401 12:29:42.934149  1777 net.cpp:150] Setting up conv6_2_mbox_clean_flat
I0401 12:29:42.934157  1777 net.cpp:157] Top shape: 2 1536 (3072)
I0401 12:29:42.934162  1777 net.cpp:165] Memory required for data: 1461498048
I0401 12:29:42.934167  1777 layer_factory.hpp:77] Creating layer conv6_2_mbox_priorbox
I0401 12:29:42.934176  1777 net.cpp:100] Creating Layer conv6_2_mbox_priorbox
I0401 12:29:42.934183  1777 net.cpp:434] conv6_2_mbox_priorbox <- conv6_2_conv6_2_relu_0_split_4
I0401 12:29:42.934190  1777 net.cpp:434] conv6_2_mbox_priorbox <- data_data_0_split_3
I0401 12:29:42.934196  1777 net.cpp:408] conv6_2_mbox_priorbox -> conv6_2_mbox_priorbox
I0401 12:29:42.934237  1777 net.cpp:150] Setting up conv6_2_mbox_priorbox
I0401 12:29:42.934247  1777 net.cpp:157] Top shape: 1 2 6144 (12288)
I0401 12:29:42.934250  1777 net.cpp:165] Memory required for data: 1461547200
I0401 12:29:42.934255  1777 layer_factory.hpp:77] Creating layer conv7_2_mbox_loc
I0401 12:29:42.934267  1777 net.cpp:100] Creating Layer conv7_2_mbox_loc
I0401 12:29:42.934273  1777 net.cpp:434] conv7_2_mbox_loc <- conv7_2_conv7_2_relu_0_split_1
I0401 12:29:42.934283  1777 net.cpp:408] conv7_2_mbox_loc -> conv7_2_mbox_loc
I0401 12:29:42.936223  1777 net.cpp:150] Setting up conv7_2_mbox_loc
I0401 12:29:42.936239  1777 net.cpp:157] Top shape: 2 24 8 8 (3072)
I0401 12:29:42.936255  1777 net.cpp:165] Memory required for data: 1461559488
I0401 12:29:42.936264  1777 layer_factory.hpp:77] Creating layer conv7_2_mbox_loc_perm
I0401 12:29:42.936274  1777 net.cpp:100] Creating Layer conv7_2_mbox_loc_perm
I0401 12:29:42.936280  1777 net.cpp:434] conv7_2_mbox_loc_perm <- conv7_2_mbox_loc
I0401 12:29:42.936288  1777 net.cpp:408] conv7_2_mbox_loc_perm -> conv7_2_mbox_loc_perm
I0401 12:29:42.936461  1777 net.cpp:150] Setting up conv7_2_mbox_loc_perm
I0401 12:29:42.936475  1777 net.cpp:157] Top shape: 2 8 8 24 (3072)
I0401 12:29:42.936478  1777 net.cpp:165] Memory required for data: 1461571776
I0401 12:29:42.936483  1777 layer_factory.hpp:77] Creating layer conv7_2_mbox_loc_flat
I0401 12:29:42.936491  1777 net.cpp:100] Creating Layer conv7_2_mbox_loc_flat
I0401 12:29:42.936496  1777 net.cpp:434] conv7_2_mbox_loc_flat <- conv7_2_mbox_loc_perm
I0401 12:29:42.936502  1777 net.cpp:408] conv7_2_mbox_loc_flat -> conv7_2_mbox_loc_flat
I0401 12:29:42.936542  1777 net.cpp:150] Setting up conv7_2_mbox_loc_flat
I0401 12:29:42.936550  1777 net.cpp:157] Top shape: 2 1536 (3072)
I0401 12:29:42.936555  1777 net.cpp:165] Memory required for data: 1461584064
I0401 12:29:42.936560  1777 layer_factory.hpp:77] Creating layer conv7_2_mbox_conf
I0401 12:29:42.936571  1777 net.cpp:100] Creating Layer conv7_2_mbox_conf
I0401 12:29:42.936579  1777 net.cpp:434] conv7_2_mbox_conf <- conv7_2_conv7_2_relu_0_split_2
I0401 12:29:42.936589  1777 net.cpp:408] conv7_2_mbox_conf -> conv7_2_mbox_conf
I0401 12:29:42.938287  1777 net.cpp:150] Setting up conv7_2_mbox_conf
I0401 12:29:42.938302  1777 net.cpp:157] Top shape: 2 12 8 8 (1536)
I0401 12:29:42.938319  1777 net.cpp:165] Memory required for data: 1461590208
I0401 12:29:42.938328  1777 layer_factory.hpp:77] Creating layer conv7_2_mbox_conf_perm
I0401 12:29:42.938335  1777 net.cpp:100] Creating Layer conv7_2_mbox_conf_perm
I0401 12:29:42.938341  1777 net.cpp:434] conv7_2_mbox_conf_perm <- conv7_2_mbox_conf
I0401 12:29:42.938350  1777 net.cpp:408] conv7_2_mbox_conf_perm -> conv7_2_mbox_conf_perm
I0401 12:29:42.938529  1777 net.cpp:150] Setting up conv7_2_mbox_conf_perm
I0401 12:29:42.938541  1777 net.cpp:157] Top shape: 2 8 8 12 (1536)
I0401 12:29:42.938546  1777 net.cpp:165] Memory required for data: 1461596352
I0401 12:29:42.938551  1777 layer_factory.hpp:77] Creating layer conv7_2_mbox_conf_flat
I0401 12:29:42.938558  1777 net.cpp:100] Creating Layer conv7_2_mbox_conf_flat
I0401 12:29:42.938563  1777 net.cpp:434] conv7_2_mbox_conf_flat <- conv7_2_mbox_conf_perm
I0401 12:29:42.938570  1777 net.cpp:408] conv7_2_mbox_conf_flat -> conv7_2_mbox_conf_flat
I0401 12:29:42.938611  1777 net.cpp:150] Setting up conv7_2_mbox_conf_flat
I0401 12:29:42.938619  1777 net.cpp:157] Top shape: 2 768 (1536)
I0401 12:29:42.938624  1777 net.cpp:165] Memory required for data: 1461602496
I0401 12:29:42.938630  1777 layer_factory.hpp:77] Creating layer conv7_2_mbox_clean
I0401 12:29:42.938643  1777 net.cpp:100] Creating Layer conv7_2_mbox_clean
I0401 12:29:42.938652  1777 net.cpp:434] conv7_2_mbox_clean <- conv7_2_conv7_2_relu_0_split_3
I0401 12:29:42.938658  1777 net.cpp:408] conv7_2_mbox_clean -> conv7_2_mbox_clean
I0401 12:29:42.940186  1777 net.cpp:150] Setting up conv7_2_mbox_clean
I0401 12:29:42.940202  1777 net.cpp:157] Top shape: 2 6 8 8 (768)
I0401 12:29:42.940219  1777 net.cpp:165] Memory required for data: 1461605568
I0401 12:29:42.940227  1777 layer_factory.hpp:77] Creating layer conv7_2_mbox_clean_perm
I0401 12:29:42.940235  1777 net.cpp:100] Creating Layer conv7_2_mbox_clean_perm
I0401 12:29:42.940241  1777 net.cpp:434] conv7_2_mbox_clean_perm <- conv7_2_mbox_clean
I0401 12:29:42.940249  1777 net.cpp:408] conv7_2_mbox_clean_perm -> conv7_2_mbox_clean_perm
I0401 12:29:42.940423  1777 net.cpp:150] Setting up conv7_2_mbox_clean_perm
I0401 12:29:42.940434  1777 net.cpp:157] Top shape: 2 8 8 6 (768)
I0401 12:29:42.940439  1777 net.cpp:165] Memory required for data: 1461608640
I0401 12:29:42.940444  1777 layer_factory.hpp:77] Creating layer conv7_2_mbox_clean_flat
I0401 12:29:42.940452  1777 net.cpp:100] Creating Layer conv7_2_mbox_clean_flat
I0401 12:29:42.940461  1777 net.cpp:434] conv7_2_mbox_clean_flat <- conv7_2_mbox_clean_perm
I0401 12:29:42.940469  1777 net.cpp:408] conv7_2_mbox_clean_flat -> conv7_2_mbox_clean_flat
I0401 12:29:42.940508  1777 net.cpp:150] Setting up conv7_2_mbox_clean_flat
I0401 12:29:42.940517  1777 net.cpp:157] Top shape: 2 384 (768)
I0401 12:29:42.940521  1777 net.cpp:165] Memory required for data: 1461611712
I0401 12:29:42.940527  1777 layer_factory.hpp:77] Creating layer conv7_2_mbox_priorbox
I0401 12:29:42.940536  1777 net.cpp:100] Creating Layer conv7_2_mbox_priorbox
I0401 12:29:42.940554  1777 net.cpp:434] conv7_2_mbox_priorbox <- conv7_2_conv7_2_relu_0_split_4
I0401 12:29:42.940560  1777 net.cpp:434] conv7_2_mbox_priorbox <- data_data_0_split_4
I0401 12:29:42.940567  1777 net.cpp:408] conv7_2_mbox_priorbox -> conv7_2_mbox_priorbox
I0401 12:29:42.940610  1777 net.cpp:150] Setting up conv7_2_mbox_priorbox
I0401 12:29:42.940619  1777 net.cpp:157] Top shape: 1 2 1536 (3072)
I0401 12:29:42.940623  1777 net.cpp:165] Memory required for data: 1461624000
I0401 12:29:42.940627  1777 layer_factory.hpp:77] Creating layer conv8_2_mbox_loc
I0401 12:29:42.940639  1777 net.cpp:100] Creating Layer conv8_2_mbox_loc
I0401 12:29:42.940646  1777 net.cpp:434] conv8_2_mbox_loc <- conv8_2_conv8_2_relu_0_split_1
I0401 12:29:42.940654  1777 net.cpp:408] conv8_2_mbox_loc -> conv8_2_mbox_loc
I0401 12:29:42.942765  1777 net.cpp:150] Setting up conv8_2_mbox_loc
I0401 12:29:42.942781  1777 net.cpp:157] Top shape: 2 16 6 6 (1152)
I0401 12:29:42.942786  1777 net.cpp:165] Memory required for data: 1461628608
I0401 12:29:42.942795  1777 layer_factory.hpp:77] Creating layer conv8_2_mbox_loc_perm
I0401 12:29:42.942804  1777 net.cpp:100] Creating Layer conv8_2_mbox_loc_perm
I0401 12:29:42.942811  1777 net.cpp:434] conv8_2_mbox_loc_perm <- conv8_2_mbox_loc
I0401 12:29:42.942818  1777 net.cpp:408] conv8_2_mbox_loc_perm -> conv8_2_mbox_loc_perm
I0401 12:29:42.942986  1777 net.cpp:150] Setting up conv8_2_mbox_loc_perm
I0401 12:29:42.943006  1777 net.cpp:157] Top shape: 2 6 6 16 (1152)
I0401 12:29:42.943011  1777 net.cpp:165] Memory required for data: 1461633216
I0401 12:29:42.943014  1777 layer_factory.hpp:77] Creating layer conv8_2_mbox_loc_flat
I0401 12:29:42.943022  1777 net.cpp:100] Creating Layer conv8_2_mbox_loc_flat
I0401 12:29:42.943028  1777 net.cpp:434] conv8_2_mbox_loc_flat <- conv8_2_mbox_loc_perm
I0401 12:29:42.943037  1777 net.cpp:408] conv8_2_mbox_loc_flat -> conv8_2_mbox_loc_flat
I0401 12:29:42.943078  1777 net.cpp:150] Setting up conv8_2_mbox_loc_flat
I0401 12:29:42.943086  1777 net.cpp:157] Top shape: 2 576 (1152)
I0401 12:29:42.943090  1777 net.cpp:165] Memory required for data: 1461637824
I0401 12:29:42.943096  1777 layer_factory.hpp:77] Creating layer conv8_2_mbox_conf
I0401 12:29:42.943109  1777 net.cpp:100] Creating Layer conv8_2_mbox_conf
I0401 12:29:42.943115  1777 net.cpp:434] conv8_2_mbox_conf <- conv8_2_conv8_2_relu_0_split_2
I0401 12:29:42.943123  1777 net.cpp:408] conv8_2_mbox_conf -> conv8_2_mbox_conf
I0401 12:29:42.944640  1777 net.cpp:150] Setting up conv8_2_mbox_conf
I0401 12:29:42.944656  1777 net.cpp:157] Top shape: 2 8 6 6 (576)
I0401 12:29:42.944661  1777 net.cpp:165] Memory required for data: 1461640128
I0401 12:29:42.944669  1777 layer_factory.hpp:77] Creating layer conv8_2_mbox_conf_perm
I0401 12:29:42.944679  1777 net.cpp:100] Creating Layer conv8_2_mbox_conf_perm
I0401 12:29:42.944684  1777 net.cpp:434] conv8_2_mbox_conf_perm <- conv8_2_mbox_conf
I0401 12:29:42.944694  1777 net.cpp:408] conv8_2_mbox_conf_perm -> conv8_2_mbox_conf_perm
I0401 12:29:42.944874  1777 net.cpp:150] Setting up conv8_2_mbox_conf_perm
I0401 12:29:42.944883  1777 net.cpp:157] Top shape: 2 6 6 8 (576)
I0401 12:29:42.944888  1777 net.cpp:165] Memory required for data: 1461642432
I0401 12:29:42.944892  1777 layer_factory.hpp:77] Creating layer conv8_2_mbox_conf_flat
I0401 12:29:42.944900  1777 net.cpp:100] Creating Layer conv8_2_mbox_conf_flat
I0401 12:29:42.944906  1777 net.cpp:434] conv8_2_mbox_conf_flat <- conv8_2_mbox_conf_perm
I0401 12:29:42.944913  1777 net.cpp:408] conv8_2_mbox_conf_flat -> conv8_2_mbox_conf_flat
I0401 12:29:42.944953  1777 net.cpp:150] Setting up conv8_2_mbox_conf_flat
I0401 12:29:42.944962  1777 net.cpp:157] Top shape: 2 288 (576)
I0401 12:29:42.944967  1777 net.cpp:165] Memory required for data: 1461644736
I0401 12:29:42.944972  1777 layer_factory.hpp:77] Creating layer conv8_2_mbox_clean
I0401 12:29:42.944985  1777 net.cpp:100] Creating Layer conv8_2_mbox_clean
I0401 12:29:42.944993  1777 net.cpp:434] conv8_2_mbox_clean <- conv8_2_conv8_2_relu_0_split_3
I0401 12:29:42.945000  1777 net.cpp:408] conv8_2_mbox_clean -> conv8_2_mbox_clean
I0401 12:29:42.946578  1777 net.cpp:150] Setting up conv8_2_mbox_clean
I0401 12:29:42.946593  1777 net.cpp:157] Top shape: 2 4 6 6 (288)
I0401 12:29:42.946610  1777 net.cpp:165] Memory required for data: 1461645888
I0401 12:29:42.946619  1777 layer_factory.hpp:77] Creating layer conv8_2_mbox_clean_perm
I0401 12:29:42.946626  1777 net.cpp:100] Creating Layer conv8_2_mbox_clean_perm
I0401 12:29:42.946631  1777 net.cpp:434] conv8_2_mbox_clean_perm <- conv8_2_mbox_clean
I0401 12:29:42.946640  1777 net.cpp:408] conv8_2_mbox_clean_perm -> conv8_2_mbox_clean_perm
I0401 12:29:42.946812  1777 net.cpp:150] Setting up conv8_2_mbox_clean_perm
I0401 12:29:42.946822  1777 net.cpp:157] Top shape: 2 6 6 4 (288)
I0401 12:29:42.946827  1777 net.cpp:165] Memory required for data: 1461647040
I0401 12:29:42.946831  1777 layer_factory.hpp:77] Creating layer conv8_2_mbox_clean_flat
I0401 12:29:42.946840  1777 net.cpp:100] Creating Layer conv8_2_mbox_clean_flat
I0401 12:29:42.946847  1777 net.cpp:434] conv8_2_mbox_clean_flat <- conv8_2_mbox_clean_perm
I0401 12:29:42.946853  1777 net.cpp:408] conv8_2_mbox_clean_flat -> conv8_2_mbox_clean_flat
I0401 12:29:42.946893  1777 net.cpp:150] Setting up conv8_2_mbox_clean_flat
I0401 12:29:42.946902  1777 net.cpp:157] Top shape: 2 144 (288)
I0401 12:29:42.946907  1777 net.cpp:165] Memory required for data: 1461648192
I0401 12:29:42.946912  1777 layer_factory.hpp:77] Creating layer conv8_2_mbox_priorbox
I0401 12:29:42.946931  1777 net.cpp:100] Creating Layer conv8_2_mbox_priorbox
I0401 12:29:42.946939  1777 net.cpp:434] conv8_2_mbox_priorbox <- conv8_2_conv8_2_relu_0_split_4
I0401 12:29:42.946945  1777 net.cpp:434] conv8_2_mbox_priorbox <- data_data_0_split_5
I0401 12:29:42.946951  1777 net.cpp:408] conv8_2_mbox_priorbox -> conv8_2_mbox_priorbox
I0401 12:29:42.946995  1777 net.cpp:150] Setting up conv8_2_mbox_priorbox
I0401 12:29:42.947005  1777 net.cpp:157] Top shape: 1 2 576 (1152)
I0401 12:29:42.947008  1777 net.cpp:165] Memory required for data: 1461652800
I0401 12:29:42.947013  1777 layer_factory.hpp:77] Creating layer conv9_2_mbox_loc
I0401 12:29:42.947026  1777 net.cpp:100] Creating Layer conv9_2_mbox_loc
I0401 12:29:42.947032  1777 net.cpp:434] conv9_2_mbox_loc <- conv9_2_conv9_2_relu_0_split_0
I0401 12:29:42.947041  1777 net.cpp:408] conv9_2_mbox_loc -> conv9_2_mbox_loc
I0401 12:29:42.948657  1777 net.cpp:150] Setting up conv9_2_mbox_loc
I0401 12:29:42.948673  1777 net.cpp:157] Top shape: 2 16 4 4 (512)
I0401 12:29:42.948689  1777 net.cpp:165] Memory required for data: 1461654848
I0401 12:29:42.948698  1777 layer_factory.hpp:77] Creating layer conv9_2_mbox_loc_perm
I0401 12:29:42.948707  1777 net.cpp:100] Creating Layer conv9_2_mbox_loc_perm
I0401 12:29:42.948714  1777 net.cpp:434] conv9_2_mbox_loc_perm <- conv9_2_mbox_loc
I0401 12:29:42.948720  1777 net.cpp:408] conv9_2_mbox_loc_perm -> conv9_2_mbox_loc_perm
I0401 12:29:42.948889  1777 net.cpp:150] Setting up conv9_2_mbox_loc_perm
I0401 12:29:42.948900  1777 net.cpp:157] Top shape: 2 4 4 16 (512)
I0401 12:29:42.948904  1777 net.cpp:165] Memory required for data: 1461656896
I0401 12:29:42.948909  1777 layer_factory.hpp:77] Creating layer conv9_2_mbox_loc_flat
I0401 12:29:42.948915  1777 net.cpp:100] Creating Layer conv9_2_mbox_loc_flat
I0401 12:29:42.948920  1777 net.cpp:434] conv9_2_mbox_loc_flat <- conv9_2_mbox_loc_perm
I0401 12:29:42.948926  1777 net.cpp:408] conv9_2_mbox_loc_flat -> conv9_2_mbox_loc_flat
I0401 12:29:42.948966  1777 net.cpp:150] Setting up conv9_2_mbox_loc_flat
I0401 12:29:42.948976  1777 net.cpp:157] Top shape: 2 256 (512)
I0401 12:29:42.948982  1777 net.cpp:165] Memory required for data: 1461658944
I0401 12:29:42.948987  1777 layer_factory.hpp:77] Creating layer conv9_2_mbox_conf
I0401 12:29:42.948997  1777 net.cpp:100] Creating Layer conv9_2_mbox_conf
I0401 12:29:42.949004  1777 net.cpp:434] conv9_2_mbox_conf <- conv9_2_conv9_2_relu_0_split_1
I0401 12:29:42.949012  1777 net.cpp:408] conv9_2_mbox_conf -> conv9_2_mbox_conf
I0401 12:29:42.950537  1777 net.cpp:150] Setting up conv9_2_mbox_conf
I0401 12:29:42.950552  1777 net.cpp:157] Top shape: 2 8 4 4 (256)
I0401 12:29:42.950569  1777 net.cpp:165] Memory required for data: 1461659968
I0401 12:29:42.950578  1777 layer_factory.hpp:77] Creating layer conv9_2_mbox_conf_perm
I0401 12:29:42.950587  1777 net.cpp:100] Creating Layer conv9_2_mbox_conf_perm
I0401 12:29:42.950593  1777 net.cpp:434] conv9_2_mbox_conf_perm <- conv9_2_mbox_conf
I0401 12:29:42.950603  1777 net.cpp:408] conv9_2_mbox_conf_perm -> conv9_2_mbox_conf_perm
I0401 12:29:42.950770  1777 net.cpp:150] Setting up conv9_2_mbox_conf_perm
I0401 12:29:42.950781  1777 net.cpp:157] Top shape: 2 4 4 8 (256)
I0401 12:29:42.950786  1777 net.cpp:165] Memory required for data: 1461660992
I0401 12:29:42.950790  1777 layer_factory.hpp:77] Creating layer conv9_2_mbox_conf_flat
I0401 12:29:42.950798  1777 net.cpp:100] Creating Layer conv9_2_mbox_conf_flat
I0401 12:29:42.950803  1777 net.cpp:434] conv9_2_mbox_conf_flat <- conv9_2_mbox_conf_perm
I0401 12:29:42.950809  1777 net.cpp:408] conv9_2_mbox_conf_flat -> conv9_2_mbox_conf_flat
I0401 12:29:42.950847  1777 net.cpp:150] Setting up conv9_2_mbox_conf_flat
I0401 12:29:42.950856  1777 net.cpp:157] Top shape: 2 128 (256)
I0401 12:29:42.950861  1777 net.cpp:165] Memory required for data: 1461662016
I0401 12:29:42.950865  1777 layer_factory.hpp:77] Creating layer conv9_2_mbox_clean
I0401 12:29:42.950875  1777 net.cpp:100] Creating Layer conv9_2_mbox_clean
I0401 12:29:42.950893  1777 net.cpp:434] conv9_2_mbox_clean <- conv9_2_conv9_2_relu_0_split_2
I0401 12:29:42.950903  1777 net.cpp:408] conv9_2_mbox_clean -> conv9_2_mbox_clean
I0401 12:29:42.952389  1777 net.cpp:150] Setting up conv9_2_mbox_clean
I0401 12:29:42.952404  1777 net.cpp:157] Top shape: 2 4 4 4 (128)
I0401 12:29:42.952420  1777 net.cpp:165] Memory required for data: 1461662528
I0401 12:29:42.952430  1777 layer_factory.hpp:77] Creating layer conv9_2_mbox_clean_perm
I0401 12:29:42.952440  1777 net.cpp:100] Creating Layer conv9_2_mbox_clean_perm
I0401 12:29:42.952445  1777 net.cpp:434] conv9_2_mbox_clean_perm <- conv9_2_mbox_clean
I0401 12:29:42.952455  1777 net.cpp:408] conv9_2_mbox_clean_perm -> conv9_2_mbox_clean_perm
I0401 12:29:42.952623  1777 net.cpp:150] Setting up conv9_2_mbox_clean_perm
I0401 12:29:42.952636  1777 net.cpp:157] Top shape: 2 4 4 4 (128)
I0401 12:29:42.952641  1777 net.cpp:165] Memory required for data: 1461663040
I0401 12:29:42.952646  1777 layer_factory.hpp:77] Creating layer conv9_2_mbox_clean_flat
I0401 12:29:42.952652  1777 net.cpp:100] Creating Layer conv9_2_mbox_clean_flat
I0401 12:29:42.952661  1777 net.cpp:434] conv9_2_mbox_clean_flat <- conv9_2_mbox_clean_perm
I0401 12:29:42.952666  1777 net.cpp:408] conv9_2_mbox_clean_flat -> conv9_2_mbox_clean_flat
I0401 12:29:42.952708  1777 net.cpp:150] Setting up conv9_2_mbox_clean_flat
I0401 12:29:42.952716  1777 net.cpp:157] Top shape: 2 64 (128)
I0401 12:29:42.952720  1777 net.cpp:165] Memory required for data: 1461663552
I0401 12:29:42.952724  1777 layer_factory.hpp:77] Creating layer conv9_2_mbox_priorbox
I0401 12:29:42.952733  1777 net.cpp:100] Creating Layer conv9_2_mbox_priorbox
I0401 12:29:42.952740  1777 net.cpp:434] conv9_2_mbox_priorbox <- conv9_2_conv9_2_relu_0_split_3
I0401 12:29:42.952746  1777 net.cpp:434] conv9_2_mbox_priorbox <- data_data_0_split_6
I0401 12:29:42.952754  1777 net.cpp:408] conv9_2_mbox_priorbox -> conv9_2_mbox_priorbox
I0401 12:29:42.952795  1777 net.cpp:150] Setting up conv9_2_mbox_priorbox
I0401 12:29:42.952805  1777 net.cpp:157] Top shape: 1 2 256 (512)
I0401 12:29:42.952810  1777 net.cpp:165] Memory required for data: 1461665600
I0401 12:29:42.952813  1777 layer_factory.hpp:77] Creating layer mbox_loc
I0401 12:29:42.952822  1777 net.cpp:100] Creating Layer mbox_loc
I0401 12:29:42.952831  1777 net.cpp:434] mbox_loc <- conv4_3_norm_mbox_loc_flat
I0401 12:29:42.952836  1777 net.cpp:434] mbox_loc <- fc7_mbox_loc_flat
I0401 12:29:42.952844  1777 net.cpp:434] mbox_loc <- conv6_2_mbox_loc_flat
I0401 12:29:42.952852  1777 net.cpp:434] mbox_loc <- conv7_2_mbox_loc_flat
I0401 12:29:42.952858  1777 net.cpp:434] mbox_loc <- conv8_2_mbox_loc_flat
I0401 12:29:42.952863  1777 net.cpp:434] mbox_loc <- conv9_2_mbox_loc_flat
I0401 12:29:42.952869  1777 net.cpp:408] mbox_loc -> mbox_loc
I0401 12:29:42.952924  1777 net.cpp:150] Setting up mbox_loc
I0401 12:29:42.952934  1777 net.cpp:157] Top shape: 2 98624 (197248)
I0401 12:29:42.952939  1777 net.cpp:165] Memory required for data: 1462454592
I0401 12:29:42.952942  1777 layer_factory.hpp:77] Creating layer mbox_conf
I0401 12:29:42.952953  1777 net.cpp:100] Creating Layer mbox_conf
I0401 12:29:42.952961  1777 net.cpp:434] mbox_conf <- conv4_3_norm_mbox_conf_flat
I0401 12:29:42.952967  1777 net.cpp:434] mbox_conf <- fc7_mbox_conf_flat
I0401 12:29:42.952975  1777 net.cpp:434] mbox_conf <- conv6_2_mbox_conf_flat
I0401 12:29:42.952981  1777 net.cpp:434] mbox_conf <- conv7_2_mbox_conf_flat
I0401 12:29:42.952986  1777 net.cpp:434] mbox_conf <- conv8_2_mbox_conf_flat
I0401 12:29:42.952991  1777 net.cpp:434] mbox_conf <- conv9_2_mbox_conf_flat
I0401 12:29:42.952997  1777 net.cpp:408] mbox_conf -> mbox_conf
I0401 12:29:42.953037  1777 net.cpp:150] Setting up mbox_conf
I0401 12:29:42.953045  1777 net.cpp:157] Top shape: 2 49312 (98624)
I0401 12:29:42.953049  1777 net.cpp:165] Memory required for data: 1462849088
I0401 12:29:42.953055  1777 layer_factory.hpp:77] Creating layer mbox_priorbox
I0401 12:29:42.953061  1777 net.cpp:100] Creating Layer mbox_priorbox
I0401 12:29:42.953066  1777 net.cpp:434] mbox_priorbox <- conv4_3_norm_mbox_priorbox
I0401 12:29:42.953083  1777 net.cpp:434] mbox_priorbox <- fc7_mbox_priorbox
I0401 12:29:42.953088  1777 net.cpp:434] mbox_priorbox <- conv6_2_mbox_priorbox
I0401 12:29:42.953094  1777 net.cpp:434] mbox_priorbox <- conv7_2_mbox_priorbox
I0401 12:29:42.953099  1777 net.cpp:434] mbox_priorbox <- conv8_2_mbox_priorbox
I0401 12:29:42.953104  1777 net.cpp:434] mbox_priorbox <- conv9_2_mbox_priorbox
I0401 12:29:42.953111  1777 net.cpp:408] mbox_priorbox -> mbox_priorbox
I0401 12:29:42.953156  1777 net.cpp:150] Setting up mbox_priorbox
I0401 12:29:42.953166  1777 net.cpp:157] Top shape: 1 2 98624 (197248)
I0401 12:29:42.953171  1777 net.cpp:165] Memory required for data: 1463638080
I0401 12:29:42.953174  1777 layer_factory.hpp:77] Creating layer mbox_clean
I0401 12:29:42.953181  1777 net.cpp:100] Creating Layer mbox_clean
I0401 12:29:42.953186  1777 net.cpp:434] mbox_clean <- conv4_3_norm_mbox_clean_flat
I0401 12:29:42.953192  1777 net.cpp:434] mbox_clean <- fc7_mbox_clean_flat
I0401 12:29:42.953197  1777 net.cpp:434] mbox_clean <- conv6_2_mbox_clean_flat
I0401 12:29:42.953202  1777 net.cpp:434] mbox_clean <- conv7_2_mbox_clean_flat
I0401 12:29:42.953207  1777 net.cpp:434] mbox_clean <- conv8_2_mbox_clean_flat
I0401 12:29:42.953212  1777 net.cpp:434] mbox_clean <- conv9_2_mbox_clean_flat
I0401 12:29:42.953219  1777 net.cpp:408] mbox_clean -> mbox_clean
I0401 12:29:42.953258  1777 net.cpp:150] Setting up mbox_clean
I0401 12:29:42.953269  1777 net.cpp:157] Top shape: 2 24656 (49312)
I0401 12:29:42.953272  1777 net.cpp:165] Memory required for data: 1463835328
I0401 12:29:42.953277  1777 layer_factory.hpp:77] Creating layer mbox_conf_reshape
I0401 12:29:42.953286  1777 net.cpp:100] Creating Layer mbox_conf_reshape
I0401 12:29:42.953292  1777 net.cpp:434] mbox_conf_reshape <- mbox_conf
I0401 12:29:42.953299  1777 net.cpp:408] mbox_conf_reshape -> mbox_conf_reshape
I0401 12:29:42.953348  1777 net.cpp:150] Setting up mbox_conf_reshape
I0401 12:29:42.953358  1777 net.cpp:157] Top shape: 2 24656 2 (98624)
I0401 12:29:42.953362  1777 net.cpp:165] Memory required for data: 1464229824
I0401 12:29:42.953366  1777 layer_factory.hpp:77] Creating layer mbox_conf_softmax
I0401 12:29:42.953373  1777 net.cpp:100] Creating Layer mbox_conf_softmax
I0401 12:29:42.953378  1777 net.cpp:434] mbox_conf_softmax <- mbox_conf_reshape
I0401 12:29:42.953384  1777 net.cpp:408] mbox_conf_softmax -> mbox_conf_softmax
I0401 12:29:42.953682  1777 net.cpp:150] Setting up mbox_conf_softmax
I0401 12:29:42.953696  1777 net.cpp:157] Top shape: 2 24656 2 (98624)
I0401 12:29:42.953699  1777 net.cpp:165] Memory required for data: 1464624320
I0401 12:29:42.953704  1777 layer_factory.hpp:77] Creating layer mbox_conf_flatten
I0401 12:29:42.953713  1777 net.cpp:100] Creating Layer mbox_conf_flatten
I0401 12:29:42.953721  1777 net.cpp:434] mbox_conf_flatten <- mbox_conf_softmax
I0401 12:29:42.953727  1777 net.cpp:408] mbox_conf_flatten -> mbox_conf_flatten
I0401 12:29:42.953770  1777 net.cpp:150] Setting up mbox_conf_flatten
I0401 12:29:42.953780  1777 net.cpp:157] Top shape: 2 49312 (98624)
I0401 12:29:42.953784  1777 net.cpp:165] Memory required for data: 1465018816
I0401 12:29:42.953788  1777 layer_factory.hpp:77] Creating layer mbox_clean_sigmoid
I0401 12:29:42.953811  1777 net.cpp:100] Creating Layer mbox_clean_sigmoid
I0401 12:29:42.953819  1777 net.cpp:434] mbox_clean_sigmoid <- mbox_clean
I0401 12:29:42.953825  1777 net.cpp:408] mbox_clean_sigmoid -> mbox_clean_sigmoid
I0401 12:29:42.954208  1777 net.cpp:150] Setting up mbox_clean_sigmoid
I0401 12:29:42.954223  1777 net.cpp:157] Top shape: 2 24656 (49312)
I0401 12:29:42.954228  1777 net.cpp:165] Memory required for data: 1465216064
I0401 12:29:42.954233  1777 layer_factory.hpp:77] Creating layer detection_out
I0401 12:29:42.954257  1777 net.cpp:100] Creating Layer detection_out
I0401 12:29:42.954263  1777 net.cpp:434] detection_out <- mbox_loc
I0401 12:29:42.954269  1777 net.cpp:434] detection_out <- mbox_conf_flatten
I0401 12:29:42.954274  1777 net.cpp:434] detection_out <- mbox_priorbox
I0401 12:29:42.954288  1777 net.cpp:434] detection_out <- mbox_clean_sigmoid
I0401 12:29:42.954298  1777 net.cpp:408] detection_out -> detection_out
I0401 12:29:42.962821  1777 net.cpp:150] Setting up detection_out
I0401 12:29:42.962834  1777 net.cpp:157] Top shape: 1 1 1 8 (8)
I0401 12:29:42.962852  1777 net.cpp:165] Memory required for data: 1465216096
I0401 12:29:42.962857  1777 layer_factory.hpp:77] Creating layer detection_eval
I0401 12:29:42.962867  1777 net.cpp:100] Creating Layer detection_eval
I0401 12:29:42.962872  1777 net.cpp:434] detection_eval <- detection_out
I0401 12:29:42.962878  1777 net.cpp:434] detection_eval <- label
I0401 12:29:42.962888  1777 net.cpp:408] detection_eval -> detection_eval
I0401 12:29:42.967732  1777 net.cpp:150] Setting up detection_eval
I0401 12:29:42.967748  1777 net.cpp:157] Top shape: 1 1 2 5 (10)
I0401 12:29:42.967753  1777 net.cpp:165] Memory required for data: 1465216136
I0401 12:29:42.967759  1777 net.cpp:228] detection_eval does not need backward computation.
I0401 12:29:42.967766  1777 net.cpp:228] detection_out does not need backward computation.
I0401 12:29:42.967770  1777 net.cpp:228] mbox_clean_sigmoid does not need backward computation.
I0401 12:29:42.967777  1777 net.cpp:228] mbox_conf_flatten does not need backward computation.
…
