…
        max_scale: 1
        min_aspect_ratio: 0.5
        max_aspect_ratio: 2
      }
      sample_constraint {
        min_jaccard_overlap: 0.9
      }
      max_sample: 1
      max_trials: 50
    }
    batch_sampler {
      sampler {
        min_scale: 0.3
        max_scale: 1
        min_aspect_ratio: 0.5
        max_aspect_ratio: 2
      }
      sample_constraint {
        max_jaccard_overlap: 1
      }
      max_sample: 1
      max_trials: 50
    }
    label_map_file: "/data/siyu/dataset/coco/labelmap_coco-person.prototxt"
    part_sampler_prob: 0.8
  }
}
layer {
  name: "conv1_1"
  type: "Convolution"
  bottom: "data"
  top: "conv1_1"
  param {
    lr_mult: 1
    decay_mult: 1
  }
  param {
    lr_mult: 2
    decay_mult: 0
  }
  convolution_param {
    num_output: 64
    pad: 1
    kernel_size: 3
    weight_filler {
      type: "xavier"
    }
    bias_filler {
      type: "constant"
      value: 0
    }
  }
}
layer {
  name: "relu1_1"
  type: "ReLU"
  bottom: "conv1_1"
  top: "conv1_1"
}
layer {
  name: "conv1_2"
  type: "Convolution"
  bottom: "conv1_1"
  top: "conv1_2"
  param {
    lr_mult: 1
    decay_mult: 1
  }
  param {
    lr_mult: 2
    decay_mult: 0
  }
  convolution_param {
    num_output: 64
    pad: 1
    kernel_size: 3
    weight_filler {
      type: "xavier"
    }
    bias_filler {
      type: "constant"
      value: 0
    }
  }
}
layer {
  name: "relu1_2"
  type: "ReLU"
  bottom: "conv1_2"
  top: "conv1_2"
}
layer {
  name: "pool1"
  type: "Pooling"
  bottom: "conv1_2"
  top: "pool1"
  pooling_param {
    pool: MAX
    kernel_size: 2
    stride: 2
  }
}
layer {
  name: "conv2_1"
  type: "Convolution"
  bottom: "pool1"
  top: "conv2_1"
  param {
    lr_mult: 1
    decay_mult: 1
  }
  param {
    lr_mult: 2
    decay_mult: 0
  }
  convolution_param {
    num_output: 128
    pad: 1
    kernel_size: 3
    weight_filler {
      type: "xavier"
    }
    bias_filler {
      type: "constant"
      value: 0
    }
  }
}
layer {
  name: "relu2_1"
  type: "ReLU"
  bottom: "conv2_1"
  top: "conv2_1"
}
layer {
  name: "conv2_2"
  type: "Convolution"
  bottom: "conv2_1"
  top: "conv2_2"
  param {
    lr_mult: 1
    decay_mult: 1
  }
  param {
    lr_mult: 2
    decay_mult: 0
  }
  convolution_param {
    num_output: 128
    pad: 1
    kernel_size: 3
    weight_filler {
      type: "xavier"
    }
    bias_filler {
      type: "constant"
      value: 0
    }
  }
}
layer {
  name: "relu2_2"
  type: "ReLU"
  bottom: "conv2_2"
  top: "conv2_2"
}
layer {
  name: "pool2"
  type: "Pooling"
  bottom: "conv2_2"
  top: "pool2"
  pooling_param {
    pool: MAX
    kernel_size: 2
    stride: 2
  }
}
layer {
  name: "conv3_1"
  type: "Convolution"
  bottom: "pool2"
  top: "conv3_1"
  param {
    lr_mult: 1
    decay_mult: 1
  }
  param {
    lr_mult: 2
    decay_mult: 0
  }
  convolution_param {
    num_output: 256
    pad: 1
    kernel_size: 3
    weight_filler {
      type: "xavier"
    }
    bias_filler {
      type: "constant"
      value: 0
    }
  }
}
layer {
  name: "relu3_1"
  type: "ReLU"
  bottom: "conv3_1"
  top: "conv3_1"
}
layer {
  name: "conv3_2"
  type: "Convolution"
  bottom: "conv3_1"
  top: "conv3_2"
  param {
    lr_mult: 1
    decay_mult: 1
  }
  param {
    lr_mult: 2
    decay_mult: 0
  }
  convolution_param {
    num_output: 256
    pad: 1
    kernel_size: 3
    weight_filler {
      type: "xavier"
    }
    bias_filler {
      type: "constant"
      value: 0
    }
  }
}
layer {
  name: "relu3_2"
  type: "ReLU"
  bottom: "conv3_2"
  top: "conv3_2"
}
layer {
  name: "conv3_3"
  type: "Convolution"
  bottom: "conv3_2"
  top: "conv3_3"
  param {
    lr_mult: 1
    decay_mult: 1
  }
  param {
    lr_mult: 2
    decay_mult: 0
  }
  convolution_param {
    num_output: 256
    pad: 1
    kernel_size: 3
    weight_filler {
      type: "xavier"
    }
    bias_filler {
      type: "constant"
      value: 0
    }
  }
}
layer {
  name: "relu3_3"
  type: "ReLU"
  bottom: "conv3_3"
  top: "conv3_3"
}
layer {
  name: "pool3"
  type: "Pooling"
  bottom: "conv3_3"
  top: "pool3"
  pooling_param {
    pool: MAX
    kernel_size: 2
    stride: 2
  }
}
layer {
  name: "conv4_1"
  type: "Convolution"
  bottom: "pool3"
  top: "conv4_1"
  param {
    lr_mult: 1
    decay_mult: 1
  }
  param {
    lr_mult: 2
    decay_mult: 0
  }
  convolution_param {
    num_output: 512
    pad: 1
    kernel_size: 3
    weight_filler {
      type: "xavier"
    }
    bias_filler {
      type: "constant"
      value: 0
    }
  }
}
layer {
  name: "relu4_1"
  type: "ReLU"
  bottom: "conv4_1"
  top: "conv4_1"
}
layer {
  name: "conv4_2"
  type: "Convolution"
  bottom: "conv4_1"
  top: "conv4_2"
  param {
    lr_mult: 1
    decay_mult: 1
  }
  param {
    lr_mult: 2
    decay_mult: 0
  }
  convolution_param {
    num_output: 512
    pad: 1
    kernel_size: 3
    weight_filler {
      type: "xavier"
    }
    bias_filler {
      type: "constant"
      value: 0
    }
  }
}
layer {
  name: "relu4_2"
  type: "ReLU"
  bottom: "conv4_2"
  top: "conv4_2"
}
layer {
  name: "conv4_3"
  type: "Convolution"
  bottom: "conv4_2"
  top: "conv4_3"
  param {
    lr_mult: 1
    decay_mult: 1
  }
  param {
    lr_mult: 2
    decay_mult: 0
  }
  convolution_param {
    num_output: 512
    pad: 1
    kernel_size: 3
    weight_filler {
      type: "xavier"
    }
    bias_filler {
      type: "constant"
      value: 0
    }
  }
}
layer {
  name: "relu4_3"
  type: "ReLU"
  bottom: "conv4_3"
  top: "conv4_3"
}
layer {
  name: "pool4"
  type: "Pooling"
  bottom: "conv4_3"
  top: "pool4"
  pooling_param {
    pool: MAX
    kernel_size: 2
    stride: 2
  }
}
layer {
  name: "conv5_1"
  type: "Convolution"
  bottom: "pool4"
  top: "conv5_1"
  param {
    lr_mult: 1
    decay_mult: 1
  }
  param {
    lr_mult: 2
    decay_mult: 0
  }
  convolution_param {
    num_output: 512
    pad: 1
    kernel_size: 3
    weight_filler {
      type: "xavier"
    }
    bias_filler {
      type: "constant"
      value: 0
    }
    dilation: 1
  }
}
layer {
  name: "relu5_1"
  type: "ReLU"
  bottom: "conv5_1"
  top: "conv5_1"
}
layer {
  name: "conv5_2"
  type: "Convolution"
  bottom: "conv5_1"
  top: "conv5_2"
  param {
    lr_mult: 1
    decay_mult: 1
  }
  param {
    lr_mult: 2
    decay_mult: 0
  }
  convolution_param {
    num_output: 512
    pad: 1
    kernel_size: 3
    weight_filler {
      type: "xavier"
    }
    bias_filler {
      type: "constant"
      value: 0
    }
    dilation: 1
  }
}
layer {
  name: "relu5_2"
  type: "ReLU"
  bottom: "conv5_2"
  top: "conv5_2"
}
layer {
  name: "conv5_3"
  type: "Convolution"
  bottom: "conv5_2"
  top: "conv5_3"
  param {
    lr_mult: 1
    decay_mult: 1
  }
  param {
    lr_mult: 2
    decay_mult: 0
  }
  convolution_param {
    num_output: 512
    pad: 1
    kernel_size: 3
    weight_filler {
      type: "xavier"
    }
    bias_filler {
      type: "constant"
      value: 0
    }
    dilation: 1
  }
}
layer {
  name: "relu5_3"
  type: "ReLU"
  bottom: "conv5_3"
  top: "conv5_3"
}
layer {
  name: "pool5"
  type: "Pooling"
  bottom: "conv5_3"
  top: "pool5"
  pooling_param {
    pool: MAX
    kernel_size: 3
    stride: 1
    pad: 1
  }
}
layer {
  name: "fc6"
  type: "Convolution"
  bottom: "pool5"
  top: "fc6"
  param {
    lr_mult: 1
    decay_mult: 1
  }
  param {
    lr_mult: 2
    decay_mult: 0
  }
  convolution_param {
    num_output: 1024
    pad: 6
    kernel_size: 3
    weight_filler {
      type: "xavier"
    }
    bias_filler {
      type: "constant"
      value: 0
    }
    dilation: 6
  }
}
layer {
  name: "relu6"
  type: "ReLU"
  bottom: "fc6"
  top: "fc6"
}
layer {
  name: "fc7"
  type: "Convolution"
  bottom: "fc6"
  top: "fc7"
  param {
    lr_mult: 1
    decay_mult: 1
  }
  param {
    lr_mult: 2
    decay_mult: 0
  }
  convolution_param {
    num_output: 1024
    kernel_size: 1
    weight_filler {
      type: "xavier"
    }
    bias_filler {
      type: "constant"
      value: 0
    }
  }
}
layer {
  name: "relu7"
  type: "ReLU"
  bottom: "fc7"
  top: "fc7"
}
layer {
  name: "conv6_1"
  type: "Convolution"
  bottom: "fc7"
  top: "conv6_1"
  param {
    lr_mult: 1
    decay_mult: 1
  }
  param {
    lr_mult: 2
    decay_mult: 0
  }
  convolution_param {
    num_output: 256
    pad: 0
    kernel_size: 1
    stride: 1
    weight_filler {
      type: "xavier"
    }
    bias_filler {
      type: "constant"
      value: 0
    }
  }
}
layer {
  name: "conv6_1_relu"
  type: "ReLU"
  bottom: "conv6_1"
  top: "conv6_1"
}
layer {
  name: "conv6_2"
  type: "Convolution"
  bottom: "conv6_1"
  top: "conv6_2"
  param {
    lr_mult: 1
    decay_mult: 1
  }
  param {
    lr_mult: 2
    decay_mult: 0
  }
  convolution_param {
    num_output: 512
    pad: 1
    kernel_size: 3
    stride: 2
    weight_filler {
      type: "xavier"
    }
    bias_filler {
      type: "constant"
      value: 0
    }
  }
}
layer {
  name: "conv6_2_relu"
  type: "ReLU"
  bottom: "conv6_2"
  top: "conv6_2"
}
layer {
  name: "conv7_1"
  type: "Convolution"
  bottom: "conv6_2"
  top: "conv7_1"
  param {
    lr_mult: 1
    decay_mult: 1
  }
  param {
    lr_mult: 2
    decay_mult: 0
  }
  convolution_param {
    num_output: 128
    pad: 0
    kernel_size: 1
    stride: 1
    weight_filler {
      type: "xavier"
    }
    bias_filler {
      type: "constant"
      value: 0
    }
  }
}
layer {
  name: "conv7_1_relu"
  type: "ReLU"
  bottom: "conv7_1"
  top: "conv7_1"
}
layer {
  name: "conv7_2"
  type: "Convolution"
  bottom: "conv7_1"
  top: "conv7_2"
  param {
    lr_mult: 1
    decay_mult: 1
  }
  param {
    lr_mult: 2
    decay_mult: 0
  }
  convolution_param {
    num_output: 256
    pad: 1
    kernel_size: 3
    stride: 2
    weight_filler {
      type: "xavier"
    }
    bias_filler {
      type: "constant"
      value: 0
    }
  }
}
layer {
  name: "conv7_2_relu"
  type: "ReLU"
  bottom: "conv7_2"
  top: "conv7_2"
}
layer {
  name: "conv8_1"
  type: "Convolution"
  bottom: "conv7_2"
  top: "conv8_1"
  param {
    lr_mult: 1
    decay_mult: 1
  }
  param {
    lr_mult: 2
    decay_mult: 0
  }
  convolution_param {
    num_output: 128
    pad: 0
    kernel_size: 1
    stride: 1
    weight_filler {
      type: "xavier"
    }
    bias_filler {
      type: "constant"
      value: 0
    }
  }
}
layer {
  name: "conv8_1_relu"
  type: "ReLU"
  bottom: "conv8_1"
  top: "conv8_1"
}
layer {
  name: "conv8_2"
  type: "Convolution"
  bottom: "conv8_1"
  top: "conv8_2"
  param {
    lr_mult: 1
    decay_mult: 1
  }
  param {
    lr_mult: 2
    decay_mult: 0
  }
  convolution_param {
    num_output: 256
    pad: 0
    kernel_size: 3
    stride: 1
    weight_filler {
      type: "xavier"
    }
    bias_filler {
      type: "constant"
      value: 0
    }
  }
}
layer {
  name: "conv8_2_relu"
  type: "ReLU"
  bottom: "conv8_2"
  top: "conv8_2"
}
layer {
  name: "conv9_1"
  type: "Convolution"
  bottom: "conv8_2"
  top: "conv9_1"
  param {
    lr_mult: 1
    decay_mult: 1
  }
  param {
    lr_mult: 2
    decay_mult: 0
  }
  convolution_param {
    num_output: 128
    pad: 0
    kernel_size: 1
    stride: 1
    weight_filler {
      type: "xavier"
    }
    bias_filler {
      type: "constant"
      value: 0
    }
  }
}
layer {
  name: "conv9_1_relu"
  type: "ReLU"
  bottom: "conv9_1"
  top: "conv9_1"
}
layer {
  name: "conv9_2"
  type: "Convolution"
  bottom: "conv9_1"
  top: "conv9_2"
  param {
    lr_mult: 1
    decay_mult: 1
  }
  param {
    lr_mult: 2
    decay_mult: 0
  }
  convolution_param {
    num_output: 256
    pad: 0
    kernel_size: 3
    stride: 1
    weight_filler {
      type: "xavier"
    }
    bias_filler {
      type: "constant"
      value: 0
    }
  }
}
layer {
  name: "conv9_2_relu"
  type: "ReLU"
  bottom: "conv9_2"
  top: "conv9_2"
}
layer {
  name: "conv4_3_norm"
  type: "Normalize"
  bottom: "conv4_3"
  top: "conv4_3_norm"
  norm_param {
    across_spatial: false
    scale_filler {
      type: "constant"
      value: 20
    }
    channel_shared: false
  }
}
layer {
  name: "conv4_3_norm_mbox_loc"
  type: "Convolution"
  bottom: "conv4_3_norm"
  top: "conv4_3_norm_mbox_loc"
  param {
    lr_mult: 1
    decay_mult: 1
  }
  param {
    lr_mult: 2
    decay_mult: 0
  }
  convolution_param {
    num_output: 16
    pad: 1
    kernel_size: 3
    stride: 1
    weight_filler {
      type: "xavier"
    }
    bias_filler {
      type: "constant"
      value: 0
    }
  }
}
layer {
  name: "conv4_3_norm_mbox_loc_perm"
  type: "Permute"
  bottom: "conv4_3_norm_mbox_loc"
  top: "conv4_3_norm_mbox_loc_perm"
  permute_param {
    order: 0
    order: 2
    order: 3
    order: 1
  }
}
layer {
  name: "conv4_3_norm_mbox_loc_flat"
  type: "Flatten"
  bottom: "conv4_3_norm_mbox_loc_perm"
  top: "conv4_3_norm_mbox_loc_flat"
  flatten_param {
    axis: 1
  }
}
layer {
  name: "conv4_3_norm_mbox_conf"
  type: "Convolution"
  bottom: "conv4_3_norm"
  top: "conv4_3_norm_mbox_conf"
  param {
    lr_mult: 1
    decay_mult: 1
  }
  param {
    lr_mult: 2
    decay_mult: 0
  }
  convolution_param {
    num_output: 8
    pad: 1
    kernel_size: 3
    stride: 1
    weight_filler {
      type: "xavier"
    }
    bias_filler {
      type: "constant"
      value: 0
    }
  }
}
layer {
  name: "conv4_3_norm_mbox_conf_perm"
  type: "Permute"
  bottom: "conv4_3_norm_mbox_conf"
  top: "conv4_3_norm_mbox_conf_perm"
  permute_param {
    order: 0
    order: 2
    order: 3
    order: 1
  }
}
layer {
  name: "conv4_3_norm_mbox_conf_flat"
  type: "Flatten"
  bottom: "conv4_3_norm_mbox_conf_perm"
  top: "conv4_3_norm_mbox_conf_flat"
  flatten_param {
    axis: 1
  }
}
layer {
  name: "conv4_3_norm_mbox_clean"
  type: "Convolution"
  bottom: "conv4_3_norm"
  top: "conv4_3_norm_mbox_clean"
  param {
    lr_mult: 1
    decay_mult: 1
  }
  param {
    lr_mult: 2
    decay_mult: 0
  }
  convolution_param {
    num_output: 4
    pad: 1
    kernel_size: 3
    stride: 1
    weight_filler {
      type: "xavier"
    }
    bias_filler {
      type: "constant"
      value: 0
    }
  }
}
layer {
  name: "conv4_3_norm_mbox_clean_perm"
  type: "Permute"
  bottom: "conv4_3_norm_mbox_clean"
  top: "conv4_3_norm_mbox_clean_perm"
  permute_param {
    order: 0
    order: 2
    order: 3
    order: 1
  }
}
layer {
  name: "conv4_3_norm_mbox_clean_flat"
  type: "Flatten"
  bottom: "conv4_3_norm_mbox_clean_perm"
  top: "conv4_3_norm_mbox_clean_flat"
  flatten_param {
    axis: 1
  }
}
layer {
  name: "conv4_3_norm_mbox_priorbox"
  type: "PriorBox"
  bottom: "conv4_3_norm"
  bottom: "data"
  top: "conv4_3_norm_mbox_priorbox"
  prior_box_param {
    min_size: 35.84
    max_size: 76.8
    aspect_ratio: 2
    flip: true
    clip: false
    variance: 0.1
    variance: 0.1
    variance: 0.2
    variance: 0.2
    step: 8
    offset: 0.5
  }
}
layer {
  name: "fc7_mbox_loc"
  type: "Convolution"
  bottom: "fc7"
  top: "fc7_mbox_loc"
  param {
    lr_mult: 1
    decay_mult: 1
  }
  param {
    lr_mult: 2
    decay_mult: 0
  }
  convolution_param {
    num_output: 24
    pad: 1
    kernel_size: 3
    stride: 1
    weight_filler {
      type: "xavier"
    }
    bias_filler {
      type: "constant"
      value: 0
    }
  }
}
layer {
  name: "fc7_mbox_loc_perm"
  type: "Permute"
  bottom: "fc7_mbox_loc"
  top: "fc7_mbox_loc_perm"
  permute_param {
    order: 0
    order: 2
    order: 3
    order: 1
  }
}
layer {
  name: "fc7_mbox_loc_flat"
  type: "Flatten"
  bottom: "fc7_mbox_loc_perm"
  top: "fc7_mbox_loc_flat"
  flatten_param {
    axis: 1
  }
}
layer {
  name: "fc7_mbox_conf"
  type: "Convolution"
  bottom: "fc7"
  top: "fc7_mbox_conf"
  param {
    lr_mult: 1
    decay_mult: 1
  }
  param {
    lr_mult: 2
    decay_mult: 0
  }
  convolution_param {
    num_output: 12
    pad: 1
    kernel_size: 3
    stride: 1
    weight_filler {
      type: "xavier"
    }
    bias_filler {
      type: "constant"
      value: 0
    }
  }
}
layer {
  name: "fc7_mbox_conf_perm"
  type: "Permute"
  bottom: "fc7_mbox_conf"
  top: "fc7_mbox_conf_perm"
  permute_param {
    order: 0
    order: 2
    order: 3
    order: 1
  }
}
layer {
  name: "fc7_mbox_conf_flat"
  type: "Flatten"
  bottom: "fc7_mbox_conf_perm"
  top: "fc7_mbox_conf_flat"
  flatten_param {
    axis: 1
  }
}
layer {
  name: "fc7_mbox_clean"
  type: "Convolution"
  bottom: "fc7"
  top: "fc7_mbox_clean"
  param {
    lr_mult: 1
    decay_mult: 1
  }
  param {
    lr_mult: 2
    decay_mult: 0
  }
  convolution_param {
    num_output: 6
    pad: 1
    kernel_size: 3
    stride: 1
    weight_filler {
      type: "xavier"
    }
    bias_filler {
      type: "constant"
      value: 0
    }
  }
}
layer {
  name: "fc7_mbox_clean_perm"
  type: "Permute"
  bottom: "fc7_mbox_clean"
  top: "fc7_mbox_clean_perm"
  permute_param {
    order: 0
    order: 2
    order: 3
    order: 1
  }
}
layer {
  name: "fc7_mbox_clean_flat"
  type: "Flatten"
  bottom: "fc7_mbox_clean_perm"
  top: "fc7_mbox_clean_flat"
  flatten_param {
    axis: 1
  }
}
layer {
  name: "fc7_mbox_priorbox"
  type: "PriorBox"
  bottom: "fc7"
  bottom: "data"
  top: "fc7_mbox_priorbox"
  prior_box_param {
    min_size: 76.8
    max_size: 168.96
    aspect_ratio: 2
    aspect_ratio: 3
    flip: true
    clip: false
    variance: 0.1
    variance: 0.1
    variance: 0.2
    variance: 0.2
    step: 16
    offset: 0.5
  }
}
layer {
  name: "conv6_2_mbox_loc"
  type: "Convolution"
  bottom: "conv6_2"
  top: "conv6_2_mbox_loc"
  param {
    lr_mult: 1
    decay_mult: 1
  }
  param {
    lr_mult: 2
    decay_mult: 0
  }
  convolution_param {
    num_output: 24
    pad: 1
    kernel_size: 3
    stride: 1
    weight_filler {
      type: "xavier"
    }
    bias_filler {
      type: "constant"
      value: 0
    }
  }
}
layer {
  name: "conv6_2_mbox_loc_perm"
  type: "Permute"
  bottom: "conv6_2_mbox_loc"
  top: "conv6_2_mbox_loc_perm"
  permute_param {
    order: 0
    order: 2
    order: 3
    order: 1
  }
}
layer {
  name: "conv6_2_mbox_loc_flat"
  type: "Flatten"
  bottom: "conv6_2_mbox_loc_perm"
  top: "conv6_2_mbox_loc_flat"
  flatten_param {
    axis: 1
  }
}
layer {
  name: "conv6_2_mbox_conf"
  type: "Convolution"
  bottom: "conv6_2"
  top: "conv6_2_mbox_conf"
  param {
    lr_mult: 1
    decay_mult: 1
  }
  param {
    lr_mult: 2
    decay_mult: 0
  }
  convolution_param {
    num_output: 12
    pad: 1
    kernel_size: 3
    stride: 1
    weight_filler {
      type: "xavier"
    }
    bias_filler {
      type: "constant"
      value: 0
    }
  }
}
layer {
  name: "conv6_2_mbox_conf_perm"
  type: "Permute"
  bottom: "conv6_2_mbox_conf"
  top: "conv6_2_mbox_conf_perm"
  permute_param {
    order: 0
    order: 2
    order: 3
    order: 1
  }
}
layer {
  name: "conv6_2_mbox_conf_flat"
  type: "Flatten"
  bottom: "conv6_2_mbox_conf_perm"
  top: "conv6_2_mbox_conf_flat"
  flatten_param {
    axis: 1
  }
}
layer {
  name: "conv6_2_mbox_clean"
  type: "Convolution"
  bottom: "conv6_2"
  top: "conv6_2_mbox_clean"
  param {
    lr_mult: 1
    decay_mult: 1
  }
  param {
    lr_mult: 2
    decay_mult: 0
  }
  convolution_param {
    num_output: 6
    pad: 1
    kernel_size: 3
    stride: 1
    weight_filler {
      type: "xavier"
    }
    bias_filler {
      type: "constant"
      value: 0
    }
  }
}
layer {
  name: "conv6_2_mbox_clean_perm"
  type: "Permute"
  bottom: "conv6_2_mbox_clean"
  top: "conv6_2_mbox_clean_perm"
  permute_param {
    order: 0
    order: 2
    order: 3
    order: 1
  }
}
layer {
  name: "conv6_2_mbox_clean_flat"
  type: "Flatten"
  bottom: "conv6_2_mbox_clean_perm"
  top: "conv6_2_mbox_clean_flat"
  flatten_param {
    axis: 1
  }
}
layer {
  name: "conv6_2_mbox_priorbox"
  type: "PriorBox"
  bottom: "conv6_2"
  bottom: "data"
  top: "conv6_2_mbox_priorbox"
  prior_box_param {
    min_size: 168.96
    max_size: 261.12
    aspect_ratio: 2
    aspect_ratio: 3
    flip: true
    clip: false
    variance: 0.1
    variance: 0.1
    variance: 0.2
    variance: 0.2
    step: 32
    offset: 0.5
  }
}
layer {
  name: "conv7_2_mbox_loc"
  type: "Convolution"
  bottom: "conv7_2"
  top: "conv7_2_mbox_loc"
  param {
    lr_mult: 1
    decay_mult: 1
  }
  param {
    lr_mult: 2
    decay_mult: 0
  }
  convolution_param {
    num_output: 24
    pad: 1
    kernel_size: 3
    stride: 1
    weight_filler {
      type: "xavier"
    }
    bias_filler {
      type: "constant"
      value: 0
    }
  }
}
layer {
  name: "conv7_2_mbox_loc_perm"
  type: "Permute"
  bottom: "conv7_2_mbox_loc"
  top: "conv7_2_mbox_loc_perm"
  permute_param {
    order: 0
    order: 2
    order: 3
    order: 1
  }
}
layer {
  name: "conv7_2_mbox_loc_flat"
  type: "Flatten"
  bottom: "conv7_2_mbox_loc_perm"
  top: "conv7_2_mbox_loc_flat"
  flatten_param {
    axis: 1
  }
}
layer {
  name: "conv7_2_mbox_conf"
  type: "Convolution"
  bottom: "conv7_2"
  top: "conv7_2_mbox_conf"
  param {
    lr_mult: 1
    decay_mult: 1
  }
  param {
    lr_mult: 2
    decay_mult: 0
  }
  convolution_param {
    num_output: 12
    pad: 1
    kernel_size: 3
    stride: 1
    weight_filler {
      type: "xavier"
    }
    bias_filler {
      type: "constant"
      value: 0
    }
  }
}
layer {
  name: "conv7_2_mbox_conf_perm"
  type: "Permute"
  bottom: "conv7_2_mbox_conf"
  top: "conv7_2_mbox_conf_perm"
  permute_param {
    order: 0
    order: 2
    order: 3
    order: 1
  }
}
layer {
  name: "conv7_2_mbox_conf_flat"
  type: "Flatten"
  bottom: "conv7_2_mbox_conf_perm"
  top: "conv7_2_mbox_conf_flat"
  flatten_param {
    axis: 1
  }
}
layer {
  name: "conv7_2_mbox_clean"
  type: "Convolution"
  bottom: "conv7_2"
  top: "conv7_2_mbox_clean"
  param {
    lr_mult: 1
    decay_mult: 1
  }
  param {
    lr_mult: 2
    decay_mult: 0
  }
  convolution_param {
    num_output: 6
    pad: 1
    kernel_size: 3
    stride: 1
    weight_filler {
      type: "xavier"
    }
    bias_filler {
      type: "constant"
      value: 0
    }
  }
}
layer {
  name: "conv7_2_mbox_clean_perm"
  type: "Permute"
  bottom: "conv7_2_mbox_clean"
  top: "conv7_2_mbox_clean_perm"
  permute_param {
    order: 0
    order: 2
    order: 3
    order: 1
  }
}
layer {
  name: "conv7_2_mbox_clean_flat"
  type: "Flatten"
  bottom: "conv7_2_mbox_clean_perm"
  top: "conv7_2_mbox_clean_flat"
  flatten_param {
    axis: 1
  }
}
layer {
  name: "conv7_2_mbox_priorbox"
  type: "PriorBox"
  bottom: "conv7_2"
  bottom: "data"
  top: "conv7_2_mbox_priorbox"
  prior_box_param {
    min_size: 261.12
    max_size: 353.28
    aspect_ratio: 2
    aspect_ratio: 3
    flip: true
    clip: false
    variance: 0.1
    variance: 0.1
    variance: 0.2
    variance: 0.2
    step: 64
    offset: 0.5
  }
}
layer {
  name: "conv8_2_mbox_loc"
  type: "Convolution"
  bottom: "conv8_2"
  top: "conv8_2_mbox_loc"
  param {
    lr_mult: 1
    decay_mult: 1
  }
  param {
    lr_mult: 2
    decay_mult: 0
  }
  convolution_param {
    num_output: 16
    pad: 1
    kernel_size: 3
    stride: 1
    weight_filler {
      type: "xavier"
    }
    bias_filler {
      type: "constant"
      value: 0
    }
  }
}
layer {
  name: "conv8_2_mbox_loc_perm"
  type: "Permute"
  bottom: "conv8_2_mbox_loc"
  top: "conv8_2_mbox_loc_perm"
  permute_param {
    order: 0
    order: 2
    order: 3
    order: 1
  }
}
layer {
  name: "conv8_2_mbox_loc_flat"
  type: "Flatten"
  bottom: "conv8_2_mbox_loc_perm"
  top: "conv8_2_mbox_loc_flat"
  flatten_param {
    axis: 1
  }
}
layer {
  name: "conv8_2_mbox_conf"
  type: "Convolution"
  bottom: "conv8_2"
  top: "conv8_2_mbox_conf"
  param {
    lr_mult: 1
    decay_mult: 1
  }
  param {
    lr_mult: 2
    decay_mult: 0
  }
  convolution_param {
    num_output: 8
    pad: 1
    kernel_size: 3
    stride: 1
    weight_filler {
      type: "xavier"
    }
    bias_filler {
      type: "constant"
      value: 0
    }
  }
}
layer {
  name: "conv8_2_mbox_conf_perm"
  type: "Permute"
  bottom: "conv8_2_mbox_conf"
  top: "conv8_2_mbox_conf_perm"
  permute_param {
    order: 0
    order: 2
    order: 3
    order: 1
  }
}
layer {
  name: "conv8_2_mbox_conf_flat"
  type: "Flatten"
  bottom: "conv8_2_mbox_conf_perm"
  top: "conv8_2_mbox_conf_flat"
  flatten_param {
    axis: 1
  }
}
layer {
  name: "conv8_2_mbox_clean"
  type: "Convolution"
  bottom: "conv8_2"
  top: "conv8_2_mbox_clean"
  param {
    lr_mult: 1
    decay_mult: 1
  }
  param {
    lr_mult: 2
    decay_mult: 0
  }
  convolution_param {
    num_output: 4
    pad: 1
    kernel_size: 3
    stride: 1
    weight_filler {
      type: "xavier"
    }
    bias_filler {
      type: "constant"
      value: 0
    }
  }
}
layer {
  name: "conv8_2_mbox_clean_perm"
  type: "Permute"
  bottom: "conv8_2_mbox_clean"
  top: "conv8_2_mbox_clean_perm"
  permute_param {
    order: 0
    order: 2
    order: 3
    order: 1
  }
}
layer {
  name: "conv8_2_mbox_clean_flat"
  type: "Flatten"
  bottom: "conv8_2_mbox_clean_perm"
  top: "conv8_2_mbox_clean_flat"
  flatten_param {
    axis: 1
  }
}
layer {
  name: "conv8_2_mbox_priorbox"
  type: "PriorBox"
  bottom: "conv8_2"
  bottom: "data"
  top: "conv8_2_mbox_priorbox"
  prior_box_param {
    min_size: 353.28
    max_size: 445.44
    aspect_ratio: 2
    flip: true
    clip: false
    variance: 0.1
    variance: 0.1
    variance: 0.2
    variance: 0.2
    step: 100
    offset: 0.5
  }
}
layer {
  name: "conv9_2_mbox_loc"
  type: "Convolution"
  bottom: "conv9_2"
  top: "conv9_2_mbox_loc"
  param {
    lr_mult: 1
    decay_mult: 1
  }
  param {
    lr_mult: 2
    decay_mult: 0
  }
  convolution_param {
    num_output: 16
    pad: 1
    kernel_size: 3
    stride: 1
    weight_filler {
      type: "xavier"
    }
    bias_filler {
      type: "constant"
      value: 0
    }
  }
}
layer {
  name: "conv9_2_mbox_loc_perm"
  type: "Permute"
  bottom: "conv9_2_mbox_loc"
  top: "conv9_2_mbox_loc_perm"
  permute_param {
    order: 0
    order: 2
    order: 3
    order: 1
  }
}
layer {
  name: "conv9_2_mbox_loc_flat"
  type: "Flatten"
  bottom: "conv9_2_mbox_loc_perm"
  top: "conv9_2_mbox_loc_flat"
  flatten_param {
    axis: 1
  }
}
layer {
  name: "conv9_2_mbox_conf"
  type: "Convolution"
  bottom: "conv9_2"
  top: "conv9_2_mbox_conf"
  param {
    lr_mult: 1
    decay_mult: 1
  }
  param {
    lr_mult: 2
    decay_mult: 0
  }
  convolution_param {
    num_output: 8
    pad: 1
    kernel_size: 3
    stride: 1
    weight_filler {
      type: "xavier"
    }
    bias_filler {
      type: "constant"
      value: 0
    }
  }
}
layer {
  name: "conv9_2_mbox_conf_perm"
  type: "Permute"
  bottom: "conv9_2_mbox_conf"
  top: "conv9_2_mbox_conf_perm"
  permute_param {
    order: 0
    order: 2
    order: 3
    order: 1
  }
}
layer {
  name: "conv9_2_mbox_conf_flat"
  type: "Flatten"
  bottom: "conv9_2_mbox_conf_perm"
  top: "conv9_2_mbox_conf_flat"
  flatten_param {
    axis: 1
  }
}
layer {
  name: "conv9_2_mbox_clean"
  type: "Convolution"
  bottom: "conv9_2"
  top: "conv9_2_mbox_clean"
  param {
    lr_mult: 1
    decay_mult: 1
  }
  param {
    lr_mult: 2
    decay_mult: 0
  }
  convolution_param {
    num_output: 4
    pad: 1
    kernel_size: 3
    stride: 1
    weight_filler {
      type: "xavier"
    }
    bias_filler {
      type: "constant"
      value: 0
    }
  }
}
layer {
  name: "conv9_2_mbox_clean_perm"
  type: "Permute"
  bottom: "conv9_2_mbox_clean"
  top: "conv9_2_mbox_clean_perm"
  permute_param {
    order: 0
    order: 2
    order: 3
    order: 1
  }
}
layer {
  name: "conv9_2_mbox_clean_fl
I0402 14:25:42.908898 20661 layer_factory.hpp:77] Creating layer data
I0402 14:25:42.913240 20661 net.cpp:100] Creating Layer data
I0402 14:25:42.913290 20661 net.cpp:408] data -> data
I0402 14:25:42.913341 20661 net.cpp:408] data -> label
I0402 14:25:42.914113 20697 db_lmdb.cpp:35] Opened lmdb /data/siyu/dataset/coco/lmdb/COCO_Train2014_person_lmdb
I0402 14:25:42.936118 20661 annotated_data_layer.cpp:62] output data size: 8,3,512,512
I0402 14:25:42.981664 20661 net.cpp:150] Setting up data
I0402 14:25:42.981726 20661 net.cpp:157] Top shape: 8 3 512 512 (6291456)
I0402 14:25:42.981736 20661 net.cpp:157] Top shape: 1 1 1 8 (8)
I0402 14:25:42.981742 20661 net.cpp:165] Memory required for data: 25165856
I0402 14:25:42.981755 20661 layer_factory.hpp:77] Creating layer data_data_0_split
I0402 14:25:42.981779 20661 net.cpp:100] Creating Layer data_data_0_split
I0402 14:25:42.981788 20661 net.cpp:434] data_data_0_split <- data
I0402 14:25:42.981808 20661 net.cpp:408] data_data_0_split -> data_data_0_split_0
I0402 14:25:42.981825 20661 net.cpp:408] data_data_0_split -> data_data_0_split_1
I0402 14:25:42.981837 20661 net.cpp:408] data_data_0_split -> data_data_0_split_2
I0402 14:25:42.981848 20661 net.cpp:408] data_data_0_split -> data_data_0_split_3
I0402 14:25:42.981858 20661 net.cpp:408] data_data_0_split -> data_data_0_split_4
I0402 14:25:42.981868 20661 net.cpp:408] data_data_0_split -> data_data_0_split_5
I0402 14:25:42.981878 20661 net.cpp:408] data_data_0_split -> data_data_0_split_6
I0402 14:25:42.981986 20661 net.cpp:150] Setting up data_data_0_split
I0402 14:25:42.981998 20661 net.cpp:157] Top shape: 8 3 512 512 (6291456)
I0402 14:25:42.982007 20661 net.cpp:157] Top shape: 8 3 512 512 (6291456)
I0402 14:25:42.982014 20661 net.cpp:157] Top shape: 8 3 512 512 (6291456)
I0402 14:25:42.982020 20661 net.cpp:157] Top shape: 8 3 512 512 (6291456)
I0402 14:25:42.982046 20661 net.cpp:157] Top shape: 8 3 512 512 (6291456)
I0402 14:25:42.982055 20661 net.cpp:157] Top shape: 8 3 512 512 (6291456)
I0402 14:25:42.982064 20661 net.cpp:157] Top shape: 8 3 512 512 (6291456)
I0402 14:25:42.982069 20661 net.cpp:165] Memory required for data: 201326624
I0402 14:25:42.982076 20661 layer_factory.hpp:77] Creating layer conv1_1
I0402 14:25:42.982110 20661 net.cpp:100] Creating Layer conv1_1
I0402 14:25:42.982121 20661 net.cpp:434] conv1_1 <- data_data_0_split_0
I0402 14:25:42.982133 20661 net.cpp:408] conv1_1 -> conv1_1
I0402 14:25:43.301137 20661 net.cpp:150] Setting up conv1_1
I0402 14:25:43.301182 20661 net.cpp:157] Top shape: 8 64 512 512 (134217728)
I0402 14:25:43.301192 20661 net.cpp:165] Memory required for data: 738197536
I0402 14:25:43.301213 20661 layer_factory.hpp:77] Creating layer relu1_1
I0402 14:25:43.301226 20661 net.cpp:100] Creating Layer relu1_1
I0402 14:25:43.301234 20661 net.cpp:434] relu1_1 <- conv1_1
I0402 14:25:43.301244 20661 net.cpp:395] relu1_1 -> conv1_1 (in-place)
I0402 14:25:43.301604 20661 net.cpp:150] Setting up relu1_1
I0402 14:25:43.301620 20661 net.cpp:157] Top shape: 8 64 512 512 (134217728)
I0402 14:25:43.301627 20661 net.cpp:165] Memory required for data: 1275068448
I0402 14:25:43.301633 20661 layer_factory.hpp:77] Creating layer conv1_2
I0402 14:25:43.301652 20661 net.cpp:100] Creating Layer conv1_2
I0402 14:25:43.301658 20661 net.cpp:434] conv1_2 <- conv1_1
I0402 14:25:43.301667 20661 net.cpp:408] conv1_2 -> conv1_2
I0402 14:25:43.304553 20661 net.cpp:150] Setting up conv1_2
I0402 14:25:43.304572 20661 net.cpp:157] Top shape: 8 64 512 512 (134217728)
I0402 14:25:43.304580 20661 net.cpp:165] Memory required for data: 1811939360
I0402 14:25:43.304600 20661 layer_factory.hpp:77] Creating layer relu1_2
I0402 14:25:43.304608 20661 net.cpp:100] Creating Layer relu1_2
I0402 14:25:43.304615 20661 net.cpp:434] relu1_2 <- conv1_2
I0402 14:25:43.304623 20661 net.cpp:395] relu1_2 -> conv1_2 (in-place)
I0402 14:25:43.304810 20661 net.cpp:150] Setting up relu1_2
I0402 14:25:43.304823 20661 net.cpp:157] Top shape: 8 64 512 512 (134217728)
I0402 14:25:43.304828 20661 net.cpp:165] Memory required for data: 2348810272
I0402 14:25:43.304836 20661 layer_factory.hpp:77] Creating layer pool1
I0402 14:25:43.304846 20661 net.cpp:100] Creating Layer pool1
I0402 14:25:43.304854 20661 net.cpp:434] pool1 <- conv1_2
I0402 14:25:43.304864 20661 net.cpp:408] pool1 -> pool1
I0402 14:25:43.304929 20661 net.cpp:150] Setting up pool1
I0402 14:25:43.304939 20661 net.cpp:157] Top shape: 8 64 256 256 (33554432)
I0402 14:25:43.304944 20661 net.cpp:165] Memory required for data: 2483028000
I0402 14:25:43.304950 20661 layer_factory.hpp:77] Creating layer conv2_1
I0402 14:25:43.304963 20661 net.cpp:100] Creating Layer conv2_1
I0402 14:25:43.304973 20661 net.cpp:434] conv2_1 <- pool1
I0402 14:25:43.304982 20661 net.cpp:408] conv2_1 -> conv2_1
I0402 14:25:43.307348 20661 net.cpp:150] Setting up conv2_1
I0402 14:25:43.307368 20661 net.cpp:157] Top shape: 8 128 256 256 (67108864)
I0402 14:25:43.307379 20661 net.cpp:165] Memory required for data: 2751463456
I0402 14:25:43.307391 20661 layer_factory.hpp:77] Creating layer relu2_1
I0402 14:25:43.307404 20661 net.cpp:100] Creating Layer relu2_1
I0402 14:25:43.307410 20661 net.cpp:434] relu2_1 <- conv2_1
I0402 14:25:43.307418 20661 net.cpp:395] relu2_1 -> conv2_1 (in-place)
I0402 14:25:43.307652 20661 net.cpp:150] Setting up relu2_1
I0402 14:25:43.307672 20661 net.cpp:157] Top shape: 8 128 256 256 (67108864)
I0402 14:25:43.307682 20661 net.cpp:165] Memory required for data: 3019898912
I0402 14:25:43.307690 20661 layer_factory.hpp:77] Creating layer conv2_2
I0402 14:25:43.307715 20661 net.cpp:100] Creating Layer conv2_2
I0402 14:25:43.307751 20661 net.cpp:434] conv2_2 <- conv2_1
I0402 14:25:43.307776 20661 net.cpp:408] conv2_2 -> conv2_2
I0402 14:25:43.310230 20661 net.cpp:150] Setting up conv2_2
I0402 14:25:43.310250 20661 net.cpp:157] Top shape: 8 128 256 256 (67108864)
I0402 14:25:43.310256 20661 net.cpp:165] Memory required for data: 3288334368
I0402 14:25:43.310287 20661 layer_factory.hpp:77] Creating layer relu2_2
I0402 14:25:43.310298 20661 net.cpp:100] Creating Layer relu2_2
I0402 14:25:43.310304 20661 net.cpp:434] relu2_2 <- conv2_2
I0402 14:25:43.310317 20661 net.cpp:395] relu2_2 -> conv2_2 (in-place)
I0402 14:25:43.310664 20661 net.cpp:150] Setting up relu2_2
I0402 14:25:43.310681 20661 net.cpp:157] Top shape: 8 128 256 256 (67108864)
I0402 14:25:43.310686 20661 net.cpp:165] Memory required for data: 3556769824
I0402 14:25:43.310693 20661 layer_factory.hpp:77] Creating layer pool2
I0402 14:25:43.310704 20661 net.cpp:100] Creating Layer pool2
I0402 14:25:43.310710 20661 net.cpp:434] pool2 <- conv2_2
I0402 14:25:43.310719 20661 net.cpp:408] pool2 -> pool2
I0402 14:25:43.310772 20661 net.cpp:150] Setting up pool2
I0402 14:25:43.310783 20661 net.cpp:157] Top shape: 8 128 128 128 (16777216)
I0402 14:25:43.310789 20661 net.cpp:165] Memory required for data: 3623878688
I0402 14:25:43.310796 20661 layer_factory.hpp:77] Creating layer conv3_1
I0402 14:25:43.310808 20661 net.cpp:100] Creating Layer conv3_1
I0402 14:25:43.310818 20661 net.cpp:434] conv3_1 <- pool2
I0402 14:25:43.310832 20661 net.cpp:408] conv3_1 -> conv3_1
I0402 14:25:43.315780 20661 net.cpp:150] Setting up conv3_1
I0402 14:25:43.315799 20661 net.cpp:157] Top shape: 8 256 128 128 (33554432)
I0402 14:25:43.315805 20661 net.cpp:165] Memory required for data: 3758096416
I0402 14:25:43.315819 20661 layer_factory.hpp:77] Creating layer relu3_1
I0402 14:25:43.315829 20661 net.cpp:100] Creating Layer relu3_1
I0402 14:25:43.315835 20661 net.cpp:434] relu3_1 <- conv3_1
I0402 14:25:43.315843 20661 net.cpp:395] relu3_1 -> conv3_1 (in-place)
I0402 14:25:43.316042 20661 net.cpp:150] Setting up relu3_1
I0402 14:25:43.316056 20661 net.cpp:157] Top shape: 8 256 128 128 (33554432)
I0402 14:25:43.316061 20661 net.cpp:165] Memory required for data: 3892314144
I0402 14:25:43.316067 20661 layer_factory.hpp:77] Creating layer conv3_2
I0402 14:25:43.316084 20661 net.cpp:100] Creating Layer conv3_2
I0402 14:25:43.316093 20661 net.cpp:434] conv3_2 <- conv3_1
I0402 14:25:43.316103 20661 net.cpp:408] conv3_2 -> conv3_2
I0402 14:25:43.323084 20661 net.cpp:150] Setting up conv3_2
I0402 14:25:43.323104 20661 net.cpp:157] Top shape: 8 256 128 128 (33554432)
I0402 14:25:43.323118 20661 net.cpp:165] Memory required for data: 4026531872
I0402 14:25:43.323127 20661 layer_factory.hpp:77] Creating layer relu3_2
I0402 14:25:43.323137 20661 net.cpp:100] Creating Layer relu3_2
I0402 14:25:43.323143 20661 net.cpp:434] relu3_2 <- conv3_2
I0402 14:25:43.323150 20661 net.cpp:395] relu3_2 -> conv3_2 (in-place)
I0402 14:25:43.323349 20661 net.cpp:150] Setting up relu3_2
I0402 14:25:43.323365 20661 net.cpp:157] Top shape: 8 256 128 128 (33554432)
I0402 14:25:43.323371 20661 net.cpp:165] Memory required for data: 4160749600
I0402 14:25:43.323377 20661 layer_factory.hpp:77] Creating layer conv3_3
I0402 14:25:43.323392 20661 net.cpp:100] Creating Layer conv3_3
I0402 14:25:43.323402 20661 net.cpp:434] conv3_3 <- conv3_2
I0402 14:25:43.323413 20661 net.cpp:408] conv3_3 -> conv3_3
I0402 14:25:43.330420 20661 net.cpp:150] Setting up conv3_3
I0402 14:25:43.330438 20661 net.cpp:157] Top shape: 8 256 128 128 (33554432)
I0402 14:25:43.330446 20661 net.cpp:165] Memory required for data: 4294967328
I0402 14:25:43.330454 20661 layer_factory.hpp:77] Creating layer relu3_3
I0402 14:25:43.330467 20661 net.cpp:100] Creating Layer relu3_3
I0402 14:25:43.330474 20661 net.cpp:434] relu3_3 <- conv3_3
I0402 14:25:43.330482 20661 net.cpp:395] relu3_3 -> conv3_3 (in-place)
I0402 14:25:43.330824 20661 net.cpp:150] Setting up relu3_3
I0402 14:25:43.330842 20661 net.cpp:157] Top shape: 8 256 128 128 (33554432)
I0402 14:25:43.330847 20661 net.cpp:165] Memory required for data: 4429185056
I0402 14:25:43.330853 20661 layer_factory.hpp:77] Creating layer pool3
I0402 14:25:43.330865 20661 net.cpp:100] Creating Layer pool3
I0402 14:25:43.330873 20661 net.cpp:434] pool3 <- conv3_3
I0402 14:25:43.330883 20661 net.cpp:408] pool3 -> pool3
I0402 14:25:43.330951 20661 net.cpp:150] Setting up pool3
I0402 14:25:43.330963 20661 net.cpp:157] Top shape: 8 256 64 64 (8388608)
I0402 14:25:43.330971 20661 net.cpp:165] Memory required for data: 4462739488
I0402 14:25:43.330977 20661 layer_factory.hpp:77] Creating layer conv4_1
I0402 14:25:43.330991 20661 net.cpp:100] Creating Layer conv4_1
I0402 14:25:43.331001 20661 net.cpp:434] conv4_1 <- pool3
I0402 14:25:43.331013 20661 net.cpp:408] conv4_1 -> conv4_1
I0402 14:25:43.345383 20661 net.cpp:150] Setting up conv4_1
I0402 14:25:43.345427 20661 net.cpp:157] Top shape: 8 512 64 64 (16777216)
I0402 14:25:43.345437 20661 net.cpp:165] Memory required for data: 4529848352
I0402 14:25:43.345453 20661 layer_factory.hpp:77] Creating layer relu4_1
I0402 14:25:43.345468 20661 net.cpp:100] Creating Layer relu4_1
I0402 14:25:43.345482 20661 net.cpp:434] relu4_1 <- conv4_1
I0402 14:25:43.345496 20661 net.cpp:395] relu4_1 -> conv4_1 (in-place)
I0402 14:25:43.345711 20661 net.cpp:150] Setting up relu4_1
I0402 14:25:43.345727 20661 net.cpp:157] Top shape: 8 512 64 64 (16777216)
I0402 14:25:43.345732 20661 net.cpp:165] Memory required for data: 4596957216
I0402 14:25:43.345739 20661 layer_factory.hpp:77] Creating layer conv4_2
I0402 14:25:43.345755 20661 net.cpp:100] Creating Layer conv4_2
I0402 14:25:43.345765 20661 net.cpp:434] conv4_2 <- conv4_1
I0402 14:25:43.345777 20661 net.cpp:408] conv4_2 -> conv4_2
I0402 14:25:43.369518 20661 net.cpp:150] Setting up conv4_2
I0402 14:25:43.369557 20661 net.cpp:157] Top shape: 8 512 64 64 (16777216)
I0402 14:25:43.369565 20661 net.cpp:165] Memory required for data: 4664066080
I0402 14:25:43.369585 20661 layer_factory.hpp:77] Creating layer relu4_2
I0402 14:25:43.369596 20661 net.cpp:100] Creating Layer relu4_2
I0402 14:25:43.369604 20661 net.cpp:434] relu4_2 <- conv4_2
I0402 14:25:43.369612 20661 net.cpp:395] relu4_2 -> conv4_2 (in-place)
I0402 14:25:43.369835 20661 net.cpp:150] Setting up relu4_2
I0402 14:25:43.369850 20661 net.cpp:157] Top shape: 8 512 64 64 (16777216)
I0402 14:25:43.369856 20661 net.cpp:165] Memory required for data: 4731174944
I0402 14:25:43.369863 20661 layer_factory.hpp:77] Creating layer conv4_3
I0402 14:25:43.369876 20661 net.cpp:100] Creating Layer conv4_3
I0402 14:25:43.369892 20661 net.cpp:434] conv4_3 <- conv4_2
I0402 14:25:43.369904 20661 net.cpp:408] conv4_3 -> conv4_3
I0402 14:25:43.393813 20661 net.cpp:150] Setting up conv4_3
I0402 14:25:43.393854 20661 net.cpp:157] Top shape: 8 512 64 64 (16777216)
I0402 14:25:43.393863 20661 net.cpp:165] Memory required for data: 4798283808
I0402 14:25:43.393873 20661 layer_factory.hpp:77] Creating layer relu4_3
I0402 14:25:43.393885 20661 net.cpp:100] Creating Layer relu4_3
I0402 14:25:43.393893 20661 net.cpp:434] relu4_3 <- conv4_3
I0402 14:25:43.393903 20661 net.cpp:395] relu4_3 -> conv4_3 (in-place)
I0402 14:25:43.394253 20661 net.cpp:150] Setting up relu4_3
I0402 14:25:43.394271 20661 net.cpp:157] Top shape: 8 512 64 64 (16777216)
I0402 14:25:43.394276 20661 net.cpp:165] Memory required for data: 4865392672
I0402 14:25:43.394284 20661 layer_factory.hpp:77] Creating layer conv4_3_relu4_3_0_split
I0402 14:25:43.394297 20661 net.cpp:100] Creating Layer conv4_3_relu4_3_0_split
I0402 14:25:43.394304 20661 net.cpp:434] conv4_3_relu4_3_0_split <- conv4_3
I0402 14:25:43.394311 20661 net.cpp:408] conv4_3_relu4_3_0_split -> conv4_3_relu4_3_0_split_0
I0402 14:25:43.394322 20661 net.cpp:408] conv4_3_relu4_3_0_split -> conv4_3_relu4_3_0_split_1
I0402 14:25:43.394376 20661 net.cpp:150] Setting up conv4_3_relu4_3_0_split
I0402 14:25:43.394387 20661 net.cpp:157] Top shape: 8 512 64 64 (16777216)
I0402 14:25:43.394394 20661 net.cpp:157] Top shape: 8 512 64 64 (16777216)
I0402 14:25:43.394402 20661 net.cpp:165] Memory required for data: 4999610400
I0402 14:25:43.394407 20661 layer_factory.hpp:77] Creating layer pool4
I0402 14:25:43.394418 20661 net.cpp:100] Creating Layer pool4
I0402 14:25:43.394428 20661 net.cpp:434] pool4 <- conv4_3_relu4_3_0_split_0
I0402 14:25:43.394438 20661 net.cpp:408] pool4 -> pool4
I0402 14:25:43.394482 20661 net.cpp:150] Setting up pool4
I0402 14:25:43.394511 20661 net.cpp:157] Top shape: 8 512 32 32 (4194304)
I0402 14:25:43.394517 20661 net.cpp:165] Memory required for data: 5016387616
I0402 14:25:43.394522 20661 layer_factory.hpp:77] Creating layer conv5_1
I0402 14:25:43.394538 20661 net.cpp:100] Creating Layer conv5_1
I0402 14:25:43.394547 20661 net.cpp:434] conv5_1 <- pool4
I0402 14:25:43.394562 20661 net.cpp:408] conv5_1 -> conv5_1
I0402 14:25:43.418385 20661 net.cpp:150] Setting up conv5_1
I0402 14:25:43.418434 20661 net.cpp:157] Top shape: 8 512 32 32 (4194304)
I0402 14:25:43.418442 20661 net.cpp:165] Memory required for data: 5033164832
I0402 14:25:43.418453 20661 layer_factory.hpp:77] Creating layer relu5_1
I0402 14:25:43.418468 20661 net.cpp:100] Creating Layer relu5_1
I0402 14:25:43.418476 20661 net.cpp:434] relu5_1 <- conv5_1
I0402 14:25:43.418489 20661 net.cpp:395] relu5_1 -> conv5_1 (in-place)
I0402 14:25:43.418714 20661 net.cpp:150] Setting up relu5_1
I0402 14:25:43.418728 20661 net.cpp:157] Top shape: 8 512 32 32 (4194304)
I0402 14:25:43.418733 20661 net.cpp:165] Memory required for data: 5049942048
I0402 14:25:43.418742 20661 layer_factory.hpp:77] Creating layer conv5_2
I0402 14:25:43.418758 20661 net.cpp:100] Creating Layer conv5_2
I0402 14:25:43.418766 20661 net.cpp:434] conv5_2 <- conv5_1
I0402 14:25:43.418777 20661 net.cpp:408] conv5_2 -> conv5_2
I0402 14:25:43.442354 20661 net.cpp:150] Setting up conv5_2
I0402 14:25:43.442394 20661 net.cpp:157] Top shape: 8 512 32 32 (4194304)
I0402 14:25:43.442399 20661 net.cpp:165] Memory required for data: 5066719264
I0402 14:25:43.442410 20661 layer_factory.hpp:77] Creating layer relu5_2
I0402 14:25:43.442423 20661 net.cpp:100] Creating Layer relu5_2
I0402 14:25:43.442430 20661 net.cpp:434] relu5_2 <- conv5_2
I0402 14:25:43.442438 20661 net.cpp:395] relu5_2 -> conv5_2 (in-place)
I0402 14:25:43.442648 20661 net.cpp:150] Setting up relu5_2
I0402 14:25:43.442662 20661 net.cpp:157] Top shape: 8 512 32 32 (4194304)
I0402 14:25:43.442667 20661 net.cpp:165] Memory required for data: 5083496480
I0402 14:25:43.442672 20661 layer_factory.hpp:77] Creating layer conv5_3
I0402 14:25:43.442689 20661 net.cpp:100] Creating Layer conv5_3
I0402 14:25:43.442698 20661 net.cpp:434] conv5_3 <- conv5_2
I0402 14:25:43.442706 20661 net.cpp:408] conv5_3 -> conv5_3
I0402 14:25:43.466563 20661 net.cpp:150] Setting up conv5_3
I0402 14:25:43.466609 20661 net.cpp:157] Top shape: 8 512 32 32 (4194304)
I0402 14:25:43.466614 20661 net.cpp:165] Memory required for data: 5100273696
I0402 14:25:43.466625 20661 layer_factory.hpp:77] Creating layer relu5_3
I0402 14:25:43.466645 20661 net.cpp:100] Creating Layer relu5_3
I0402 14:25:43.466652 20661 net.cpp:434] relu5_3 <- conv5_3
I0402 14:25:43.466665 20661 net.cpp:395] relu5_3 -> conv5_3 (in-place)
I0402 14:25:43.467010 20661 net.cpp:150] Setting up relu5_3
I0402 14:25:43.467026 20661 net.cpp:157] Top shape: 8 512 32 32 (4194304)
I0402 14:25:43.467031 20661 net.cpp:165] Memory required for data: 5117050912
I0402 14:25:43.467039 20661 layer_factory.hpp:77] Creating layer pool5
I0402 14:25:43.467049 20661 net.cpp:100] Creating Layer pool5
I0402 14:25:43.467057 20661 net.cpp:434] pool5 <- conv5_3
I0402 14:25:43.467067 20661 net.cpp:408] pool5 -> pool5
I0402 14:25:43.467128 20661 net.cpp:150] Setting up pool5
I0402 14:25:43.467157 20661 net.cpp:157] Top shape: 8 512 32 32 (4194304)
I0402 14:25:43.467162 20661 net.cpp:165] Memory required for data: 5133828128
I0402 14:25:43.467167 20661 layer_factory.hpp:77] Creating layer fc6
I0402 14:25:43.467284 20661 net.cpp:100] Creating Layer fc6
I0402 14:25:43.467293 20661 net.cpp:434] fc6 <- pool5
I0402 14:25:43.467303 20661 net.cpp:408] fc6 -> fc6
I0402 14:25:43.526422 20661 net.cpp:150] Setting up fc6
I0402 14:25:43.526476 20661 net.cpp:157] Top shape: 8 1024 32 32 (8388608)
I0402 14:25:43.526484 20661 net.cpp:165] Memory required for data: 5167382560
I0402 14:25:43.526499 20661 layer_factory.hpp:77] Creating layer relu6
I0402 14:25:43.526516 20661 net.cpp:100] Creating Layer relu6
I0402 14:25:43.526525 20661 net.cpp:434] relu6 <- fc6
I0402 14:25:43.526564 20661 net.cpp:395] relu6 -> fc6 (in-place)
I0402 14:25:43.526897 20661 net.cpp:150] Setting up relu6
I0402 14:25:43.526916 20661 net.cpp:157] Top shape: 8 1024 32 32 (8388608)
I0402 14:25:43.526926 20661 net.cpp:165] Memory required for data: 5200936992
I0402 14:25:43.526933 20661 layer_factory.hpp:77] Creating layer fc7
I0402 14:25:43.526957 20661 net.cpp:100] Creating Layer fc7
I0402 14:25:43.526968 20661 net.cpp:434] fc7 <- fc6
I0402 14:25:43.526984 20661 net.cpp:408] fc7 -> fc7
I0402 14:25:43.541689 20661 net.cpp:150] Setting up fc7
I0402 14:25:43.541716 20661 net.cpp:157] Top shape: 8 1024 32 32 (8388608)
I0402 14:25:43.541728 20661 net.cpp:165] Memory required for data: 5234491424
I0402 14:25:43.541746 20661 layer_factory.hpp:77] Creating layer relu7
I0402 14:25:43.541760 20661 net.cpp:100] Creating Layer relu7
I0402 14:25:43.541771 20661 net.cpp:434] relu7 <- fc7
I0402 14:25:43.541785 20661 net.cpp:395] relu7 -> fc7 (in-place)
I0402 14:25:43.542209 20661 net.cpp:150] Setting up relu7
I0402 14:25:43.542230 20661 net.cpp:157] Top shape: 8 1024 32 32 (8388608)
I0402 14:25:43.542240 20661 net.cpp:165] Memory required for data: 5268045856
I0402 14:25:43.542248 20661 layer_factory.hpp:77] Creating layer fc7_relu7_0_split
I0402 14:25:43.542263 20661 net.cpp:100] Creating Layer fc7_relu7_0_split
I0402 14:25:43.542273 20661 net.cpp:434] fc7_relu7_0_split <- fc7
I0402 14:25:43.542289 20661 net.cpp:408] fc7_relu7_0_split -> fc7_relu7_0_split_0
I0402 14:25:43.542304 20661 net.cpp:408] fc7_relu7_0_split -> fc7_relu7_0_split_1
I0402 14:25:43.542326 20661 net.cpp:408] fc7_relu7_0_split -> fc7_relu7_0_split_2
I0402 14:25:43.542340 20661 net.cpp:408] fc7_relu7_0_split -> fc7_relu7_0_split_3
I0402 14:25:43.542353 20661 net.cpp:408] fc7_relu7_0_split -> fc7_relu7_0_split_4
I0402 14:25:43.542474 20661 net.cpp:150] Setting up fc7_relu7_0_split
I0402 14:25:43.542490 20661 net.cpp:157] Top shape: 8 1024 32 32 (8388608)
I0402 14:25:43.542501 20661 net.cpp:157] Top shape: 8 1024 32 32 (8388608)
I0402 14:25:43.542513 20661 net.cpp:157] Top shape: 8 1024 32 32 (8388608)
I0402 14:25:43.542524 20661 net.cpp:157] Top shape: 8 1024 32 32 (8388608)
I0402 14:25:43.542534 20661 net.cpp:157] Top shape: 8 1024 32 32 (8388608)
I0402 14:25:43.542543 20661 net.cpp:165] Memory required for data: 5435818016
I0402 14:25:43.542551 20661 layer_factory.hpp:77] Creating layer conv6_1
I0402 14:25:43.542573 20661 net.cpp:100] Creating Layer conv6_1
I0402 14:25:43.542583 20661 net.cpp:434] conv6_1 <- fc7_relu7_0_split_0
I0402 14:25:43.542599 20661 net.cpp:408] conv6_1 -> conv6_1
I0402 14:25:43.547372 20661 net.cpp:150] Setting up conv6_1
I0402 14:25:43.547395 20661 net.cpp:157] Top shape: 8 256 32 32 (2097152)
I0402 14:25:43.547404 20661 net.cpp:165] Memory required for data: 5444206624
I0402 14:25:43.547418 20661 layer_factory.hpp:77] Creating layer conv6_1_relu
I0402 14:25:43.547435 20661 net.cpp:100] Creating Layer conv6_1_relu
I0402 14:25:43.547444 20661 net.cpp:434] conv6_1_relu <- conv6_1
I0402 14:25:43.547457 20661 net.cpp:395] conv6_1_relu -> conv6_1 (in-place)
I0402 14:25:43.547953 20661 net.cpp:150] Setting up conv6_1_relu
I0402 14:25:43.547974 20661 net.cpp:157] Top shape: 8 256 32 32 (2097152)
I0402 14:25:43.547984 20661 net.cpp:165] Memory required for data: 5452595232
I0402 14:25:43.547996 20661 layer_factory.hpp:77] Creating layer conv6_2
I0402 14:25:43.548017 20661 net.cpp:100] Creating Layer conv6_2
I0402 14:25:43.548027 20661 net.cpp:434] conv6_2 <- conv6_1
I0402 14:25:43.548044 20661 net.cpp:408] conv6_2 -> conv6_2
I0402 14:25:43.563868 20661 net.cpp:150] Setting up conv6_2
I0402 14:25:43.563895 20661 net.cpp:157] Top shape: 8 512 16 16 (1048576)
I0402 14:25:43.563905 20661 net.cpp:165] Memory required for data: 5456789536
I0402 14:25:43.563931 20661 layer_factory.hpp:77] Creating layer conv6_2_relu
I0402 14:25:43.563947 20661 net.cpp:100] Creating Layer conv6_2_relu
I0402 14:25:43.563957 20661 net.cpp:434] conv6_2_relu <- conv6_2
I0402 14:25:43.563968 20661 net.cpp:395] conv6_2_relu -> conv6_2 (in-place)
I0402 14:25:43.564255 20661 net.cpp:150] Setting up conv6_2_relu
I0402 14:25:43.564275 20661 net.cpp:157] Top shape: 8 512 16 16 (1048576)
I0402 14:25:43.564283 20661 net.cpp:165] Memory required for data: 5460983840
I0402 14:25:43.564294 20661 layer_factory.hpp:77] Creating layer conv6_2_conv6_2_relu_0_split
I0402 14:25:43.564307 20661 net.cpp:100] Creating Layer conv6_2_conv6_2_relu_0_split
I0402 14:25:43.564317 20661 net.cpp:434] conv6_2_conv6_2_relu_0_split <- conv6_2
I0402 14:25:43.564332 20661 net.cpp:408] conv6_2_conv6_2_relu_0_split -> conv6_2_conv6_2_relu_0_split_0
I0402 14:25:43.564348 20661 net.cpp:408] conv6_2_conv6_2_relu_0_split -> conv6_2_conv6_2_relu_0_split_1
I0402 14:25:43.564362 20661 net.cpp:408] conv6_2_conv6_2_relu_0_split -> conv6_2_conv6_2_relu_0_split_2
I0402 14:25:43.564374 20661 net.cpp:408] conv6_2_conv6_2_relu_0_split -> conv6_2_conv6_2_relu_0_split_3
I0402 14:25:43.564389 20661 net.cpp:408] conv6_2_conv6_2_relu_0_split -> conv6_2_conv6_2_relu_0_split_4
I0402 14:25:43.564507 20661 net.cpp:150] Setting up conv6_2_conv6_2_relu_0_split
I0402 14:25:43.564522 20661 net.cpp:157] Top shape: 8 512 16 16 (1048576)
I0402 14:25:43.564534 20661 net.cpp:157] Top shape: 8 512 16 16 (1048576)
I0402 14:25:43.564545 20661 net.cpp:157] Top shape: 8 512 16 16 (1048576)
I0402 14:25:43.564555 20661 net.cpp:157] Top shape: 8 512 16 16 (1048576)
I0402 14:25:43.564566 20661 net.cpp:157] Top shape: 8 512 16 16 (1048576)
I0402 14:25:43.564575 20661 net.cpp:165] Memory required for data: 5481955360
I0402 14:25:43.564585 20661 layer_factory.hpp:77] Creating layer conv7_1
I0402 14:25:43.564605 20661 net.cpp:100] Creating Layer conv7_1
I0402 14:25:43.564615 20661 net.cpp:434] conv7_1 <- conv6_2_conv6_2_relu_0_split_0
I0402 14:25:43.564631 20661 net.cpp:408] conv7_1 -> conv7_1
I0402 14:25:43.566757 20661 net.cpp:150] Setting up conv7_1
I0402 14:25:43.566781 20661 net.cpp:157] Top shape: 8 128 16 16 (262144)
I0402 14:25:43.566790 20661 net.cpp:165] Memory required for data: 5483003936
I0402 14:25:43.566805 20661 layer_factory.hpp:77] Creating layer conv7_1_relu
I0402 14:25:43.566818 20661 net.cpp:100] Creating Layer conv7_1_relu
I0402 14:25:43.566829 20661 net.cpp:434] conv7_1_relu <- conv7_1
I0402 14:25:43.566844 20661 net.cpp:395] conv7_1_relu -> conv7_1 (in-place)
I0402 14:25:43.567261 20661 net.cpp:150] Setting up conv7_1_relu
I0402 14:25:43.567281 20661 net.cpp:157] Top shape: 8 128 16 16 (262144)
I0402 14:25:43.567291 20661 net.cpp:165] Memory required for data: 5484052512
I0402 14:25:43.567301 20661 layer_factory.hpp:77] Creating layer conv7_2
I0402 14:25:43.567322 20661 net.cpp:100] Creating Layer conv7_2
I0402 14:25:43.567332 20661 net.cpp:434] conv7_2 <- conv7_1
I0402 14:25:43.567349 20661 net.cpp:408] conv7_2 -> conv7_2
I0402 14:25:43.572427 20661 net.cpp:150] Setting up conv7_2
I0402 14:25:43.572451 20661 net.cpp:157] Top shape: 8 256 8 8 (131072)
I0402 14:25:43.572461 20661 net.cpp:165] Memory required for data: 5484576800
I0402 14:25:43.572477 20661 layer_factory.hpp:77] Creating layer conv7_2_relu
I0402 14:25:43.572492 20661 net.cpp:100] Creating Layer conv7_2_relu
I0402 14:25:43.572504 20661 net.cpp:434] conv7_2_relu <- conv7_2
I0402 14:25:43.572515 20661 net.cpp:395] conv7_2_relu -> conv7_2 (in-place)
I0402 14:25:43.572937 20661 net.cpp:150] Setting up conv7_2_relu
I0402 14:25:43.572957 20661 net.cpp:157] Top shape: 8 256 8 8 (131072)
I0402 14:25:43.572968 20661 net.cpp:165] Memory required for data: 5485101088
I0402 14:25:43.572978 20661 layer_factory.hpp:77] Creating layer conv7_2_conv7_2_relu_0_split
I0402 14:25:43.572993 20661 net.cpp:100] Creating Layer conv7_2_conv7_2_relu_0_split
I0402 14:25:43.573004 20661 net.cpp:434] conv7_2_conv7_2_relu_0_split <- conv7_2
I0402 14:25:43.573019 20661 net.cpp:408] conv7_2_conv7_2_relu_0_split -> conv7_2_conv7_2_relu_0_split_0
I0402 14:25:43.573035 20661 net.cpp:408] conv7_2_conv7_2_relu_0_split -> conv7_2_conv7_2_relu_0_split_1
I0402 14:25:43.573048 20661 net.cpp:408] conv7_2_conv7_2_relu_0_split -> conv7_2_conv7_2_relu_0_split_2
I0402 14:25:43.573060 20661 net.cpp:408] conv7_2_conv7_2_relu_0_split -> conv7_2_conv7_2_relu_0_split_3
I0402 14:25:43.573087 20661 net.cpp:408] conv7_2_conv7_2_relu_0_split -> conv7_2_conv7_2_relu_0_split_4
I0402 14:25:43.573213 20661 net.cpp:150] Setting up conv7_2_conv7_2_relu_0_split
I0402 14:25:43.573227 20661 net.cpp:157] Top shape: 8 256 8 8 (131072)
I0402 14:25:43.573238 20661 net.cpp:157] Top shape: 8 256 8 8 (131072)
I0402 14:25:43.573251 20661 net.cpp:157] Top shape: 8 256 8 8 (131072)
I0402 14:25:43.573261 20661 net.cpp:157] Top shape: 8 256 8 8 (131072)
I0402 14:25:43.573271 20661 net.cpp:157] Top shape: 8 256 8 8 (131072)
I0402 14:25:43.573281 20661 net.cpp:165] Memory required for data: 5487722528
I0402 14:25:43.573292 20661 layer_factory.hpp:77] Creating layer conv8_1
I0402 14:25:43.573312 20661 net.cpp:100] Creating Layer conv8_1
I0402 14:25:43.573323 20661 net.cpp:434] conv8_1 <- conv7_2_conv7_2_relu_0_split_0
I0402 14:25:43.573338 20661 net.cpp:408] conv8_1 -> conv8_1
I0402 14:25:43.575871 20661 net.cpp:150] Setting up conv8_1
I0402 14:25:43.575894 20661 net.cpp:157] Top shape: 8 128 8 8 (65536)
I0402 14:25:43.575904 20661 net.cpp:165] Memory required for data: 5487984672
I0402 14:25:43.575919 20661 layer_factory.hpp:77] Creating layer conv8_1_relu
I0402 14:25:43.575933 20661 net.cpp:100] Creating Layer conv8_1_relu
I0402 14:25:43.575943 20661 net.cpp:434] conv8_1_relu <- conv8_1
I0402 14:25:43.575956 20661 net.cpp:395] conv8_1_relu -> conv8_1 (in-place)
I0402 14:25:43.576211 20661 net.cpp:150] Setting up conv8_1_relu
I0402 14:25:43.576230 20661 net.cpp:157] Top shape: 8 128 8 8 (65536)
I0402 14:25:43.576238 20661 net.cpp:165] Memory required for data: 5488246816
I0402 14:25:43.576249 20661 layer_factory.hpp:77] Creating layer conv8_2
I0402 14:25:43.576268 20661 net.cpp:100] Creating Layer conv8_2
I0402 14:25:43.576279 20661 net.cpp:434] conv8_2 <- conv8_1
I0402 14:25:43.576295 20661 net.cpp:408] conv8_2 -> conv8_2
I0402 14:25:43.581490 20661 net.cpp:150] Setting up conv8_2
I0402 14:25:43.581513 20661 net.cpp:157] Top shape: 8 256 6 6 (73728)
I0402 14:25:43.581523 20661 net.cpp:165] Memory required for data: 5488541728
I0402 14:25:43.581537 20661 layer_factory.hpp:77] Creating layer conv8_2_relu
I0402 14:25:43.581553 20661 net.cpp:100] Creating Layer conv8_2_relu
I0402 14:25:43.581564 20661 net.cpp:434] conv8_2_relu <- conv8_2
I0402 14:25:43.581576 20661 net.cpp:395] conv8_2_relu -> conv8_2 (in-place)
I0402 14:25:43.581996 20661 net.cpp:150] Setting up conv8_2_relu
I0402 14:25:43.582017 20661 net.cpp:157] Top shape: 8 256 6 6 (73728)
I0402 14:25:43.582027 20661 net.cpp:165] Memory required for data: 5488836640
I0402 14:25:43.582038 20661 layer_factory.hpp:77] Creating layer conv8_2_conv8_2_relu_0_split
I0402 14:25:43.582054 20661 net.cpp:100] Creating Layer conv8_2_conv8_2_relu_0_split
I0402 14:25:43.582063 20661 net.cpp:434] conv8_2_conv8_2_relu_0_split <- conv8_2
I0402 14:25:43.582078 20661 net.cpp:408] conv8_2_conv8_2_relu_0_split -> conv8_2_conv8_2_relu_0_split_0
I0402 14:25:43.582093 20661 net.cpp:408] conv8_2_conv8_2_relu_0_split -> conv8_2_conv8_2_relu_0_split_1
I0402 14:25:43.582108 20661 net.cpp:408] conv8_2_conv8_2_relu_0_split -> conv8_2_conv8_2_relu_0_split_2
I0402 14:25:43.582120 20661 net.cpp:408] conv8_2_conv8_2_relu_0_split -> conv8_2_conv8_2_relu_0_split_3
I0402 14:25:43.582134 20661 net.cpp:408] conv8_2_conv8_2_relu_0_split -> conv8_2_conv8_2_relu_0_split_4
I0402 14:25:43.582259 20661 net.cpp:150] Setting up conv8_2_conv8_2_relu_0_split
I0402 14:25:43.582273 20661 net.cpp:157] Top shape: 8 256 6 6 (73728)
I0402 14:25:43.582284 20661 net.cpp:157] Top shape: 8 256 6 6 (73728)
I0402 14:25:43.582295 20661 net.cpp:157] Top shape: 8 256 6 6 (73728)
I0402 14:25:43.582305 20661 net.cpp:157] Top shape: 8 256 6 6 (73728)
I0402 14:25:43.582316 20661 net.cpp:157] Top shape: 8 256 6 6 (73728)
I0402 14:25:43.582325 20661 net.cpp:165] Memory required for data: 5490311200
I0402 14:25:43.582335 20661 layer_factory.hpp:77] Creating layer conv9_1
I0402 14:25:43.582357 20661 net.cpp:100] Creating Layer conv9_1
I0402 14:25:43.582368 20661 net.cpp:434] conv9_1 <- conv8_2_conv8_2_relu_0_split_0
I0402 14:25:43.582398 20661 net.cpp:408] conv9_1 -> conv9_1
I0402 14:25:43.584122 20661 net.cpp:150] Setting up conv9_1
I0402 14:25:43.584144 20661 net.cpp:157] Top shape: 8 128 6 6 (36864)
I0402 14:25:43.584154 20661 net.cpp:165] Memory required for data: 5490458656
I0402 14:25:43.584168 20661 layer_factory.hpp:77] Creating layer conv9_1_relu
I0402 14:25:43.584184 20661 net.cpp:100] Creating Layer conv9_1_relu
I0402 14:25:43.584194 20661 net.cpp:434] conv9_1_relu <- conv9_1
I0402 14:25:43.584208 20661 net.cpp:395] conv9_1_relu -> conv9_1 (in-place)
I0402 14:25:43.584623 20661 net.cpp:150] Setting up conv9_1_relu
I0402 14:25:43.584645 20661 net.cpp:157] Top shape: 8 128 6 6 (36864)
I0402 14:25:43.584655 20661 net.cpp:165] Memory required for data: 5490606112
I0402 14:25:43.584666 20661 layer_factory.hpp:77] Creating layer conv9_2
I0402 14:25:43.584688 20661 net.cpp:100] Creating Layer conv9_2
I0402 14:25:43.584698 20661 net.cpp:434] conv9_2 <- conv9_1
I0402 14:25:43.584713 20661 net.cpp:408] conv9_2 -> conv9_2
I0402 14:25:43.589877 20661 net.cpp:150] Setting up conv9_2
I0402 14:25:43.589903 20661 net.cpp:157] Top shape: 8 256 4 4 (32768)
I0402 14:25:43.589913 20661 net.cpp:165] Memory required for data: 5490737184
I0402 14:25:43.589928 20661 layer_factory.hpp:77] Creating layer conv9_2_relu
I0402 14:25:43.589941 20661 net.cpp:100] Creating Layer conv9_2_relu
I0402 14:25:43.589952 20661 net.cpp:434] conv9_2_relu <- conv9_2
I0402 14:25:43.589964 20661 net.cpp:395] conv9_2_relu -> conv9_2 (in-place)
I0402 14:25:43.590379 20661 net.cpp:150] Setting up conv9_2_relu
I0402 14:25:43.590400 20661 net.cpp:157] Top shape: 8 256 4 4 (32768)
I0402 14:25:43.590410 20661 net.cpp:165] Memory required for data: 5490868256
I0402 14:25:43.590420 20661 layer_factory.hpp:77] Creating layer conv9_2_conv9_2_relu_0_split
I0402 14:25:43.590433 20661 net.cpp:100] Creating Layer conv9_2_conv9_2_relu_0_split
I0402 14:25:43.590443 20661 net.cpp:434] conv9_2_conv9_2_relu_0_split <- conv9_2
I0402 14:25:43.590458 20661 net.cpp:408] conv9_2_conv9_2_relu_0_split -> conv9_2_conv9_2_relu_0_split_0
I0402 14:25:43.590473 20661 net.cpp:408] conv9_2_conv9_2_relu_0_split -> conv9_2_conv9_2_relu_0_split_1
I0402 14:25:43.590487 20661 net.cpp:408] conv9_2_conv9_2_relu_0_split -> conv9_2_conv9_2_relu_0_split_2
I0402 14:25:43.590500 20661 net.cpp:408] conv9_2_conv9_2_relu_0_split -> conv9_2_conv9_2_relu_0_split_3
I0402 14:25:43.590611 20661 net.cpp:150] Setting up conv9_2_conv9_2_relu_0_split
I0402 14:25:43.590625 20661 net.cpp:157] Top shape: 8 256 4 4 (32768)
I0402 14:25:43.590636 20661 net.cpp:157] Top shape: 8 256 4 4 (32768)
I0402 14:25:43.590647 20661 net.cpp:157] Top shape: 8 256 4 4 (32768)
I0402 14:25:43.590657 20661 net.cpp:157] Top shape: 8 256 4 4 (32768)
I0402 14:25:43.590667 20661 net.cpp:165] Memory required for data: 5491392544
I0402 14:25:43.590677 20661 layer_factory.hpp:77] Creating layer conv4_3_norm
I0402 14:25:43.590692 20661 net.cpp:100] Creating Layer conv4_3_norm
I0402 14:25:43.590703 20661 net.cpp:434] conv4_3_norm <- conv4_3_relu4_3_0_split_1
I0402 14:25:43.590718 20661 net.cpp:408] conv4_3_norm -> conv4_3_norm
I0402 14:25:43.590957 20661 net.cpp:150] Setting up conv4_3_norm
I0402 14:25:43.590972 20661 net.cpp:157] Top shape: 8 512 64 64 (16777216)
I0402 14:25:43.590981 20661 net.cpp:165] Memory required for data: 5558501408
I0402 14:25:43.590993 20661 layer_factory.hpp:77] Creating layer conv4_3_norm_conv4_3_norm_0_split
I0402 14:25:43.591008 20661 net.cpp:100] Creating Layer conv4_3_norm_conv4_3_norm_0_split
I0402 14:25:43.591018 20661 net.cpp:434] conv4_3_norm_conv4_3_norm_0_split <- conv4_3_norm
I0402 14:25:43.591029 20661 net.cpp:408] conv4_3_norm_conv4_3_norm_0_split -> conv4_3_norm_conv4_3_norm_0_split_0
I0402 14:25:43.591053 20661 net.cpp:408] conv4_3_norm_conv4_3_norm_0_split -> conv4_3_norm_conv4_3_norm_0_split_1
I0402 14:25:43.591066 20661 net.cpp:408] conv4_3_norm_conv4_3_norm_0_split -> conv4_3_norm_conv4_3_norm_0_split_2
I0402 14:25:43.591078 20661 net.cpp:408] conv4_3_norm_conv4_3_norm_0_split -> conv4_3_norm_conv4_3_norm_0_split_3
I0402 14:25:43.591193 20661 net.cpp:150] Setting up conv4_3_norm_conv4_3_norm_0_split
I0402 14:25:43.591209 20661 net.cpp:157] Top shape: 8 512 64 64 (16777216)
I0402 14:25:43.591220 20661 net.cpp:157] Top shape: 8 512 64 64 (16777216)
I0402 14:25:43.591231 20661 net.cpp:157] Top shape: 8 512 64 64 (16777216)
I0402 14:25:43.591243 20661 net.cpp:157] Top shape: 8 512 64 64 (16777216)
I0402 14:25:43.591251 20661 net.cpp:165] Memory required for data: 5826936864
I0402 14:25:43.591261 20661 layer_factory.hpp:77] Creating layer conv4_3_norm_mbox_loc
I0402 14:25:43.591280 20661 net.cpp:100] Creating Layer conv4_3_norm_mbox_loc
I0402 14:25:43.591290 20661 net.cpp:434] conv4_3_norm_mbox_loc <- conv4_3_norm_conv4_3_norm_0_split_0
I0402 14:25:43.591306 20661 net.cpp:408] conv4_3_norm_mbox_loc -> conv4_3_norm_mbox_loc
I0402 14:25:43.594581 20661 net.cpp:150] Setting up conv4_3_norm_mbox_loc
I0402 14:25:43.594604 20661 net.cpp:157] Top shape: 8 16 64 64 (524288)
I0402 14:25:43.594615 20661 net.cpp:165] Memory required for data: 5829034016
I0402 14:25:43.594630 20661 layer_factory.hpp:77] Creating layer conv4_3_norm_mbox_loc_perm
I0402 14:25:43.594647 20661 net.cpp:100] Creating Layer conv4_3_norm_mbox_loc_perm
I0402 14:25:43.594658 20661 net.cpp:434] conv4_3_norm_mbox_loc_perm <- conv4_3_norm_mbox_loc
I0402 14:25:43.594671 20661 net.cpp:408] conv4_3_norm_mbox_loc_perm -> conv4_3_norm_mbox_loc_perm
I0402 14:25:43.594847 20661 net.cpp:150] Setting up conv4_3_norm_mbox_loc_perm
I0402 14:25:43.594862 20661 net.cpp:157] Top shape: 8 64 64 16 (524288)
I0402 14:25:43.594872 20661 net.cpp:165] Memory required for data: 5831131168
I0402 14:25:43.594882 20661 layer_factory.hpp:77] Creating layer conv4_3_norm_mbox_loc_flat
I0402 14:25:43.594903 20661 net.cpp:100] Creating Layer conv4_3_norm_mbox_loc_flat
I0402 14:25:43.594913 20661 net.cpp:434] conv4_3_norm_mbox_loc_flat <- conv4_3_norm_mbox_loc_perm
I0402 14:25:43.594928 20661 net.cpp:408] conv4_3_norm_mbox_loc_flat -> conv4_3_norm_mbox_loc_flat
I0402 14:25:43.594974 20661 net.cpp:150] Setting up conv4_3_norm_mbox_loc_flat
I0402 14:25:43.594988 20661 net.cpp:157] Top shape: 8 65536 (524288)
I0402 14:25:43.594997 20661 net.cpp:165] Memory required for data: 5833228320
I0402 14:25:43.595007 20661 layer_factory.hpp:77] Creating layer conv4_3_norm_mbox_conf
I0402 14:25:43.595038 20661 net.cpp:100] Creating Layer conv4_3_norm_mbox_conf
I0402 14:25:43.595048 20661 net.cpp:434] conv4_3_norm_mbox_conf <- conv4_3_norm_conv4_3_norm_0_split_1
I0402 14:25:43.595064 20661 net.cpp:408] conv4_3_norm_mbox_conf -> conv4_3_norm_mbox_conf
I0402 14:25:43.597158 20661 net.cpp:150] Setting up conv4_3_norm_mbox_conf
I0402 14:25:43.597182 20661 net.cpp:157] Top shape: 8 8 64 64 (262144)
I0402 14:25:43.597192 20661 net.cpp:165] Memory required for data: 5834276896
I0402 14:25:43.597208 20661 layer_factory.hpp:77] Creating layer conv4_3_norm_mbox_conf_perm
I0402 14:25:43.597224 20661 net.cpp:100] Creating Layer conv4_3_norm_mbox_conf_perm
I0402 14:25:43.597234 20661 net.cpp:434] conv4_3_norm_mbox_conf_perm <- conv4_3_norm_mbox_conf
I0402 14:25:43.597247 20661 net.cpp:408] conv4_3_norm_mbox_conf_perm -> conv4_3_norm_mbox_conf_perm
I0402 14:25:43.597421 20661 net.cpp:150] Setting up conv4_3_norm_mbox_conf_perm
I0402 14:25:43.597436 20661 net.cpp:157] Top shape: 8 64 64 8 (262144)
I0402 14:25:43.597445 20661 net.cpp:165] Memory required for data: 5835325472
I0402 14:25:43.597455 20661 layer_factory.hpp:77] Creating layer conv4_3_norm_mbox_conf_flat
I0402 14:25:43.597470 20661 net.cpp:100] Creating Layer conv4_3_norm_mbox_conf_flat
I0402 14:25:43.597481 20661 net.cpp:434] conv4_3_norm_mbox_conf_flat <- conv4_3_norm_mbox_conf_perm
I0402 14:25:43.597493 20661 net.cpp:408] conv4_3_norm_mbox_conf_flat -> conv4_3_norm_mbox_conf_flat
I0402 14:25:43.597535 20661 net.cpp:150] Setting up conv4_3_norm_mbox_conf_flat
I0402 14:25:43.597549 20661 net.cpp:157] Top shape: 8 32768 (262144)
I0402 14:25:43.597556 20661 net.cpp:165] Memory required for data: 5836374048
I0402 14:25:43.597563 20661 layer_factory.hpp:77] Creating layer conv4_3_norm_mbox_clean
I0402 14:25:43.597599 20661 net.cpp:100] Creating Layer conv4_3_norm_mbox_clean
I0402 14:25:43.597610 20661 net.cpp:434] conv4_3_norm_mbox_clean <- conv4_3_norm_conv4_3_norm_0_split_2
I0402 14:25:43.597627 20661 net.cpp:408] conv4_3_norm_mbox_clean -> conv4_3_norm_mbox_clean
I0402 14:25:43.599457 20661 net.cpp:150] Setting up conv4_3_norm_mbox_clean
I0402 14:25:43.599483 20661 net.cpp:157] Top shape: 8 4 64 64 (131072)
I0402 14:25:43.599493 20661 net.cpp:165] Memory required for data: 5836898336
I0402 14:25:43.599508 20661 layer_factory.hpp:77] Creating layer conv4_3_norm_mbox_clean_perm
I0402 14:25:43.599522 20661 net.cpp:100] Creating Layer conv4_3_norm_mbox_clean_perm
I0402 14:25:43.599532 20661 net.cpp:434] conv4_3_norm_mbox_clean_perm <- conv4_3_norm_mbox_clean
I0402 14:25:43.599545 20661 net.cpp:408] conv4_3_norm_mbox_clean_perm -> conv4_3_norm_mbox_clean_perm
I0402 14:25:43.599800 20661 net.cpp:150] Setting up conv4_3_norm_mbox_clean_perm
I0402 14:25:43.599817 20661 net.cpp:157] Top shape: 8 64 64 4 (131072)
I0402 14:25:43.599828 20661 net.cpp:165] Memory required for data: 5837422624
I0402 14:25:43.599836 20661 layer_factory.hpp:77] Creating layer conv4_3_norm_mbox_clean_flat
I0402 14:25:43.599851 20661 net.cpp:100] Creating Layer conv4_3_norm_mbox_clean_flat
I0402 14:25:43.599862 20661 net.cpp:434] conv4_3_norm_mbox_clean_flat <- conv4_3_norm_mbox_clean_perm
I0402 14:25:43.599874 20661 net.cpp:408] conv4_3_norm_mbox_clean_flat -> conv4_3_norm_mbox_clean_flat
I0402 14:25:43.599917 20661 net.cpp:150] Setting up conv4_3_norm_mbox_clean_flat
I0402 14:25:43.599931 20661 net.cpp:157] Top shape: 8 16384 (131072)
I0402 14:25:43.599941 20661 net.cpp:165] Memory required for data: 5837946912
I0402 14:25:43.599951 20661 layer_factory.hpp:77] Creating layer conv4_3_norm_mbox_priorbox
I0402 14:25:43.599964 20661 net.cpp:100] Creating Layer conv4_3_norm_mbox_priorbox
I0402 14:25:43.599974 20661 net.cpp:434] conv4_3_norm_mbox_priorbox <- conv4_3_norm_conv4_3_norm_0_split_3
I0402 14:25:43.599987 20661 net.cpp:434] conv4_3_norm_mbox_priorbox <- data_data_0_split_1
I0402 14:25:43.600000 20661 net.cpp:408] conv4_3_norm_mbox_priorbox -> conv4_3_norm_mbox_priorbox
I0402 14:25:43.600050 20661 net.cpp:150] Setting up conv4_3_norm_mbox_priorbox
I0402 14:25:43.600064 20661 net.cpp:157] Top shape: 1 2 65536 (131072)
I0402 14:25:43.600073 20661 net.cpp:165] Memory required for data: 5838471200
I0402 14:25:43.600083 20661 layer_factory.hpp:77] Creating layer fc7_mbox_loc
I0402 14:25:43.600102 20661 net.cpp:100] Creating Layer fc7_mbox_loc
I0402 14:25:43.600113 20661 net.cpp:434] fc7_mbox_loc <- fc7_relu7_0_split_1
I0402 14:25:43.600129 20661 net.cpp:408] fc7_mbox_loc -> fc7_mbox_loc
I0402 14:25:43.604123 20661 net.cpp:150] Setting up fc7_mbox_loc
I0402 14:25:43.604140 20661 net.cpp:157] Top shape: 8 24 32 32 (196608)
I0402 14:25:43.604146 20661 net.cpp:165] Memory required for data: 5839257632
I0402 14:25:43.604157 20661 layer_factory.hpp:77] Creating layer fc7_mbox_loc_perm
I0402 14:25:43.604167 20661 net.cpp:100] Creating Layer fc7_mbox_loc_perm
I0402 14:25:43.604172 20661 net.cpp:434] fc7_mbox_loc_perm <- fc7_mbox_loc
I0402 14:25:43.604183 20661 net.cpp:408] fc7_mbox_loc_perm -> fc7_mbox_loc_perm
I0402 14:25:43.604306 20661 net.cpp:150] Setting up fc7_mbox_loc_perm
I0402 14:25:43.604316 20661 net.cpp:157] Top shape: 8 32 32 24 (196608)
I0402 14:25:43.604321 20661 net.cpp:165] Memory required for data: 5840044064
I0402 14:25:43.604327 20661 layer_factory.hpp:77] Creating layer fc7_mbox_loc_flat
I0402 14:25:43.604336 20661 net.cpp:100] Creating Layer fc7_mbox_loc_flat
I0402 14:25:43.604343 20661 net.cpp:434] fc7_mbox_loc_flat <- fc7_mbox_loc_perm
I0402 14:25:43.604351 20661 net.cpp:408] fc7_mbox_loc_flat -> fc7_mbox_loc_flat
I0402 14:25:43.604383 20661 net.cpp:150] Setting up fc7_mbox_loc_flat
I0402 14:25:43.604393 20661 net.cpp:157] Top shape: 8 24576 (196608)
I0402 14:25:43.604396 20661 net.cpp:165] Memory required for data: 5840830496
I0402 14:25:43.604400 20661 layer_factory.hpp:77] Creating layer fc7_mbox_conf
I0402 14:25:43.604426 20661 net.cpp:100] Creating Layer fc7_mbox_conf
I0402 14:25:43.604435 20661 net.cpp:434] fc7_mbox_conf <- fc7_relu7_0_split_2
I0402 14:25:43.604446 20661 net.cpp:408] fc7_mbox_conf -> fc7_mbox_conf
I0402 14:25:43.606444 20661 net.cpp:150] Setting up fc7_mbox_conf
I0402 14:25:43.606462 20661 net.cpp:157] Top shape: 8 12 32 32 (98304)
I0402 14:25:43.606467 20661 net.cpp:165] Memory required for data: 5841223712
I0402 14:25:43.606477 20661 layer_factory.hpp:77] Creating layer fc7_mbox_conf_perm
I0402 14:25:43.606487 20661 net.cpp:100] Creating Layer fc7_mbox_conf_perm
I0402 14:25:43.606492 20661 net.cpp:434] fc7_mbox_conf_perm <- fc7_mbox_conf
I0402 14:25:43.606500 20661 net.cpp:408] fc7_mbox_conf_perm -> fc7_mbox_conf_perm
I0402 14:25:43.606626 20661 net.cpp:150] Setting up fc7_mbox_conf_perm
I0402 14:25:43.606634 20661 net.cpp:157] Top shape: 8 32 32 12 (98304)
I0402 14:25:43.606639 20661 net.cpp:165] Memory required for data: 5841616928
I0402 14:25:43.606645 20661 layer_factory.hpp:77] Creating layer fc7_mbox_conf_flat
I0402 14:25:43.606654 20661 net.cpp:100] Creating Layer fc7_mbox_conf_flat
I0402 14:25:43.606662 20661 net.cpp:434] fc7_mbox_conf_flat <- fc7_mbox_conf_perm
I0402 14:25:43.606668 20661 net.cpp:408] fc7_mbox_conf_flat -> fc7_mbox_conf_flat
I0402 14:25:43.606698 20661 net.cpp:150] Setting up fc7_mbox_conf_flat
I0402 14:25:43.606708 20661 net.cpp:157] Top shape: 8 12288 (98304)
I0402 14:25:43.606712 20661 net.cpp:165] Memory required for data: 5842010144
I0402 14:25:43.606716 20661 layer_factory.hpp:77] Creating layer fc7_mbox_clean
I0402 14:25:43.606730 20661 net.cpp:100] Creating Layer fc7_mbox_clean
I0402 14:25:43.606739 20661 net.cpp:434] fc7_mbox_clean <- fc7_relu7_0_split_3
I0402 14:25:43.606748 20661 net.cpp:408] fc7_mbox_clean -> fc7_mbox_clean
I0402 14:25:43.608388 20661 net.cpp:150] Setting up fc7_mbox_clean
I0402 14:25:43.608407 20661 net.cpp:157] Top shape: 8 6 32 32 (49152)
I0402 14:25:43.608413 20661 net.cpp:165] Memory required for data: 5842206752
I0402 14:25:43.608424 20661 layer_factory.hpp:77] Creating layer fc7_mbox_clean_perm
I0402 14:25:43.608433 20661 net.cpp:100] Creating Layer fc7_mbox_clean_perm
I0402 14:25:43.608441 20661 net.cpp:434] fc7_mbox_clean_perm <- fc7_mbox_clean
I0402 14:25:43.608451 20661 net.cpp:408] fc7_mbox_clean_perm -> fc7_mbox_clean_perm
I0402 14:25:43.608577 20661 net.cpp:150] Setting up fc7_mbox_clean_perm
I0402 14:25:43.608587 20661 net.cpp:157] Top shape: 8 32 32 6 (49152)
I0402 14:25:43.608594 20661 net.cpp:165] Memory required for data: 5842403360
I0402 14:25:43.608599 20661 layer_factory.hpp:77] Creating layer fc7_mbox_clean_flat
I0402 14:25:43.608609 20661 net.cpp:100] Creating Layer fc7_mbox_clean_flat
I0402 14:25:43.608614 20661 net.cpp:434] fc7_mbox_clean_flat <- fc7_mbox_clean_perm
I0402 14:25:43.608625 20661 net.cpp:408] fc7_mbox_clean_flat -> fc7_mbox_clean_flat
I0402 14:25:43.608654 20661 net.cpp:150] Setting up fc7_mbox_clean_flat
I0402 14:25:43.608662 20661 net.cpp:157] Top shape: 8 6144 (49152)
I0402 14:25:43.608667 20661 net.cpp:165] Memory required for data: 5842599968
I0402 14:25:43.608671 20661 layer_factory.hpp:77] Creating layer fc7_mbox_priorbox
I0402 14:25:43.608682 20661 net.cpp:100] Creating Layer fc7_mbox_priorbox
I0402 14:25:43.608690 20661 net.cpp:434] fc7_mbox_priorbox <- fc7_relu7_0_split_4
I0402 14:25:43.608696 20661 net.cpp:434] fc7_mbox_priorbox <- data_data_0_split_2
I0402 14:25:43.608705 20661 net.cpp:408] fc7_mbox_priorbox -> fc7_mbox_priorbox
I0402 14:25:43.608736 20661 net.cpp:150] Setting up fc7_mbox_priorbox
I0402 14:25:43.608745 20661 net.cpp:157] Top shape: 1 2 24576 (49152)
I0402 14:25:43.608750 20661 net.cpp:165] Memory required for data: 5842796576
I0402 14:25:43.608754 20661 layer_factory.hpp:77] Creating layer conv6_2_mbox_loc
I0402 14:25:43.608770 20661 net.cpp:100] Creating Layer conv6_2_mbox_loc
I0402 14:25:43.608779 20661 net.cpp:434] conv6_2_mbox_loc <- conv6_2_conv6_2_relu_0_split_1
I0402 14:25:43.608786 20661 net.cpp:408] conv6_2_mbox_loc -> conv6_2_mbox_loc
I0402 14:25:43.611340 20661 net.cpp:150] Setting up conv6_2_mbox_loc
I0402 14:25:43.611356 20661 net.cpp:157] Top shape: 8 24 16 16 (49152)
I0402 14:25:43.611363 20661 net.cpp:165] Memory required for data: 5842993184
I0402 14:25:43.611372 20661 layer_factory.hpp:77] Creating layer conv6_2_mbox_loc_perm
I0402 14:25:43.611384 20661 net.cpp:100] Creating Layer conv6_2_mbox_loc_perm
I0402 14:25:43.611392 20661 net.cpp:434] conv6_2_mbox_loc_perm <- conv6_2_mbox_loc
I0402 14:25:43.611402 20661 net.cpp:408] conv6_2_mbox_loc_perm -> conv6_2_mbox_loc_perm
I0402 14:25:43.611519 20661 net.cpp:150] Setting up conv6_2_mbox_loc_perm
I0402 14:25:43.611529 20661 net.cpp:157] Top shape: 8 16 16 24 (49152)
I0402 14:25:43.611534 20661 net.cpp:165] Memory required for data: 5843189792
I0402 14:25:43.611541 20661 layer_factory.hpp:77] Creating layer conv6_2_mbox_loc_flat
I0402 14:25:43.611551 20661 net.cpp:100] Creating Layer conv6_2_mbox_loc_flat
I0402 14:25:43.611558 20661 net.cpp:434] conv6_2_mbox_loc_flat <- conv6_2_mbox_loc_perm
I0402 14:25:43.611565 20661 net.cpp:408] conv6_2_mbox_loc_flat -> conv6_2_mbox_loc_flat
I0402 14:25:43.611611 20661 net.cpp:150] Setting up conv6_2_mbox_loc_flat
I0402 14:25:43.611623 20661 net.cpp:157] Top shape: 8 6144 (49152)
I0402 14:25:43.611626 20661 net.cpp:165] Memory required for data: 5843386400
I0402 14:25:43.611631 20661 layer_factory.hpp:77] Creating layer conv6_2_mbox_conf
I0402 14:25:43.611645 20661 net.cpp:100] Creating Layer conv6_2_mbox_conf
I0402 14:25:43.611652 20661 net.cpp:434] conv6_2_mbox_conf <- conv6_2_conv6_2_relu_0_split_2
I0402 14:25:43.611662 20661 net.cpp:408] conv6_2_mbox_conf -> conv6_2_mbox_conf
I0402 14:25:43.613293 20661 net.cpp:150] Setting up conv6_2_mbox_conf
I0402 14:25:43.613309 20661 net.cpp:157] Top shape: 8 12 16 16 (24576)
I0402 14:25:43.613317 20661 net.cpp:165] Memory required for data: 5843484704
I0402 14:25:43.613324 20661 layer_factory.hpp:77] Creating layer conv6_2_mbox_conf_perm
I0402 14:25:43.613334 20661 net.cpp:100] Creating Layer conv6_2_mbox_conf_perm
I0402 14:25:43.613342 20661 net.cpp:434] conv6_2_mbox_conf_perm <- conv6_2_mbox_conf
I0402 14:25:43.613351 20661 net.cpp:408] conv6_2_mbox_conf_perm -> conv6_2_mbox_conf_perm
I0402 14:25:43.613472 20661 net.cpp:150] Setting up conv6_2_mbox_conf_perm
I0402 14:25:43.613483 20661 net.cpp:157] Top shape: 8 16 16 12 (24576)
I0402 14:25:43.613487 20661 net.cpp:165] Memory required for data: 5843583008
I0402 14:25:43.613494 20661 layer_factory.hpp:77] Creating layer conv6_2_mbox_conf_flat
I0402 14:25:43.613502 20661 net.cpp:100] Creating Layer conv6_2_mbox_conf_flat
I0402 14:25:43.613510 20661 net.cpp:434] conv6_2_mbox_conf_flat <- conv6_2_mbox_conf_perm
I0402 14:25:43.613518 20661 net.cpp:408] conv6_2_mbox_conf_flat -> conv6_2_mbox_conf_flat
I0402 14:25:43.613550 20661 net.cpp:150] Setting up conv6_2_mbox_conf_flat
I0402 14:25:43.613559 20661 net.cpp:157] Top shape: 8 3072 (24576)
I0402 14:25:43.613564 20661 net.cpp:165] Memory required for data: 5843681312
I0402 14:25:43.613569 20661 layer_factory.hpp:77] Creating layer conv6_2_mbox_clean
I0402 14:25:43.613582 20661 net.cpp:100] Creating Layer conv6_2_mbox_clean
I0402 14:25:43.613591 20661 net.cpp:434] conv6_2_mbox_clean <- conv6_2_conv6_2_relu_0_split_3
I0402 14:25:43.613601 20661 net.cpp:408] conv6_2_mbox_clean -> conv6_2_mbox_clean
I0402 14:25:43.614941 20661 net.cpp:150] Setting up conv6_2_mbox_clean
I0402 14:25:43.614959 20661 net.cpp:157] Top shape: 8 6 16 16 (12288)
I0402 14:25:43.614966 20661 net.cpp:165] Memory required for data: 5843730464
I0402 14:25:43.614987 20661 layer_factory.hpp:77] Creating layer conv6_2_mbox_clean_perm
I0402 14:25:43.614998 20661 net.cpp:100] Creating Layer conv6_2_mbox_clean_perm
I0402 14:25:43.615005 20661 net.cpp:434] conv6_2_mbox_clean_perm <- conv6_2_mbox_clean
I0402 14:25:43.615016 20661 net.cpp:408] conv6_2_mbox_clean_perm -> conv6_2_mbox_clean_perm
I0402 14:25:43.615139 20661 net.cpp:150] Setting up conv6_2_mbox_clean_perm
I0402 14:25:43.615149 20661 net.cpp:157] Top shape: 8 16 16 6 (12288)
I0402 14:25:43.615165 20661 net.cpp:165] Memory required for data: 5843779616
I0402 14:25:43.615171 20661 layer_factory.hpp:77] Creating layer conv6_2_mbox_clean_flat
I0402 14:25:43.615180 20661 net.cpp:100] Creating Layer conv6_2_mbox_clean_flat
I0402 14:25:43.615187 20661 net.cpp:434] conv6_2_mbox_clean_flat <- conv6_2_mbox_clean_perm
I0402 14:25:43.615196 20661 net.cpp:408] conv6_2_mbox_clean_flat -> conv6_2_mbox_clean_flat
I0402 14:25:43.615229 20661 net.cpp:150] Setting up conv6_2_mbox_clean_flat
I0402 14:25:43.615238 20661 net.cpp:157] Top shape: 8 1536 (12288)
I0402 14:25:43.615242 20661 net.cpp:165] Memory required for data: 5843828768
I0402 14:25:43.615247 20661 layer_factory.hpp:77] Creating layer conv6_2_mbox_priorbox
I0402 14:25:43.615258 20661 net.cpp:100] Creating Layer conv6_2_mbox_priorbox
I0402 14:25:43.615267 20661 net.cpp:434] conv6_2_mbox_priorbox <- conv6_2_conv6_2_relu_0_split_4
I0402 14:25:43.615273 20661 net.cpp:434] conv6_2_mbox_priorbox <- data_data_0_split_3
I0402 14:25:43.615283 20661 net.cpp:408] conv6_2_mbox_priorbox -> conv6_2_mbox_priorbox
I0402 14:25:43.615315 20661 net.cpp:150] Setting up conv6_2_mbox_priorbox
I0402 14:25:43.615324 20661 net.cpp:157] Top shape: 1 2 6144 (12288)
I0402 14:25:43.615329 20661 net.cpp:165] Memory required for data: 5843877920
I0402 14:25:43.615334 20661 layer_factory.hpp:77] Creating layer conv7_2_mbox_loc
I0402 14:25:43.615348 20661 net.cpp:100] Creating Layer conv7_2_mbox_loc
I0402 14:25:43.615356 20661 net.cpp:434] conv7_2_mbox_loc <- conv7_2_conv7_2_relu_0_split_1
I0402 14:25:43.615365 20661 net.cpp:408] conv7_2_mbox_loc -> conv7_2_mbox_loc
I0402 14:25:43.617521 20661 net.cpp:150] Setting up conv7_2_mbox_loc
I0402 14:25:43.617538 20661 net.cpp:157] Top shape: 8 24 8 8 (12288)
I0402 14:25:43.617547 20661 net.cpp:165] Memory required for data: 5843927072
I0402 14:25:43.617558 20661 layer_factory.hpp:77] Creating layer conv7_2_mbox_loc_perm
I0402 14:25:43.617568 20661 net.cpp:100] Creating Layer conv7_2_mbox_loc_perm
I0402 14:25:43.617575 20661 net.cpp:434] conv7_2_mbox_loc_perm <- conv7_2_mbox_loc
I0402 14:25:43.617585 20661 net.cpp:408] conv7_2_mbox_loc_perm -> conv7_2_mbox_loc_perm
I0402 14:25:43.617712 20661 net.cpp:150] Setting up conv7_2_mbox_loc_perm
I0402 14:25:43.617722 20661 net.cpp:157] Top shape: 8 8 8 24 (12288)
I0402 14:25:43.617730 20661 net.cpp:165] Memory required for data: 5843976224
I0402 14:25:43.617735 20661 layer_factory.hpp:77] Creating layer conv7_2_mbox_loc_flat
I0402 14:25:43.617744 20661 net.cpp:100] Creating Layer conv7_2_mbox_loc_flat
I0402 14:25:43.617750 20661 net.cpp:434] conv7_2_mbox_loc_flat <- conv7_2_mbox_loc_perm
I0402 14:25:43.617758 20661 net.cpp:408] conv7_2_mbox_loc_flat -> conv7_2_mbox_loc_flat
I0402 14:25:43.617789 20661 net.cpp:150] Setting up conv7_2_mbox_loc_flat
I0402 14:25:43.617796 20661 net.cpp:157] Top shape: 8 1536 (12288)
I0402 14:25:43.617801 20661 net.cpp:165] Memory required for data: 5844025376
I0402 14:25:43.617806 20661 layer_factory.hpp:77] Creating layer conv7_2_mbox_conf
I0402 14:25:43.617820 20661 net.cpp:100] Creating Layer conv7_2_mbox_conf
I0402 14:25:43.617827 20661 net.cpp:434] conv7_2_mbox_conf <- conv7_2_conv7_2_relu_0_split_2
I0402 14:25:43.617840 20661 net.cpp:408] conv7_2_mbox_conf -> conv7_2_mbox_conf
I0402 14:25:43.619387 20661 net.cpp:150] Setting up conv7_2_mbox_conf
I0402 14:25:43.619405 20661 net.cpp:157] Top shape: 8 12 8 8 (6144)
I0402 14:25:43.619412 20661 net.cpp:165] Memory required for data: 5844049952
I0402 14:25:43.619422 20661 layer_factory.hpp:77] Creating layer conv7_2_mbox_conf_perm
I0402 14:25:43.619433 20661 net.cpp:100] Creating Layer conv7_2_mbox_conf_perm
I0402 14:25:43.619441 20661 net.cpp:434] conv7_2_mbox_conf_perm <- conv7_2_mbox_conf
I0402 14:25:43.619451 20661 net.cpp:408] conv7_2_mbox_conf_perm -> conv7_2_mbox_conf_perm
I0402 14:25:43.619596 20661 net.cpp:150] Setting up conv7_2_mbox_conf_perm
I0402 14:25:43.619607 20661 net.cpp:157] Top shape: 8 8 8 12 (6144)
I0402 14:25:43.619612 20661 net.cpp:165] Memory required for data: 5844074528
I0402 14:25:43.619617 20661 layer_factory.hpp:77] Creating layer conv7_2_mbox_conf_flat
I0402 14:25:43.619637 20661 net.cpp:100] Creating Layer conv7_2_mbox_conf_flat
I0402 14:25:43.619645 20661 net.cpp:434] conv7_2_mbox_conf_flat <- conv7_2_mbox_conf_perm
I0402 14:25:43.619654 20661 net.cpp:408] conv7_2_mbox_conf_flat -> conv7_2_mbox_conf_flat
I0402 14:25:43.619690 20661 net.cpp:150] Setting up conv7_2_mbox_conf_flat
I0402 14:25:43.619699 20661 net.cpp:157] Top shape: 8 768 (6144)
I0402 14:25:43.619704 20661 net.cpp:165] Memory required for data: 5844099104
I0402 14:25:43.619712 20661 layer_factory.hpp:77] Creating layer conv7_2_mbox_clean
I0402 14:25:43.619726 20661 net.cpp:100] Creating Layer conv7_2_mbox_clean
I0402 14:25:43.619735 20661 net.cpp:434] conv7_2_mbox_clean <- conv7_2_conv7_2_relu_0_split_3
I0402 14:25:43.619743 20661 net.cpp:408] conv7_2_mbox_clean -> conv7_2_mbox_clean
I0402 14:25:43.621088 20661 net.cpp:150] Setting up conv7_2_mbox_clean
I0402 14:25:43.621104 20661 net.cpp:157] Top shape: 8 6 8 8 (3072)
I0402 14:25:43.621112 20661 net.cpp:165] Memory required for data: 5844111392
I0402 14:25:43.621120 20661 layer_factory.hpp:77] Creating layer conv7_2_mbox_clean_perm
I0402 14:25:43.621131 20661 net.cpp:100] Creating Layer conv7_2_mbox_clean_perm
I0402 14:25:43.621140 20661 net.cpp:434] conv7_2_mbox_clean_perm <- conv7_2_mbox_clean
I0402 14:25:43.621150 20661 net.cpp:408] conv7_2_mbox_clean_perm -> conv7_2_mbox_clean_perm
I0402 14:25:43.621278 20661 net.cpp:150] Setting up conv7_2_mbox_clean_perm
I0402 14:25:43.621287 20661 net.cpp:157] Top shape: 8 8 8 6 (3072)
I0402 14:25:43.621294 20661 net.cpp:165] Memory required for data: 5844123680
I0402 14:25:43.621300 20661 layer_factory.hpp:77] Creating layer conv7_2_mbox_clean_flat
I0402 14:25:43.621309 20661 net.cpp:100] Creating Layer conv7_2_mbox_clean_flat
I0402 14:25:43.621315 20661 net.cpp:434] conv7_2_mbox_clean_flat <- conv7_2_mbox_clean_perm
I0402 14:25:43.621323 20661 net.cpp:408] conv7_2_mbox_clean_flat -> conv7_2_mbox_clean_flat
I0402 14:25:43.621356 20661 net.cpp:150] Setting up conv7_2_mbox_clean_flat
I0402 14:25:43.621364 20661 net.cpp:157] Top shape: 8 384 (3072)
I0402 14:25:43.621369 20661 net.cpp:165] Memory required for data: 5844135968
I0402 14:25:43.621373 20661 layer_factory.hpp:77] Creating layer conv7_2_mbox_priorbox
I0402 14:25:43.621383 20661 net.cpp:100] Creating Layer conv7_2_mbox_priorbox
I0402 14:25:43.621390 20661 net.cpp:434] conv7_2_mbox_priorbox <- conv7_2_conv7_2_relu_0_split_4
I0402 14:25:43.621397 20661 net.cpp:434] conv7_2_mbox_priorbox <- data_data_0_split_4
I0402 14:25:43.621404 20661 net.cpp:408] conv7_2_mbox_priorbox -> conv7_2_mbox_priorbox
I0402 14:25:43.621438 20661 net.cpp:150] Setting up conv7_2_mbox_priorbox
I0402 14:25:43.621446 20661 net.cpp:157] Top shape: 1 2 1536 (3072)
I0402 14:25:43.621451 20661 net.cpp:165] Memory required for data: 5844148256
I0402 14:25:43.621455 20661 layer_factory.hpp:77] Creating layer conv8_2_mbox_loc
I0402 14:25:43.621469 20661 net.cpp:100] Creating Layer conv8_2_mbox_loc
I0402 14:25:43.621475 20661 net.cpp:434] conv8_2_mbox_loc <- conv8_2_conv8_2_relu_0_split_1
I0402 14:25:43.621484 20661 net.cpp:408] conv8_2_mbox_loc -> conv8_2_mbox_loc
I0402 14:25:43.622968 20661 net.cpp:150] Setting up conv8_2_mbox_loc
I0402 14:25:43.622984 20661 net.cpp:157] Top shape: 8 16 6 6 (4608)
I0402 14:25:43.622992 20661 net.cpp:165] Memory required for data: 5844166688
I0402 14:25:43.623000 20661 layer_factory.hpp:77] Creating layer conv8_2_mbox_loc_perm
I0402 14:25:43.623011 20661 net.cpp:100] Creating Layer conv8_2_mbox_loc_perm
I0402 14:25:43.623020 20661 net.cpp:434] conv8_2_mbox_loc_perm <- conv8_2_mbox_loc
I0402 14:25:43.623028 20661 net.cpp:408] conv8_2_mbox_loc_perm -> conv8_2_mbox_loc_perm
I0402 14:25:43.623155 20661 net.cpp:150] Setting up conv8_2_mbox_loc_perm
I0402 14:25:43.623165 20661 net.cpp:157] Top shape: 8 6 6 16 (4608)
I0402 14:25:43.623169 20661 net.cpp:165] Memory required for data: 5844185120
I0402 14:25:43.623174 20661 layer_factory.hpp:77] Creating layer conv8_2_mbox_loc_flat
I0402 14:25:43.623183 20661 net.cpp:100] Creating Layer conv8_2_mbox_loc_flat
I0402 14:25:43.623200 20661 net.cpp:434] conv8_2_mbox_loc_flat <- conv8_2_mbox_loc_perm
I0402 14:25:43.623208 20661 net.cpp:408] conv8_2_mbox_loc_flat -> conv8_2_mbox_loc_flat
I0402 14:25:43.623240 20661 net.cpp:150] Setting up conv8_2_mbox_loc_flat
I0402 14:25:43.623250 20661 net.cpp:157] Top shape: 8 576 (4608)
I0402 14:25:43.623257 20661 net.cpp:165] Memory required for data: 5844203552
I0402 14:25:43.623262 20661 layer_factory.hpp:77] Creating layer conv8_2_mbox_conf
I0402 14:25:43.623277 20661 net.cpp:100] Creating Layer conv8_2_mbox_conf
I0402 14:25:43.623286 20661 net.cpp:434] conv8_2_mbox_conf <- conv8_2_conv8_2_relu_0_split_2
I0402 14:25:43.623294 20661 net.cpp:408] conv8_2_mbox_conf -> conv8_2_mbox_conf
I0402 14:25:43.624544 20661 net.cpp:150] Setting up conv8_2_mbox_conf
I0402 14:25:43.624562 20661 net.cpp:157] Top shape: 8 8 6 6 (2304)
I0402 14:25:43.624568 20661 net.cpp:165] Memory required for data: 5844212768
I0402 14:25:43.624577 20661 layer_factory.hpp:77] Creating layer conv8_2_mbox_conf_perm
I0402 14:25:43.624588 20661 net.cpp:100] Creating Layer conv8_2_mbox_conf_perm
I0402 14:25:43.624596 20661 net.cpp:434] conv8_2_mbox_conf_perm <- conv8_2_mbox_conf
I0402 14:25:43.624604 20661 net.cpp:408] conv8_2_mbox_conf_perm -> conv8_2_mbox_conf_perm
I0402 14:25:43.624733 20661 net.cpp:150] Setting up conv8_2_mbox_conf_perm
I0402 14:25:43.624743 20661 net.cpp:157] Top shape: 8 6 6 8 (2304)
I0402 14:25:43.624748 20661 net.cpp:165] Memory required for data: 5844221984
I0402 14:25:43.624755 20661 layer_factory.hpp:77] Creating layer conv8_2_mbox_conf_flat
I0402 14:25:43.624763 20661 net.cpp:100] Creating Layer conv8_2_mbox_conf_flat
I0402 14:25:43.624770 20661 net.cpp:434] conv8_2_mbox_conf_flat <- conv8_2_mbox_conf_perm
I0402 14:25:43.624779 20661 net.cpp:408] conv8_2_mbox_conf_flat -> conv8_2_mbox_conf_flat
I0402 14:25:43.624809 20661 net.cpp:150] Setting up conv8_2_mbox_conf_flat
I0402 14:25:43.624819 20661 net.cpp:157] Top shape: 8 288 (2304)
I0402 14:25:43.624825 20661 net.cpp:165] Memory required for data: 5844231200
I0402 14:25:43.624830 20661 layer_factory.hpp:77] Creating layer conv8_2_mbox_clean
I0402 14:25:43.624845 20661 net.cpp:100] Creating Layer conv8_2_mbox_clean
I0402 14:25:43.624851 20661 net.cpp:434] conv8_2_mbox_clean <- conv8_2_conv8_2_relu_0_split_3
I0402 14:25:43.624860 20661 net.cpp:408] conv8_2_mbox_clean -> conv8_2_mbox_clean
I0402 14:25:43.626137 20661 net.cpp:150] Setting up conv8_2_mbox_clean
I0402 14:25:43.626153 20661 net.cpp:157] Top shape: 8 4 6 6 (1152)
I0402 14:25:43.626161 20661 net.cpp:165] Memory required for data: 5844235808
I0402 14:25:43.626170 20661 layer_factory.hpp:77] Creating layer conv8_2_mbox_clean_perm
I0402 14:25:43.626180 20661 net.cpp:100] Creating Layer conv8_2_mbox_clean_perm
I0402 14:25:43.626189 20661 net.cpp:434] conv8_2_mbox_clean_perm <- conv8_2_mbox_clean
I0402 14:25:43.626196 20661 net.cpp:408] conv8_2_mbox_clean_perm -> conv8_2_mbox_clean_perm
I0402 14:25:43.626323 20661 net.cpp:150] Setting up conv8_2_mbox_clean_perm
I0402 14:25:43.626333 20661 net.cpp:157] Top shape: 8 6 6 4 (1152)
I0402 14:25:43.626338 20661 net.cpp:165] Memory required for data: 5844240416
I0402 14:25:43.626345 20661 layer_factory.hpp:77] Creating layer conv8_2_mbox_clean_flat
I0402 14:25:43.626353 20661 net.cpp:100] Creating Layer conv8_2_mbox_clean_flat
I0402 14:25:43.626359 20661 net.cpp:434] conv8_2_mbox_clean_flat <- conv8_2_mbox_clean_perm
I0402 14:25:43.626366 20661 net.cpp:408] conv8_2_mbox_clean_flat -> conv8_2_mbox_clean_flat
I0402 14:25:43.626397 20661 net.cpp:150] Setting up conv8_2_mbox_clean_flat
I0402 14:25:43.626406 20661 net.cpp:157] Top shape: 8 144 (1152)
I0402 14:25:43.626410 20661 net.cpp:165] Memory required for data: 5844245024
I0402 14:25:43.626415 20661 layer_factory.hpp:77] Creating layer conv8_2_mbox_priorbox
I0402 14:25:43.626425 20661 net.cpp:100] Creating Layer conv8_2_mbox_priorbox
I0402 14:25:43.626430 20661 net.cpp:434] conv8_2_mbox_priorbox <- conv8_2_conv8_2_relu_0_split_4
I0402 14:25:43.626436 20661 net.cpp:434] conv8_2_mbox_priorbox <- data_data_0_split_5
I0402 14:25:43.626456 20661 net.cpp:408] conv8_2_mbox_priorbox -> conv8_2_mbox_priorbox
I0402 14:25:43.626494 20661 net.cpp:150] Setting up conv8_2_mbox_priorbox
I0402 14:25:43.626504 20661 net.cpp:157] Top shape: 1 2 576 (1152)
I0402 14:25:43.626508 20661 net.cpp:165] Memory required for data: 5844249632
I0402 14:25:43.626514 20661 layer_factory.hpp:77] Creating layer conv9_2_mbox_loc
I0402 14:25:43.626528 20661 net.cpp:100] Creating Layer conv9_2_mbox_loc
I0402 14:25:43.626535 20661 net.cpp:434] conv9_2_mbox_loc <- conv9_2_conv9_2_relu_0_split_0
I0402 14:25:43.626545 20661 net.cpp:408] conv9_2_mbox_loc -> conv9_2_mbox_loc
I0402 14:25:43.628056 20661 net.cpp:150] Setting up conv9_2_mbox_loc
I0402 14:25:43.628072 20661 net.cpp:157] Top shape: 8 16 4 4 (2048)
I0402 14:25:43.628077 20661 net.cpp:165] Memory required for data: 5844257824
I0402 14:25:43.628087 20661 layer_factory.hpp:77] Creating layer conv9_2_mbox_loc_perm
I0402 14:25:43.628098 20661 net.cpp:100] Creating Layer conv9_2_mbox_loc_perm
I0402 14:25:43.628105 20661 net.cpp:434] conv9_2_mbox_loc_perm <- conv9_2_mbox_loc
I0402 14:25:43.628113 20661 net.cpp:408] conv9_2_mbox_loc_perm -> conv9_2_mbox_loc_perm
I0402 14:25:43.628242 20661 net.cpp:150] Setting up conv9_2_mbox_loc_perm
I0402 14:25:43.628252 20661 net.cpp:157] Top shape: 8 4 4 16 (2048)
I0402 14:25:43.628257 20661 net.cpp:165] Memory required for data: 5844266016
I0402 14:25:43.628263 20661 layer_factory.hpp:77] Creating layer conv9_2_mbox_loc_flat
I0402 14:25:43.628270 20661 net.cpp:100] Creating Layer conv9_2_mbox_loc_flat
I0402 14:25:43.628278 20661 net.cpp:434] conv9_2_mbox_loc_flat <- conv9_2_mbox_loc_perm
I0402 14:25:43.628288 20661 net.cpp:408] conv9_2_mbox_loc_flat -> conv9_2_mbox_loc_flat
I0402 14:25:43.628319 20661 net.cpp:150] Setting up conv9_2_mbox_loc_flat
I0402 14:25:43.628326 20661 net.cpp:157] Top shape: 8 256 (2048)
I0402 14:25:43.628331 20661 net.cpp:165] Memory required for data: 5844274208
I0402 14:25:43.628336 20661 layer_factory.hpp:77] Creating layer conv9_2_mbox_conf
I0402 14:25:43.628351 20661 net.cpp:100] Creating Layer conv9_2_mbox_conf
I0402 14:25:43.628360 20661 net.cpp:434] conv9_2_mbox_conf <- conv9_2_conv9_2_relu_0_split_1
I0402 14:25:43.628368 20661 net.cpp:408] conv9_2_mbox_conf -> conv9_2_mbox_conf
I0402 14:25:43.629930 20661 net.cpp:150] Setting up conv9_2_mbox_conf
I0402 14:25:43.629946 20661 net.cpp:157] Top shape: 8 8 4 4 (1024)
I0402 14:25:43.629953 20661 net.cpp:165] Memory required for data: 5844278304
I0402 14:25:43.629961 20661 layer_factory.hpp:77] Creating layer conv9_2_mbox_conf_perm
I0402 14:25:43.629972 20661 net.cpp:100] Creating Layer conv9_2_mbox_conf_perm
I0402 14:25:43.629979 20661 net.cpp:434] conv9_2_mbox_conf_perm <- conv9_2_mbox_conf
I0402 14:25:43.629989 20661 net.cpp:408] conv9_2_mbox_conf_perm -> conv9_2_mbox_conf_perm
I0402 14:25:43.630126 20661 net.cpp:150] Setting up conv9_2_mbox_conf_perm
I0402 14:25:43.630136 20661 net.cpp:157] Top shape: 8 4 4 8 (1024)
I0402 14:25:43.630141 20661 net.cpp:165] Memory required for data: 5844282400
I0402 14:25:43.630147 20661 layer_factory.hpp:77] Creating layer conv9_2_mbox_conf_flat
I0402 14:25:43.630156 20661 net.cpp:100] Creating Layer conv9_2_mbox_conf_flat
I0402 14:25:43.630162 20661 net.cpp:434] conv9_2_mbox_conf_flat <- conv9_2_mbox_conf_perm
I0402 14:25:43.630170 20661 net.cpp:408] conv9_2_mbox_conf_flat -> conv9_2_mbox_conf_flat
I0402 14:25:43.630203 20661 net.cpp:150] Setting up conv9_2_mbox_conf_flat
I0402 14:25:43.630210 20661 net.cpp:157] Top shape: 8 128 (1024)
I0402 14:25:43.630215 20661 net.cpp:165] Memory required for data: 5844286496
I0402 14:25:43.630219 20661 layer_factory.hpp:77] Creating layer conv9_2_mbox_clean
I0402 14:25:43.630235 20661 net.cpp:100] Creating Layer conv9_2_mbox_clean
I0402 14:25:43.630244 20661 net.cpp:434] conv9_2_mbox_clean <- conv9_2_conv9_2_relu_0_split_2
I0402 14:25:43.630251 20661 net.cpp:408] conv9_2_mbox_clean -> conv9_2_mbox_clean
I0402 14:25:43.631570 20661 net.cpp:150] Setting up conv9_2_mbox_clean
I0402 14:25:43.631613 20661 net.cpp:157] Top shape: 8 4 4 4 (512)
I0402 14:25:43.631620 20661 net.cpp:165] Memory required for data: 5844288544
I0402 14:25:43.631629 20661 layer_factory.hpp:77] Creating layer conv9_2_mbox_clean_perm
I0402 14:25:43.631640 20661 net.cpp:100] Creating Layer conv9_2_mbox_clean_perm
I0402 14:25:43.631647 20661 net.cpp:434] conv9_2_mbox_clean_perm <- conv9_2_mbox_clean
I0402 14:25:43.631659 20661 net.cpp:408] conv9_2_mbox_clean_perm -> conv9_2_mbox_clean_perm
I0402 14:25:43.631799 20661 net.cpp:150] Setting up conv9_2_mbox_clean_perm
I0402 14:25:43.631809 20661 net.cpp:157] Top shape: 8 4 4 4 (512)
I0402 14:25:43.631814 20661 net.cpp:165] Memory required for data: 5844290592
I0402 14:25:43.631821 20661 layer_factory.hpp:77] Creating layer conv9_2_mbox_clean_flat
I0402 14:25:43.631829 20661 net.cpp:100] Creating Layer conv9_2_mbox_clean_flat
I0402 14:25:43.631837 20661 net.cpp:434] conv9_2_mbox_clean_flat <- conv9_2_mbox_clean_perm
I0402 14:25:43.631845 20661 net.cpp:408] conv9_2_mbox_clean_flat -> conv9_2_mbox_clean_flat
I0402 14:25:43.631876 20661 net.cpp:150] Setting up conv9_2_mbox_clean_flat
I0402 14:25:43.631885 20661 net.cpp:157] Top shape: 8 64 (512)
I0402 14:25:43.631889 20661 net.cpp:165] Memory required for data: 5844292640
I0402 14:25:43.631893 20661 layer_factory.hpp:77] Creating layer conv9_2_mbox_priorbox
I0402 14:25:43.631904 20661 net.cpp:100] Creating Layer conv9_2_mbox_priorbox
I0402 14:25:43.631911 20661 net.cpp:434] conv9_2_mbox_priorbox <- conv9_2_conv9_2_relu_0_split_3
I0402 14:25:43.631917 20661 net.cpp:434] conv9_2_mbox_priorbox <- data_data_0_split_6
I0402 14:25:43.631925 20661 net.cpp:408] conv9_2_mbox_priorbox -> conv9_2_mbox_priorbox
I0402 14:25:43.631958 20661 net.cpp:150] Setting up conv9_2_mbox_priorbox
I0402 14:25:43.631968 20661 net.cpp:157] Top shape: 1 2 256 (512)
I0402 14:25:43.631971 20661 net.cpp:165] Memory required for data: 5844294688
I0402 14:25:43.631975 20661 layer_factory.hpp:77] Creating layer mbox_loc
I0402 14:25:43.631984 20661 net.cpp:100] Creating Layer mbox_loc
I0402 14:25:43.631991 20661 net.cpp:434] mbox_loc <- conv4_3_norm_mbox_loc_flat
I0402 14:25:43.631999 20661 net.cpp:434] mbox_loc <- fc7_mbox_loc_flat
I0402 14:25:43.632006 20661 net.cpp:434] mbox_loc <- conv6_2_mbox_loc_flat
I0402 14:25:43.632012 20661 net.cpp:434] mbox_loc <- conv7_2_mbox_loc_flat
I0402 14:25:43.632020 20661 net.cpp:434] mbox_loc <- conv8_2_mbox_loc_flat
I0402 14:25:43.632025 20661 net.cpp:434] mbox_loc <- conv9_2_mbox_loc_flat
I0402 14:25:43.632032 20661 net.cpp:408] mbox_loc -> mbox_loc
I0402 14:25:43.632082 20661 net.cpp:150] Setting up mbox_loc
I0402 14:25:43.632092 20661 net.cpp:157] Top shape: 8 98624 (788992)
I0402 14:25:43.632097 20661 net.cpp:165] Memory required for data: 5847450656
I0402 14:25:43.632102 20661 layer_factory.hpp:77] Creating layer mbox_conf
I0402 14:25:43.632110 20661 net.cpp:100] Creating Layer mbox_conf
I0402 14:25:43.632117 20661 net.cpp:434] mbox_conf <- conv4_3_norm_mbox_conf_flat
I0402 14:25:43.632123 20661 net.cpp:434] mbox_conf <- fc7_mbox_conf_flat
I0402 14:25:43.632130 20661 net.cpp:434] mbox_conf <- conv6_2_mbox_conf_flat
I0402 14:25:43.632136 20661 net.cpp:434] mbox_conf <- conv7_2_mbox_conf_flat
I0402 14:25:43.632144 20661 net.cpp:434] mbox_conf <- conv8_2_mbox_conf_flat
I0402 14:25:43.632149 20661 net.cpp:434] mbox_conf <- conv9_2_mbox_conf_flat
I0402 14:25:43.632158 20661 net.cpp:408] mbox_conf -> mbox_conf
I0402 14:25:43.632187 20661 net.cpp:150] Setting up mbox_conf
I0402 14:25:43.632196 20661 net.cpp:157] Top shape: 8 49312 (394496)
I0402 14:25:43.632200 20661 net.cpp:165] Memory required for data: 5849028640
I0402 14:25:43.632205 20661 layer_factory.hpp:77] Creating layer mbox_priorbox
I0402 14:25:43.632212 20661 net.cpp:100] Creating Layer mbox_priorbox
I0402 14:25:43.632220 20661 net.cpp:434] mbox_priorbox <- conv4_3_norm_mbox_priorbox
I0402 14:25:43.632225 20661 net.cpp:434] mbox_priorbox <- fc7_mbox_priorbox
I0402 14:25:43.632230 20661 net.cpp:434] mbox_priorbox <- conv6_2_mbox_priorbox
I0402 14:25:43.632236 20661 net.cpp:434] mbox_priorbox <- conv7_2_mbox_priorbox
I0402 14:25:43.632251 20661 net.cpp:434] mbox_priorbox <- conv8_2_mbox_priorbox
I0402 14:25:43.632256 20661 net.cpp:434] mbox_priorbox <- conv9_2_mbox_priorbox
I0402 14:25:43.632263 20661 net.cpp:408] mbox_priorbox -> mbox_priorbox
I0402 14:25:43.632295 20661 net.cpp:150] Setting up mbox_priorbox
I0402 14:25:43.632304 20661 net.cpp:157] Top shape: 1 2 98624 (197248)
I0402 14:25:43.632308 20661 net.cpp:165] Memory required for data: 5849817632
I0402 14:25:43.632313 20661 layer_factory.hpp:77] Creating layer mbox_clean
I0402 14:25:43.632320 20661 net.cpp:100] Creating Layer mbox_clean
I0402 14:25:43.632328 20661 net.cpp:434] mbox_clean <- conv4_3_norm_mbox_clean_flat
I0402 14:25:43.632333 20661 net.cpp:434] mbox_clean <- fc7_mbox_clean_flat
I0402 14:25:43.632344 20661 net.cpp:434] mbox_clean <- conv6_2_mbox_clean_flat
I0402 14:25:43.632349 20661 net.cpp:434] mbox_clean <- conv7_2_mbox_clean_flat
I0402 14:25:43.632354 20661 net.cpp:434] mbox_clean <- conv8_2_mbox_clean_flat
I0402 14:25:43.632361 20661 net.cpp:434] mbox_clean <- conv9_2_mbox_clean_flat
I0402 14:25:43.632367 20661 net.cpp:408] mbox_clean -> mbox_clean
I0402 14:25:43.632396 20661 net.cpp:150] Setting up mbox_clean
I0402 14:25:43.632405 20661 net.cpp:157] Top shape: 8 24656 (197248)
I0402 14:25:43.632410 20661 net.cpp:165] Memory required for data: 5850606624
I0402 14:25:43.632413 20661 layer_factory.hpp:77] Creating layer mbox_loss
I0402 14:25:43.632429 20661 net.cpp:100] Creating Layer mbox_loss
I0402 14:25:43.632436 20661 net.cpp:434] mbox_loss <- mbox_loc
I0402 14:25:43.632442 20661 net.cpp:434] mbox_loss <- mbox_conf
I0402 14:25:43.632449 20661 net.cpp:434] mbox_loss <- mbox_priorbox
…
  top: "label"
  include {
    phase: TEST
  }
  transform_param {
    mean_value: 104
    mean_value: 117
    mean_value: 123
    force_color: true
    resize_param {
      prob: 1
      resize_mode: WARP
      height: 512
      width: 512
      interp_mode: LINEAR
    }
  }
  data_param {
    source: "/data/siyu/dataset/coco/lmdb/COCO_Val2014_person_lmdb"
    batch_size: 2
    backend: LMDB
  }
  annotated_data_param {
    batch_sampler {
    }
    label_map_file: "/data/siyu/dataset/coco/labelmap_coco-person.prototxt"
    part_sampler_prob: 0
  }
}
layer {
  name: "conv1_1"
  type: "Convolution"
  bottom: "data"
  top: "conv1_1"
  param {
    lr_mult: 1
    decay_mult: 1
  }
  param {
    lr_mult: 2
    decay_mult: 0
  }
  convolution_param {
    num_output: 64
    pad: 1
    kernel_size: 3
    weight_filler {
      type: "xavier"
    }
    bias_filler {
      type: "constant"
      value: 0
    }
  }
}
layer {
  name: "relu1_1"
  type: "ReLU"
  bottom: "conv1_1"
  top: "conv1_1"
}
layer {
  name: "conv1_2"
  type: "Convolution"
  bottom: "conv1_1"
  top: "conv1_2"
  param {
    lr_mult: 1
    decay_mult: 1
  }
  param {
    lr_mult: 2
    decay_mult: 0
  }
  convolution_param {
    num_output: 64
    pad: 1
    kernel_size: 3
    weight_filler {
      type: "xavier"
    }
    bias_filler {
      type: "constant"
      value: 0
    }
  }
}
layer {
  name: "relu1_2"
  type: "ReLU"
  bottom: "conv1_2"
  top: "conv1_2"
}
layer {
  name: "pool1"
  type: "Pooling"
  bottom: "conv1_2"
  top: "pool1"
  pooling_param {
    pool: MAX
    kernel_size: 2
    stride: 2
  }
}
layer {
  name: "conv2_1"
  type: "Convolution"
  bottom: "pool1"
  top: "conv2_1"
  param {
    lr_mult: 1
    decay_mult: 1
  }
  param {
    lr_mult: 2
    decay_mult: 0
  }
  convolution_param {
    num_output: 128
    pad: 1
    kernel_size: 3
    weight_filler {
      type: "xavier"
    }
    bias_filler {
      type: "constant"
      value: 0
    }
  }
}
layer {
  name: "relu2_1"
  type: "ReLU"
  bottom: "conv2_1"
  top: "conv2_1"
}
layer {
  name: "conv2_2"
  type: "Convolution"
  bottom: "conv2_1"
  top: "conv2_2"
  param {
    lr_mult: 1
    decay_mult: 1
  }
  param {
    lr_mult: 2
    decay_mult: 0
  }
  convolution_param {
    num_output: 128
    pad: 1
    kernel_size: 3
    weight_filler {
      type: "xavier"
    }
    bias_filler {
      type: "constant"
      value: 0
    }
  }
}
layer {
  name: "relu2_2"
  type: "ReLU"
  bottom: "conv2_2"
  top: "conv2_2"
}
layer {
  name: "pool2"
  type: "Pooling"
  bottom: "conv2_2"
  top: "pool2"
  pooling_param {
    pool: MAX
    kernel_size: 2
    stride: 2
  }
}
layer {
  name: "conv3_1"
  type: "Convolution"
  bottom: "pool2"
  top: "conv3_1"
  param {
    lr_mult: 1
    decay_mult: 1
  }
  param {
    lr_mult: 2
    decay_mult: 0
  }
  convolution_param {
    num_output: 256
    pad: 1
    kernel_size: 3
    weight_filler {
      type: "xavier"
    }
    bias_filler {
      type: "constant"
      value: 0
    }
  }
}
layer {
  name: "relu3_1"
  type: "ReLU"
  bottom: "conv3_1"
  top: "conv3_1"
}
layer {
  name: "conv3_2"
  type: "Convolution"
  bottom: "conv3_1"
  top: "conv3_2"
  param {
    lr_mult: 1
    decay_mult: 1
  }
  param {
    lr_mult: 2
    decay_mult: 0
  }
  convolution_param {
    num_output: 256
    pad: 1
    kernel_size: 3
    weight_filler {
      type: "xavier"
    }
    bias_filler {
      type: "constant"
      value: 0
    }
  }
}
layer {
  name: "relu3_2"
  type: "ReLU"
  bottom: "conv3_2"
  top: "conv3_2"
}
layer {
  name: "conv3_3"
  type: "Convolution"
  bottom: "conv3_2"
  top: "conv3_3"
  param {
    lr_mult: 1
    decay_mult: 1
  }
  param {
    lr_mult: 2
    decay_mult: 0
  }
  convolution_param {
    num_output: 256
    pad: 1
    kernel_size: 3
    weight_filler {
      type: "xavier"
    }
    bias_filler {
      type: "constant"
      value: 0
    }
  }
}
layer {
  name: "relu3_3"
  type: "ReLU"
  bottom: "conv3_3"
  top: "conv3_3"
}
layer {
  name: "pool3"
  type: "Pooling"
  bottom: "conv3_3"
  top: "pool3"
  pooling_param {
    pool: MAX
    kernel_size: 2
    stride: 2
  }
}
layer {
  name: "conv4_1"
  type: "Convolution"
  bottom: "pool3"
  top: "conv4_1"
  param {
    lr_mult: 1
    decay_mult: 1
  }
  param {
    lr_mult: 2
    decay_mult: 0
  }
  convolution_param {
    num_output: 512
    pad: 1
    kernel_size: 3
    weight_filler {
      type: "xavier"
    }
    bias_filler {
      type: "constant"
      value: 0
    }
  }
}
layer {
  name: "relu4_1"
  type: "ReLU"
  bottom: "conv4_1"
  top: "conv4_1"
}
layer {
  name: "conv4_2"
  type: "Convolution"
  bottom: "conv4_1"
  top: "conv4_2"
  param {
    lr_mult: 1
    decay_mult: 1
  }
  param {
    lr_mult: 2
    decay_mult: 0
  }
  convolution_param {
    num_output: 512
    pad: 1
    kernel_size: 3
    weight_filler {
      type: "xavier"
    }
    bias_filler {
      type: "constant"
      value: 0
    }
  }
}
layer {
  name: "relu4_2"
  type: "ReLU"
  bottom: "conv4_2"
  top: "conv4_2"
}
layer {
  name: "conv4_3"
  type: "Convolution"
  bottom: "conv4_2"
  top: "conv4_3"
  param {
    lr_mult: 1
    decay_mult: 1
  }
  param {
    lr_mult: 2
    decay_mult: 0
  }
  convolution_param {
    num_output: 512
    pad: 1
    kernel_size: 3
    weight_filler {
      type: "xavier"
    }
    bias_filler {
      type: "constant"
      value: 0
    }
  }
}
layer {
  name: "relu4_3"
  type: "ReLU"
  bottom: "conv4_3"
  top: "conv4_3"
}
layer {
  name: "pool4"
  type: "Pooling"
  bottom: "conv4_3"
  top: "pool4"
  pooling_param {
    pool: MAX
    kernel_size: 2
    stride: 2
  }
}
layer {
  name: "conv5_1"
  type: "Convolution"
  bottom: "pool4"
  top: "conv5_1"
  param {
    lr_mult: 1
    decay_mult: 1
  }
  param {
    lr_mult: 2
    decay_mult: 0
  }
  convolution_param {
    num_output: 512
    pad: 1
    kernel_size: 3
    weight_filler {
      type: "xavier"
    }
    bias_filler {
      type: "constant"
      value: 0
    }
    dilation: 1
  }
}
layer {
  name: "relu5_1"
  type: "ReLU"
  bottom: "conv5_1"
  top: "conv5_1"
}
layer {
  name: "conv5_2"
  type: "Convolution"
  bottom: "conv5_1"
  top: "conv5_2"
  param {
    lr_mult: 1
    decay_mult: 1
  }
  param {
    lr_mult: 2
    decay_mult: 0
  }
  convolution_param {
    num_output: 512
    pad: 1
    kernel_size: 3
    weight_filler {
      type: "xavier"
    }
    bias_filler {
      type: "constant"
      value: 0
    }
    dilation: 1
  }
}
layer {
  name: "relu5_2"
  type: "ReLU"
  bottom: "conv5_2"
  top: "conv5_2"
}
layer {
  name: "conv5_3"
  type: "Convolution"
  bottom: "conv5_2"
  top: "conv5_3"
  param {
    lr_mult: 1
    decay_mult: 1
  }
  param {
    lr_mult: 2
    decay_mult: 0
  }
  convolution_param {
    num_output: 512
    pad: 1
    kernel_size: 3
    weight_filler {
      type: "xavier"
    }
    bias_filler {
      type: "constant"
      value: 0
    }
    dilation: 1
  }
}
layer {
  name: "relu5_3"
  type: "ReLU"
  bottom: "conv5_3"
  top: "conv5_3"
}
layer {
  name: "pool5"
  type: "Pooling"
  bottom: "conv5_3"
  top: "pool5"
  pooling_param {
    pool: MAX
    kernel_size: 3
    stride: 1
    pad: 1
  }
}
layer {
  name: "fc6"
  type: "Convolution"
  bottom: "pool5"
  top: "fc6"
  param {
    lr_mult: 1
    decay_mult: 1
  }
  param {
    lr_mult: 2
    decay_mult: 0
  }
  convolution_param {
    num_output: 1024
    pad: 6
    kernel_size: 3
    weight_filler {
      type: "xavier"
    }
    bias_filler {
      type: "constant"
      value: 0
    }
    dilation: 6
  }
}
layer {
  name: "relu6"
  type: "ReLU"
  bottom: "fc6"
  top: "fc6"
}
layer {
  name: "fc7"
  type: "Convolution"
  bottom: "fc6"
  top: "fc7"
  param {
    lr_mult: 1
    decay_mult: 1
  }
  param {
    lr_mult: 2
    decay_mult: 0
  }
  convolution_param {
    num_output: 1024
    kernel_size: 1
    weight_filler {
      type: "xavier"
    }
    bias_filler {
      type: "constant"
      value: 0
    }
  }
}
layer {
  name: "relu7"
  type: "ReLU"
  bottom: "fc7"
  top: "fc7"
}
layer {
  name: "conv6_1"
  type: "Convolution"
  bottom: "fc7"
  top: "conv6_1"
  param {
    lr_mult: 1
    decay_mult: 1
  }
  param {
    lr_mult: 2
    decay_mult: 0
  }
  convolution_param {
    num_output: 256
    pad: 0
    kernel_size: 1
    stride: 1
    weight_filler {
      type: "xavier"
    }
    bias_filler {
      type: "constant"
      value: 0
    }
  }
}
layer {
  name: "conv6_1_relu"
  type: "ReLU"
  bottom: "conv6_1"
  top: "conv6_1"
}
layer {
  name: "conv6_2"
  type: "Convolution"
  bottom: "conv6_1"
  top: "conv6_2"
  param {
    lr_mult: 1
    decay_mult: 1
  }
  param {
    lr_mult: 2
    decay_mult: 0
  }
  convolution_param {
    num_output: 512
    pad: 1
    kernel_size: 3
    stride: 2
    weight_filler {
      type: "xavier"
    }
    bias_filler {
      type: "constant"
      value: 0
    }
  }
}
layer {
  name: "conv6_2_relu"
  type: "ReLU"
  bottom: "conv6_2"
  top: "conv6_2"
}
layer {
  name: "conv7_1"
  type: "Convolution"
  bottom: "conv6_2"
  top: "conv7_1"
  param {
    lr_mult: 1
    decay_mult: 1
  }
  param {
    lr_mult: 2
    decay_mult: 0
  }
  convolution_param {
    num_output: 128
    pad: 0
    kernel_size: 1
    stride: 1
    weight_filler {
      type: "xavier"
    }
    bias_filler {
      type: "constant"
      value: 0
    }
  }
}
layer {
  name: "conv7_1_relu"
  type: "ReLU"
  bottom: "conv7_1"
  top: "conv7_1"
}
layer {
  name: "conv7_2"
  type: "Convolution"
  bottom: "conv7_1"
  top: "conv7_2"
  param {
    lr_mult: 1
    decay_mult: 1
  }
  param {
    lr_mult: 2
    decay_mult: 0
  }
  convolution_param {
    num_output: 256
    pad: 1
    kernel_size: 3
    stride: 2
    weight_filler {
      type: "xavier"
    }
    bias_filler {
      type: "constant"
      value: 0
    }
  }
}
layer {
  name: "conv7_2_relu"
  type: "ReLU"
  bottom: "conv7_2"
  top: "conv7_2"
}
layer {
  name: "conv8_1"
  type: "Convolution"
  bottom: "conv7_2"
  top: "conv8_1"
  param {
    lr_mult: 1
    decay_mult: 1
  }
  param {
    lr_mult: 2
    decay_mult: 0
  }
  convolution_param {
    num_output: 128
    pad: 0
    kernel_size: 1
    stride: 1
    weight_filler {
      type: "xavier"
    }
    bias_filler {
      type: "constant"
      value: 0
    }
  }
}
layer {
  name: "conv8_1_relu"
  type: "ReLU"
  bottom: "conv8_1"
  top: "conv8_1"
}
layer {
  name: "conv8_2"
  type: "Convolution"
  bottom: "conv8_1"
  top: "conv8_2"
  param {
    lr_mult: 1
    decay_mult: 1
  }
  param {
    lr_mult: 2
    decay_mult: 0
  }
  convolution_param {
    num_output: 256
    pad: 0
    kernel_size: 3
    stride: 1
    weight_filler {
      type: "xavier"
    }
    bias_filler {
      type: "constant"
      value: 0
    }
  }
}
layer {
  name: "conv8_2_relu"
  type: "ReLU"
  bottom: "conv8_2"
  top: "conv8_2"
}
layer {
  name: "conv9_1"
  type: "Convolution"
  bottom: "conv8_2"
  top: "conv9_1"
  param {
    lr_mult: 1
    decay_mult: 1
  }
  param {
    lr_mult: 2
    decay_mult: 0
  }
  convolution_param {
    num_output: 128
    pad: 0
    kernel_size: 1
    stride: 1
    weight_filler {
      type: "xavier"
    }
    bias_filler {
      type: "constant"
      value: 0
    }
  }
}
layer {
  name: "conv9_1_relu"
  type: "ReLU"
  bottom: "conv9_1"
  top: "conv9_1"
}
layer {
  name: "conv9_2"
  type: "Convolution"
  bottom: "conv9_1"
  top: "conv9_2"
  param {
    lr_mult: 1
    decay_mult: 1
  }
  param {
    lr_mult: 2
    decay_mult: 0
  }
  convolution_param {
    num_output: 256
    pad: 0
    kernel_size: 3
    stride: 1
    weight_filler {
      type: "xavier"
    }
    bias_filler {
      type: "constant"
      value: 0
    }
  }
}
layer {
  name: "conv9_2_relu"
  type: "ReLU"
  bottom: "conv9_2"
  top: "conv9_2"
}
layer {
  name: "conv4_3_norm"
  type: "Normalize"
  bottom: "conv4_3"
  top: "conv4_3_norm"
  norm_param {
    across_spatial: false
    scale_filler {
      type: "constant"
      value: 20
    }
    channel_shared: false
  }
}
layer {
  name: "conv4_3_norm_mbox_loc"
  type: "Convolution"
  bottom: "conv4_3_norm"
  top: "conv4_3_norm_mbox_loc"
  param {
    lr_mult: 1
    decay_mult: 1
  }
  param {
    lr_mult: 2
    decay_mult: 0
  }
  convolution_param {
    num_output: 16
    pad: 1
    kernel_size: 3
    stride: 1
    weight_filler {
      type: "xavier"
    }
    bias_filler {
      type: "constant"
      value: 0
    }
  }
}
layer {
  name: "conv4_3_norm_mbox_loc_perm"
  type: "Permute"
  bottom: "conv4_3_norm_mbox_loc"
  top: "conv4_3_norm_mbox_loc_perm"
  permute_param {
    order: 0
    order: 2
    order: 3
    order: 1
  }
}
layer {
  name: "conv4_3_norm_mbox_loc_flat"
  type: "Flatten"
  bottom: "conv4_3_norm_mbox_loc_perm"
  top: "conv4_3_norm_mbox_loc_flat"
  flatten_param {
    axis: 1
  }
}
layer {
  name: "conv4_3_norm_mbox_conf"
  type: "Convolution"
  bottom: "conv4_3_norm"
  top: "conv4_3_norm_mbox_conf"
  param {
    lr_mult: 1
    decay_mult: 1
  }
  param {
    lr_mult: 2
    decay_mult: 0
  }
  convolution_param {
    num_output: 8
    pad: 1
    kernel_size: 3
    stride: 1
    weight_filler {
      type: "xavier"
    }
    bias_filler {
      type: "constant"
      value: 0
    }
  }
}
layer {
  name: "conv4_3_norm_mbox_conf_perm"
  type: "Permute"
  bottom: "conv4_3_norm_mbox_conf"
  top: "conv4_3_norm_mbox_conf_perm"
  permute_param {
    order: 0
    order: 2
    order: 3
    order: 1
  }
}
layer {
  name: "conv4_3_norm_mbox_conf_flat"
  type: "Flatten"
  bottom: "conv4_3_norm_mbox_conf_perm"
  top: "conv4_3_norm_mbox_conf_flat"
  flatten_param {
    axis: 1
  }
}
layer {
  name: "conv4_3_norm_mbox_clean"
  type: "Convolution"
  bottom: "conv4_3_norm"
  top: "conv4_3_norm_mbox_clean"
  param {
    lr_mult: 1
    decay_mult: 1
  }
  param {
    lr_mult: 2
    decay_mult: 0
  }
  convolution_param {
    num_output: 4
    pad: 1
    kernel_size: 3
    stride: 1
    weight_filler {
      type: "xavier"
    }
    bias_filler {
      type: "constant"
      value: 0
    }
  }
}
layer {
  name: "conv4_3_norm_mbox_clean_perm"
  type: "Permute"
  bottom: "conv4_3_norm_mbox_clean"
  top: "conv4_3_norm_mbox_clean_perm"
  permute_param {
    order: 0
    order: 2
    order: 3
    order: 1
  }
}
layer {
  name: "conv4_3_norm_mbox_clean_flat"
  type: "Flatten"
  bottom: "conv4_3_norm_mbox_clean_perm"
  top: "conv4_3_norm_mbox_clean_flat"
  flatten_param {
    axis: 1
  }
}
layer {
  name: "conv4_3_norm_mbox_priorbox"
  type: "PriorBox"
  bottom: "conv4_3_norm"
  bottom: "data"
  top: "conv4_3_norm_mbox_priorbox"
  prior_box_param {
    min_size: 35.84
    max_size: 76.8
    aspect_ratio: 2
    flip: true
    clip: false
    variance: 0.1
    variance: 0.1
    variance: 0.2
    variance: 0.2
    step: 8
    offset: 0.5
  }
}
layer {
  name: "fc7_mbox_loc"
  type: "Convolution"
  bottom: "fc7"
  top: "fc7_mbox_loc"
  param {
    lr_mult: 1
    decay_mult: 1
  }
  param {
    lr_mult: 2
    decay_mult: 0
  }
  convolution_param {
    num_output: 24
    pad: 1
    kernel_size: 3
    stride: 1
    weight_filler {
      type: "xavier"
    }
    bias_filler {
      type: "constant"
      value: 0
    }
  }
}
layer {
  name: "fc7_mbox_loc_perm"
  type: "Permute"
  bottom: "fc7_mbox_loc"
  top: "fc7_mbox_loc_perm"
  permute_param {
    order: 0
    order: 2
    order: 3
    order: 1
  }
}
layer {
  name: "fc7_mbox_loc_flat"
  type: "Flatten"
  bottom: "fc7_mbox_loc_perm"
  top: "fc7_mbox_loc_flat"
  flatten_param {
    axis: 1
  }
}
layer {
  name: "fc7_mbox_conf"
  type: "Convolution"
  bottom: "fc7"
  top: "fc7_mbox_conf"
  param {
    lr_mult: 1
    decay_mult: 1
  }
  param {
    lr_mult: 2
    decay_mult: 0
  }
  convolution_param {
    num_output: 12
    pad: 1
    kernel_size: 3
    stride: 1
    weight_filler {
      type: "xavier"
    }
    bias_filler {
      type: "constant"
      value: 0
    }
  }
}
layer {
  name: "fc7_mbox_conf_perm"
  type: "Permute"
  bottom: "fc7_mbox_conf"
  top: "fc7_mbox_conf_perm"
  permute_param {
    order: 0
    order: 2
    order: 3
    order: 1
  }
}
layer {
  name: "fc7_mbox_conf_flat"
  type: "Flatten"
  bottom: "fc7_mbox_conf_perm"
  top: "fc7_mbox_conf_flat"
  flatten_param {
    axis: 1
  }
}
layer {
  name: "fc7_mbox_clean"
  type: "Convolution"
  bottom: "fc7"
  top: "fc7_mbox_clean"
  param {
    lr_mult: 1
    decay_mult: 1
  }
  param {
    lr_mult: 2
    decay_mult: 0
  }
  convolution_param {
    num_output: 6
    pad: 1
    kernel_size: 3
    stride: 1
    weight_filler {
      type: "xavier"
    }
    bias_filler {
      type: "constant"
      value: 0
    }
  }
}
layer {
  name: "fc7_mbox_clean_perm"
  type: "Permute"
  bottom: "fc7_mbox_clean"
  top: "fc7_mbox_clean_perm"
  permute_param {
    order: 0
    order: 2
    order: 3
    order: 1
  }
}
layer {
  name: "fc7_mbox_clean_flat"
  type: "Flatten"
  bottom: "fc7_mbox_clean_perm"
  top: "fc7_mbox_clean_flat"
  flatten_param {
    axis: 1
  }
}
layer {
  name: "fc7_mbox_priorbox"
  type: "PriorBox"
  bottom: "fc7"
  bottom: "data"
  top: "fc7_mbox_priorbox"
  prior_box_param {
    min_size: 76.8
    max_size: 168.96
    aspect_ratio: 2
    aspect_ratio: 3
    flip: true
    clip: false
    variance: 0.1
    variance: 0.1
    variance: 0.2
    variance: 0.2
    step: 16
    offset: 0.5
  }
}
layer {
  name: "conv6_2_mbox_loc"
  type: "Convolution"
  bottom: "conv6_2"
  top: "conv6_2_mbox_loc"
  param {
    lr_mult: 1
    decay_mult: 1
  }
  param {
    lr_mult: 2
    decay_mult: 0
  }
  convolution_param {
    num_output: 24
    pad: 1
    kernel_size: 3
    stride: 1
    weight_filler {
      type: "xavier"
    }
    bias_filler {
      type: "constant"
      value: 0
    }
  }
}
layer {
  name: "conv6_2_mbox_loc_perm"
  type: "Permute"
  bottom: "conv6_2_mbox_loc"
  top: "conv6_2_mbox_loc_perm"
  permute_param {
    order: 0
    order: 2
    order: 3
    order: 1
  }
}
layer {
  name: "conv6_2_mbox_loc_flat"
  type: "Flatten"
  bottom: "conv6_2_mbox_loc_perm"
  top: "conv6_2_mbox_loc_flat"
  flatten_param {
    axis: 1
  }
}
layer {
  name: "conv6_2_mbox_conf"
  type: "Convolution"
  bottom: "conv6_2"
  top: "conv6_2_mbox_conf"
  param {
    lr_mult: 1
    decay_mult: 1
  }
  param {
    lr_mult: 2
    decay_mult: 0
  }
  convolution_param {
    num_output: 12
    pad: 1
    kernel_size: 3
    stride: 1
    weight_filler {
      type: "xavier"
    }
    bias_filler {
      type: "constant"
      value: 0
    }
  }
}
layer {
  name: "conv6_2_mbox_conf_perm"
  type: "Permute"
  bottom: "conv6_2_mbox_conf"
  top: "conv6_2_mbox_conf_perm"
  permute_param {
    order: 0
    order: 2
    order: 3
    order: 1
  }
}
layer {
  name: "conv6_2_mbox_conf_flat"
  type: "Flatten"
  bottom: "conv6_2_mbox_conf_perm"
  top: "conv6_2_mbox_conf_flat"
  flatten_param {
    axis: 1
  }
}
layer {
  name: "conv6_2_mbox_clean"
  type: "Convolution"
  bottom: "conv6_2"
  top: "conv6_2_mbox_clean"
  param {
    lr_mult: 1
    decay_mult: 1
  }
  param {
    lr_mult: 2
    decay_mult: 0
  }
  convolution_param {
    num_output: 6
    pad: 1
    kernel_size: 3
    stride: 1
    weight_filler {
      type: "xavier"
    }
    bias_filler {
      type: "constant"
      value: 0
    }
  }
}
layer {
  name: "conv6_2_mbox_clean_perm"
  type: "Permute"
  bottom: "conv6_2_mbox_clean"
  top: "conv6_2_mbox_clean_perm"
  permute_param {
    order: 0
    order: 2
    order: 3
    order: 1
  }
}
layer {
  name: "conv6_2_mbox_clean_flat"
  type: "Flatten"
  bottom: "conv6_2_mbox_clean_perm"
  top: "conv6_2_mbox_clean_flat"
  flatten_param {
    axis: 1
  }
}
layer {
  name: "conv6_2_mbox_priorbox"
  type: "PriorBox"
  bottom: "conv6_2"
  bottom: "data"
  top: "conv6_2_mbox_priorbox"
  prior_box_param {
    min_size: 168.96
    max_size: 261.12
    aspect_ratio: 2
    aspect_ratio: 3
    flip: true
    clip: false
    variance: 0.1
    variance: 0.1
    variance: 0.2
    variance: 0.2
    step: 32
    offset: 0.5
  }
}
layer {
  name: "conv7_2_mbox_loc"
  type: "Convolution"
  bottom: "conv7_2"
  top: "conv7_2_mbox_loc"
  param {
    lr_mult: 1
    decay_mult: 1
  }
  param {
    lr_mult: 2
    decay_mult: 0
  }
  convolution_param {
    num_output: 24
    pad: 1
    kernel_size: 3
    stride: 1
    weight_filler {
      type: "xavier"
    }
    bias_filler {
      type: "constant"
      value: 0
    }
  }
}
layer {
  name: "conv7_2_mbox_loc_perm"
  type: "Permute"
  bottom: "conv7_2_mbox_loc"
  top: "conv7_2_mbox_loc_perm"
  permute_param {
    order: 0
    order: 2
    order: 3
    order: 1
  }
}
layer {
  name: "conv7_2_mbox_loc_flat"
  type: "Flatten"
  bottom: "conv7_2_mbox_loc_perm"
  top: "conv7_2_mbox_loc_flat"
  flatten_param {
    axis: 1
  }
}
layer {
  name: "conv7_2_mbox_conf"
  type: "Convolution"
  bottom: "conv7_2"
  top: "conv7_2_mbox_conf"
  param {
    lr_mult: 1
    decay_mult: 1
  }
  param {
    lr_mult: 2
    decay_mult: 0
  }
  convolution_param {
    num_output: 12
    pad: 1
    kernel_size: 3
    stride: 1
    weight_filler {
      type: "xavier"
    }
    bias_filler {
      type: "constant"
      value: 0
    }
  }
}
layer {
  name: "conv7_2_mbox_conf_perm"
  type: "Permute"
  bottom: "conv7_2_mbox_conf"
  top: "conv7_2_mbox_conf_perm"
  permute_param {
    order: 0
    order: 2
    order: 3
    order: 1
  }
}
layer {
  name: "conv7_2_mbox_conf_flat"
  type: "Flatten"
  bottom: "conv7_2_mbox_conf_perm"
  top: "conv7_2_mbox_conf_flat"
  flatten_param {
    axis: 1
  }
}
layer {
  name: "conv7_2_mbox_clean"
  type: "Convolution"
  bottom: "conv7_2"
  top: "conv7_2_mbox_clean"
  param {
    lr_mult: 1
    decay_mult: 1
  }
  param {
    lr_mult: 2
    decay_mult: 0
  }
  convolution_param {
    num_output: 6
    pad: 1
    kernel_size: 3
    stride: 1
    weight_filler {
      type: "xavier"
    }
    bias_filler {
      type: "constant"
      value: 0
    }
  }
}
layer {
  name: "conv7_2_mbox_clean_perm"
  type: "Permute"
  bottom: "conv7_2_mbox_clean"
  top: "conv7_2_mbox_clean_perm"
  permute_param {
    order: 0
    order: 2
    order: 3
    order: 1
  }
}
layer {
  name: "conv7_2_mbox_clean_flat"
  type: "Flatten"
  bottom: "conv7_2_mbox_clean_perm"
  top: "conv7_2_mbox_clean_flat"
  flatten_param {
    axis: 1
  }
}
layer {
  name: "conv7_2_mbox_priorbox"
  type: "PriorBox"
  bottom: "conv7_2"
  bottom: "data"
  top: "conv7_2_mbox_priorbox"
  prior_box_param {
    min_size: 261.12
    max_size: 353.28
    aspect_ratio: 2
    aspect_ratio: 3
    flip: true
    clip: false
    variance: 0.1
    variance: 0.1
    variance: 0.2
    variance: 0.2
    step: 64
    offset: 0.5
  }
}
layer {
  name: "conv8_2_mbox_loc"
  type: "Convolution"
  bottom: "conv8_2"
  top: "conv8_2_mbox_loc"
  param {
    lr_mult: 1
    decay_mult: 1
  }
  param {
    lr_mult: 2
    decay_mult: 0
  }
  convolution_param {
    num_output: 16
    pad: 1
    kernel_size: 3
    stride: 1
    weight_filler {
      type: "xavier"
    }
    bias_filler {
      type: "constant"
      value: 0
    }
  }
}
layer {
  name: "conv8_2_mbox_loc_perm"
  type: "Permute"
  bottom: "conv8_2_mbox_loc"
  top: "conv8_2_mbox_loc_perm"
  permute_param {
    order: 0
    order: 2
    order: 3
    order: 1
  }
}
layer {
  name: "conv8_2_mbox_loc_flat"
  type: "Flatten"
  bottom: "conv8_2_mbox_loc_perm"
  top: "conv8_2_mbox_loc_flat"
  flatten_param {
    axis: 1
  }
}
layer {
  name: "conv8_2_mbox_conf"
  type: "Convolution"
  bottom: "conv8_2"
  top: "conv8_2_mbox_conf"
  param {
    lr_mult: 1
    decay_mult: 1
  }
  param {
    lr_mult: 2
    decay_mult: 0
  }
  convolution_param {
    num_output: 8
    pad: 1
    kernel_size: 3
    stride: 1
    weight_filler {
      type: "xavier"
    }
    bias_filler {
      type: "constant"
      value: 0
    }
  }
}
layer {
  name: "conv8_2_mbox_conf_perm"
  type: "Permute"
  bottom: "conv8_2_mbox_conf"
  top: "conv8_2_mbox_conf_perm"
  permute_param {
    order: 0
    order: 2
    order: 3
    order: 1
  }
}
layer {
  name: "conv8_2_mbox_conf_flat"
  type: "Flatten"
  bottom: "conv8_2_mbox_conf_perm"
  top: "conv8_2_mbox_conf_flat"
  flatten_param {
    axis: 1
  }
}
layer {
  name: "conv8_2_mbox_clean"
  type: "Convolution"
  bottom: "conv8_2"
  top: "conv8_2_mbox_clean"
  param {
    lr_mult: 1
    decay_mult: 1
  }
  param {
    lr_mult: 2
    decay_mult: 0
  }
  convolution_param {
    num_output: 4
    pad: 1
    kernel_size: 3
    stride: 1
    weight_filler {
      type: "xavier"
    }
    bias_filler {
      type: "constant"
      value: 0
    }
  }
}
layer {
  name: "conv8_2_mbox_clean_perm"
  type: "Permute"
  bottom: "conv8_2_mbox_clean"
  top: "conv8_2_mbox_clean_perm"
  permute_param {
    order: 0
    order: 2
    order: 3
    order: 1
  }
}
layer {
  name: "conv8_2_mbox_clean_flat"
  type: "Flatten"
  bottom: "conv8_2_mbox_clean_perm"
  top: "conv8_2_mbox_clean_flat"
  flatten_param {
    axis: 1
  }
}
layer {
  name: "conv8_2_mbox_priorbox"
  type: "PriorBox"
  bottom: "conv8_2"
  bottom: "data"
  top: "conv8_2_mbox_priorbox"
  prior_box_param {
    min_size: 353.28
    max_size: 445.44
    aspect_ratio: 2
    flip: true
    clip: false
    variance: 0.1
    variance: 0.1
    variance: 0.2
    variance: 0.2
    step: 100
    offset: 0.5
  }
}
layer {
  name: "conv9_2_mbox_loc"
  type: "Convolution"
  bottom: "conv9_2"
  top: "conv9_2_mbox_loc"
  param {
    lr_mult: 1
    decay_mult: 1
  }
  param {
    lr_mult: 2
    decay_mult: 0
  }
  convolution_param {
    num_output: 16
    pad: 1
    kernel_size: 3
    stride: 1
    weight_filler {
      type: "xavier"
    }
    bias_filler {
      type: "constant"
      value: 0
    }
  }
}
layer {
  name: "conv9_2_mbox_loc_perm"
  type: "Permute"
  bottom: "conv9_2_mbox_loc"
  top: "conv9_2_mbox_loc_perm"
  permute_param {
    order: 0
    order: 2
    order: 3
    order: 1
  }
}
layer {
  name: "conv9_2_mbox_loc_flat"
  type: "Flatten"
  bottom: "conv9_2_mbox_loc_perm"
  top: "conv9_2_mbox_loc_flat"
  flatten_param {
    axis: 1
  }
}
layer {
  name: "conv9_2_mbox_conf"
  type: "Convolution"
  bottom: "conv9_2"
  top: "conv9_2_mbox_conf"
  param {
    lr_mult: 1
    decay_mult: 1
  }
  param {
    lr_mult: 2
    decay_mult: 0
  }
  convolution_param {
    num_output: 8
    pad: 1
    kernel_size: 3
    stride: 1
    weight_filler {
      type: "xavier"
    }
    bias_filler {
      type: "constant"
      value: 0
    }
  }
}
layer {
  name: "conv9_2_mbox_conf_perm"
  type: "Permute"
  bottom: "conv9_2_mbox_conf"
  top: "conv9_2_mbox_conf_perm"
  permute_param {
    order: 0
    order: 2
    order: 3
    order: 1
  }
}
layer {
  name: "conv9_2_mbox_conf_flat"
  type: "Flatten"
  bottom: "conv9_2_mbox_conf_perm"
  top: "conv9_2_mbox_conf_flat"
  flatten_param {
    axis: 1
  }
}
layer {
  name: "conv9_2_mbox_clean"
  type: "Convolution"
  bottom: "conv9_2"
  top: "conv9_2_mbox_clean"
  param {
    lr_mult: 1
    decay_mult: 1
  }
  param {
    lr_mult: 2
    decay_mult: 0
  }
  convolution_param {
    num_output: 4
    pad: 1
    kernel_size: 3
    stride: 1
    weight_filler {
      type: "xavier"
    }
    bias_filler {
      type: "constant"
      value: 0
    }
  }
}
layer {
  name: "conv9_2_mbox_clean_perm"
  type: "Permute"
  bottom: "conv9_2_mbox_clean"
  top: "conv9_2_mbox_clean_perm"
  permute_param {
    order: 0
    order: 2
    order: 3
    order: 1
  }
}
layer {
  name: "conv9_2_mbox_clean_flat"
  type: "Flatten"
  bottom: "conv9_2_mbox_clean_perm"
  top: "conv9_2_mbox_clean_flat"
  flatten_param {
    axis: 1
  }
}
layer {
  name: "conv9_2_mbox_priorbox"
  type: "PriorBox"
  bottom: "conv9_2"
  bottom: "data"
  top: "conv9_2_mbox_priorbox"
  prior_box_param {
    min_size: 445.44
    max_size: 537.6
    aspect_ratio: 2
    flip: true
    clip: false
    variance: 0.1
    variance: 0.1
    variance: 0.2
    variance: 0.2
    step: 300
    offset: 0.5
  }
}
layer {
  name: "mbox_loc"
  type: "Concat"
  bottom: "conv4_3_norm_mbox_loc_flat"
  bottom: "fc7_mbox_loc_flat"
  bottom: "conv6_2_mbox_loc_flat"
  bottom: "conv7_2_mbox_loc_flat"
  bottom: "conv8_2_mbox_loc_flat"
  bottom: "conv9_2_mbox_loc_flat"
  top: "mbox_loc"
  concat_param {
    axis: 1
  }
}
layer {
  name: "mbox_conf"
  type: "Concat"
  bottom: "conv4_3_norm_mbox_conf_flat"
  bottom: "fc7_mbox_conf_flat"
  bottom: "conv6_2_mbox_conf_flat"
  bottom: "conv7_2_mbox_conf_flat"
  bottom: "conv8_2_mbox_conf_flat"
  bottom: "conv9_2_mbox_conf_flat"
  top: "mbox_conf"
  concat_param {
    axis: 1
  }
}
layer {
  name: "mbox_priorbox"
  type: "Concat"
  bottom: "conv4_3_norm_mbox_priorbox"
  bottom: "fc7_mbox_priorbox"
  bottom: "conv6_2_mbox_priorbox"
  bottom: "conv7_2_mbox_priorbox"
  bottom: "conv8_2_mbox_priorbox"
  bottom: "conv9_2_mbox_priorbox"
  top: "mbox_priorbox"
  concat_param {
    axis: 2
  }
}
layer {
  name: "mbox_clean"
  type: "Concat"
  bottom: "conv4_3_norm_mbox_clean_flat"
  bottom: "fc7_mbox_clean_flat"
  bottom: "conv6_2_mbox_clean_flat"
  bottom: "conv7_2_mbox_clean_flat"
  bottom: "conv8_2_mbox_clean_flat"
  bottom: "conv9_2_mbox_clean_flat"
  top: "mbox_clean"
  concat_param {
    axis: 1
  }
}
layer {
  name: "mbox_conf_reshape"
  type: "Reshape"
  bottom: "mbox_conf"
  top: "mbox_conf_reshape"
  reshape_param {
    shape {
      dim: 0
      dim: -1
      dim: 2
    }
  }
}
layer {
  name: "mbox_conf_softmax"
  type: "Softmax"
  bottom: "mbox_conf_reshape"
  top: "mbox_conf_softmax"
  softmax_param {
    axis: 2
  }
}
layer {
  name: "mbox_conf_flatten"
  type: "Flatten"
  bottom: "mbox_conf_softmax"
  top: "mbox_conf_flatten"
  flatten_param {
    axis: 1
  }
}
layer {
  name: "mbox_clean_sigmoid"
  type: "Sigmoid"
  bottom: "mbox_clean"
  top: "mbox_clean_sigmoid"
}
layer {
  name: "detection_out"
  type: "DetectionOutput"
  bottom: "mbox_loc"
  bottom: "mbox_conf_flatten"
  bottom: "mbox_priorbox"
  bottom: "mbox_clean_sigmoid"
  top: "detection_out"
  include {
    phase: TEST
  }
I0402 14:25:43.637809 20661 layer_factory.hpp:77] Creating layer data
I0402 14:25:43.637887 20661 net.cpp:100] Creating Layer data
I0402 14:25:43.637912 20661 net.cpp:408] data -> data
I0402 14:25:43.637923 20661 net.cpp:408] data -> label
I0402 14:25:43.638942 20730 db_lmdb.cpp:35] Opened lmdb /data/siyu/dataset/coco/lmdb/COCO_Val2014_person_lmdb
I0402 14:25:43.642287 20661 annotated_data_layer.cpp:62] output data size: 2,3,512,512
I0402 14:25:43.652566 20661 net.cpp:150] Setting up data
I0402 14:25:43.652611 20661 net.cpp:157] Top shape: 2 3 512 512 (1572864)
I0402 14:25:43.652618 20661 net.cpp:157] Top shape: 1 1 6 8 (48)
I0402 14:25:43.652623 20661 net.cpp:165] Memory required for data: 6291648
I0402 14:25:43.652632 20661 layer_factory.hpp:77] Creating layer data_data_0_split
I0402 14:25:43.652648 20661 net.cpp:100] Creating Layer data_data_0_split
I0402 14:25:43.652657 20661 net.cpp:434] data_data_0_split <- data
I0402 14:25:43.652667 20661 net.cpp:408] data_data_0_split -> data_data_0_split_0
I0402 14:25:43.652680 20661 net.cpp:408] data_data_0_split -> data_data_0_split_1
I0402 14:25:43.652690 20661 net.cpp:408] data_data_0_split -> data_data_0_split_2
I0402 14:25:43.652700 20661 net.cpp:408] data_data_0_split -> data_data_0_split_3
I0402 14:25:43.652709 20661 net.cpp:408] data_data_0_split -> data_data_0_split_4
I0402 14:25:43.652717 20661 net.cpp:408] data_data_0_split -> data_data_0_split_5
I0402 14:25:43.652724 20661 net.cpp:408] data_data_0_split -> data_data_0_split_6
I0402 14:25:43.652880 20661 net.cpp:150] Setting up data_data_0_split
I0402 14:25:43.652891 20661 net.cpp:157] Top shape: 2 3 512 512 (1572864)
I0402 14:25:43.652899 20661 net.cpp:157] Top shape: 2 3 512 512 (1572864)
I0402 14:25:43.652907 20661 net.cpp:157] Top shape: 2 3 512 512 (1572864)
I0402 14:25:43.652912 20661 net.cpp:157] Top shape: 2 3 512 512 (1572864)
I0402 14:25:43.652920 20661 net.cpp:157] Top shape: 2 3 512 512 (1572864)
I0402 14:25:43.652925 20661 net.cpp:157] Top shape: 2 3 512 512 (1572864)
I0402 14:25:43.652930 20661 net.cpp:157] Top shape: 2 3 512 512 (1572864)
I0402 14:25:43.652937 20661 net.cpp:165] Memory required for data: 50331840
I0402 14:25:43.652942 20661 layer_factory.hpp:77] Creating layer conv1_1
I0402 14:25:43.652959 20661 net.cpp:100] Creating Layer conv1_1
I0402 14:25:43.652968 20661 net.cpp:434] conv1_1 <- data_data_0_split_0
I0402 14:25:43.652978 20661 net.cpp:408] conv1_1 -> conv1_1
I0402 14:25:43.655103 20661 net.cpp:150] Setting up conv1_1
I0402 14:25:43.655120 20661 net.cpp:157] Top shape: 2 64 512 512 (33554432)
I0402 14:25:43.655128 20661 net.cpp:165] Memory required for data: 184549568
I0402 14:25:43.655143 20661 layer_factory.hpp:77] Creating layer relu1_1
I0402 14:25:43.655154 20661 net.cpp:100] Creating Layer relu1_1
I0402 14:25:43.655161 20661 net.cpp:434] relu1_1 <- conv1_1
I0402 14:25:43.655169 20661 net.cpp:395] relu1_1 -> conv1_1 (in-place)
I0402 14:25:43.655504 20661 net.cpp:150] Setting up relu1_1
I0402 14:25:43.655519 20661 net.cpp:157] Top shape: 2 64 512 512 (33554432)
I0402 14:25:43.655526 20661 net.cpp:165] Memory required for data: 318767296
I0402 14:25:43.655532 20661 layer_factory.hpp:77] Creating layer conv1_2
I0402 14:25:43.655547 20661 net.cpp:100] Creating Layer conv1_2
I0402 14:25:43.655555 20661 net.cpp:434] conv1_2 <- conv1_1
I0402 14:25:43.655563 20661 net.cpp:408] conv1_2 -> conv1_2
I0402 14:25:43.657773 20661 net.cpp:150] Setting up conv1_2
I0402 14:25:43.657790 20661 net.cpp:157] Top shape: 2 64 512 512 (33554432)
I0402 14:25:43.657796 20661 net.cpp:165] Memory required for data: 452985024
I0402 14:25:43.657809 20661 layer_factory.hpp:77] Creating layer relu1_2
I0402 14:25:43.657819 20661 net.cpp:100] Creating Layer relu1_2
I0402 14:25:43.657824 20661 net.cpp:434] relu1_2 <- conv1_2
I0402 14:25:43.657831 20661 net.cpp:395] relu1_2 -> conv1_2 (in-place)
I0402 14:25:43.658164 20661 net.cpp:150] Setting up relu1_2
I0402 14:25:43.658177 20661 net.cpp:157] Top shape: 2 64 512 512 (33554432)
I0402 14:25:43.658195 20661 net.cpp:165] Memory required for data: 587202752
I0402 14:25:43.658200 20661 layer_factory.hpp:77] Creating layer pool1
I0402 14:25:43.658210 20661 net.cpp:100] Creating Layer pool1
I0402 14:25:43.658215 20661 net.cpp:434] pool1 <- conv1_2
I0402 14:25:43.658222 20661 net.cpp:408] pool1 -> pool1
I0402 14:25:43.658282 20661 net.cpp:150] Setting up pool1
I0402 14:25:43.658291 20661 net.cpp:157] Top shape: 2 64 256 256 (8388608)
I0402 14:25:43.658296 20661 net.cpp:165] Memory required for data: 620757184
I0402 14:25:43.658301 20661 layer_factory.hpp:77] Creating layer conv2_1
I0402 14:25:43.658313 20661 net.cpp:100] Creating Layer conv2_1
I0402 14:25:43.658320 20661 net.cpp:434] conv2_1 <- pool1
I0402 14:25:43.658329 20661 net.cpp:408] conv2_1 -> conv2_1
I0402 14:25:43.660650 20661 net.cpp:150] Setting up conv2_1
I0402 14:25:43.660677 20661 net.cpp:157] Top shape: 2 128 256 256 (16777216)
I0402 14:25:43.660684 20661 net.cpp:165] Memory required for data: 687866048
I0402 14:25:43.660696 20661 layer_factory.hpp:77] Creating layer relu2_1
I0402 14:25:43.660706 20661 net.cpp:100] Creating Layer relu2_1
I0402 14:25:43.660722 20661 net.cpp:434] relu2_1 <- conv2_1
I0402 14:25:43.660729 20661 net.cpp:395] relu2_1 -> conv2_1 (in-place)
I0402 14:25:43.660926 20661 net.cpp:150] Setting up relu2_1
I0402 14:25:43.660938 20661 net.cpp:157] Top shape: 2 128 256 256 (16777216)
I0402 14:25:43.660944 20661 net.cpp:165] Memory required for data: 754974912
I0402 14:25:43.660953 20661 layer_factory.hpp:77] Creating layer conv2_2
I0402 14:25:43.660976 20661 net.cpp:100] Creating Layer conv2_2
I0402 14:25:43.660985 20661 net.cpp:434] conv2_2 <- conv2_1
I0402 14:25:43.660995 20661 net.cpp:408] conv2_2 -> conv2_2
I0402 14:25:43.664330 20661 net.cpp:150] Setting up conv2_2
I0402 14:25:43.664348 20661 net.cpp:157] Top shape: 2 128 256 256 (16777216)
I0402 14:25:43.664366 20661 net.cpp:165] Memory required for data: 822083776
I0402 14:25:43.664374 20661 layer_factory.hpp:77] Creating layer relu2_2
I0402 14:25:43.664382 20661 net.cpp:100] Creating Layer relu2_2
I0402 14:25:43.664391 20661 net.cpp:434] relu2_2 <- conv2_2
I0402 14:25:43.664399 20661 net.cpp:395] relu2_2 -> conv2_2 (in-place)
I0402 14:25:43.664742 20661 net.cpp:150] Setting up relu2_2
I0402 14:25:43.664757 20661 net.cpp:157] Top shape: 2 128 256 256 (16777216)
I0402 14:25:43.664773 20661 net.cpp:165] Memory required for data: 889192640
I0402 14:25:43.664778 20661 layer_factory.hpp:77] Creating layer pool2
I0402 14:25:43.664788 20661 net.cpp:100] Creating Layer pool2
I0402 14:25:43.664793 20661 net.cpp:434] pool2 <- conv2_2
I0402 14:25:43.664799 20661 net.cpp:408] pool2 -> pool2
I0402 14:25:43.664860 20661 net.cpp:150] Setting up pool2
I0402 14:25:43.664870 20661 net.cpp:157] Top shape: 2 128 128 128 (4194304)
I0402 14:25:43.664875 20661 net.cpp:165] Memory required for data: 905969856
I0402 14:25:43.664878 20661 layer_factory.hpp:77] Creating layer conv3_1
I0402 14:25:43.664891 20661 net.cpp:100] Creating Layer conv3_1
I0402 14:25:43.664897 20661 net.cpp:434] conv3_1 <- pool2
I0402 14:25:43.664906 20661 net.cpp:408] conv3_1 -> conv3_1
I0402 14:25:43.668745 20661 net.cpp:150] Setting up conv3_1
I0402 14:25:43.668774 20661 net.cpp:157] Top shape: 2 256 128 128 (8388608)
I0402 14:25:43.668781 20661 net.cpp:165] Memory required for data: 939524288
I0402 14:25:43.668792 20661 layer_factory.hpp:77] Creating layer relu3_1
I0402 14:25:43.668807 20661 net.cpp:100] Creating Layer relu3_1
I0402 14:25:43.668813 20661 net.cpp:434] relu3_1 <- conv3_1
I0402 14:25:43.668828 20661 net.cpp:395] relu3_1 -> conv3_1 (in-place)
I0402 14:25:43.669174 20661 net.cpp:150] Setting up relu3_1
I0402 14:25:43.669188 20661 net.cpp:157] Top shape: 2 256 128 128 (8388608)
I0402 14:25:43.669205 20661 net.cpp:165] Memory required for data: 973078720
I0402 14:25:43.669211 20661 layer_factory.hpp:77] Creating layer conv3_2
I0402 14:25:43.669225 20661 net.cpp:100] Creating Layer conv3_2
I0402 14:25:43.669231 20661 net.cpp:434] conv3_2 <- conv3_1
I0402 14:25:43.669239 20661 net.cpp:408] conv3_2 -> conv3_2
I0402 14:25:43.675415 20661 net.cpp:150] Setting up conv3_2
I0402 14:25:43.675433 20661 net.cpp:157] Top shape: 2 256 128 128 (8388608)
I0402 14:25:43.675438 20661 net.cpp:165] Memory required for data: 1006633152
I0402 14:25:43.675446 20661 layer_factory.hpp:77] Creating layer relu3_2
I0402 14:25:43.675453 20661 net.cpp:100] Creating Layer relu3_2
I0402 14:25:43.675458 20661 net.cpp:434] relu3_2 <- conv3_2
I0402 14:25:43.675467 20661 net.cpp:395] relu3_2 -> conv3_2 (in-place)
I0402 14:25:43.675704 20661 net.cpp:150] Setting up relu3_2
I0402 14:25:43.675720 20661 net.cpp:157] Top shape: 2 256 128 128 (8388608)
I0402 14:25:43.675725 20661 net.cpp:165] Memory required for data: 1040187584
I0402 14:25:43.675730 20661 layer_factory.hpp:77] Creating layer conv3_3
I0402 14:25:43.675745 20661 net.cpp:100] Creating Layer conv3_3
I0402 14:25:43.675752 20661 net.cpp:434] conv3_3 <- conv3_2
I0402 14:25:43.675761 20661 net.cpp:408] conv3_3 -> conv3_3
I0402 14:25:43.681973 20661 net.cpp:150] Setting up conv3_3
I0402 14:25:43.681990 20661 net.cpp:157] Top shape: 2 256 128 128 (8388608)
I0402 14:25:43.681996 20661 net.cpp:165] Memory required for data: 1073742016
I0402 14:25:43.682004 20661 layer_factory.hpp:77] Creating layer relu3_3
I0402 14:25:43.682014 20661 net.cpp:100] Creating Layer relu3_3
I0402 14:25:43.682020 20661 net.cpp:434] relu3_3 <- conv3_3
I0402 14:25:43.682026 20661 net.cpp:395] relu3_3 -> conv3_3 (in-place)
I0402 14:25:43.682354 20661 net.cpp:150] Setting up relu3_3
I0402 14:25:43.682369 20661 net.cpp:157] Top shape: 2 256 128 128 (8388608)
I0402 14:25:43.682389 20661 net.cpp:165] Memory required for data: 1107296448
I0402 14:25:43.682396 20661 layer_factory.hpp:77] Creating layer pool3
I0402 14:25:43.682410 20661 net.cpp:100] Creating Layer pool3
I0402 14:25:43.682418 20661 net.cpp:434] pool3 <- conv3_3
I0402 14:25:43.682425 20661 net.cpp:408] pool3 -> pool3
I0402 14:25:43.682492 20661 net.cpp:150] Setting up pool3
I0402 14:25:43.682502 20661 net.cpp:157] Top shape: 2 256 64 64 (2097152)
I0402 14:25:43.682505 20661 net.cpp:165] Memory required for data: 1115685056
I0402 14:25:43.682512 20661 layer_factory.hpp:77] Creating layer conv4_1
I0402 14:25:43.682526 20661 net.cpp:100] Creating Layer conv4_1
I0402 14:25:43.682533 20661 net.cpp:434] conv4_1 <- pool3
I0402 14:25:43.682543 20661 net.cpp:408] conv4_1 -> conv4_1
I0402 14:25:43.693903 20661 net.cpp:150] Setting up conv4_1
I0402 14:25:43.693936 20661 net.cpp:157] Top shape: 2 512 64 64 (4194304)
I0402 14:25:43.693943 20661 net.cpp:165] Memory required for data: 1132462272
I0402 14:25:43.693951 20661 layer_factory.hpp:77] Creating layer relu4_1
I0402 14:25:43.693960 20661 net.cpp:100] Creating Layer relu4_1
I0402 14:25:43.693965 20661 net.cpp:434] relu4_1 <- conv4_1
I0402 14:25:43.693976 20661 net.cpp:395] relu4_1 -> conv4_1 (in-place)
I0402 14:25:43.694319 20661 net.cpp:150] Setting up relu4_1
I0402 14:25:43.694334 20661 net.cpp:157] Top shape: 2 512 64 64 (4194304)
I0402 14:25:43.694350 20661 net.cpp:165] Memory required for data: 1149239488
I0402 14:25:43.694355 20661 layer_factory.hpp:77] Creating layer conv4_2
I0402 14:25:43.694368 20661 net.cpp:100] Creating Layer conv4_2
I0402 14:25:43.694376 20661 net.cpp:434] conv4_2 <- conv4_1
I0402 14:25:43.694386 20661 net.cpp:408] conv4_2 -> conv4_2
I0402 14:25:43.714821 20661 net.cpp:150] Setting up conv4_2
I0402 14:25:43.714855 20661 net.cpp:157] Top shape: 2 512 64 64 (4194304)
I0402 14:25:43.714861 20661 net.cpp:165] Memory required for data: 1166016704
I0402 14:25:43.714877 20661 layer_factory.hpp:77] Creating layer relu4_2
I0402 14:25:43.714887 20661 net.cpp:100] Creating Layer relu4_2
I0402 14:25:43.714893 20661 net.cpp:434] relu4_2 <- conv4_2
I0402 14:25:43.714903 20661 net.cpp:395] relu4_2 -> conv4_2 (in-place)
I0402 14:25:43.715095 20661 net.cpp:150] Setting up relu4_2
I0402 14:25:43.715108 20661 net.cpp:157] Top shape: 2 512 64 64 (4194304)
I0402 14:25:43.715114 20661 net.cpp:165] Memory required for data: 1182793920
I0402 14:25:43.715119 20661 layer_factory.hpp:77] Creating layer conv4_3
I0402 14:25:43.715132 20661 net.cpp:100] Creating Layer conv4_3
I0402 14:25:43.715140 20661 net.cpp:434] conv4_3 <- conv4_2
I0402 14:25:43.715148 20661 net.cpp:408] conv4_3 -> conv4_3
I0402 14:25:43.735131 20661 net.cpp:150] Setting up conv4_3
I0402 14:25:43.735172 20661 net.cpp:157] Top shape: 2 512 64 64 (4194304)
I0402 14:25:43.735177 20661 net.cpp:165] Memory required for data: 1199571136
I0402 14:25:43.735188 20661 layer_factory.hpp:77] Creating layer relu4_3
I0402 14:25:43.735198 20661 net.cpp:100] Creating Layer relu4_3
I0402 14:25:43.735203 20661 net.cpp:434] relu4_3 <- conv4_3
I0402 14:25:43.735213 20661 net.cpp:395] relu4_3 -> conv4_3 (in-place)
I0402 14:25:43.735563 20661 net.cpp:150] Setting up relu4_3
I0402 14:25:43.735607 20661 net.cpp:157] Top shape: 2 512 64 64 (4194304)
I0402 14:25:43.735612 20661 net.cpp:165] Memory required for data: 1216348352
I0402 14:25:43.735618 20661 layer_factory.hpp:77] Creating layer conv4_3_relu4_3_0_split
I0402 14:25:43.735625 20661 net.cpp:100] Creating Layer conv4_3_relu4_3_0_split
I0402 14:25:43.735630 20661 net.cpp:434] conv4_3_relu4_3_0_split <- conv4_3
I0402 14:25:43.735640 20661 net.cpp:408] conv4_3_relu4_3_0_split -> conv4_3_relu4_3_0_split_0
I0402 14:25:43.735647 20661 net.cpp:408] conv4_3_relu4_3_0_split -> conv4_3_relu4_3_0_split_1
I0402 14:25:43.735712 20661 net.cpp:150] Setting up conv4_3_relu4_3_0_split
I0402 14:25:43.735721 20661 net.cpp:157] Top shape: 2 512 64 64 (4194304)
I0402 14:25:43.735726 20661 net.cpp:157] Top shape: 2 512 64 64 (4194304)
I0402 14:25:43.735730 20661 net.cpp:165] Memory required for data: 1249902784
I0402 14:25:43.735750 20661 layer_factory.hpp:77] Creating layer pool4
I0402 14:25:43.735761 20661 net.cpp:100] Creating Layer pool4
I0402 14:25:43.735767 20661 net.cpp:434] pool4 <- conv4_3_relu4_3_0_split_0
I0402 14:25:43.735776 20661 net.cpp:408] pool4 -> pool4
I0402 14:25:43.735834 20661 net.cpp:150] Setting up pool4
I0402 14:25:43.735844 20661 net.cpp:157] Top shape: 2 512 32 32 (1048576)
I0402 14:25:43.735849 20661 net.cpp:165] Memory required for data: 1254097088
I0402 14:25:43.735853 20661 layer_factory.hpp:77] Creating layer conv5_1
I0402 14:25:43.735867 20661 net.cpp:100] Creating Layer conv5_1
I0402 14:25:43.735875 20661 net.cpp:434] conv5_1 <- pool4
I0402 14:25:43.735884 20661 net.cpp:408] conv5_1 -> conv5_1
I0402 14:25:43.755558 20661 net.cpp:150] Setting up conv5_1
I0402 14:25:43.755620 20661 net.cpp:157] Top shape: 2 512 32 32 (1048576)
I0402 14:25:43.755625 20661 net.cpp:165] Memory required for data: 1258291392
I0402 14:25:43.755635 20661 layer_factory.hpp:77] Creating layer relu5_1
I0402 14:25:43.755645 20661 net.cpp:100] Creating Layer relu5_1
I0402 14:25:43.755651 20661 net.cpp:434] relu5_1 <- conv5_1
I0402 14:25:43.755661 20661 net.cpp:395] relu5_1 -> conv5_1 (in-place)
I0402 14:25:43.756006 20661 net.cpp:150] Setting up relu5_1
I0402 14:25:43.756021 20661 net.cpp:157] Top shape: 2 512 32 32 (1048576)
I0402 14:25:43.756038 20661 net.cpp:165] Memory required for data: 1262485696
I0402 14:25:43.756043 20661 layer_factory.hpp:77] Creating layer conv5_2
I0402 14:25:43.756058 20661 net.cpp:100] Creating Layer conv5_2
I0402 14:25:43.756064 20661 net.cpp:434] conv5_2 <- conv5_1
I0402 14:25:43.756072 20661 net.cpp:408] conv5_2 -> conv5_2
I0402 14:25:43.776294 20661 net.cpp:150] Setting up conv5_2
I0402 14:25:43.776341 20661 net.cpp:157] Top shape: 2 512 32 32 (1048576)
I0402 14:25:43.776348 20661 net.cpp:165] Memory required for data: 1266680000
I0402 14:25:43.776358 20661 layer_factory.hpp:77] Creating layer relu5_2
I0402 14:25:43.776370 20661 net.cpp:100] Creating Layer relu5_2
I0402 14:25:43.776376 20661 net.cpp:434] relu5_2 <- conv5_2
I0402 14:25:43.776386 20661 net.cpp:395] relu5_2 -> conv5_2 (in-place)
I0402 14:25:43.776582 20661 net.cpp:150] Setting up relu5_2
I0402 14:25:43.776595 20661 net.cpp:157] Top shape: 2 512 32 32 (1048576)
I0402 14:25:43.776600 20661 net.cpp:165] Memory required for data: 1270874304
I0402 14:25:43.776607 20661 layer_factory.hpp:77] Creating layer conv5_3
I0402 14:25:43.776621 20661 net.cpp:100] Creating Layer conv5_3
I0402 14:25:43.776628 20661 net.cpp:434] conv5_3 <- conv5_2
I0402 14:25:43.776638 20661 net.cpp:408] conv5_3 -> conv5_3
I0402 14:25:43.796088 20661 net.cpp:150] Setting up conv5_3
I0402 14:25:43.796124 20661 net.cpp:157] Top shape: 2 512 32 32 (1048576)
I0402 14:25:43.796130 20661 net.cpp:165] Memory required for data: 1275068608
I0402 14:25:43.796139 20661 layer_factory.hpp:77] Creating layer relu5_3
I0402 14:25:43.796159 20661 net.cpp:100] Creating Layer relu5_3
I0402 14:25:43.796165 20661 net.cpp:434] relu5_3 <- conv5_3
I0402 14:25:43.796174 20661 net.cpp:395] relu5_3 -> conv5_3 (in-place)
I0402 14:25:43.796511 20661 net.cpp:150] Setting up relu5_3
I0402 14:25:43.796526 20661 net.cpp:157] Top shape: 2 512 32 32 (1048576)
I0402 14:25:43.796543 20661 net.cpp:165] Memory required for data: 1279262912
I0402 14:25:43.796550 20661 layer_factory.hpp:77] Creating layer pool5
I0402 14:25:43.796560 20661 net.cpp:100] Creating Layer pool5
I0402 14:25:43.796563 20661 net.cpp:434] pool5 <- conv5_3
I0402 14:25:43.796571 20661 net.cpp:408] pool5 -> pool5
I0402 14:25:43.796635 20661 net.cpp:150] Setting up pool5
I0402 14:25:43.796645 20661 net.cpp:157] Top shape: 2 512 32 32 (1048576)
I0402 14:25:43.796650 20661 net.cpp:165] Memory required for data: 1283457216
I0402 14:25:43.796655 20661 layer_factory.hpp:77] Creating layer fc6
I0402 14:25:43.796669 20661 net.cpp:100] Creating Layer fc6
I0402 14:25:43.796676 20661 net.cpp:434] fc6 <- pool5
I0402 14:25:43.796685 20661 net.cpp:408] fc6 -> fc6
I0402 14:25:43.837025 20661 net.cpp:150] Setting up fc6
I0402 14:25:43.837083 20661 net.cpp:157] Top shape: 2 1024 32 32 (2097152)
I0402 14:25:43.837090 20661 net.cpp:165] Memory required for data: 1291845824
I0402 14:25:43.837098 20661 layer_factory.hpp:77] Creating layer relu6
I0402 14:25:43.837110 20661 net.cpp:100] Creating Layer relu6
I0402 14:25:43.837117 20661 net.cpp:434] relu6 <- fc6
I0402 14:25:43.837124 20661 net.cpp:395] relu6 -> fc6 (in-place)
I0402 14:25:43.837370 20661 net.cpp:150] Setting up relu6
I0402 14:25:43.837383 20661 net.cpp:157] Top shape: 2 1024 32 32 (2097152)
I0402 14:25:43.837388 20661 net.cpp:165] Memory required for data: 1300234432
I0402 14:25:43.837393 20661 layer_factory.hpp:77] Creating layer fc7
I0402 14:25:43.837406 20661 net.cpp:100] Creating Layer fc7
I0402 14:25:43.837415 20661 net.cpp:434] fc7 <- fc6
I0402 14:25:43.837426 20661 net.cpp:408] fc7 -> fc7
I0402 14:25:43.847185 20661 net.cpp:150] Setting up fc7
I0402 14:25:43.847203 20661 net.cpp:157] Top shape: 2 1024 32 32 (2097152)
I0402 14:25:43.847208 20661 net.cpp:165] Memory required for data: 1308623040
I0402 14:25:43.847215 20661 layer_factory.hpp:77] Creating layer relu7
I0402 14:25:43.847226 20661 net.cpp:100] Creating Layer relu7
I0402 14:25:43.847231 20661 net.cpp:434] relu7 <- fc7
I0402 14:25:43.847237 20661 net.cpp:395] relu7 -> fc7 (in-place)
I0402 14:25:43.847424 20661 net.cpp:150] Setting up relu7
I0402 14:25:43.847436 20661 net.cpp:157] Top shape: 2 1024 32 32 (2097152)
I0402 14:25:43.847441 20661 net.cpp:165] Memory required for data: 1317011648
I0402 14:25:43.847446 20661 layer_factory.hpp:77] Creating layer fc7_relu7_0_split
I0402 14:25:43.847455 20661 net.cpp:100] Creating Layer fc7_relu7_0_split
I0402 14:25:43.847460 20661 net.cpp:434] fc7_relu7_0_split <- fc7
I0402 14:25:43.847467 20661 net.cpp:408] fc7_relu7_0_split -> fc7_relu7_0_split_0
…
I0402 14:25:43.868851 20661 net.cpp:150] Setting up conv7_2_conv7_2_relu_0_split
I0402 14:25:43.868861 20661 net.cpp:157] Top shape: 2 256 8 8 (32768)
I0402 14:25:43.868867 20661 net.cpp:157] Top shape: 2 256 8 8 (32768)
I0402 14:25:43.868872 20661 net.cpp:157] Top shape: 2 256 8 8 (32768)
I0402 14:25:43.868876 20661 net.cpp:157] Top shape: 2 256 8 8 (32768)
I0402 14:25:43.868881 20661 net.cpp:157] Top shape: 2 256 8 8 (32768)
I0402 14:25:43.868885 20661 net.cpp:165] Memory required for data: 1371930816
I0402 14:25:43.868891 20661 layer_factory.hpp:77] Creating layer conv8_1
I0402 14:25:43.868906 20661 net.cpp:100] Creating Layer conv8_1
I0402 14:25:43.868914 20661 net.cpp:434] conv8_1 <- conv7_2_conv7_2_relu_0_split_0
I0402 14:25:43.868922 20661 net.cpp:408] conv8_1 -> conv8_1
I0402 14:25:43.870326 20661 net.cpp:150] Setting up conv8_1
I0402 14:25:43.870342 20661 net.cpp:157] Top shape: 2 128 8 8 (16384)
I0402 14:25:43.870358 20661 net.cpp:165] Memory required for data: 1371996352
I0402 14:25:43.870367 20661 layer_factory.hpp:77] Creating layer conv8_1_relu
I0402 14:25:43.870374 20661 net.cpp:100] Creating Layer conv8_1_relu
I0402 14:25:43.870380 20661 net.cpp:434] conv8_1_relu <- conv8_1
I0402 14:25:43.870386 20661 net.cpp:395] conv8_1_relu -> conv8_1 (in-place)
I0402 14:25:43.870575 20661 net.cpp:150] Setting up conv8_1_relu
I0402 14:25:43.870587 20661 net.cpp:157] Top shape: 2 128 8 8 (16384)
I0402 14:25:43.870592 20661 net.cpp:165] Memory required for data: 1372061888
I0402 14:25:43.870597 20661 layer_factory.hpp:77] Creating layer conv8_2
I0402 14:25:43.870609 20661 net.cpp:100] Creating Layer conv8_2
I0402 14:25:43.870617 20661 net.cpp:434] conv8_2 <- conv8_1
I0402 14:25:43.870627 20661 net.cpp:408] conv8_2 -> conv8_2
I0402 14:25:43.874280 20661 net.cpp:150] Setting up conv8_2
I0402 14:25:43.874308 20661 net.cpp:157] Top shape: 2 256 6 6 (18432)
I0402 14:25:43.874313 20661 net.cpp:165] Memory required for data: 1372135616
I0402 14:25:43.874321 20661 layer_factory.hpp:77] Creating layer conv8_2_relu
I0402 14:25:43.874330 20661 net.cpp:100] Creating Layer conv8_2_relu
I0402 14:25:43.874336 20661 net.cpp:434] conv8_2_relu <- conv8_2
I0402 14:25:43.874342 20661 net.cpp:395] conv8_2_relu -> conv8_2 (in-place)
I0402 14:25:43.874533 20661 net.cpp:150] Setting up conv8_2_relu
I0402 14:25:43.874546 20661 net.cpp:157] Top shape: 2 256 6 6 (18432)
I0402 14:25:43.874552 20661 net.cpp:165] Memory required for data: 1372209344
I0402 14:25:43.874557 20661 layer_factory.hpp:77] Creating layer conv8_2_conv8_2_relu_0_split
I0402 14:25:43.874563 20661 net.cpp:100] Creating Layer conv8_2_conv8_2_relu_0_split
I0402 14:25:43.874568 20661 net.cpp:434] conv8_2_conv8_2_relu_0_split <- conv8_2
I0402 14:25:43.874577 20661 net.cpp:408] conv8_2_conv8_2_relu_0_split -> conv8_2_conv8_2_relu_0_split_0
I0402 14:25:43.874588 20661 net.cpp:408] conv8_2_conv8_2_relu_0_split -> conv8_2_conv8_2_relu_0_split_1
I0402 14:25:43.874595 20661 net.cpp:408] conv8_2_conv8_2_relu_0_split -> conv8_2_conv8_2_relu_0_split_2
I0402 14:25:43.874603 20661 net.cpp:408] conv8_2_conv8_2_relu_0_split -> conv8_2_conv8_2_relu_0_split_3
I0402 14:25:43.874610 20661 net.cpp:408] conv8_2_conv8_2_relu_0_split -> conv8_2_conv8_2_relu_0_split_4
I0402 14:25:43.874728 20661 net.cpp:150] Setting up conv8_2_conv8_2_relu_0_split
I0402 14:25:43.874738 20661 net.cpp:157] Top shape: 2 256 6 6 (18432)
I0402 14:25:43.874744 20661 net.cpp:157] Top shape: 2 256 6 6 (18432)
I0402 14:25:43.874749 20661 net.cpp:157] Top shape: 2 256 6 6 (18432)
I0402 14:25:43.874754 20661 net.cpp:157] Top shape: 2 256 6 6 (18432)
I0402 14:25:43.874769 20661 net.cpp:157] Top shape: 2 256 6 6 (18432)
I0402 14:25:43.874774 20661 net.cpp:165] Memory required for data: 1372577984
I0402 14:25:43.874778 20661 layer_factory.hpp:77] Creating layer conv9_1
I0402 14:25:43.874790 20661 net.cpp:100] Creating Layer conv9_1
I0402 14:25:43.874799 20661 net.cpp:434] conv9_1 <- conv8_2_conv8_2_relu_0_split_0
I0402 14:25:43.874809 20661 net.cpp:408] conv9_1 -> conv9_1
I0402 14:25:43.876219 20661 net.cpp:150] Setting up conv9_1
I0402 14:25:43.876245 20661 net.cpp:157] Top shape: 2 128 6 6 (9216)
I0402 14:25:43.876251 20661 net.cpp:165] Memory required for data: 1372614848
I0402 14:25:43.876258 20661 layer_factory.hpp:77] Creating layer conv9_1_relu
I0402 14:25:43.876266 20661 net.cpp:100] Creating Layer conv9_1_relu
I0402 14:25:43.876271 20661 net.cpp:434] conv9_1_relu <- conv9_1
I0402 14:25:43.876281 20661 net.cpp:395] conv9_1_relu -> conv9_1 (in-place)
I0402 14:25:43.876626 20661 net.cpp:150] Setting up conv9_1_relu
I0402 14:25:43.876639 20661 net.cpp:157] Top shape: 2 128 6 6 (9216)
I0402 14:25:43.876657 20661 net.cpp:165] Memory required for data: 1372651712
I0402 14:25:43.876662 20661 layer_factory.hpp:77] Creating layer conv9_2
I0402 14:25:43.876677 20661 net.cpp:100] Creating Layer conv9_2
I0402 14:25:43.876682 20661 net.cpp:434] conv9_2 <- conv9_1
I0402 14:25:43.876689 20661 net.cpp:408] conv9_2 -> conv9_2
I0402 14:25:43.880425 20661 net.cpp:150] Setting up conv9_2
I0402 14:25:43.880453 20661 net.cpp:157] Top shape: 2 256 4 4 (8192)
I0402 14:25:43.880460 20661 net.cpp:165] Memory required for data: 1372684480
I0402 14:25:43.880466 20661 layer_factory.hpp:77] Creating layer conv9_2_relu
I0402 14:25:43.880475 20661 net.cpp:100] Creating Layer conv9_2_relu
I0402 14:25:43.880481 20661 net.cpp:434] conv9_2_relu <- conv9_2
I0402 14:25:43.880486 20661 net.cpp:395] conv9_2_relu -> conv9_2 (in-place)
I0402 14:25:43.880666 20661 net.cpp:150] Setting up conv9_2_relu
I0402 14:25:43.880679 20661 net.cpp:157] Top shape: 2 256 4 4 (8192)
I0402 14:25:43.880684 20661 net.cpp:165] Memory required for data: 1372717248
I0402 14:25:43.880689 20661 layer_factory.hpp:77] Creating layer conv9_2_conv9_2_relu_0_split
I0402 14:25:43.880697 20661 net.cpp:100] Creating Layer conv9_2_conv9_2_relu_0_split
I0402 14:25:43.880703 20661 net.cpp:434] conv9_2_conv9_2_relu_0_split <- conv9_2
I0402 14:25:43.880709 20661 net.cpp:408] conv9_2_conv9_2_relu_0_split -> conv9_2_conv9_2_relu_0_split_0
I0402 14:25:43.880717 20661 net.cpp:408] conv9_2_conv9_2_relu_0_split -> conv9_2_conv9_2_relu_0_split_1
I0402 14:25:43.880725 20661 net.cpp:408] conv9_2_conv9_2_relu_0_split -> conv9_2_conv9_2_relu_0_split_2
I0402 14:25:43.880733 20661 net.cpp:408] conv9_2_conv9_2_relu_0_split -> conv9_2_conv9_2_relu_0_split_3
I0402 14:25:43.880833 20661 net.cpp:150] Setting up conv9_2_conv9_2_relu_0_split
I0402 14:25:43.880844 20661 net.cpp:157] Top shape: 2 256 4 4 (8192)
I0402 14:25:43.880849 20661 net.cpp:157] Top shape: 2 256 4 4 (8192)
I0402 14:25:43.880854 20661 net.cpp:157] Top shape: 2 256 4 4 (8192)
I0402 14:25:43.880859 20661 net.cpp:157] Top shape: 2 256 4 4 (8192)
I0402 14:25:43.880863 20661 net.cpp:165] Memory required for data: 1372848320
I0402 14:25:43.880868 20661 layer_factory.hpp:77] Creating layer conv4_3_norm
I0402 14:25:43.880877 20661 net.cpp:100] Creating Layer conv4_3_norm
I0402 14:25:43.880884 20661 net.cpp:434] conv4_3_norm <- conv4_3_relu4_3_0_split_1
I0402 14:25:43.880892 20661 net.cpp:408] conv4_3_norm -> conv4_3_norm
I0402 14:25:43.881115 20661 net.cpp:150] Setting up conv4_3_norm
I0402 14:25:43.881125 20661 net.cpp:157] Top shape: 2 512 64 64 (4194304)
I0402 14:25:43.881130 20661 net.cpp:165] Memory required for data: 1389625536
I0402 14:25:43.881136 20661 layer_factory.hpp:77] Creating layer conv4_3_norm_conv4_3_norm_0_split
I0402 14:25:43.881144 20661 net.cpp:100] Creating Layer conv4_3_norm_conv4_3_norm_0_split
I0402 14:25:43.881151 20661 net.cpp:434] conv4_3_norm_conv4_3_norm_0_split <- conv4_3_norm
I0402 14:25:43.881157 20661 net.cpp:408] conv4_3_norm_conv4_3_norm_0_split -> conv4_3_norm_conv4_3_norm_0_split_0
I0402 14:25:43.881183 20661 net.cpp:408] conv4_3_norm_conv4_3_norm_0_split -> conv4_3_norm_conv4_3_norm_0_split_1
I0402 14:25:43.881193 20661 net.cpp:408] conv4_3_norm_conv4_3_norm_0_split -> conv4_3_norm_conv4_3_norm_0_split_2
I0402 14:25:43.881201 20661 net.cpp:408] conv4_3_norm_conv4_3_norm_0_split -> conv4_3_norm_conv4_3_norm_0_split_3
I0402 14:25:43.881290 20661 net.cpp:150] Setting up conv4_3_norm_conv4_3_norm_0_split
I0402 14:25:43.881301 20661 net.cpp:157] Top shape: 2 512 64 64 (4194304)
I0402 14:25:43.881306 20661 net.cpp:157] Top shape: 2 512 64 64 (4194304)
I0402 14:25:43.881311 20661 net.cpp:157] Top shape: 2 512 64 64 (4194304)
I0402 14:25:43.881316 20661 net.cpp:157] Top shape: 2 512 64 64 (4194304)
I0402 14:25:43.881321 20661 net.cpp:165] Memory required for data: 1456734400
I0402 14:25:43.881326 20661 layer_factory.hpp:77] Creating layer conv4_3_norm_mbox_loc
I0402 14:25:43.881336 20661 net.cpp:100] Creating Layer conv4_3_norm_mbox_loc
I0402 14:25:43.881343 20661 net.cpp:434] conv4_3_norm_mbox_loc <- conv4_3_norm_conv4_3_norm_0_split_0
I0402 14:25:43.881353 20661 net.cpp:408] conv4_3_norm_mbox_loc -> conv4_3_norm_mbox_loc
I0402 14:25:43.883167 20661 net.cpp:150] Setting up conv4_3_norm_mbox_loc
I0402 14:25:43.883193 20661 net.cpp:157] Top shape: 2 16 64 64 (131072)
I0402 14:25:43.883198 20661 net.cpp:165] Memory required for data: 1457258688
I0402 14:25:43.883208 20661 layer_factory.hpp:77] Creating layer conv4_3_norm_mbox_loc_perm
I0402 14:25:43.883219 20661 net.cpp:100] Creating Layer conv4_3_norm_mbox_loc_perm
I0402 14:25:43.883225 20661 net.cpp:434] conv4_3_norm_mbox_loc_perm <- conv4_3_norm_mbox_loc
I0402 14:25:43.883232 20661 net.cpp:408] conv4_3_norm_mbox_loc_perm -> conv4_3_norm_mbox_loc_perm
I0402 14:25:43.883394 20661 net.cpp:150] Setting up conv4_3_norm_mbox_loc_perm
I0402 14:25:43.883402 20661 net.cpp:157] Top shape: 2 64 64 16 (131072)
I0402 14:25:43.883409 20661 net.cpp:165] Memory required for data: 1457782976
I0402 14:25:43.883414 20661 layer_factory.hpp:77] Creating layer conv4_3_norm_mbox_loc_flat
I0402 14:25:43.883421 20661 net.cpp:100] Creating Layer conv4_3_norm_mbox_loc_flat
I0402 14:25:43.883430 20661 net.cpp:434] conv4_3_norm_mbox_loc_flat <- conv4_3_norm_mbox_loc_perm
I0402 14:25:43.883436 20661 net.cpp:408] conv4_3_norm_mbox_loc_flat -> conv4_3_norm_mbox_loc_flat
I0402 14:25:43.883471 20661 net.cpp:150] Setting up conv4_3_norm_mbox_loc_flat
I0402 14:25:43.883481 20661 net.cpp:157] Top shape: 2 65536 (131072)
I0402 14:25:43.883486 20661 net.cpp:165] Memory required for data: 1458307264
I0402 14:25:43.883491 20661 layer_factory.hpp:77] Creating layer conv4_3_norm_mbox_conf
I0402 14:25:43.883509 20661 net.cpp:100] Creating Layer conv4_3_norm_mbox_conf
I0402 14:25:43.883517 20661 net.cpp:434] conv4_3_norm_mbox_conf <- conv4_3_norm_conv4_3_norm_0_split_1
I0402 14:25:43.883525 20661 net.cpp:408] conv4_3_norm_mbox_conf -> conv4_3_norm_mbox_conf
I0402 14:25:43.888100 20661 net.cpp:150] Setting up conv4_3_norm_mbox_conf
I0402 14:25:43.888120 20661 net.cpp:157] Top shape: 2 8 64 64 (65536)
I0402 14:25:43.888137 20661 net.cpp:165] Memory required for data: 1458569408
I0402 14:25:43.888149 20661 layer_factory.hpp:77] Creating layer conv4_3_norm_mbox_conf_perm
I0402 14:25:43.888161 20661 net.cpp:100] Creating Layer conv4_3_norm_mbox_conf_perm
I0402 14:25:43.888169 20661 net.cpp:434] conv4_3_norm_mbox_conf_perm <- conv4_3_norm_mbox_conf
I0402 14:25:43.888175 20661 net.cpp:408] conv4_3_norm_mbox_conf_perm -> conv4_3_norm_mbox_conf_perm
I0402 14:25:43.888355 20661 net.cpp:150] Setting up conv4_3_norm_mbox_conf_perm
I0402 14:25:43.888365 20661 net.cpp:157] Top shape: 2 64 64 8 (65536)
I0402 14:25:43.888370 20661 net.cpp:165] Memory required for data: 1458831552
I0402 14:25:43.888375 20661 layer_factory.hpp:77] Creating layer conv4_3_norm_mbox_conf_flat
I0402 14:25:43.888386 20661 net.cpp:100] Creating Layer conv4_3_norm_mbox_conf_flat
I0402 14:25:43.888391 20661 net.cpp:434] conv4_3_norm_mbox_conf_flat <- conv4_3_norm_mbox_conf_perm
I0402 14:25:43.888402 20661 net.cpp:408] conv4_3_norm_mbox_conf_flat -> conv4_3_norm_mbox_conf_flat
I0402 14:25:43.888455 20661 net.cpp:150] Setting up conv4_3_norm_mbox_conf_flat
I0402 14:25:43.888466 20661 net.cpp:157] Top shape: 2 32768 (65536)
I0402 14:25:43.888471 20661 net.cpp:165] Memory required for data: 1459093696
I0402 14:25:43.888476 20661 layer_factory.hpp:77] Creating layer conv4_3_norm_mbox_clean
I0402 14:25:43.888490 20661 net.cpp:100] Creating Layer conv4_3_norm_mbox_clean
I0402 14:25:43.888499 20661 net.cpp:434] conv4_3_norm_mbox_clean <- conv4_3_norm_conv4_3_norm_0_split_2
I0402 14:25:43.888509 20661 net.cpp:408] conv4_3_norm_mbox_clean -> conv4_3_norm_mbox_clean
I0402 14:25:43.890110 20661 net.cpp:150] Setting up conv4_3_norm_mbox_clean
I0402 14:25:43.890125 20661 net.cpp:157] Top shape: 2 4 64 64 (32768)
I0402 14:25:43.890130 20661 net.cpp:165] Memory required for data: 1459224768
I0402 14:25:43.890139 20661 layer_factory.hpp:77] Creating layer conv4_3_norm_mbox_clean_perm
I0402 14:25:43.890151 20661 net.cpp:100] Creating Layer conv4_3_norm_mbox_clean_perm
I0402 14:25:43.890159 20661 net.cpp:434] conv4_3_norm_mbox_clean_perm <- conv4_3_norm_mbox_clean
I0402 14:25:43.890166 20661 net.cpp:408] conv4_3_norm_mbox_clean_perm -> conv4_3_norm_mbox_clean_perm
I0402 14:25:43.890323 20661 net.cpp:150] Setting up conv4_3_norm_mbox_clean_perm
I0402 14:25:43.890332 20661 net.cpp:157] Top shape: 2 64 64 4 (32768)
I0402 14:25:43.890338 20661 net.cpp:165] Memory required for data: 1459355840
I0402 14:25:43.890343 20661 layer_factory.hpp:77] Creating layer conv4_3_norm_mbox_clean_flat
I0402 14:25:43.890352 20661 net.cpp:100] Creating Layer conv4_3_norm_mbox_clean_flat
I0402 14:25:43.890357 20661 net.cpp:434] conv4_3_norm_mbox_clean_flat <- conv4_3_norm_mbox_clean_perm
I0402 14:25:43.890364 20661 net.cpp:408] conv4_3_norm_mbox_clean_flat -> conv4_3_norm_mbox_clean_flat
I0402 14:25:43.890403 20661 net.cpp:150] Setting up conv4_3_norm_mbox_clean_flat
I0402 14:25:43.890413 20661 net.cpp:157] Top shape: 2 16384 (32768)
I0402 14:25:43.890417 20661 net.cpp:165] Memory required for data: 1459486912
I0402 14:25:43.890422 20661 layer_factory.hpp:77] Creating layer conv4_3_norm_mbox_priorbox
I0402 14:25:43.890431 20661 net.cpp:100] Creating Layer conv4_3_norm_mbox_priorbox
I0402 14:25:43.890437 20661 net.cpp:434] conv4_3_norm_mbox_priorbox <- conv4_3_norm_conv4_3_norm_0_split_3
I0402 14:25:43.890444 20661 net.cpp:434] conv4_3_norm_mbox_priorbox <- data_data_0_split_1
I0402 14:25:43.890451 20661 net.cpp:408] conv4_3_norm_mbox_priorbox -> conv4_3_norm_mbox_priorbox
I0402 14:25:43.890493 20661 net.cpp:150] Setting up conv4_3_norm_mbox_priorbox
I0402 14:25:43.890503 20661 net.cpp:157] Top shape: 1 2 65536 (131072)
I0402 14:25:43.890507 20661 net.cpp:165] Memory required for data: 1460011200
I0402 14:25:43.890512 20661 layer_factory.hpp:77] Creating layer fc7_mbox_loc
I0402 14:25:43.890525 20661 net.cpp:100] Creating Layer fc7_mbox_loc
I0402 14:25:43.890534 20661 net.cpp:434] fc7_mbox_loc <- fc7_relu7_0_split_1
I0402 14:25:43.890543 20661 net.cpp:408] fc7_mbox_loc -> fc7_mbox_loc
I0402 14:25:43.893815 20661 net.cpp:150] Setting up fc7_mbox_loc
I0402 14:25:43.893832 20661 net.cpp:157] Top shape: 2 24 32 32 (49152)
I0402 14:25:43.893837 20661 net.cpp:165] Memory required for data: 1460207808
I0402 14:25:43.893846 20661 layer_factory.hpp:77] Creating layer fc7_mbox_loc_perm
I0402 14:25:43.893858 20661 net.cpp:100] Creating Layer fc7_mbox_loc_perm
I0402 14:25:43.893867 20661 net.cpp:434] fc7_mbox_loc_perm <- fc7_mbox_loc
I0402 14:25:43.893874 20661 net.cpp:408] fc7_mbox_loc_perm -> fc7_mbox_loc_perm
I0402 14:25:43.894032 20661 net.cpp:150] Setting up fc7_mbox_loc_perm
I0402 14:25:43.894043 20661 net.cpp:157] Top shape: 2 32 32 24 (49152)
I0402 14:25:43.894048 20661 net.cpp:165] Memory required for data: 1460404416
I0402 14:25:43.894053 20661 layer_factory.hpp:77] Creating layer fc7_mbox_loc_flat
I0402 14:25:43.894062 20661 net.cpp:100] Creating Layer fc7_mbox_loc_flat
I0402 14:25:43.894067 20661 net.cpp:434] fc7_mbox_loc_flat <- fc7_mbox_loc_perm
I0402 14:25:43.894073 20661 net.cpp:408] fc7_mbox_loc_flat -> fc7_mbox_loc_flat
I0402 14:25:43.894126 20661 net.cpp:150] Setting up fc7_mbox_loc_flat
I0402 14:25:43.894136 20661 net.cpp:157] Top shape: 2 24576 (49152)
I0402 14:25:43.894141 20661 net.cpp:165] Memory required for data: 1460601024
I0402 14:25:43.894146 20661 layer_factory.hpp:77] Creating layer fc7_mbox_conf
I0402 14:25:43.894158 20661 net.cpp:100] Creating Layer fc7_mbox_conf
I0402 14:25:43.894166 20661 net.cpp:434] fc7_mbox_conf <- fc7_relu7_0_split_2
I0402 14:25:43.894178 20661 net.cpp:408] fc7_mbox_conf -> fc7_mbox_conf
I0402 14:25:43.896831 20661 net.cpp:150] Setting up fc7_mbox_conf
I0402 14:25:43.896847 20661 net.cpp:157] Top shape: 2 12 32 32 (24576)
I0402 14:25:43.896853 20661 net.cpp:165] Memory required for data: 1460699328
I0402 14:25:43.896864 20661 layer_factory.hpp:77] Creating layer fc7_mbox_conf_perm
I0402 14:25:43.896875 20661 net.cpp:100] Creating Layer fc7_mbox_conf_perm
I0402 14:25:43.896881 20661 net.cpp:434] fc7_mbox_conf_perm <- fc7_mbox_conf
I0402 14:25:43.896890 20661 net.cpp:408] fc7_mbox_conf_perm -> fc7_mbox_conf_perm
I0402 14:25:43.897049 20661 net.cpp:150] Setting up fc7_mbox_conf_perm
I0402 14:25:43.897061 20661 net.cpp:157] Top shape: 2 32 32 12 (24576)
I0402 14:25:43.897066 20661 net.cpp:165] Memory required for data: 1460797632
I0402 14:25:43.897071 20661 layer_factory.hpp:77] Creating layer fc7_mbox_conf_flat
I0402 14:25:43.897081 20661 net.cpp:100] Creating Layer fc7_mbox_conf_flat
I0402 14:25:43.897086 20661 net.cpp:434] fc7_mbox_conf_flat <- fc7_mbox_conf_perm
I0402 14:25:43.897094 20661 net.cpp:408] fc7_mbox_conf_flat -> fc7_mbox_conf_flat
I0402 14:25:43.897130 20661 net.cpp:150] Setting up fc7_mbox_conf_flat
I0402 14:25:43.897140 20661 net.cpp:157] Top shape: 2 12288 (24576)
I0402 14:25:43.897145 20661 net.cpp:165] Memory required for data: 1460895936
I0402 14:25:43.897150 20661 layer_factory.hpp:77] Creating layer fc7_mbox_clean
I0402 14:25:43.897162 20661 net.cpp:100] Creating Layer fc7_mbox_clean
I0402 14:25:43.897171 20661 net.cpp:434] fc7_mbox_clean <- fc7_relu7_0_split_3
I0402 14:25:43.897181 20661 net.cpp:408] fc7_mbox_clean -> fc7_mbox_clean
I0402 14:25:43.898921 20661 net.cpp:150] Setting up fc7_mbox_clean
I0402 14:25:43.898937 20661 net.cpp:157] Top shape: 2 6 32 32 (12288)
I0402 14:25:43.898943 20661 net.cpp:165] Memory required for data: 1460945088
I0402 14:25:43.898952 20661 layer_factory.hpp:77] Creating layer fc7_mbox_clean_perm
I0402 14:25:43.898967 20661 net.cpp:100] Creating Layer fc7_mbox_clean_perm
I0402 14:25:43.898974 20661 net.cpp:434] fc7_mbox_clean_perm <- fc7_mbox_clean
I0402 14:25:43.898983 20661 net.cpp:408] fc7_mbox_clean_perm -> fc7_mbox_clean_perm
I0402 14:25:43.899142 20661 net.cpp:150] Setting up fc7_mbox_clean_perm
I0402 14:25:43.899152 20661 net.cpp:157] Top shape: 2 32 32 6 (12288)
I0402 14:25:43.899158 20661 net.cpp:165] Memory required for data: 1460994240
I0402 14:25:43.899163 20661 layer_factory.hpp:77] Creating layer fc7_mbox_clean_flat
I0402 14:25:43.899173 20661 net.cpp:100] Creating Layer fc7_mbox_clean_flat
I0402 14:25:43.899181 20661 net.cpp:434] fc7_mbox_clean_flat <- fc7_mbox_clean_perm
I0402 14:25:43.899188 20661 net.cpp:408] fc7_mbox_clean_flat -> fc7_mbox_clean_flat
I0402 14:25:43.899224 20661 net.cpp:150] Setting up fc7_mbox_clean_flat
I0402 14:25:43.899235 20661 net.cpp:157] Top shape: 2 6144 (12288)
I0402 14:25:43.899240 20661 net.cpp:165] Memory required for data: 1461043392
I0402 14:25:43.899245 20661 layer_factory.hpp:77] Creating layer fc7_mbox_priorbox
I0402 14:25:43.899255 20661 net.cpp:100] Creating Layer fc7_mbox_priorbox
I0402 14:25:43.899261 20661 net.cpp:434] fc7_mbox_priorbox <- fc7_relu7_0_split_4
I0402 14:25:43.899267 20661 net.cpp:434] fc7_mbox_priorbox <- data_data_0_split_2
I0402 14:25:43.899276 20661 net.cpp:408] fc7_mbox_priorbox -> fc7_mbox_priorbox
I0402 14:25:43.899314 20661 net.cpp:150] Setting up fc7_mbox_priorbox
I0402 14:25:43.899324 20661 net.cpp:157] Top shape: 1 2 24576 (49152)
I0402 14:25:43.899328 20661 net.cpp:165] Memory required for data: 1461240000
I0402 14:25:43.899345 20661 layer_factory.hpp:77] Creating layer conv6_2_mbox_loc
I0402 14:25:43.899363 20661 net.cpp:100] Creating Layer conv6_2_mbox_loc
I0402 14:25:43.899370 20661 net.cpp:434] conv6_2_mbox_loc <- conv6_2_conv6_2_relu_0_split_1
I0402 14:25:43.899379 20661 net.cpp:408] conv6_2_mbox_loc -> conv6_2_mbox_loc
I0402 14:25:43.901505 20661 net.cpp:150] Setting up conv6_2_mbox_loc
I0402 14:25:43.901522 20661 net.cpp:157] Top shape: 2 24 16 16 (12288)
I0402 14:25:43.901528 20661 net.cpp:165] Memory required for data: 1461289152
I0402 14:25:43.901538 20661 layer_factory.hpp:77] Creating layer conv6_2_mbox_loc_perm
I0402 14:25:43.901548 20661 net.cpp:100] Creating Layer conv6_2_mbox_loc_perm
I0402 14:25:43.901557 20661 net.cpp:434] conv6_2_mbox_loc_perm <- conv6_2_mbox_loc
I0402 14:25:43.901566 20661 net.cpp:408] conv6_2_mbox_loc_perm -> conv6_2_mbox_loc_perm
I0402 14:25:43.901743 20661 net.cpp:150] Setting up conv6_2_mbox_loc_perm
I0402 14:25:43.901753 20661 net.cpp:157] Top shape: 2 16 16 24 (12288)
I0402 14:25:43.901758 20661 net.cpp:165] Memory required for data: 1461338304
I0402 14:25:43.901763 20661 layer_factory.hpp:77] Creating layer conv6_2_mbox_loc_flat
I0402 14:25:43.901773 20661 net.cpp:100] Creating Layer conv6_2_mbox_loc_flat
I0402 14:25:43.901780 20661 net.cpp:434] conv6_2_mbox_loc_flat <- conv6_2_mbox_loc_perm
I0402 14:25:43.901787 20661 net.cpp:408] conv6_2_mbox_loc_flat -> conv6_2_mbox_loc_flat
I0402 14:25:43.901825 20661 net.cpp:150] Setting up conv6_2_mbox_loc_flat
I0402 14:25:43.901835 20661 net.cpp:157] Top shape: 2 6144 (12288)
I0402 14:25:43.901839 20661 net.cpp:165] Memory required for data: 1461387456
I0402 14:25:43.901844 20661 layer_factory.hpp:77] Creating layer conv6_2_mbox_conf
I0402 14:25:43.901859 20661 net.cpp:100] Creating Layer conv6_2_mbox_conf
I0402 14:25:43.901867 20661 net.cpp:434] conv6_2_mbox_conf <- conv6_2_conv6_2_relu_0_split_2
I0402 14:25:43.901875 20661 net.cpp:408] conv6_2_mbox_conf -> conv6_2_mbox_conf
I0402 14:25:43.903638 20661 net.cpp:150] Setting up conv6_2_mbox_conf
I0402 14:25:43.903654 20661 net.cpp:157] Top shape: 2 12 16 16 (6144)
I0402 14:25:43.903659 20661 net.cpp:165] Memory required for data: 1461412032
I0402 14:25:43.903667 20661 layer_factory.hpp:77] Creating layer conv6_2_mbox_conf_perm
I0402 14:25:43.903681 20661 net.cpp:100] Creating Layer conv6_2_mbox_conf_perm
I0402 14:25:43.903688 20661 net.cpp:434] conv6_2_mbox_conf_perm <- conv6_2_mbox_conf
I0402 14:25:43.903695 20661 net.cpp:408] conv6_2_mbox_conf_perm -> conv6_2_mbox_conf_perm
I0402 14:25:43.903853 20661 net.cpp:150] Setting up conv6_2_mbox_conf_perm
I0402 14:25:43.903862 20661 net.cpp:157] Top shape: 2 16 16 12 (6144)
I0402 14:25:43.903867 20661 net.cpp:165] Memory required for data: 1461436608
I0402 14:25:43.903872 20661 layer_factory.hpp:77] Creating layer conv6_2_mbox_conf_flat
I0402 14:25:43.903882 20661 net.cpp:100] Creating Layer conv6_2_mbox_conf_flat
I0402 14:25:43.903887 20661 net.cpp:434] conv6_2_mbox_conf_flat <- conv6_2_mbox_conf_perm
I0402 14:25:43.903894 20661 net.cpp:408] conv6_2_mbox_conf_flat -> conv6_2_mbox_conf_flat
I0402 14:25:43.903934 20661 net.cpp:150] Setting up conv6_2_mbox_conf_flat
I0402 14:25:43.903944 20661 net.cpp:157] Top shape: 2 3072 (6144)
I0402 14:25:43.903947 20661 net.cpp:165] Memory required for data: 1461461184
I0402 14:25:43.903952 20661 layer_factory.hpp:77] Creating layer conv6_2_mbox_clean
I0402 14:25:43.903964 20661 net.cpp:100] Creating Layer conv6_2_mbox_clean
I0402 14:25:43.903973 20661 net.cpp:434] conv6_2_mbox_clean <- conv6_2_conv6_2_relu_0_split_3
I0402 14:25:43.903982 20661 net.cpp:408] conv6_2_mbox_clean -> conv6_2_mbox_clean
I0402 14:25:43.905412 20661 net.cpp:150] Setting up conv6_2_mbox_clean
I0402 14:25:43.905426 20661 net.cpp:157] Top shape: 2 6 16 16 (3072)
I0402 14:25:43.905443 20661 net.cpp:165] Memory required for data: 1461473472
I0402 14:25:43.905465 20661 layer_factory.hpp:77] Creating layer conv6_2_mbox_clean_perm
I0402 14:25:43.905477 20661 net.cpp:100] Creating Layer conv6_2_mbox_clean_perm
I0402 14:25:43.905483 20661 net.cpp:434] conv6_2_mbox_clean_perm <- conv6_2_mbox_clean
I0402 14:25:43.905501 20661 net.cpp:408] conv6_2_mbox_clean_perm -> conv6_2_mbox_clean_perm
I0402 14:25:43.905668 20661 net.cpp:150] Setting up conv6_2_mbox_clean_perm
I0402 14:25:43.905678 20661 net.cpp:157] Top shape: 2 16 16 6 (3072)
I0402 14:25:43.905683 20661 net.cpp:165] Memory required for data: 1461485760
I0402 14:25:43.905688 20661 layer_factory.hpp:77] Creating layer conv6_2_mbox_clean_flat
I0402 14:25:43.905699 20661 net.cpp:100] Creating Layer conv6_2_mbox_clean_flat
I0402 14:25:43.905706 20661 net.cpp:434] conv6_2_mbox_clean_flat <- conv6_2_mbox_clean_perm
I0402 14:25:43.905714 20661 net.cpp:408] conv6_2_mbox_clean_flat -> conv6_2_mbox_clean_flat
I0402 14:25:43.905753 20661 net.cpp:150] Setting up conv6_2_mbox_clean_flat
I0402 14:25:43.905763 20661 net.cpp:157] Top shape: 2 1536 (3072)
I0402 14:25:43.905768 20661 net.cpp:165] Memory required for data: 1461498048
I0402 14:25:43.905773 20661 layer_factory.hpp:77] Creating layer conv6_2_mbox_priorbox
I0402 14:25:43.905781 20661 net.cpp:100] Creating Layer conv6_2_mbox_priorbox
I0402 14:25:43.905786 20661 net.cpp:434] conv6_2_mbox_priorbox <- conv6_2_conv6_2_relu_0_split_4
I0402 14:25:43.905793 20661 net.cpp:434] conv6_2_mbox_priorbox <- data_data_0_split_3
I0402 14:25:43.905803 20661 net.cpp:408] conv6_2_mbox_priorbox -> conv6_2_mbox_priorbox
I0402 14:25:43.905845 20661 net.cpp:150] Setting up conv6_2_mbox_priorbox
I0402 14:25:43.905855 20661 net.cpp:157] Top shape: 1 2 6144 (12288)
I0402 14:25:43.905859 20661 net.cpp:165] Memory required for data: 1461547200
I0402 14:25:43.905864 20661 layer_factory.hpp:77] Creating layer conv7_2_mbox_loc
I0402 14:25:43.905880 20661 net.cpp:100] Creating Layer conv7_2_mbox_loc
I0402 14:25:43.905889 20661 net.cpp:434] conv7_2_mbox_loc <- conv7_2_conv7_2_relu_0_split_1
I0402 14:25:43.905897 20661 net.cpp:408] conv7_2_mbox_loc -> conv7_2_mbox_loc
I0402 14:25:43.907678 20661 net.cpp:150] Setting up conv7_2_mbox_loc
I0402 14:25:43.907694 20661 net.cpp:157] Top shape: 2 24 8 8 (3072)
I0402 14:25:43.907699 20661 net.cpp:165] Memory required for data: 1461559488
I0402 14:25:43.907707 20661 layer_factory.hpp:77] Creating layer conv7_2_mbox_loc_perm
I0402 14:25:43.907724 20661 net.cpp:100] Creating Layer conv7_2_mbox_loc_perm
I0402 14:25:43.907734 20661 net.cpp:434] conv7_2_mbox_loc_perm <- conv7_2_mbox_loc
I0402 14:25:43.907742 20661 net.cpp:408] conv7_2_mbox_loc_perm -> conv7_2_mbox_loc_perm
I0402 14:25:43.907907 20661 net.cpp:150] Setting up conv7_2_mbox_loc_perm
I0402 14:25:43.907917 20661 net.cpp:157] Top shape: 2 8 8 24 (3072)
I0402 14:25:43.907922 20661 net.cpp:165] Memory required for data: 1461571776
I0402 14:25:43.907927 20661 layer_factory.hpp:77] Creating layer conv7_2_mbox_loc_flat
I0402 14:25:43.907935 20661 net.cpp:100] Creating Layer conv7_2_mbox_loc_flat
I0402 14:25:43.907943 20661 net.cpp:434] conv7_2_mbox_loc_flat <- conv7_2_mbox_loc_perm
I0402 14:25:43.907950 20661 net.cpp:408] conv7_2_mbox_loc_flat -> conv7_2_mbox_loc_flat
I0402 14:25:43.907989 20661 net.cpp:150] Setting up conv7_2_mbox_loc_flat
I0402 14:25:43.907999 20661 net.cpp:157] Top shape: 2 1536 (3072)
I0402 14:25:43.908004 20661 net.cpp:165] Memory required for data: 1461584064
I0402 14:25:43.908008 20661 layer_factory.hpp:77] Creating layer conv7_2_mbox_conf
I0402 14:25:43.908021 20661 net.cpp:100] Creating Layer conv7_2_mbox_conf
I0402 14:25:43.908030 20661 net.cpp:434] conv7_2_mbox_conf <- conv7_2_conv7_2_relu_0_split_2
I0402 14:25:43.908041 20661 net.cpp:408] conv7_2_mbox_conf -> conv7_2_mbox_conf
I0402 14:25:43.909652 20661 net.cpp:150] Setting up conv7_2_mbox_conf
I0402 14:25:43.909668 20661 net.cpp:157] Top shape: 2 12 8 8 (1536)
I0402 14:25:43.909673 20661 net.cpp:165] Memory required for data: 1461590208
I0402 14:25:43.909682 20661 layer_factory.hpp:77] Creating layer conv7_2_mbox_conf_perm
I0402 14:25:43.909695 20661 net.cpp:100] Creating Layer conv7_2_mbox_conf_perm
I0402 14:25:43.909704 20661 net.cpp:434] conv7_2_mbox_conf_perm <- conv7_2_mbox_conf
I0402 14:25:43.909713 20661 net.cpp:408] conv7_2_mbox_conf_perm -> conv7_2_mbox_conf_perm
I0402 14:25:43.909885 20661 net.cpp:150] Setting up conv7_2_mbox_conf_perm
I0402 14:25:43.909898 20661 net.cpp:157] Top shape: 2 8 8 12 (1536)
I0402 14:25:43.909904 20661 net.cpp:165] Memory required for data: 1461596352
I0402 14:25:43.909909 20661 layer_factory.hpp:77] Creating layer conv7_2_mbox_conf_flat
I0402 14:25:43.909919 20661 net.cpp:100] Creating Layer conv7_2_mbox_conf_flat
I0402 14:25:43.909926 20661 net.cpp:434] conv7_2_mbox_conf_flat <- conv7_2_mbox_conf_perm
I0402 14:25:43.909934 20661 net.cpp:408] conv7_2_mbox_conf_flat -> conv7_2_mbox_conf_flat
I0402 14:25:43.909973 20661 net.cpp:150] Setting up conv7_2_mbox_conf_flat
I0402 14:25:43.909983 20661 net.cpp:157] Top shape: 2 768 (1536)
I0402 14:25:43.909987 20661 net.cpp:165] Memory required for data: 1461602496
I0402 14:25:43.909992 20661 layer_factory.hpp:77] Creating layer conv7_2_mbox_clean
I0402 14:25:43.910007 20661 net.cpp:100] Creating Layer conv7_2_mbox_clean
I0402 14:25:43.910014 20661 net.cpp:434] conv7_2_mbox_clean <- conv7_2_conv7_2_relu_0_split_3
I0402 14:25:43.910024 20661 net.cpp:408] conv7_2_mbox_clean -> conv7_2_mbox_clean
I0402 14:25:43.911604 20661 net.cpp:150] Setting up conv7_2_mbox_clean
I0402 14:25:43.911620 20661 net.cpp:157] Top shape: 2 6 8 8 (768)
I0402 14:25:43.911626 20661 net.cpp:165] Memory required for data: 1461605568
I0402 14:25:43.911633 20661 layer_factory.hpp:77] Creating layer conv7_2_mbox_clean_perm
I0402 14:25:43.911648 20661 net.cpp:100] Creating Layer conv7_2_mbox_clean_perm
I0402 14:25:43.911655 20661 net.cpp:434] conv7_2_mbox_clean_perm <- conv7_2_mbox_clean
I0402 14:25:43.911664 20661 net.cpp:408] conv7_2_mbox_clean_perm -> conv7_2_mbox_clean_perm
I0402 14:25:43.911829 20661 net.cpp:150] Setting up conv7_2_mbox_clean_perm
I0402 14:25:43.911839 20661 net.cpp:157] Top shape: 2 8 8 6 (768)
I0402 14:25:43.911845 20661 net.cpp:165] Memory required for data: 1461608640
I0402 14:25:43.911850 20661 layer_factory.hpp:77] Creating layer conv7_2_mbox_clean_flat
I0402 14:25:43.911860 20661 net.cpp:100] Creating Layer conv7_2_mbox_clean_flat
I0402 14:25:43.911869 20661 net.cpp:434] conv7_2_mbox_clean_flat <- conv7_2_mbox_clean_perm
I0402 14:25:43.911875 20661 net.cpp:408] conv7_2_mbox_clean_flat -> conv7_2_mbox_clean_flat
I0402 14:25:43.911914 20661 net.cpp:150] Setting up conv7_2_mbox_clean_flat
I0402 14:25:43.911923 20661 net.cpp:157] Top shape: 2 384 (768)
I0402 14:25:43.911927 20661 net.cpp:165] Memory required for data: 1461611712
I0402 14:25:43.911931 20661 layer_factory.hpp:77] Creating layer conv7_2_mbox_priorbox
I0402 14:25:43.911942 20661 net.cpp:100] Creating Layer conv7_2_mbox_priorbox
I0402 14:25:43.911949 20661 net.cpp:434] conv7_2_mbox_priorbox <- conv7_2_conv7_2_relu_0_split_4
I0402 14:25:43.911957 20661 net.cpp:434] conv7_2_mbox_priorbox <- data_data_0_split_4
I0402 14:25:43.911962 20661 net.cpp:408] conv7_2_mbox_priorbox -> conv7_2_mbox_priorbox
I0402 14:25:43.912005 20661 net.cpp:150] Setting up conv7_2_mbox_priorbox
I0402 14:25:43.912014 20661 net.cpp:157] Top shape: 1 2 1536 (3072)
I0402 14:25:43.912019 20661 net.cpp:165] Memory required for data: 1461624000
I0402 14:25:43.912024 20661 layer_factory.hpp:77] Creating layer conv8_2_mbox_loc
I0402 14:25:43.912039 20661 net.cpp:100] Creating Layer conv8_2_mbox_loc
I0402 14:25:43.912046 20661 net.cpp:434] conv8_2_mbox_loc <- conv8_2_conv8_2_relu_0_split_1
I0402 14:25:43.912056 20661 net.cpp:408] conv8_2_mbox_loc -> conv8_2_mbox_loc
I0402 14:25:43.917664 20661 net.cpp:150] Setting up conv8_2_mbox_loc
I0402 14:25:43.917683 20661 net.cpp:157] Top shape: 2 16 6 6 (1152)
I0402 14:25:43.917690 20661 net.cpp:165] Memory required for data: 1461628608
I0402 14:25:43.917698 20661 layer_factory.hpp:77] Creating layer conv8_2_mbox_loc_perm
I0402 14:25:43.917711 20661 net.cpp:100] Creating Layer conv8_2_mbox_loc_perm
I0402 14:25:43.917719 20661 net.cpp:434] conv8_2_mbox_loc_perm <- conv8_2_mbox_loc
I0402 14:25:43.917728 20661 net.cpp:408] conv8_2_mbox_loc_perm -> conv8_2_mbox_loc_perm
I0402 14:25:43.917891 20661 net.cpp:150] Setting up conv8_2_mbox_loc_perm
I0402 14:25:43.917917 20661 net.cpp:157] Top shape: 2 6 6 16 (1152)
I0402 14:25:43.917922 20661 net.cpp:165] Memory required for data: 1461633216
I0402 14:25:43.917927 20661 layer_factory.hpp:77] Creating layer conv8_2_mbox_loc_flat
I0402 14:25:43.917935 20661 net.cpp:100] Creating Layer conv8_2_mbox_loc_flat
I0402 14:25:43.917940 20661 net.cpp:434] conv8_2_mbox_loc_flat <- conv8_2_mbox_loc_perm
I0402 14:25:43.917948 20661 net.cpp:408] conv8_2_mbox_loc_flat -> conv8_2_mbox_loc_flat
I0402 14:25:43.917989 20661 net.cpp:150] Setting up conv8_2_mbox_loc_flat
I0402 14:25:43.917999 20661 net.cpp:157] Top shape: 2 576 (1152)
I0402 14:25:43.918004 20661 net.cpp:165] Memory required for data: 1461637824
I0402 14:25:43.918009 20661 layer_factory.hpp:77] Creating layer conv8_2_mbox_conf
I0402 14:25:43.918023 20661 net.cpp:100] Creating Layer conv8_2_mbox_conf
I0402 14:25:43.918031 20661 net.cpp:434] conv8_2_mbox_conf <- conv8_2_conv8_2_relu_0_split_2
I0402 14:25:43.918041 20661 net.cpp:408] conv8_2_mbox_conf -> conv8_2_mbox_conf
I0402 14:25:43.919550 20661 net.cpp:150] Setting up conv8_2_mbox_conf
I0402 14:25:43.919566 20661 net.cpp:157] Top shape: 2 8 6 6 (576)
I0402 14:25:43.919571 20661 net.cpp:165] Memory required for data: 1461640128
I0402 14:25:43.919610 20661 layer_factory.hpp:77] Creating layer conv8_2_mbox_conf_perm
I0402 14:25:43.919621 20661 net.cpp:100] Creating Layer conv8_2_mbox_conf_perm
I0402 14:25:43.919631 20661 net.cpp:434] conv8_2_mbox_conf_perm <- conv8_2_mbox_conf
I0402 14:25:43.919638 20661 net.cpp:408] conv8_2_mbox_conf_perm -> conv8_2_mbox_conf_perm
I0402 14:25:43.919811 20661 net.cpp:150] Setting up conv8_2_mbox_conf_perm
I0402 14:25:43.919821 20661 net.cpp:157] Top shape: 2 6 6 8 (576)
I0402 14:25:43.919826 20661 net.cpp:165] Memory required for data: 1461642432
I0402 14:25:43.919831 20661 layer_factory.hpp:77] Creating layer conv8_2_mbox_conf_flat
I0402 14:25:43.919843 20661 net.cpp:100] Creating Layer conv8_2_mbox_conf_flat
I0402 14:25:43.919849 20661 net.cpp:434] conv8_2_mbox_conf_flat <- conv8_2_mbox_conf_perm
I0402 14:25:43.919857 20661 net.cpp:408] conv8_2_mbox_conf_flat -> conv8_2_mbox_conf_flat
I0402 14:25:43.919898 20661 net.cpp:150] Setting up conv8_2_mbox_conf_flat
I0402 14:25:43.919906 20661 net.cpp:157] Top shape: 2 288 (576)
I0402 14:25:43.919924 20661 net.cpp:165] Memory required for data: 1461644736
I0402 14:25:43.919929 20661 layer_factory.hpp:77] Creating layer conv8_2_mbox_clean
I0402 14:25:43.919940 20661 net.cpp:100] Creating Layer conv8_2_mbox_clean
I0402 14:25:43.919948 20661 net.cpp:434] conv8_2_mbox_clean <- conv8_2_conv8_2_relu_0_split_3
I0402 14:25:43.919958 20661 net.cpp:408] conv8_2_mbox_clean -> conv8_2_mbox_clean
I0402 14:25:43.921382 20661 net.cpp:150] Setting up conv8_2_mbox_clean
I0402 14:25:43.921398 20661 net.cpp:157] Top shape: 2 4 6 6 (288)
I0402 14:25:43.921414 20661 net.cpp:165] Memory required for data: 1461645888
I0402 14:25:43.921422 20661 layer_factory.hpp:77] Creating layer conv8_2_mbox_clean_perm
I0402 14:25:43.921432 20661 net.cpp:100] Creating Layer conv8_2_mbox_clean_perm
I0402 14:25:43.921438 20661 net.cpp:434] conv8_2_mbox_clean_perm <- conv8_2_mbox_clean
I0402 14:25:43.921445 20661 net.cpp:408] conv8_2_mbox_clean_perm -> conv8_2_mbox_clean_perm
I0402 14:25:43.921609 20661 net.cpp:150] Setting up conv8_2_mbox_clean_perm
I0402 14:25:43.921618 20661 net.cpp:157] Top shape: 2 6 6 4 (288)
I0402 14:25:43.921623 20661 net.cpp:165] Memory required for data: 1461647040
I0402 14:25:43.921627 20661 layer_factory.hpp:77] Creating layer conv8_2_mbox_clean_flat
I0402 14:25:43.921634 20661 net.cpp:100] Creating Layer conv8_2_mbox_clean_flat
I0402 14:25:43.921643 20661 net.cpp:434] conv8_2_mbox_clean_flat <- conv8_2_mbox_clean_perm
I0402 14:25:43.921648 20661 net.cpp:408] conv8_2_mbox_clean_flat -> conv8_2_mbox_clean_flat
I0402 14:25:43.921687 20661 net.cpp:150] Setting up conv8_2_mbox_clean_flat
I0402 14:25:43.921697 20661 net.cpp:157] Top shape: 2 144 (288)
I0402 14:25:43.921701 20661 net.cpp:165] Memory required for data: 1461648192
I0402 14:25:43.921707 20661 layer_factory.hpp:77] Creating layer conv8_2_mbox_priorbox
I0402 14:25:43.921726 20661 net.cpp:100] Creating Layer conv8_2_mbox_priorbox
I0402 14:25:43.921732 20661 net.cpp:434] conv8_2_mbox_priorbox <- conv8_2_conv8_2_relu_0_split_4
I0402 14:25:43.921739 20661 net.cpp:434] conv8_2_mbox_priorbox <- data_data_0_split_5
I0402 14:25:43.921747 20661 net.cpp:408] conv8_2_mbox_priorbox -> conv8_2_mbox_priorbox
I0402 14:25:43.921792 20661 net.cpp:150] Setting up conv8_2_mbox_priorbox
I0402 14:25:43.921802 20661 net.cpp:157] Top shape: 1 2 576 (1152)
I0402 14:25:43.921807 20661 net.cpp:165] Memory required for data: 1461652800
I0402 14:25:43.921811 20661 layer_factory.hpp:77] Creating layer conv9_2_mbox_loc
I0402 14:25:43.921826 20661 net.cpp:100] Creating Layer conv9_2_mbox_loc
I0402 14:25:43.921834 20661 net.cpp:434] conv9_2_mbox_loc <- conv9_2_conv9_2_relu_0_split_0
I0402 14:25:43.921842 20661 net.cpp:408] conv9_2_mbox_loc -> conv9_2_mbox_loc
I0402 14:25:43.923460 20661 net.cpp:150] Setting up conv9_2_mbox_loc
I0402 14:25:43.923478 20661 net.cpp:157] Top shape: 2 16 4 4 (512)
I0402 14:25:43.923483 20661 net.cpp:165] Memory required for data: 1461654848
I0402 14:25:43.923491 20661 layer_factory.hpp:77] Creating layer conv9_2_mbox_loc_perm
I0402 14:25:43.923501 20661 net.cpp:100] Creating Layer conv9_2_mbox_loc_perm
I0402 14:25:43.923507 20661 net.cpp:434] conv9_2_mbox_loc_perm <- conv9_2_mbox_loc
I0402 14:25:43.923514 20661 net.cpp:408] conv9_2_mbox_loc_perm -> conv9_2_mbox_loc_perm
I0402 14:25:43.923740 20661 net.cpp:150] Setting up conv9_2_mbox_loc_perm
I0402 14:25:43.923751 20661 net.cpp:157] Top shape: 2 4 4 16 (512)
I0402 14:25:43.923758 20661 net.cpp:165] Memory required for data: 1461656896
I0402 14:25:43.923763 20661 layer_factory.hpp:77] Creating layer conv9_2_mbox_loc_flat
I0402 14:25:43.923774 20661 net.cpp:100] Creating Layer conv9_2_mbox_loc_flat
I0402 14:25:43.923781 20661 net.cpp:434] conv9_2_mbox_loc_flat <- conv9_2_mbox_loc_perm
I0402 14:25:43.923789 20661 net.cpp:408] conv9_2_mbox_loc_flat -> conv9_2_mbox_loc_flat
I0402 14:25:43.923830 20661 net.cpp:150] Setting up conv9_2_mbox_loc_flat
I0402 14:25:43.923840 20661 net.cpp:157] Top shape: 2 256 (512)
I0402 14:25:43.923846 20661 net.cpp:165] Memory required for data: 1461658944
I0402 14:25:43.923851 20661 layer_factory.hpp:77] Creating layer conv9_2_mbox_conf
I0402 14:25:43.923862 20661 net.cpp:100] Creating Layer conv9_2_mbox_conf
I0402 14:25:43.923871 20661 net.cpp:434] conv9_2_mbox_conf <- conv9_2_conv9_2_relu_0_split_1
I0402 14:25:43.923882 20661 net.cpp:408] conv9_2_mbox_conf -> conv9_2_mbox_conf
I0402 14:25:43.925398 20661 net.cpp:150] Setting up conv9_2_mbox_conf
I0402 14:25:43.925413 20661 net.cpp:157] Top shape: 2 8 4 4 (256)
I0402 14:25:43.925429 20661 net.cpp:165] Memory required for data: 1461659968
I0402 14:25:43.925439 20661 layer_factory.hpp:77] Creating layer conv9_2_mbox_conf_perm
I0402 14:25:43.925447 20661 net.cpp:100] Creating Layer conv9_2_mbox_conf_perm
I0402 14:25:43.925453 20661 net.cpp:434] conv9_2_mbox_conf_perm <- conv9_2_mbox_conf
I0402 14:25:43.925460 20661 net.cpp:408] conv9_2_mbox_conf_perm -> conv9_2_mbox_conf_perm
I0402 14:25:43.925623 20661 net.cpp:150] Setting up conv9_2_mbox_conf_perm
I0402 14:25:43.925633 20661 net.cpp:157] Top shape: 2 4 4 8 (256)
I0402 14:25:43.925638 20661 net.cpp:165] Memory required for data: 1461660992
I0402 14:25:43.925643 20661 layer_factory.hpp:77] Creating layer conv9_2_mbox_conf_flat
I0402 14:25:43.925650 20661 net.cpp:100] Creating Layer conv9_2_mbox_conf_flat
I0402 14:25:43.925657 20661 net.cpp:434] conv9_2_mbox_conf_flat <- conv9_2_mbox_conf_perm
I0402 14:25:43.925664 20661 net.cpp:408] conv9_2_mbox_conf_flat -> conv9_2_mbox_conf_flat
I0402 14:25:43.925704 20661 net.cpp:150] Setting up conv9_2_mbox_conf_flat
I0402 14:25:43.925714 20661 net.cpp:157] Top shape: 2 128 (256)
I0402 14:25:43.925719 20661 net.cpp:165] Memory required for data: 1461662016
I0402 14:25:43.925724 20661 layer_factory.hpp:77] Creating layer conv9_2_mbox_clean
I0402 14:25:43.925735 20661 net.cpp:100] Creating Layer conv9_2_mbox_clean
I0402 14:25:43.925753 20661 net.cpp:434] conv9_2_mbox_clean <- conv9_2_conv9_2_relu_0_split_2
I0402 14:25:43.925765 20661 net.cpp:408] conv9_2_mbox_clean -> conv9_2_mbox_clean
I0402 14:25:43.927219 20661 net.cpp:150] Setting up conv9_2_mbox_clean
I0402 14:25:43.927235 20661 net.cpp:157] Top shape: 2 4 4 4 (128)
I0402 14:25:43.927251 20661 net.cpp:165] Memory required for data: 1461662528
I0402 14:25:43.927259 20661 layer_factory.hpp:77] Creating layer conv9_2_mbox_clean_perm
I0402 14:25:43.927269 20661 net.cpp:100] Creating Layer conv9_2_mbox_clean_perm
I0402 14:25:43.927275 20661 net.cpp:434] conv9_2_mbox_clean_perm <- conv9_2_mbox_clean
I0402 14:25:43.927283 20661 net.cpp:408] conv9_2_mbox_clean_perm -> conv9_2_mbox_clean_perm
I0402 14:25:43.927449 20661 net.cpp:150] Setting up conv9_2_mbox_clean_perm
I0402 14:25:43.927459 20661 net.cpp:157] Top shape: 2 4 4 4 (128)
I0402 14:25:43.927464 20661 net.cpp:165] Memory required for data: 1461663040
I0402 14:25:43.927469 20661 layer_factory.hpp:77] Creating layer conv9_2_mbox_clean_flat
I0402 14:25:43.927475 20661 net.cpp:100] Creating Layer conv9_2_mbox_clean_flat
I0402 14:25:43.927480 20661 net.cpp:434] conv9_2_mbox_clean_flat <- conv9_2_mbox_clean_perm
I0402 14:25:43.927489 20661 net.cpp:408] conv9_2_mbox_clean_flat -> conv9_2_mbox_clean_flat
I0402 14:25:43.927530 20661 net.cpp:150] Setting up conv9_2_mbox_clean_flat
I0402 14:25:43.927539 20661 net.cpp:157] Top shape: 2 64 (128)
I0402 14:25:43.927544 20661 net.cpp:165] Memory required for data: 1461663552
I0402 14:25:43.927548 20661 layer_factory.hpp:77] Creating layer conv9_2_mbox_priorbox
I0402 14:25:43.927556 20661 net.cpp:100] Creating Layer conv9_2_mbox_priorbox
I0402 14:25:43.927562 20661 net.cpp:434] conv9_2_mbox_priorbox <- conv9_2_conv9_2_relu_0_split_3
I0402 14:25:43.927568 20661 net.cpp:434] conv9_2_mbox_priorbox <- data_data_0_split_6
I0402 14:25:43.927592 20661 net.cpp:408] conv9_2_mbox_priorbox -> conv9_2_mbox_priorbox
I0402 14:25:43.927634 20661 net.cpp:150] Setting up conv9_2_mbox_priorbox
I0402 14:25:43.927645 20661 net.cpp:157] Top shape: 1 2 256 (512)
I0402 14:25:43.927649 20661 net.cpp:165] Memory required for data: 1461665600
I0402 14:25:43.927654 20661 layer_factory.hpp:77] Creating layer mbox_loc
I0402 14:25:43.927662 20661 net.cpp:100] Creating Layer mbox_loc
I0402 14:25:43.927672 20661 net.cpp:434] mbox_loc <- conv4_3_norm_mbox_loc_flat
I0402 14:25:43.927680 20661 net.cpp:434] mbox_loc <- fc7_mbox_loc_flat
I0402 14:25:43.927686 20661 net.cpp:434] mbox_loc <- conv6_2_mbox_loc_flat
I0402 14:25:43.927692 20661 net.cpp:434] mbox_loc <- conv7_2_mbox_loc_flat
I0402 14:25:43.927698 20661 net.cpp:434] mbox_loc <- conv8_2_mbox_loc_flat
I0402 14:25:43.927703 20661 net.cpp:434] mbox_loc <- conv9_2_mbox_loc_flat
I0402 14:25:43.927711 20661 net.cpp:408] mbox_loc -> mbox_loc
I0402 14:25:43.927778 20661 net.cpp:150] Setting up mbox_loc
I0402 14:25:43.927789 20661 net.cpp:157] Top shape: 2 98624 (197248)
I0402 14:25:43.927794 20661 net.cpp:165] Memory required for data: 1462454592
I0402 14:25:43.927799 20661 layer_factory.hpp:77] Creating layer mbox_conf
I0402 14:25:43.927808 20661 net.cpp:100] Creating Layer mbox_conf
I0402 14:25:43.927812 20661 net.cpp:434] mbox_conf <- conv4_3_norm_mbox_conf_flat
I0402 14:25:43.927819 20661 net.cpp:434] mbox_conf <- fc7_mbox_conf_flat
I0402 14:25:43.927826 20661 net.cpp:434] mbox_conf <- conv6_2_mbox_conf_flat
I0402 14:25:43.927832 20661 net.cpp:434] mbox_conf <- conv7_2_mbox_conf_flat
I0402 14:25:43.927837 20661 net.cpp:434] mbox_conf <- conv8_2_mbox_conf_flat
I0402 14:25:43.927844 20661 net.cpp:434] mbox_conf <- conv9_2_mbox_conf_flat
I0402 14:25:43.927848 20661 net.cpp:408] mbox_conf -> mbox_conf
I0402 14:25:43.927888 20661 net.cpp:150] Setting up mbox_conf
I0402 14:25:43.927897 20661 net.cpp:157] Top shape: 2 49312 (98624)
I0402 14:25:43.927901 20661 net.cpp:165] Memory required for data: 1462849088
I0402 14:25:43.927906 20661 layer_factory.hpp:77] Creating layer mbox_priorbox
I0402 14:25:43.927916 20661 net.cpp:100] Creating Layer mbox_priorbox
I0402 14:25:43.927932 20661 net.cpp:434] mbox_priorbox <- conv4_3_norm_mbox_priorbox
I0402 14:25:43.927939 20661 net.cpp:434] mbox_priorbox <- fc7_mbox_priorbox
I0402 14:25:43.927945 20661 net.cpp:434] mbox_priorbox <- conv6_2_mbox_priorbox
I0402 14:25:43.927952 20661 net.cpp:434] mbox_priorbox <- conv7_2_mbox_priorbox
I0402 14:25:43.927956 20661 net.cpp:434] mbox_priorbox <- conv8_2_mbox_priorbox
I0402 14:25:43.927961 20661 net.cpp:434] mbox_priorbox <- conv9_2_mbox_priorbox
I0402 14:25:43.927969 20661 net.cpp:408] mbox_priorbox -> mbox_priorbox
I0402 14:25:43.928009 20661 net.cpp:150] Setting up mbox_priorbox
I0402 14:25:43.928019 20661 net.cpp:157] Top shape: 1 2 98624 (197248)
I0402 14:25:43.928023 20661 net.cpp:165] Memory required for data: 1463638080
I0402 14:25:43.928030 20661 layer_factory.hpp:77] Creating layer mbox_clean
I0402 14:25:43.928038 20661 net.cpp:100] Creating Layer mbox_clean
I0402 14:25:43.928045 20661 net.cpp:434] mbox_clean <- conv4_3_norm_mbox_clean_flat
I0402 14:25:43.928052 20661 net.cpp:434] mbox_clean <- fc7_mbox_clean_flat
I0402 14:25:43.928057 20661 net.cpp:434] mbox_clean <- conv6_2_mbox_clean_flat
I0402 14:25:43.928063 20661 net.cpp:434] mbox_clean <- conv7_2_mbox_clean_flat
I0402 14:25:43.928068 20661 net.cpp:434] mbox_clean <- conv8_2_mbox_clean_flat
I0402 14:25:43.928073 20661 net.cpp:434] mbox_clean <- conv9_2_mbox_clean_flat
I0402 14:25:43.928079 20661 net.cpp:408] mbox_clean -> mbox_clean
I0402 14:25:43.928118 20661 net.cpp:150] Setting up mbox_clean
I0402 14:25:43.928128 20661 net.cpp:157] Top shape: 2 24656 (49312)
I0402 14:25:43.928131 20661 net.cpp:165] Memory required for data: 1463835328
I0402 14:25:43.928136 20661 layer_factory.hpp:77] Creating layer mbox_conf_reshape
I0402 14:25:43.928145 20661 net.cpp:100] Creating Layer mbox_conf_reshape
I0402 14:25:43.928153 20661 net.cpp:434] mbox_conf_reshape <- mbox_conf
I0402 14:25:43.928160 20661 net.cpp:408] mbox_conf_reshape -> mbox_conf_reshape
I0402 14:25:43.928205 20661 net.cpp:150] Setting up mbox_conf_reshape
I0402 14:25:43.928215 20661 net.cpp:157] Top shape: 2 24656 2 (98624)
I0402 14:25:43.928220 20661 net.cpp:165] Memory required for data: 1464229824
I0402 14:25:43.928225 20661 layer_factory.hpp:77] Creating layer mbox_conf_softmax
I0402 14:25:43.928233 20661 net.cpp:100] Creating Layer mbox_conf_softmax
I0402 14:25:43.928241 20661 net.cpp:434] mbox_conf_softmax <- mbox_conf_reshape
I0402 14:25:43.928248 20661 net.cpp:408] mbox_conf_softmax -> mbox_conf_softmax
I0402 14:25:43.928544 20661 net.cpp:150] Setting up mbox_conf_softmax
I0402 14:25:43.928557 20661 net.cpp:157] Top shape: 2 24656 2 (98624)
I0402 14:25:43.928562 20661 net.cpp:165] Memory required for data: 1464624320
I0402 14:25:43.928567 20661 layer_factory.hpp:77] Creating layer mbox_conf_flatten
I0402 14:25:43.928575 20661 net.cpp:100] Creating Layer mbox_conf_flatten
I0402 14:25:43.928580 20661 net.cpp:434] mbox_conf_flatten <- mbox_conf_softmax
I0402 14:25:43.928589 20661 net.cpp:408] mbox_conf_flatten -> mbox_conf_flatten
I0402 14:25:43.928630 20661 net.cpp:150] Setting up mbox_conf_flatten
I0402 14:25:43.928640 20661 net.cpp:157] Top shape: 2 49312 (98624)
I0402 14:25:43.928644 20661 net.cpp:165] Memory required for data: 1465018816
I0402 14:25:43.928648 20661 layer_factory.hpp:77] Creating layer mbox_clean_sigmoid
I0402 14:25:43.928679 20661 net.cpp:100] Creating Layer mbox_clean_sigmoid
I0402 14:25:43.928688 20661 net.cpp:434] mbox_clean_sigmoid <- mbox_clean
I0402 14:25:43.928695 20661 net.cpp:408] mbox_clean_sigmoid -> mbox_clean_sigmoid
I0402 14:25:43.929077 20661 net.cpp:150] Setting up mbox_clean_sigmoid
I0402 14:25:43.929092 20661 net.cpp:157] Top shape: 2 24656 (49312)
I0402 14:25:43.929097 20661 net.cpp:165] Memory required for data: 1465216064
I0402 14:25:43.929103 20661 layer_factory.hpp:77] Creating layer detection_out
I0402 14:25:43.929129 20661 net.cpp:100] Creating Layer detection_out
I0402 14:25:43.929137 20661 net.cpp:434] detection_out <- mbox_loc
I0402 14:25:43.929144 20661 net.cpp:434] detection_out <- mbox_conf_flatten
I0402 14:25:43.929149 20661 net.cpp:434] detection_out <- mbox_priorbox
I0402 14:25:43.929167 20661 net.cpp:434] detection_out <- mbox_clean_sigmoid
I0402 14:25:43.929177 20661 net.cpp:408] detection_out -> detection_out
I0402 14:25:43.937832 20661 net.cpp:150] Setting up detection_out
I0402 14:25:43.937847 20661 net.cpp:157] Top shape: 1 1 1 8 (8)
I0402 14:25:43.937854 20661 net.cpp:165] Memory required for data: 1465216096
I0402 14:25:43.937858 20661 layer_factory.hpp:77] Creating layer detection_eval
I0402 14:25:43.937870 20661 net.cpp:100] Creating Layer detection_eval
I0402 14:25:43.937877 20661 net.cpp:434] detection_eval <- detection_out
I0402 14:25:43.937885 20661 net.cpp:434] detection_eval <- label
I0402 14:25:43.937892 20661 net.cpp:408] detection_eval -> detection_eval
I0402 14:25:43.942709 20661 net.cpp:150] Setting up detection_eval
I0402 14:25:43.942721 20661 net.cpp:157] Top shape: 1 1 2 5 (10)
I0402 14:25:43.942739 20661 net.cpp:165] Memory required for data: 1465216136
I0402 14:25:43.942744 20661 net.cpp:228] detection_eval does not need backward computation.
I0402 14:25:43.942749 20661 net.cpp:228] detection_out does not need backward computation.
I0402 14:25:43.942755 20661 net.cpp:228] mbox_clean_sigmoid does not need backward computation.
I0402 14:25:43.942759 20661 net.cpp:228] mbox_conf_flatten does not need backward computation.
…
