…
        max_scale: 1
        min_aspect_ratio: 0.5
        max_aspect_ratio: 2
      }
      sample_constraint {
        min_jaccard_overlap: 0.9
      }
      max_sample: 1
      max_trials: 50
    }
    batch_sampler {
      sampler {
        min_scale: 0.3
        max_scale: 1
        min_aspect_ratio: 0.5
        max_aspect_ratio: 2
      }
      sample_constraint {
        max_jaccard_overlap: 1
      }
      max_sample: 1
      max_trials: 50
    }
    label_map_file: "/data/siyu/dataset/coco/labelmap_coco-person.prototxt"
    part_sampler_prob: 0.8
  }
}
layer {
  name: "conv1_1"
  type: "Convolution"
  bottom: "data"
  top: "conv1_1"
  param {
    lr_mult: 1
    decay_mult: 1
  }
  param {
    lr_mult: 2
    decay_mult: 0
  }
  convolution_param {
    num_output: 64
    pad: 1
    kernel_size: 3
    weight_filler {
      type: "xavier"
    }
    bias_filler {
      type: "constant"
      value: 0
    }
  }
}
layer {
  name: "relu1_1"
  type: "ReLU"
  bottom: "conv1_1"
  top: "conv1_1"
}
layer {
  name: "conv1_2"
  type: "Convolution"
  bottom: "conv1_1"
  top: "conv1_2"
  param {
    lr_mult: 1
    decay_mult: 1
  }
  param {
    lr_mult: 2
    decay_mult: 0
  }
  convolution_param {
    num_output: 64
    pad: 1
    kernel_size: 3
    weight_filler {
      type: "xavier"
    }
    bias_filler {
      type: "constant"
      value: 0
    }
  }
}
layer {
  name: "relu1_2"
  type: "ReLU"
  bottom: "conv1_2"
  top: "conv1_2"
}
layer {
  name: "pool1"
  type: "Pooling"
  bottom: "conv1_2"
  top: "pool1"
  pooling_param {
    pool: MAX
    kernel_size: 2
    stride: 2
  }
}
layer {
  name: "conv2_1"
  type: "Convolution"
  bottom: "pool1"
  top: "conv2_1"
  param {
    lr_mult: 1
    decay_mult: 1
  }
  param {
    lr_mult: 2
    decay_mult: 0
  }
  convolution_param {
    num_output: 128
    pad: 1
    kernel_size: 3
    weight_filler {
      type: "xavier"
    }
    bias_filler {
      type: "constant"
      value: 0
    }
  }
}
layer {
  name: "relu2_1"
  type: "ReLU"
  bottom: "conv2_1"
  top: "conv2_1"
}
layer {
  name: "conv2_2"
  type: "Convolution"
  bottom: "conv2_1"
  top: "conv2_2"
  param {
    lr_mult: 1
    decay_mult: 1
  }
  param {
    lr_mult: 2
    decay_mult: 0
  }
  convolution_param {
    num_output: 128
    pad: 1
    kernel_size: 3
    weight_filler {
      type: "xavier"
    }
    bias_filler {
      type: "constant"
      value: 0
    }
  }
}
layer {
  name: "relu2_2"
  type: "ReLU"
  bottom: "conv2_2"
  top: "conv2_2"
}
layer {
  name: "pool2"
  type: "Pooling"
  bottom: "conv2_2"
  top: "pool2"
  pooling_param {
    pool: MAX
    kernel_size: 2
    stride: 2
  }
}
layer {
  name: "conv3_1"
  type: "Convolution"
  bottom: "pool2"
  top: "conv3_1"
  param {
    lr_mult: 1
    decay_mult: 1
  }
  param {
    lr_mult: 2
    decay_mult: 0
  }
  convolution_param {
    num_output: 256
    pad: 1
    kernel_size: 3
    weight_filler {
      type: "xavier"
    }
    bias_filler {
      type: "constant"
      value: 0
    }
  }
}
layer {
  name: "relu3_1"
  type: "ReLU"
  bottom: "conv3_1"
  top: "conv3_1"
}
layer {
  name: "conv3_2"
  type: "Convolution"
  bottom: "conv3_1"
  top: "conv3_2"
  param {
    lr_mult: 1
    decay_mult: 1
  }
  param {
    lr_mult: 2
    decay_mult: 0
  }
  convolution_param {
    num_output: 256
    pad: 1
    kernel_size: 3
    weight_filler {
      type: "xavier"
    }
    bias_filler {
      type: "constant"
      value: 0
    }
  }
}
layer {
  name: "relu3_2"
  type: "ReLU"
  bottom: "conv3_2"
  top: "conv3_2"
}
layer {
  name: "conv3_3"
  type: "Convolution"
  bottom: "conv3_2"
  top: "conv3_3"
  param {
    lr_mult: 1
    decay_mult: 1
  }
  param {
    lr_mult: 2
    decay_mult: 0
  }
  convolution_param {
    num_output: 256
    pad: 1
    kernel_size: 3
    weight_filler {
      type: "xavier"
    }
    bias_filler {
      type: "constant"
      value: 0
    }
  }
}
layer {
  name: "relu3_3"
  type: "ReLU"
  bottom: "conv3_3"
  top: "conv3_3"
}
layer {
  name: "pool3"
  type: "Pooling"
  bottom: "conv3_3"
  top: "pool3"
  pooling_param {
    pool: MAX
    kernel_size: 2
    stride: 2
  }
}
layer {
  name: "conv4_1"
  type: "Convolution"
  bottom: "pool3"
  top: "conv4_1"
  param {
    lr_mult: 1
    decay_mult: 1
  }
  param {
    lr_mult: 2
    decay_mult: 0
  }
  convolution_param {
    num_output: 512
    pad: 1
    kernel_size: 3
    weight_filler {
      type: "xavier"
    }
    bias_filler {
      type: "constant"
      value: 0
    }
  }
}
layer {
  name: "relu4_1"
  type: "ReLU"
  bottom: "conv4_1"
  top: "conv4_1"
}
layer {
  name: "conv4_2"
  type: "Convolution"
  bottom: "conv4_1"
  top: "conv4_2"
  param {
    lr_mult: 1
    decay_mult: 1
  }
  param {
    lr_mult: 2
    decay_mult: 0
  }
  convolution_param {
    num_output: 512
    pad: 1
    kernel_size: 3
    weight_filler {
      type: "xavier"
    }
    bias_filler {
      type: "constant"
      value: 0
    }
  }
}
layer {
  name: "relu4_2"
  type: "ReLU"
  bottom: "conv4_2"
  top: "conv4_2"
}
layer {
  name: "conv4_3"
  type: "Convolution"
  bottom: "conv4_2"
  top: "conv4_3"
  param {
    lr_mult: 1
    decay_mult: 1
  }
  param {
    lr_mult: 2
    decay_mult: 0
  }
  convolution_param {
    num_output: 512
    pad: 1
    kernel_size: 3
    weight_filler {
      type: "xavier"
    }
    bias_filler {
      type: "constant"
      value: 0
    }
  }
}
layer {
  name: "relu4_3"
  type: "ReLU"
  bottom: "conv4_3"
  top: "conv4_3"
}
layer {
  name: "pool4"
  type: "Pooling"
  bottom: "conv4_3"
  top: "pool4"
  pooling_param {
    pool: MAX
    kernel_size: 2
    stride: 2
  }
}
layer {
  name: "conv5_1"
  type: "Convolution"
  bottom: "pool4"
  top: "conv5_1"
  param {
    lr_mult: 1
    decay_mult: 1
  }
  param {
    lr_mult: 2
    decay_mult: 0
  }
  convolution_param {
    num_output: 512
    pad: 1
    kernel_size: 3
    weight_filler {
      type: "xavier"
    }
    bias_filler {
      type: "constant"
      value: 0
    }
    dilation: 1
  }
}
layer {
  name: "relu5_1"
  type: "ReLU"
  bottom: "conv5_1"
  top: "conv5_1"
}
layer {
  name: "conv5_2"
  type: "Convolution"
  bottom: "conv5_1"
  top: "conv5_2"
  param {
    lr_mult: 1
    decay_mult: 1
  }
  param {
    lr_mult: 2
    decay_mult: 0
  }
  convolution_param {
    num_output: 512
    pad: 1
    kernel_size: 3
    weight_filler {
      type: "xavier"
    }
    bias_filler {
      type: "constant"
      value: 0
    }
    dilation: 1
  }
}
layer {
  name: "relu5_2"
  type: "ReLU"
  bottom: "conv5_2"
  top: "conv5_2"
}
layer {
  name: "conv5_3"
  type: "Convolution"
  bottom: "conv5_2"
  top: "conv5_3"
  param {
    lr_mult: 1
    decay_mult: 1
  }
  param {
    lr_mult: 2
    decay_mult: 0
  }
  convolution_param {
    num_output: 512
    pad: 1
    kernel_size: 3
    weight_filler {
      type: "xavier"
    }
    bias_filler {
      type: "constant"
      value: 0
    }
    dilation: 1
  }
}
layer {
  name: "relu5_3"
  type: "ReLU"
  bottom: "conv5_3"
  top: "conv5_3"
}
layer {
  name: "pool5"
  type: "Pooling"
  bottom: "conv5_3"
  top: "pool5"
  pooling_param {
    pool: MAX
    kernel_size: 3
    stride: 1
    pad: 1
  }
}
layer {
  name: "fc6"
  type: "Convolution"
  bottom: "pool5"
  top: "fc6"
  param {
    lr_mult: 1
    decay_mult: 1
  }
  param {
    lr_mult: 2
    decay_mult: 0
  }
  convolution_param {
    num_output: 1024
    pad: 6
    kernel_size: 3
    weight_filler {
      type: "xavier"
    }
    bias_filler {
      type: "constant"
      value: 0
    }
    dilation: 6
  }
}
layer {
  name: "relu6"
  type: "ReLU"
  bottom: "fc6"
  top: "fc6"
}
layer {
  name: "fc7"
  type: "Convolution"
  bottom: "fc6"
  top: "fc7"
  param {
    lr_mult: 1
    decay_mult: 1
  }
  param {
    lr_mult: 2
    decay_mult: 0
  }
  convolution_param {
    num_output: 1024
    kernel_size: 1
    weight_filler {
      type: "xavier"
    }
    bias_filler {
      type: "constant"
      value: 0
    }
  }
}
layer {
  name: "relu7"
  type: "ReLU"
  bottom: "fc7"
  top: "fc7"
}
layer {
  name: "conv6_1"
  type: "Convolution"
  bottom: "fc7"
  top: "conv6_1"
  param {
    lr_mult: 1
    decay_mult: 1
  }
  param {
    lr_mult: 2
    decay_mult: 0
  }
  convolution_param {
    num_output: 256
    pad: 0
    kernel_size: 1
    stride: 1
    weight_filler {
      type: "xavier"
    }
    bias_filler {
      type: "constant"
      value: 0
    }
  }
}
layer {
  name: "conv6_1_relu"
  type: "ReLU"
  bottom: "conv6_1"
  top: "conv6_1"
}
layer {
  name: "conv6_2"
  type: "Convolution"
  bottom: "conv6_1"
  top: "conv6_2"
  param {
    lr_mult: 1
    decay_mult: 1
  }
  param {
    lr_mult: 2
    decay_mult: 0
  }
  convolution_param {
    num_output: 512
    pad: 1
    kernel_size: 3
    stride: 2
    weight_filler {
      type: "xavier"
    }
    bias_filler {
      type: "constant"
      value: 0
    }
  }
}
layer {
  name: "conv6_2_relu"
  type: "ReLU"
  bottom: "conv6_2"
  top: "conv6_2"
}
layer {
  name: "conv7_1"
  type: "Convolution"
  bottom: "conv6_2"
  top: "conv7_1"
  param {
    lr_mult: 1
    decay_mult: 1
  }
  param {
    lr_mult: 2
    decay_mult: 0
  }
  convolution_param {
    num_output: 128
    pad: 0
    kernel_size: 1
    stride: 1
    weight_filler {
      type: "xavier"
    }
    bias_filler {
      type: "constant"
      value: 0
    }
  }
}
layer {
  name: "conv7_1_relu"
  type: "ReLU"
  bottom: "conv7_1"
  top: "conv7_1"
}
layer {
  name: "conv7_2"
  type: "Convolution"
  bottom: "conv7_1"
  top: "conv7_2"
  param {
    lr_mult: 1
    decay_mult: 1
  }
  param {
    lr_mult: 2
    decay_mult: 0
  }
  convolution_param {
    num_output: 256
    pad: 1
    kernel_size: 3
    stride: 2
    weight_filler {
      type: "xavier"
    }
    bias_filler {
      type: "constant"
      value: 0
    }
  }
}
layer {
  name: "conv7_2_relu"
  type: "ReLU"
  bottom: "conv7_2"
  top: "conv7_2"
}
layer {
  name: "conv8_1"
  type: "Convolution"
  bottom: "conv7_2"
  top: "conv8_1"
  param {
    lr_mult: 1
    decay_mult: 1
  }
  param {
    lr_mult: 2
    decay_mult: 0
  }
  convolution_param {
    num_output: 128
    pad: 0
    kernel_size: 1
    stride: 1
    weight_filler {
      type: "xavier"
    }
    bias_filler {
      type: "constant"
      value: 0
    }
  }
}
layer {
  name: "conv8_1_relu"
  type: "ReLU"
  bottom: "conv8_1"
  top: "conv8_1"
}
layer {
  name: "conv8_2"
  type: "Convolution"
  bottom: "conv8_1"
  top: "conv8_2"
  param {
    lr_mult: 1
    decay_mult: 1
  }
  param {
    lr_mult: 2
    decay_mult: 0
  }
  convolution_param {
    num_output: 256
    pad: 0
    kernel_size: 3
    stride: 1
    weight_filler {
      type: "xavier"
    }
    bias_filler {
      type: "constant"
      value: 0
    }
  }
}
layer {
  name: "conv8_2_relu"
  type: "ReLU"
  bottom: "conv8_2"
  top: "conv8_2"
}
layer {
  name: "conv9_1"
  type: "Convolution"
  bottom: "conv8_2"
  top: "conv9_1"
  param {
    lr_mult: 1
    decay_mult: 1
  }
  param {
    lr_mult: 2
    decay_mult: 0
  }
  convolution_param {
    num_output: 128
    pad: 0
    kernel_size: 1
    stride: 1
    weight_filler {
      type: "xavier"
    }
    bias_filler {
      type: "constant"
      value: 0
    }
  }
}
layer {
  name: "conv9_1_relu"
  type: "ReLU"
  bottom: "conv9_1"
  top: "conv9_1"
}
layer {
  name: "conv9_2"
  type: "Convolution"
  bottom: "conv9_1"
  top: "conv9_2"
  param {
    lr_mult: 1
    decay_mult: 1
  }
  param {
    lr_mult: 2
    decay_mult: 0
  }
  convolution_param {
    num_output: 256
    pad: 0
    kernel_size: 3
    stride: 1
    weight_filler {
      type: "xavier"
    }
    bias_filler {
      type: "constant"
      value: 0
    }
  }
}
layer {
  name: "conv9_2_relu"
  type: "ReLU"
  bottom: "conv9_2"
  top: "conv9_2"
}
layer {
  name: "conv4_3_norm"
  type: "Normalize"
  bottom: "conv4_3"
  top: "conv4_3_norm"
  norm_param {
    across_spatial: false
    scale_filler {
      type: "constant"
      value: 20
    }
    channel_shared: false
  }
}
layer {
  name: "conv4_3_norm_mbox_loc"
  type: "Convolution"
  bottom: "conv4_3_norm"
  top: "conv4_3_norm_mbox_loc"
  param {
    lr_mult: 1
    decay_mult: 1
  }
  param {
    lr_mult: 2
    decay_mult: 0
  }
  convolution_param {
    num_output: 16
    pad: 1
    kernel_size: 3
    stride: 1
    weight_filler {
      type: "xavier"
    }
    bias_filler {
      type: "constant"
      value: 0
    }
  }
}
layer {
  name: "conv4_3_norm_mbox_loc_perm"
  type: "Permute"
  bottom: "conv4_3_norm_mbox_loc"
  top: "conv4_3_norm_mbox_loc_perm"
  permute_param {
    order: 0
    order: 2
    order: 3
    order: 1
  }
}
layer {
  name: "conv4_3_norm_mbox_loc_flat"
  type: "Flatten"
  bottom: "conv4_3_norm_mbox_loc_perm"
  top: "conv4_3_norm_mbox_loc_flat"
  flatten_param {
    axis: 1
  }
}
layer {
  name: "conv4_3_norm_mbox_conf"
  type: "Convolution"
  bottom: "conv4_3_norm"
  top: "conv4_3_norm_mbox_conf"
  param {
    lr_mult: 1
    decay_mult: 1
  }
  param {
    lr_mult: 2
    decay_mult: 0
  }
  convolution_param {
    num_output: 8
    pad: 1
    kernel_size: 3
    stride: 1
    weight_filler {
      type: "xavier"
    }
    bias_filler {
      type: "constant"
      value: 0
    }
  }
}
layer {
  name: "conv4_3_norm_mbox_conf_perm"
  type: "Permute"
  bottom: "conv4_3_norm_mbox_conf"
  top: "conv4_3_norm_mbox_conf_perm"
  permute_param {
    order: 0
    order: 2
    order: 3
    order: 1
  }
}
layer {
  name: "conv4_3_norm_mbox_conf_flat"
  type: "Flatten"
  bottom: "conv4_3_norm_mbox_conf_perm"
  top: "conv4_3_norm_mbox_conf_flat"
  flatten_param {
    axis: 1
  }
}
layer {
  name: "conv4_3_norm_mbox_clean"
  type: "Convolution"
  bottom: "conv4_3_norm"
  top: "conv4_3_norm_mbox_clean"
  param {
    lr_mult: 1
    decay_mult: 1
  }
  param {
    lr_mult: 2
    decay_mult: 0
  }
  convolution_param {
    num_output: 4
    pad: 1
    kernel_size: 3
    stride: 1
    weight_filler {
      type: "xavier"
    }
    bias_filler {
      type: "constant"
      value: 0
    }
  }
}
layer {
  name: "conv4_3_norm_mbox_clean_perm"
  type: "Permute"
  bottom: "conv4_3_norm_mbox_clean"
  top: "conv4_3_norm_mbox_clean_perm"
  permute_param {
    order: 0
    order: 2
    order: 3
    order: 1
  }
}
layer {
  name: "conv4_3_norm_mbox_clean_flat"
  type: "Flatten"
  bottom: "conv4_3_norm_mbox_clean_perm"
  top: "conv4_3_norm_mbox_clean_flat"
  flatten_param {
    axis: 1
  }
}
layer {
  name: "conv4_3_norm_mbox_priorbox"
  type: "PriorBox"
  bottom: "conv4_3_norm"
  bottom: "data"
  top: "conv4_3_norm_mbox_priorbox"
  prior_box_param {
    min_size: 35.84
    max_size: 76.8
    aspect_ratio: 2
    flip: true
    clip: false
    variance: 0.1
    variance: 0.1
    variance: 0.2
    variance: 0.2
    step: 8
    offset: 0.5
  }
}
layer {
  name: "fc7_mbox_loc"
  type: "Convolution"
  bottom: "fc7"
  top: "fc7_mbox_loc"
  param {
    lr_mult: 1
    decay_mult: 1
  }
  param {
    lr_mult: 2
    decay_mult: 0
  }
  convolution_param {
    num_output: 24
    pad: 1
    kernel_size: 3
    stride: 1
    weight_filler {
      type: "xavier"
    }
    bias_filler {
      type: "constant"
      value: 0
    }
  }
}
layer {
  name: "fc7_mbox_loc_perm"
  type: "Permute"
  bottom: "fc7_mbox_loc"
  top: "fc7_mbox_loc_perm"
  permute_param {
    order: 0
    order: 2
    order: 3
    order: 1
  }
}
layer {
  name: "fc7_mbox_loc_flat"
  type: "Flatten"
  bottom: "fc7_mbox_loc_perm"
  top: "fc7_mbox_loc_flat"
  flatten_param {
    axis: 1
  }
}
layer {
  name: "fc7_mbox_conf"
  type: "Convolution"
  bottom: "fc7"
  top: "fc7_mbox_conf"
  param {
    lr_mult: 1
    decay_mult: 1
  }
  param {
    lr_mult: 2
    decay_mult: 0
  }
  convolution_param {
    num_output: 12
    pad: 1
    kernel_size: 3
    stride: 1
    weight_filler {
      type: "xavier"
    }
    bias_filler {
      type: "constant"
      value: 0
    }
  }
}
layer {
  name: "fc7_mbox_conf_perm"
  type: "Permute"
  bottom: "fc7_mbox_conf"
  top: "fc7_mbox_conf_perm"
  permute_param {
    order: 0
    order: 2
    order: 3
    order: 1
  }
}
layer {
  name: "fc7_mbox_conf_flat"
  type: "Flatten"
  bottom: "fc7_mbox_conf_perm"
  top: "fc7_mbox_conf_flat"
  flatten_param {
    axis: 1
  }
}
layer {
  name: "fc7_mbox_clean"
  type: "Convolution"
  bottom: "fc7"
  top: "fc7_mbox_clean"
  param {
    lr_mult: 1
    decay_mult: 1
  }
  param {
    lr_mult: 2
    decay_mult: 0
  }
  convolution_param {
    num_output: 6
    pad: 1
    kernel_size: 3
    stride: 1
    weight_filler {
      type: "xavier"
    }
    bias_filler {
      type: "constant"
      value: 0
    }
  }
}
layer {
  name: "fc7_mbox_clean_perm"
  type: "Permute"
  bottom: "fc7_mbox_clean"
  top: "fc7_mbox_clean_perm"
  permute_param {
    order: 0
    order: 2
    order: 3
    order: 1
  }
}
layer {
  name: "fc7_mbox_clean_flat"
  type: "Flatten"
  bottom: "fc7_mbox_clean_perm"
  top: "fc7_mbox_clean_flat"
  flatten_param {
    axis: 1
  }
}
layer {
  name: "fc7_mbox_priorbox"
  type: "PriorBox"
  bottom: "fc7"
  bottom: "data"
  top: "fc7_mbox_priorbox"
  prior_box_param {
    min_size: 76.8
    max_size: 168.96
    aspect_ratio: 2
    aspect_ratio: 3
    flip: true
    clip: false
    variance: 0.1
    variance: 0.1
    variance: 0.2
    variance: 0.2
    step: 16
    offset: 0.5
  }
}
layer {
  name: "conv6_2_mbox_loc"
  type: "Convolution"
  bottom: "conv6_2"
  top: "conv6_2_mbox_loc"
  param {
    lr_mult: 1
    decay_mult: 1
  }
  param {
    lr_mult: 2
    decay_mult: 0
  }
  convolution_param {
    num_output: 24
    pad: 1
    kernel_size: 3
    stride: 1
    weight_filler {
      type: "xavier"
    }
    bias_filler {
      type: "constant"
      value: 0
    }
  }
}
layer {
  name: "conv6_2_mbox_loc_perm"
  type: "Permute"
  bottom: "conv6_2_mbox_loc"
  top: "conv6_2_mbox_loc_perm"
  permute_param {
    order: 0
    order: 2
    order: 3
    order: 1
  }
}
layer {
  name: "conv6_2_mbox_loc_flat"
  type: "Flatten"
  bottom: "conv6_2_mbox_loc_perm"
  top: "conv6_2_mbox_loc_flat"
  flatten_param {
    axis: 1
  }
}
layer {
  name: "conv6_2_mbox_conf"
  type: "Convolution"
  bottom: "conv6_2"
  top: "conv6_2_mbox_conf"
  param {
    lr_mult: 1
    decay_mult: 1
  }
  param {
    lr_mult: 2
    decay_mult: 0
  }
  convolution_param {
    num_output: 12
    pad: 1
    kernel_size: 3
    stride: 1
    weight_filler {
      type: "xavier"
    }
    bias_filler {
      type: "constant"
      value: 0
    }
  }
}
layer {
  name: "conv6_2_mbox_conf_perm"
  type: "Permute"
  bottom: "conv6_2_mbox_conf"
  top: "conv6_2_mbox_conf_perm"
  permute_param {
    order: 0
    order: 2
    order: 3
    order: 1
  }
}
layer {
  name: "conv6_2_mbox_conf_flat"
  type: "Flatten"
  bottom: "conv6_2_mbox_conf_perm"
  top: "conv6_2_mbox_conf_flat"
  flatten_param {
    axis: 1
  }
}
layer {
  name: "conv6_2_mbox_clean"
  type: "Convolution"
  bottom: "conv6_2"
  top: "conv6_2_mbox_clean"
  param {
    lr_mult: 1
    decay_mult: 1
  }
  param {
    lr_mult: 2
    decay_mult: 0
  }
  convolution_param {
    num_output: 6
    pad: 1
    kernel_size: 3
    stride: 1
    weight_filler {
      type: "xavier"
    }
    bias_filler {
      type: "constant"
      value: 0
    }
  }
}
layer {
  name: "conv6_2_mbox_clean_perm"
  type: "Permute"
  bottom: "conv6_2_mbox_clean"
  top: "conv6_2_mbox_clean_perm"
  permute_param {
    order: 0
    order: 2
    order: 3
    order: 1
  }
}
layer {
  name: "conv6_2_mbox_clean_flat"
  type: "Flatten"
  bottom: "conv6_2_mbox_clean_perm"
  top: "conv6_2_mbox_clean_flat"
  flatten_param {
    axis: 1
  }
}
layer {
  name: "conv6_2_mbox_priorbox"
  type: "PriorBox"
  bottom: "conv6_2"
  bottom: "data"
  top: "conv6_2_mbox_priorbox"
  prior_box_param {
    min_size: 168.96
    max_size: 261.12
    aspect_ratio: 2
    aspect_ratio: 3
    flip: true
    clip: false
    variance: 0.1
    variance: 0.1
    variance: 0.2
    variance: 0.2
    step: 32
    offset: 0.5
  }
}
layer {
  name: "conv7_2_mbox_loc"
  type: "Convolution"
  bottom: "conv7_2"
  top: "conv7_2_mbox_loc"
  param {
    lr_mult: 1
    decay_mult: 1
  }
  param {
    lr_mult: 2
    decay_mult: 0
  }
  convolution_param {
    num_output: 24
    pad: 1
    kernel_size: 3
    stride: 1
    weight_filler {
      type: "xavier"
    }
    bias_filler {
      type: "constant"
      value: 0
    }
  }
}
layer {
  name: "conv7_2_mbox_loc_perm"
  type: "Permute"
  bottom: "conv7_2_mbox_loc"
  top: "conv7_2_mbox_loc_perm"
  permute_param {
    order: 0
    order: 2
    order: 3
    order: 1
  }
}
layer {
  name: "conv7_2_mbox_loc_flat"
  type: "Flatten"
  bottom: "conv7_2_mbox_loc_perm"
  top: "conv7_2_mbox_loc_flat"
  flatten_param {
    axis: 1
  }
}
layer {
  name: "conv7_2_mbox_conf"
  type: "Convolution"
  bottom: "conv7_2"
  top: "conv7_2_mbox_conf"
  param {
    lr_mult: 1
    decay_mult: 1
  }
  param {
    lr_mult: 2
    decay_mult: 0
  }
  convolution_param {
    num_output: 12
    pad: 1
    kernel_size: 3
    stride: 1
    weight_filler {
      type: "xavier"
    }
    bias_filler {
      type: "constant"
      value: 0
    }
  }
}
layer {
  name: "conv7_2_mbox_conf_perm"
  type: "Permute"
  bottom: "conv7_2_mbox_conf"
  top: "conv7_2_mbox_conf_perm"
  permute_param {
    order: 0
    order: 2
    order: 3
    order: 1
  }
}
layer {
  name: "conv7_2_mbox_conf_flat"
  type: "Flatten"
  bottom: "conv7_2_mbox_conf_perm"
  top: "conv7_2_mbox_conf_flat"
  flatten_param {
    axis: 1
  }
}
layer {
  name: "conv7_2_mbox_clean"
  type: "Convolution"
  bottom: "conv7_2"
  top: "conv7_2_mbox_clean"
  param {
    lr_mult: 1
    decay_mult: 1
  }
  param {
    lr_mult: 2
    decay_mult: 0
  }
  convolution_param {
    num_output: 6
    pad: 1
    kernel_size: 3
    stride: 1
    weight_filler {
      type: "xavier"
    }
    bias_filler {
      type: "constant"
      value: 0
    }
  }
}
layer {
  name: "conv7_2_mbox_clean_perm"
  type: "Permute"
  bottom: "conv7_2_mbox_clean"
  top: "conv7_2_mbox_clean_perm"
  permute_param {
    order: 0
    order: 2
    order: 3
    order: 1
  }
}
layer {
  name: "conv7_2_mbox_clean_flat"
  type: "Flatten"
  bottom: "conv7_2_mbox_clean_perm"
  top: "conv7_2_mbox_clean_flat"
  flatten_param {
    axis: 1
  }
}
layer {
  name: "conv7_2_mbox_priorbox"
  type: "PriorBox"
  bottom: "conv7_2"
  bottom: "data"
  top: "conv7_2_mbox_priorbox"
  prior_box_param {
    min_size: 261.12
    max_size: 353.28
    aspect_ratio: 2
    aspect_ratio: 3
    flip: true
    clip: false
    variance: 0.1
    variance: 0.1
    variance: 0.2
    variance: 0.2
    step: 64
    offset: 0.5
  }
}
layer {
  name: "conv8_2_mbox_loc"
  type: "Convolution"
  bottom: "conv8_2"
  top: "conv8_2_mbox_loc"
  param {
    lr_mult: 1
    decay_mult: 1
  }
  param {
    lr_mult: 2
    decay_mult: 0
  }
  convolution_param {
    num_output: 16
    pad: 1
    kernel_size: 3
    stride: 1
    weight_filler {
      type: "xavier"
    }
    bias_filler {
      type: "constant"
      value: 0
    }
  }
}
layer {
  name: "conv8_2_mbox_loc_perm"
  type: "Permute"
  bottom: "conv8_2_mbox_loc"
  top: "conv8_2_mbox_loc_perm"
  permute_param {
    order: 0
    order: 2
    order: 3
    order: 1
  }
}
layer {
  name: "conv8_2_mbox_loc_flat"
  type: "Flatten"
  bottom: "conv8_2_mbox_loc_perm"
  top: "conv8_2_mbox_loc_flat"
  flatten_param {
    axis: 1
  }
}
layer {
  name: "conv8_2_mbox_conf"
  type: "Convolution"
  bottom: "conv8_2"
  top: "conv8_2_mbox_conf"
  param {
    lr_mult: 1
    decay_mult: 1
  }
  param {
    lr_mult: 2
    decay_mult: 0
  }
  convolution_param {
    num_output: 8
    pad: 1
    kernel_size: 3
    stride: 1
    weight_filler {
      type: "xavier"
    }
    bias_filler {
      type: "constant"
      value: 0
    }
  }
}
layer {
  name: "conv8_2_mbox_conf_perm"
  type: "Permute"
  bottom: "conv8_2_mbox_conf"
  top: "conv8_2_mbox_conf_perm"
  permute_param {
    order: 0
    order: 2
    order: 3
    order: 1
  }
}
layer {
  name: "conv8_2_mbox_conf_flat"
  type: "Flatten"
  bottom: "conv8_2_mbox_conf_perm"
  top: "conv8_2_mbox_conf_flat"
  flatten_param {
    axis: 1
  }
}
layer {
  name: "conv8_2_mbox_clean"
  type: "Convolution"
  bottom: "conv8_2"
  top: "conv8_2_mbox_clean"
  param {
    lr_mult: 1
    decay_mult: 1
  }
  param {
    lr_mult: 2
    decay_mult: 0
  }
  convolution_param {
    num_output: 4
    pad: 1
    kernel_size: 3
    stride: 1
    weight_filler {
      type: "xavier"
    }
    bias_filler {
      type: "constant"
      value: 0
    }
  }
}
layer {
  name: "conv8_2_mbox_clean_perm"
  type: "Permute"
  bottom: "conv8_2_mbox_clean"
  top: "conv8_2_mbox_clean_perm"
  permute_param {
    order: 0
    order: 2
    order: 3
    order: 1
  }
}
layer {
  name: "conv8_2_mbox_clean_flat"
  type: "Flatten"
  bottom: "conv8_2_mbox_clean_perm"
  top: "conv8_2_mbox_clean_flat"
  flatten_param {
    axis: 1
  }
}
layer {
  name: "conv8_2_mbox_priorbox"
  type: "PriorBox"
  bottom: "conv8_2"
  bottom: "data"
  top: "conv8_2_mbox_priorbox"
  prior_box_param {
    min_size: 353.28
    max_size: 445.44
    aspect_ratio: 2
    flip: true
    clip: false
    variance: 0.1
    variance: 0.1
    variance: 0.2
    variance: 0.2
    step: 100
    offset: 0.5
  }
}
layer {
  name: "conv9_2_mbox_loc"
  type: "Convolution"
  bottom: "conv9_2"
  top: "conv9_2_mbox_loc"
  param {
    lr_mult: 1
    decay_mult: 1
  }
  param {
    lr_mult: 2
    decay_mult: 0
  }
  convolution_param {
    num_output: 16
    pad: 1
    kernel_size: 3
    stride: 1
    weight_filler {
      type: "xavier"
    }
    bias_filler {
      type: "constant"
      value: 0
    }
  }
}
layer {
  name: "conv9_2_mbox_loc_perm"
  type: "Permute"
  bottom: "conv9_2_mbox_loc"
  top: "conv9_2_mbox_loc_perm"
  permute_param {
    order: 0
    order: 2
    order: 3
    order: 1
  }
}
layer {
  name: "conv9_2_mbox_loc_flat"
  type: "Flatten"
  bottom: "conv9_2_mbox_loc_perm"
  top: "conv9_2_mbox_loc_flat"
  flatten_param {
    axis: 1
  }
}
layer {
  name: "conv9_2_mbox_conf"
  type: "Convolution"
  bottom: "conv9_2"
  top: "conv9_2_mbox_conf"
  param {
    lr_mult: 1
    decay_mult: 1
  }
  param {
    lr_mult: 2
    decay_mult: 0
  }
  convolution_param {
    num_output: 8
    pad: 1
    kernel_size: 3
    stride: 1
    weight_filler {
      type: "xavier"
    }
    bias_filler {
      type: "constant"
      value: 0
    }
  }
}
layer {
  name: "conv9_2_mbox_conf_perm"
  type: "Permute"
  bottom: "conv9_2_mbox_conf"
  top: "conv9_2_mbox_conf_perm"
  permute_param {
    order: 0
    order: 2
    order: 3
    order: 1
  }
}
layer {
  name: "conv9_2_mbox_conf_flat"
  type: "Flatten"
  bottom: "conv9_2_mbox_conf_perm"
  top: "conv9_2_mbox_conf_flat"
  flatten_param {
    axis: 1
  }
}
layer {
  name: "conv9_2_mbox_clean"
  type: "Convolution"
  bottom: "conv9_2"
  top: "conv9_2_mbox_clean"
  param {
    lr_mult: 1
    decay_mult: 1
  }
  param {
    lr_mult: 2
    decay_mult: 0
  }
  convolution_param {
    num_output: 4
    pad: 1
    kernel_size: 3
    stride: 1
    weight_filler {
      type: "xavier"
    }
    bias_filler {
      type: "constant"
      value: 0
    }
  }
}
layer {
  name: "conv9_2_mbox_clean_perm"
  type: "Permute"
  bottom: "conv9_2_mbox_clean"
  top: "conv9_2_mbox_clean_perm"
  permute_param {
    order: 0
    order: 2
    order: 3
    order: 1
  }
}
layer {
  name: "conv9_2_mbox_clean_fl
I0403 21:46:36.715250 22764 layer_factory.hpp:77] Creating layer data
I0403 21:46:36.716308 22764 net.cpp:100] Creating Layer data
I0403 21:46:36.716349 22764 net.cpp:408] data -> data
I0403 21:46:36.716439 22764 net.cpp:408] data -> label
I0403 21:46:36.717346 22800 db_lmdb.cpp:35] Opened lmdb /data/siyu/dataset/coco/lmdb/COCO_Train2014_person_lmdb
I0403 21:46:36.739325 22764 annotated_data_layer.cpp:62] output data size: 8,3,512,512
I0403 21:46:36.787655 22764 net.cpp:150] Setting up data
I0403 21:46:36.787705 22764 net.cpp:157] Top shape: 8 3 512 512 (6291456)
I0403 21:46:36.787715 22764 net.cpp:157] Top shape: 1 1 1 8 (8)
I0403 21:46:36.787721 22764 net.cpp:165] Memory required for data: 25165856
I0403 21:46:36.787736 22764 layer_factory.hpp:77] Creating layer data_data_0_split
I0403 21:46:36.787762 22764 net.cpp:100] Creating Layer data_data_0_split
I0403 21:46:36.787773 22764 net.cpp:434] data_data_0_split <- data
I0403 21:46:36.787794 22764 net.cpp:408] data_data_0_split -> data_data_0_split_0
I0403 21:46:36.787811 22764 net.cpp:408] data_data_0_split -> data_data_0_split_1
I0403 21:46:36.787822 22764 net.cpp:408] data_data_0_split -> data_data_0_split_2
I0403 21:46:36.787835 22764 net.cpp:408] data_data_0_split -> data_data_0_split_3
I0403 21:46:36.787845 22764 net.cpp:408] data_data_0_split -> data_data_0_split_4
I0403 21:46:36.787853 22764 net.cpp:408] data_data_0_split -> data_data_0_split_5
I0403 21:46:36.787865 22764 net.cpp:408] data_data_0_split -> data_data_0_split_6
I0403 21:46:36.787976 22764 net.cpp:150] Setting up data_data_0_split
I0403 21:46:36.787987 22764 net.cpp:157] Top shape: 8 3 512 512 (6291456)
I0403 21:46:36.787995 22764 net.cpp:157] Top shape: 8 3 512 512 (6291456)
I0403 21:46:36.788003 22764 net.cpp:157] Top shape: 8 3 512 512 (6291456)
I0403 21:46:36.788009 22764 net.cpp:157] Top shape: 8 3 512 512 (6291456)
I0403 21:46:36.788034 22764 net.cpp:157] Top shape: 8 3 512 512 (6291456)
I0403 21:46:36.788041 22764 net.cpp:157] Top shape: 8 3 512 512 (6291456)
I0403 21:46:36.788048 22764 net.cpp:157] Top shape: 8 3 512 512 (6291456)
I0403 21:46:36.788053 22764 net.cpp:165] Memory required for data: 201326624
I0403 21:46:36.788060 22764 layer_factory.hpp:77] Creating layer conv1_1
I0403 21:46:36.788084 22764 net.cpp:100] Creating Layer conv1_1
I0403 21:46:36.788090 22764 net.cpp:434] conv1_1 <- data_data_0_split_0
I0403 21:46:36.788101 22764 net.cpp:408] conv1_1 -> conv1_1
I0403 21:46:37.059334 22764 net.cpp:150] Setting up conv1_1
I0403 21:46:37.059368 22764 net.cpp:157] Top shape: 8 64 512 512 (134217728)
I0403 21:46:37.059376 22764 net.cpp:165] Memory required for data: 738197536
I0403 21:46:37.059396 22764 layer_factory.hpp:77] Creating layer relu1_1
I0403 21:46:37.059408 22764 net.cpp:100] Creating Layer relu1_1
I0403 21:46:37.059418 22764 net.cpp:434] relu1_1 <- conv1_1
I0403 21:46:37.059427 22764 net.cpp:395] relu1_1 -> conv1_1 (in-place)
I0403 21:46:37.059741 22764 net.cpp:150] Setting up relu1_1
I0403 21:46:37.059756 22764 net.cpp:157] Top shape: 8 64 512 512 (134217728)
I0403 21:46:37.059762 22764 net.cpp:165] Memory required for data: 1275068448
I0403 21:46:37.059767 22764 layer_factory.hpp:77] Creating layer conv1_2
I0403 21:46:37.059784 22764 net.cpp:100] Creating Layer conv1_2
I0403 21:46:37.059792 22764 net.cpp:434] conv1_2 <- conv1_1
I0403 21:46:37.059800 22764 net.cpp:408] conv1_2 -> conv1_2
I0403 21:46:37.062232 22764 net.cpp:150] Setting up conv1_2
I0403 21:46:37.062248 22764 net.cpp:157] Top shape: 8 64 512 512 (134217728)
I0403 21:46:37.062254 22764 net.cpp:165] Memory required for data: 1811939360
I0403 21:46:37.062265 22764 layer_factory.hpp:77] Creating layer relu1_2
I0403 21:46:37.062273 22764 net.cpp:100] Creating Layer relu1_2
I0403 21:46:37.062278 22764 net.cpp:434] relu1_2 <- conv1_2
I0403 21:46:37.062288 22764 net.cpp:395] relu1_2 -> conv1_2 (in-place)
I0403 21:46:37.062449 22764 net.cpp:150] Setting up relu1_2
I0403 21:46:37.062461 22764 net.cpp:157] Top shape: 8 64 512 512 (134217728)
I0403 21:46:37.062466 22764 net.cpp:165] Memory required for data: 2348810272
I0403 21:46:37.062474 22764 layer_factory.hpp:77] Creating layer pool1
I0403 21:46:37.062484 22764 net.cpp:100] Creating Layer pool1
I0403 21:46:37.062490 22764 net.cpp:434] pool1 <- conv1_2
I0403 21:46:37.062496 22764 net.cpp:408] pool1 -> pool1
I0403 21:46:37.062549 22764 net.cpp:150] Setting up pool1
I0403 21:46:37.062558 22764 net.cpp:157] Top shape: 8 64 256 256 (33554432)
I0403 21:46:37.062563 22764 net.cpp:165] Memory required for data: 2483028000
I0403 21:46:37.062568 22764 layer_factory.hpp:77] Creating layer conv2_1
I0403 21:46:37.062580 22764 net.cpp:100] Creating Layer conv2_1
I0403 21:46:37.062587 22764 net.cpp:434] conv2_1 <- pool1
I0403 21:46:37.062593 22764 net.cpp:408] conv2_1 -> conv2_1
I0403 21:46:37.064682 22764 net.cpp:150] Setting up conv2_1
I0403 21:46:37.064700 22764 net.cpp:157] Top shape: 8 128 256 256 (67108864)
I0403 21:46:37.064705 22764 net.cpp:165] Memory required for data: 2751463456
I0403 21:46:37.064716 22764 layer_factory.hpp:77] Creating layer relu2_1
I0403 21:46:37.064725 22764 net.cpp:100] Creating Layer relu2_1
I0403 21:46:37.064730 22764 net.cpp:434] relu2_1 <- conv2_1
I0403 21:46:37.064740 22764 net.cpp:395] relu2_1 -> conv2_1 (in-place)
I0403 21:46:37.064903 22764 net.cpp:150] Setting up relu2_1
I0403 21:46:37.064914 22764 net.cpp:157] Top shape: 8 128 256 256 (67108864)
I0403 21:46:37.064919 22764 net.cpp:165] Memory required for data: 3019898912
I0403 21:46:37.064926 22764 layer_factory.hpp:77] Creating layer conv2_2
I0403 21:46:37.064936 22764 net.cpp:100] Creating Layer conv2_2
I0403 21:46:37.064944 22764 net.cpp:434] conv2_2 <- conv2_1
I0403 21:46:37.064950 22764 net.cpp:408] conv2_2 -> conv2_2
I0403 21:46:37.066965 22764 net.cpp:150] Setting up conv2_2
I0403 21:46:37.066982 22764 net.cpp:157] Top shape: 8 128 256 256 (67108864)
I0403 21:46:37.066988 22764 net.cpp:165] Memory required for data: 3288334368
I0403 21:46:37.067014 22764 layer_factory.hpp:77] Creating layer relu2_2
I0403 21:46:37.067024 22764 net.cpp:100] Creating Layer relu2_2
I0403 21:46:37.067031 22764 net.cpp:434] relu2_2 <- conv2_2
I0403 21:46:37.067039 22764 net.cpp:395] relu2_2 -> conv2_2 (in-place)
I0403 21:46:37.067309 22764 net.cpp:150] Setting up relu2_2
I0403 21:46:37.067324 22764 net.cpp:157] Top shape: 8 128 256 256 (67108864)
I0403 21:46:37.067329 22764 net.cpp:165] Memory required for data: 3556769824
I0403 21:46:37.067334 22764 layer_factory.hpp:77] Creating layer pool2
I0403 21:46:37.067342 22764 net.cpp:100] Creating Layer pool2
I0403 21:46:37.067348 22764 net.cpp:434] pool2 <- conv2_2
I0403 21:46:37.067354 22764 net.cpp:408] pool2 -> pool2
I0403 21:46:37.067399 22764 net.cpp:150] Setting up pool2
I0403 21:46:37.067407 22764 net.cpp:157] Top shape: 8 128 128 128 (16777216)
I0403 21:46:37.067412 22764 net.cpp:165] Memory required for data: 3623878688
I0403 21:46:37.067417 22764 layer_factory.hpp:77] Creating layer conv3_1
I0403 21:46:37.067428 22764 net.cpp:100] Creating Layer conv3_1
I0403 21:46:37.067435 22764 net.cpp:434] conv3_1 <- pool2
I0403 21:46:37.067442 22764 net.cpp:408] conv3_1 -> conv3_1
I0403 21:46:37.071501 22764 net.cpp:150] Setting up conv3_1
I0403 21:46:37.071518 22764 net.cpp:157] Top shape: 8 256 128 128 (33554432)
I0403 21:46:37.071526 22764 net.cpp:165] Memory required for data: 3758096416
I0403 21:46:37.071537 22764 layer_factory.hpp:77] Creating layer relu3_1
I0403 21:46:37.071545 22764 net.cpp:100] Creating Layer relu3_1
I0403 21:46:37.071552 22764 net.cpp:434] relu3_1 <- conv3_1
I0403 21:46:37.071559 22764 net.cpp:395] relu3_1 -> conv3_1 (in-place)
I0403 21:46:37.071730 22764 net.cpp:150] Setting up relu3_1
I0403 21:46:37.071743 22764 net.cpp:157] Top shape: 8 256 128 128 (33554432)
I0403 21:46:37.071748 22764 net.cpp:165] Memory required for data: 3892314144
I0403 21:46:37.071754 22764 layer_factory.hpp:77] Creating layer conv3_2
I0403 21:46:37.071765 22764 net.cpp:100] Creating Layer conv3_2
I0403 21:46:37.071771 22764 net.cpp:434] conv3_2 <- conv3_1
I0403 21:46:37.071779 22764 net.cpp:408] conv3_2 -> conv3_2
I0403 21:46:37.077782 22764 net.cpp:150] Setting up conv3_2
I0403 21:46:37.077803 22764 net.cpp:157] Top shape: 8 256 128 128 (33554432)
I0403 21:46:37.077810 22764 net.cpp:165] Memory required for data: 4026531872
I0403 21:46:37.077817 22764 layer_factory.hpp:77] Creating layer relu3_2
I0403 21:46:37.077826 22764 net.cpp:100] Creating Layer relu3_2
I0403 21:46:37.077832 22764 net.cpp:434] relu3_2 <- conv3_2
I0403 21:46:37.077839 22764 net.cpp:395] relu3_2 -> conv3_2 (in-place)
I0403 21:46:37.078007 22764 net.cpp:150] Setting up relu3_2
I0403 21:46:37.078018 22764 net.cpp:157] Top shape: 8 256 128 128 (33554432)
I0403 21:46:37.078023 22764 net.cpp:165] Memory required for data: 4160749600
I0403 21:46:37.078029 22764 layer_factory.hpp:77] Creating layer conv3_3
I0403 21:46:37.078045 22764 net.cpp:100] Creating Layer conv3_3
I0403 21:46:37.078052 22764 net.cpp:434] conv3_3 <- conv3_2
I0403 21:46:37.078060 22764 net.cpp:408] conv3_3 -> conv3_3
I0403 21:46:37.083999 22764 net.cpp:150] Setting up conv3_3
I0403 21:46:37.084019 22764 net.cpp:157] Top shape: 8 256 128 128 (33554432)
I0403 21:46:37.084024 22764 net.cpp:165] Memory required for data: 4294967328
I0403 21:46:37.084033 22764 layer_factory.hpp:77] Creating layer relu3_3
I0403 21:46:37.084043 22764 net.cpp:100] Creating Layer relu3_3
I0403 21:46:37.084050 22764 net.cpp:434] relu3_3 <- conv3_3
I0403 21:46:37.084059 22764 net.cpp:395] relu3_3 -> conv3_3 (in-place)
I0403 21:46:37.084328 22764 net.cpp:150] Setting up relu3_3
I0403 21:46:37.084342 22764 net.cpp:157] Top shape: 8 256 128 128 (33554432)
I0403 21:46:37.084348 22764 net.cpp:165] Memory required for data: 4429185056
I0403 21:46:37.084354 22764 layer_factory.hpp:77] Creating layer pool3
I0403 21:46:37.084365 22764 net.cpp:100] Creating Layer pool3
I0403 21:46:37.084370 22764 net.cpp:434] pool3 <- conv3_3
I0403 21:46:37.084378 22764 net.cpp:408] pool3 -> pool3
I0403 21:46:37.084439 22764 net.cpp:150] Setting up pool3
I0403 21:46:37.084450 22764 net.cpp:157] Top shape: 8 256 64 64 (8388608)
I0403 21:46:37.084453 22764 net.cpp:165] Memory required for data: 4462739488
I0403 21:46:37.084460 22764 layer_factory.hpp:77] Creating layer conv4_1
I0403 21:46:37.084470 22764 net.cpp:100] Creating Layer conv4_1
I0403 21:46:37.084477 22764 net.cpp:434] conv4_1 <- pool3
I0403 21:46:37.084486 22764 net.cpp:408] conv4_1 -> conv4_1
I0403 21:46:37.095715 22764 net.cpp:150] Setting up conv4_1
I0403 21:46:37.095747 22764 net.cpp:157] Top shape: 8 512 64 64 (16777216)
I0403 21:46:37.095753 22764 net.cpp:165] Memory required for data: 4529848352
I0403 21:46:37.095763 22764 layer_factory.hpp:77] Creating layer relu4_1
I0403 21:46:37.095775 22764 net.cpp:100] Creating Layer relu4_1
I0403 21:46:37.095783 22764 net.cpp:434] relu4_1 <- conv4_1
I0403 21:46:37.095793 22764 net.cpp:395] relu4_1 -> conv4_1 (in-place)
I0403 21:46:37.095953 22764 net.cpp:150] Setting up relu4_1
I0403 21:46:37.095965 22764 net.cpp:157] Top shape: 8 512 64 64 (16777216)
I0403 21:46:37.095971 22764 net.cpp:165] Memory required for data: 4596957216
I0403 21:46:37.095976 22764 layer_factory.hpp:77] Creating layer conv4_2
I0403 21:46:37.095991 22764 net.cpp:100] Creating Layer conv4_2
I0403 21:46:37.095998 22764 net.cpp:434] conv4_2 <- conv4_1
I0403 21:46:37.096006 22764 net.cpp:408] conv4_2 -> conv4_2
I0403 21:46:37.115171 22764 net.cpp:150] Setting up conv4_2
I0403 21:46:37.115195 22764 net.cpp:157] Top shape: 8 512 64 64 (16777216)
I0403 21:46:37.115201 22764 net.cpp:165] Memory required for data: 4664066080
I0403 21:46:37.115216 22764 layer_factory.hpp:77] Creating layer relu4_2
I0403 21:46:37.115227 22764 net.cpp:100] Creating Layer relu4_2
I0403 21:46:37.115234 22764 net.cpp:434] relu4_2 <- conv4_2
I0403 21:46:37.115244 22764 net.cpp:395] relu4_2 -> conv4_2 (in-place)
I0403 21:46:37.115401 22764 net.cpp:150] Setting up relu4_2
I0403 21:46:37.115413 22764 net.cpp:157] Top shape: 8 512 64 64 (16777216)
I0403 21:46:37.115417 22764 net.cpp:165] Memory required for data: 4731174944
I0403 21:46:37.115424 22764 layer_factory.hpp:77] Creating layer conv4_3
I0403 21:46:37.115437 22764 net.cpp:100] Creating Layer conv4_3
I0403 21:46:37.115443 22764 net.cpp:434] conv4_3 <- conv4_2
I0403 21:46:37.115452 22764 net.cpp:408] conv4_3 -> conv4_3
I0403 21:46:37.134560 22764 net.cpp:150] Setting up conv4_3
I0403 21:46:37.134599 22764 net.cpp:157] Top shape: 8 512 64 64 (16777216)
I0403 21:46:37.134605 22764 net.cpp:165] Memory required for data: 4798283808
I0403 21:46:37.134615 22764 layer_factory.hpp:77] Creating layer relu4_3
I0403 21:46:37.134625 22764 net.cpp:100] Creating Layer relu4_3
I0403 21:46:37.134631 22764 net.cpp:434] relu4_3 <- conv4_3
I0403 21:46:37.134639 22764 net.cpp:395] relu4_3 -> conv4_3 (in-place)
I0403 21:46:37.134905 22764 net.cpp:150] Setting up relu4_3
I0403 21:46:37.134930 22764 net.cpp:157] Top shape: 8 512 64 64 (16777216)
I0403 21:46:37.134946 22764 net.cpp:165] Memory required for data: 4865392672
I0403 21:46:37.134951 22764 layer_factory.hpp:77] Creating layer conv4_3_relu4_3_0_split
I0403 21:46:37.134959 22764 net.cpp:100] Creating Layer conv4_3_relu4_3_0_split
I0403 21:46:37.134964 22764 net.cpp:434] conv4_3_relu4_3_0_split <- conv4_3
I0403 21:46:37.134971 22764 net.cpp:408] conv4_3_relu4_3_0_split -> conv4_3_relu4_3_0_split_0
I0403 21:46:37.134982 22764 net.cpp:408] conv4_3_relu4_3_0_split -> conv4_3_relu4_3_0_split_1
I0403 21:46:37.135023 22764 net.cpp:150] Setting up conv4_3_relu4_3_0_split
I0403 21:46:37.135032 22764 net.cpp:157] Top shape: 8 512 64 64 (16777216)
I0403 21:46:37.135037 22764 net.cpp:157] Top shape: 8 512 64 64 (16777216)
I0403 21:46:37.135043 22764 net.cpp:165] Memory required for data: 4999610400
I0403 21:46:37.135047 22764 layer_factory.hpp:77] Creating layer pool4
I0403 21:46:37.135058 22764 net.cpp:100] Creating Layer pool4
I0403 21:46:37.135066 22764 net.cpp:434] pool4 <- conv4_3_relu4_3_0_split_0
I0403 21:46:37.135072 22764 net.cpp:408] pool4 -> pool4
I0403 21:46:37.135107 22764 net.cpp:150] Setting up pool4
I0403 21:46:37.135130 22764 net.cpp:157] Top shape: 8 512 32 32 (4194304)
I0403 21:46:37.135135 22764 net.cpp:165] Memory required for data: 5016387616
I0403 21:46:37.135140 22764 layer_factory.hpp:77] Creating layer conv5_1
I0403 21:46:37.135154 22764 net.cpp:100] Creating Layer conv5_1
I0403 21:46:37.135159 22764 net.cpp:434] conv5_1 <- pool4
I0403 21:46:37.135167 22764 net.cpp:408] conv5_1 -> conv5_1
I0403 21:46:37.153614 22764 net.cpp:150] Setting up conv5_1
I0403 21:46:37.153645 22764 net.cpp:157] Top shape: 8 512 32 32 (4194304)
I0403 21:46:37.153651 22764 net.cpp:165] Memory required for data: 5033164832
I0403 21:46:37.153659 22764 layer_factory.hpp:77] Creating layer relu5_1
I0403 21:46:37.153668 22764 net.cpp:100] Creating Layer relu5_1
I0403 21:46:37.153674 22764 net.cpp:434] relu5_1 <- conv5_1
I0403 21:46:37.153683 22764 net.cpp:395] relu5_1 -> conv5_1 (in-place)
I0403 21:46:37.153839 22764 net.cpp:150] Setting up relu5_1
I0403 21:46:37.153851 22764 net.cpp:157] Top shape: 8 512 32 32 (4194304)
I0403 21:46:37.153854 22764 net.cpp:165] Memory required for data: 5049942048
I0403 21:46:37.153861 22764 layer_factory.hpp:77] Creating layer conv5_2
I0403 21:46:37.153873 22764 net.cpp:100] Creating Layer conv5_2
I0403 21:46:37.153879 22764 net.cpp:434] conv5_2 <- conv5_1
I0403 21:46:37.153887 22764 net.cpp:408] conv5_2 -> conv5_2
I0403 21:46:37.173161 22764 net.cpp:150] Setting up conv5_2
I0403 21:46:37.173194 22764 net.cpp:157] Top shape: 8 512 32 32 (4194304)
I0403 21:46:37.173200 22764 net.cpp:165] Memory required for data: 5066719264
I0403 21:46:37.173209 22764 layer_factory.hpp:77] Creating layer relu5_2
I0403 21:46:37.173219 22764 net.cpp:100] Creating Layer relu5_2
I0403 21:46:37.173224 22764 net.cpp:434] relu5_2 <- conv5_2
I0403 21:46:37.173231 22764 net.cpp:395] relu5_2 -> conv5_2 (in-place)
I0403 21:46:37.173385 22764 net.cpp:150] Setting up relu5_2
I0403 21:46:37.173395 22764 net.cpp:157] Top shape: 8 512 32 32 (4194304)
I0403 21:46:37.173400 22764 net.cpp:165] Memory required for data: 5083496480
I0403 21:46:37.173405 22764 layer_factory.hpp:77] Creating layer conv5_3
I0403 21:46:37.173419 22764 net.cpp:100] Creating Layer conv5_3
I0403 21:46:37.173425 22764 net.cpp:434] conv5_3 <- conv5_2
I0403 21:46:37.173434 22764 net.cpp:408] conv5_3 -> conv5_3
I0403 21:46:37.192934 22764 net.cpp:150] Setting up conv5_3
I0403 21:46:37.192962 22764 net.cpp:157] Top shape: 8 512 32 32 (4194304)
I0403 21:46:37.192970 22764 net.cpp:165] Memory required for data: 5100273696
I0403 21:46:37.192978 22764 layer_factory.hpp:77] Creating layer relu5_3
I0403 21:46:37.192991 22764 net.cpp:100] Creating Layer relu5_3
I0403 21:46:37.192998 22764 net.cpp:434] relu5_3 <- conv5_3
I0403 21:46:37.193006 22764 net.cpp:395] relu5_3 -> conv5_3 (in-place)
I0403 21:46:37.193409 22764 net.cpp:150] Setting up relu5_3
I0403 21:46:37.193435 22764 net.cpp:157] Top shape: 8 512 32 32 (4194304)
I0403 21:46:37.193440 22764 net.cpp:165] Memory required for data: 5117050912
I0403 21:46:37.193445 22764 layer_factory.hpp:77] Creating layer pool5
I0403 21:46:37.193456 22764 net.cpp:100] Creating Layer pool5
I0403 21:46:37.193464 22764 net.cpp:434] pool5 <- conv5_3
I0403 21:46:37.193470 22764 net.cpp:408] pool5 -> pool5
I0403 21:46:37.193519 22764 net.cpp:150] Setting up pool5
I0403 21:46:37.193527 22764 net.cpp:157] Top shape: 8 512 32 32 (4194304)
I0403 21:46:37.193532 22764 net.cpp:165] Memory required for data: 5133828128
I0403 21:46:37.193538 22764 layer_factory.hpp:77] Creating layer fc6
I0403 21:46:37.193550 22764 net.cpp:100] Creating Layer fc6
I0403 21:46:37.193557 22764 net.cpp:434] fc6 <- pool5
I0403 21:46:37.193563 22764 net.cpp:408] fc6 -> fc6
I0403 21:46:37.247541 22764 net.cpp:150] Setting up fc6
I0403 21:46:37.247604 22764 net.cpp:157] Top shape: 8 1024 32 32 (8388608)
I0403 21:46:37.247612 22764 net.cpp:165] Memory required for data: 5167382560
I0403 21:46:37.247625 22764 layer_factory.hpp:77] Creating layer relu6
I0403 21:46:37.247640 22764 net.cpp:100] Creating Layer relu6
I0403 21:46:37.247649 22764 net.cpp:434] relu6 <- fc6
I0403 21:46:37.247689 22764 net.cpp:395] relu6 -> fc6 (in-place)
I0403 21:46:37.247979 22764 net.cpp:150] Setting up relu6
I0403 21:46:37.247993 22764 net.cpp:157] Top shape: 8 1024 32 32 (8388608)
I0403 21:46:37.247999 22764 net.cpp:165] Memory required for data: 5200936992
I0403 21:46:37.248005 22764 layer_factory.hpp:77] Creating layer fc7
I0403 21:46:37.248023 22764 net.cpp:100] Creating Layer fc7
I0403 21:46:37.248029 22764 net.cpp:434] fc7 <- fc6
I0403 21:46:37.248039 22764 net.cpp:408] fc7 -> fc7
I0403 21:46:37.259239 22764 net.cpp:150] Setting up fc7
I0403 21:46:37.259260 22764 net.cpp:157] Top shape: 8 1024 32 32 (8388608)
I0403 21:46:37.259268 22764 net.cpp:165] Memory required for data: 5234491424
I0403 21:46:37.259277 22764 layer_factory.hpp:77] Creating layer relu7
I0403 21:46:37.259287 22764 net.cpp:100] Creating Layer relu7
I0403 21:46:37.259294 22764 net.cpp:434] relu7 <- fc7
I0403 21:46:37.259304 22764 net.cpp:395] relu7 -> fc7 (in-place)
I0403 21:46:37.259656 22764 net.cpp:150] Setting up relu7
I0403 21:46:37.259672 22764 net.cpp:157] Top shape: 8 1024 32 32 (8388608)
I0403 21:46:37.259678 22764 net.cpp:165] Memory required for data: 5268045856
I0403 21:46:37.259685 22764 layer_factory.hpp:77] Creating layer fc7_relu7_0_split
I0403 21:46:37.259696 22764 net.cpp:100] Creating Layer fc7_relu7_0_split
I0403 21:46:37.259701 22764 net.cpp:434] fc7_relu7_0_split <- fc7
I0403 21:46:37.259711 22764 net.cpp:408] fc7_relu7_0_split -> fc7_relu7_0_split_0
I0403 21:46:37.259722 22764 net.cpp:408] fc7_relu7_0_split -> fc7_relu7_0_split_1
I0403 21:46:37.259742 22764 net.cpp:408] fc7_relu7_0_split -> fc7_relu7_0_split_2
I0403 21:46:37.259752 22764 net.cpp:408] fc7_relu7_0_split -> fc7_relu7_0_split_3
I0403 21:46:37.259762 22764 net.cpp:408] fc7_relu7_0_split -> fc7_relu7_0_split_4
I0403 21:46:37.259855 22764 net.cpp:150] Setting up fc7_relu7_0_split
I0403 21:46:37.259866 22764 net.cpp:157] Top shape: 8 1024 32 32 (8388608)
I0403 21:46:37.259874 22764 net.cpp:157] Top shape: 8 1024 32 32 (8388608)
I0403 21:46:37.259881 22764 net.cpp:157] Top shape: 8 1024 32 32 (8388608)
I0403 21:46:37.259888 22764 net.cpp:157] Top shape: 8 1024 32 32 (8388608)
I0403 21:46:37.259896 22764 net.cpp:157] Top shape: 8 1024 32 32 (8388608)
I0403 21:46:37.259901 22764 net.cpp:165] Memory required for data: 5435818016
I0403 21:46:37.259907 22764 layer_factory.hpp:77] Creating layer conv6_1
I0403 21:46:37.259920 22764 net.cpp:100] Creating Layer conv6_1
I0403 21:46:37.259928 22764 net.cpp:434] conv6_1 <- fc7_relu7_0_split_0
I0403 21:46:37.259938 22764 net.cpp:408] conv6_1 -> conv6_1
I0403 21:46:37.263689 22764 net.cpp:150] Setting up conv6_1
I0403 21:46:37.263708 22764 net.cpp:157] Top shape: 8 256 32 32 (2097152)
I0403 21:46:37.263715 22764 net.cpp:165] Memory required for data: 5444206624
I0403 21:46:37.263723 22764 layer_factory.hpp:77] Creating layer conv6_1_relu
I0403 21:46:37.263733 22764 net.cpp:100] Creating Layer conv6_1_relu
I0403 21:46:37.263739 22764 net.cpp:434] conv6_1_relu <- conv6_1
I0403 21:46:37.263748 22764 net.cpp:395] conv6_1_relu -> conv6_1 (in-place)
I0403 21:46:37.264083 22764 net.cpp:150] Setting up conv6_1_relu
I0403 21:46:37.264099 22764 net.cpp:157] Top shape: 8 256 32 32 (2097152)
I0403 21:46:37.264106 22764 net.cpp:165] Memory required for data: 5452595232
I0403 21:46:37.264111 22764 layer_factory.hpp:77] Creating layer conv6_2
I0403 21:46:37.264127 22764 net.cpp:100] Creating Layer conv6_2
I0403 21:46:37.264135 22764 net.cpp:434] conv6_2 <- conv6_1
I0403 21:46:37.264145 22764 net.cpp:408] conv6_2 -> conv6_2
I0403 21:46:37.276319 22764 net.cpp:150] Setting up conv6_2
I0403 21:46:37.276338 22764 net.cpp:157] Top shape: 8 512 16 16 (1048576)
I0403 21:46:37.276345 22764 net.cpp:165] Memory required for data: 5456789536
I0403 21:46:37.276362 22764 layer_factory.hpp:77] Creating layer conv6_2_relu
I0403 21:46:37.276372 22764 net.cpp:100] Creating Layer conv6_2_relu
I0403 21:46:37.276381 22764 net.cpp:434] conv6_2_relu <- conv6_2
I0403 21:46:37.276389 22764 net.cpp:395] conv6_2_relu -> conv6_2 (in-place)
I0403 21:46:37.276614 22764 net.cpp:150] Setting up conv6_2_relu
I0403 21:46:37.276628 22764 net.cpp:157] Top shape: 8 512 16 16 (1048576)
I0403 21:46:37.276636 22764 net.cpp:165] Memory required for data: 5460983840
I0403 21:46:37.276643 22764 layer_factory.hpp:77] Creating layer conv6_2_conv6_2_relu_0_split
I0403 21:46:37.276654 22764 net.cpp:100] Creating Layer conv6_2_conv6_2_relu_0_split
I0403 21:46:37.276662 22764 net.cpp:434] conv6_2_conv6_2_relu_0_split <- conv6_2
I0403 21:46:37.276671 22764 net.cpp:408] conv6_2_conv6_2_relu_0_split -> conv6_2_conv6_2_relu_0_split_0
I0403 21:46:37.276682 22764 net.cpp:408] conv6_2_conv6_2_relu_0_split -> conv6_2_conv6_2_relu_0_split_1
I0403 21:46:37.276692 22764 net.cpp:408] conv6_2_conv6_2_relu_0_split -> conv6_2_conv6_2_relu_0_split_2
I0403 21:46:37.276703 22764 net.cpp:408] conv6_2_conv6_2_relu_0_split -> conv6_2_conv6_2_relu_0_split_3
I0403 21:46:37.276712 22764 net.cpp:408] conv6_2_conv6_2_relu_0_split -> conv6_2_conv6_2_relu_0_split_4
I0403 21:46:37.276803 22764 net.cpp:150] Setting up conv6_2_conv6_2_relu_0_split
I0403 21:46:37.276813 22764 net.cpp:157] Top shape: 8 512 16 16 (1048576)
I0403 21:46:37.276819 22764 net.cpp:157] Top shape: 8 512 16 16 (1048576)
I0403 21:46:37.276826 22764 net.cpp:157] Top shape: 8 512 16 16 (1048576)
I0403 21:46:37.276832 22764 net.cpp:157] Top shape: 8 512 16 16 (1048576)
I0403 21:46:37.276839 22764 net.cpp:157] Top shape: 8 512 16 16 (1048576)
I0403 21:46:37.276844 22764 net.cpp:165] Memory required for data: 5481955360
I0403 21:46:37.276850 22764 layer_factory.hpp:77] Creating layer conv7_1
I0403 21:46:37.276865 22764 net.cpp:100] Creating Layer conv7_1
I0403 21:46:37.276873 22764 net.cpp:434] conv7_1 <- conv6_2_conv6_2_relu_0_split_0
I0403 21:46:37.276887 22764 net.cpp:408] conv7_1 -> conv7_1
I0403 21:46:37.278584 22764 net.cpp:150] Setting up conv7_1
I0403 21:46:37.278601 22764 net.cpp:157] Top shape: 8 128 16 16 (262144)
I0403 21:46:37.278607 22764 net.cpp:165] Memory required for data: 5483003936
I0403 21:46:37.278616 22764 layer_factory.hpp:77] Creating layer conv7_1_relu
I0403 21:46:37.278626 22764 net.cpp:100] Creating Layer conv7_1_relu
I0403 21:46:37.278632 22764 net.cpp:434] conv7_1_relu <- conv7_1
I0403 21:46:37.278642 22764 net.cpp:395] conv7_1_relu -> conv7_1 (in-place)
I0403 21:46:37.278970 22764 net.cpp:150] Setting up conv7_1_relu
I0403 21:46:37.278985 22764 net.cpp:157] Top shape: 8 128 16 16 (262144)
I0403 21:46:37.278991 22764 net.cpp:165] Memory required for data: 5484052512
I0403 21:46:37.278997 22764 layer_factory.hpp:77] Creating layer conv7_2
I0403 21:46:37.279011 22764 net.cpp:100] Creating Layer conv7_2
I0403 21:46:37.279017 22764 net.cpp:434] conv7_2 <- conv7_1
I0403 21:46:37.279029 22764 net.cpp:408] conv7_2 -> conv7_2
I0403 21:46:37.282892 22764 net.cpp:150] Setting up conv7_2
I0403 21:46:37.282912 22764 net.cpp:157] Top shape: 8 256 8 8 (131072)
I0403 21:46:37.282917 22764 net.cpp:165] Memory required for data: 5484576800
I0403 21:46:37.282927 22764 layer_factory.hpp:77] Creating layer conv7_2_relu
I0403 21:46:37.282937 22764 net.cpp:100] Creating Layer conv7_2_relu
I0403 21:46:37.282943 22764 net.cpp:434] conv7_2_relu <- conv7_2
I0403 21:46:37.282953 22764 net.cpp:395] conv7_2_relu -> conv7_2 (in-place)
I0403 21:46:37.283298 22764 net.cpp:150] Setting up conv7_2_relu
I0403 21:46:37.283313 22764 net.cpp:157] Top shape: 8 256 8 8 (131072)
I0403 21:46:37.283318 22764 net.cpp:165] Memory required for data: 5485101088
I0403 21:46:37.283324 22764 layer_factory.hpp:77] Creating layer conv7_2_conv7_2_relu_0_split
I0403 21:46:37.283334 22764 net.cpp:100] Creating Layer conv7_2_conv7_2_relu_0_split
I0403 21:46:37.283339 22764 net.cpp:434] conv7_2_conv7_2_relu_0_split <- conv7_2
I0403 21:46:37.283347 22764 net.cpp:408] conv7_2_conv7_2_relu_0_split -> conv7_2_conv7_2_relu_0_split_0
I0403 21:46:37.283360 22764 net.cpp:408] conv7_2_conv7_2_relu_0_split -> conv7_2_conv7_2_relu_0_split_1
I0403 21:46:37.283376 22764 net.cpp:408] conv7_2_conv7_2_relu_0_split -> conv7_2_conv7_2_relu_0_split_2
I0403 21:46:37.283385 22764 net.cpp:408] conv7_2_conv7_2_relu_0_split -> conv7_2_conv7_2_relu_0_split_3
I0403 21:46:37.283406 22764 net.cpp:408] conv7_2_conv7_2_relu_0_split -> conv7_2_conv7_2_relu_0_split_4
I0403 21:46:37.283506 22764 net.cpp:150] Setting up conv7_2_conv7_2_relu_0_split
I0403 21:46:37.283517 22764 net.cpp:157] Top shape: 8 256 8 8 (131072)
I0403 21:46:37.283524 22764 net.cpp:157] Top shape: 8 256 8 8 (131072)
I0403 21:46:37.283530 22764 net.cpp:157] Top shape: 8 256 8 8 (131072)
I0403 21:46:37.283536 22764 net.cpp:157] Top shape: 8 256 8 8 (131072)
I0403 21:46:37.283543 22764 net.cpp:157] Top shape: 8 256 8 8 (131072)
I0403 21:46:37.283548 22764 net.cpp:165] Memory required for data: 5487722528
I0403 21:46:37.283555 22764 layer_factory.hpp:77] Creating layer conv8_1
I0403 21:46:37.283574 22764 net.cpp:100] Creating Layer conv8_1
I0403 21:46:37.283596 22764 net.cpp:434] conv8_1 <- conv7_2_conv7_2_relu_0_split_0
I0403 21:46:37.283608 22764 net.cpp:408] conv8_1 -> conv8_1
I0403 21:46:37.285482 22764 net.cpp:150] Setting up conv8_1
I0403 21:46:37.285500 22764 net.cpp:157] Top shape: 8 128 8 8 (65536)
I0403 21:46:37.285504 22764 net.cpp:165] Memory required for data: 5487984672
I0403 21:46:37.285513 22764 layer_factory.hpp:77] Creating layer conv8_1_relu
I0403 21:46:37.285523 22764 net.cpp:100] Creating Layer conv8_1_relu
I0403 21:46:37.285531 22764 net.cpp:434] conv8_1_relu <- conv8_1
I0403 21:46:37.285540 22764 net.cpp:395] conv8_1_relu -> conv8_1 (in-place)
I0403 21:46:37.285740 22764 net.cpp:150] Setting up conv8_1_relu
I0403 21:46:37.285753 22764 net.cpp:157] Top shape: 8 128 8 8 (65536)
I0403 21:46:37.285759 22764 net.cpp:165] Memory required for data: 5488246816
I0403 21:46:37.285766 22764 layer_factory.hpp:77] Creating layer conv8_2
I0403 21:46:37.285780 22764 net.cpp:100] Creating Layer conv8_2
I0403 21:46:37.285789 22764 net.cpp:434] conv8_2 <- conv8_1
I0403 21:46:37.285799 22764 net.cpp:408] conv8_2 -> conv8_2
I0403 21:46:37.289948 22764 net.cpp:150] Setting up conv8_2
I0403 21:46:37.289966 22764 net.cpp:157] Top shape: 8 256 6 6 (73728)
I0403 21:46:37.289973 22764 net.cpp:165] Memory required for data: 5488541728
I0403 21:46:37.289981 22764 layer_factory.hpp:77] Creating layer conv8_2_relu
I0403 21:46:37.289991 22764 net.cpp:100] Creating Layer conv8_2_relu
I0403 21:46:37.289999 22764 net.cpp:434] conv8_2_relu <- conv8_2
I0403 21:46:37.290009 22764 net.cpp:395] conv8_2_relu -> conv8_2 (in-place)
I0403 21:46:37.290345 22764 net.cpp:150] Setting up conv8_2_relu
I0403 21:46:37.290361 22764 net.cpp:157] Top shape: 8 256 6 6 (73728)
I0403 21:46:37.290367 22764 net.cpp:165] Memory required for data: 5488836640
I0403 21:46:37.290374 22764 layer_factory.hpp:77] Creating layer conv8_2_conv8_2_relu_0_split
I0403 21:46:37.290386 22764 net.cpp:100] Creating Layer conv8_2_conv8_2_relu_0_split
I0403 21:46:37.290395 22764 net.cpp:434] conv8_2_conv8_2_relu_0_split <- conv8_2
I0403 21:46:37.290402 22764 net.cpp:408] conv8_2_conv8_2_relu_0_split -> conv8_2_conv8_2_relu_0_split_0
I0403 21:46:37.290415 22764 net.cpp:408] conv8_2_conv8_2_relu_0_split -> conv8_2_conv8_2_relu_0_split_1
I0403 21:46:37.290422 22764 net.cpp:408] conv8_2_conv8_2_relu_0_split -> conv8_2_conv8_2_relu_0_split_2
I0403 21:46:37.290434 22764 net.cpp:408] conv8_2_conv8_2_relu_0_split -> conv8_2_conv8_2_relu_0_split_3
I0403 21:46:37.290443 22764 net.cpp:408] conv8_2_conv8_2_relu_0_split -> conv8_2_conv8_2_relu_0_split_4
I0403 21:46:37.290549 22764 net.cpp:150] Setting up conv8_2_conv8_2_relu_0_split
I0403 21:46:37.290560 22764 net.cpp:157] Top shape: 8 256 6 6 (73728)
I0403 21:46:37.290566 22764 net.cpp:157] Top shape: 8 256 6 6 (73728)
I0403 21:46:37.290573 22764 net.cpp:157] Top shape: 8 256 6 6 (73728)
I0403 21:46:37.290580 22764 net.cpp:157] Top shape: 8 256 6 6 (73728)
I0403 21:46:37.290586 22764 net.cpp:157] Top shape: 8 256 6 6 (73728)
I0403 21:46:37.290591 22764 net.cpp:165] Memory required for data: 5490311200
I0403 21:46:37.290597 22764 layer_factory.hpp:77] Creating layer conv9_1
I0403 21:46:37.290611 22764 net.cpp:100] Creating Layer conv9_1
I0403 21:46:37.290618 22764 net.cpp:434] conv9_1 <- conv8_2_conv8_2_relu_0_split_0
I0403 21:46:37.290642 22764 net.cpp:408] conv9_1 -> conv9_1
I0403 21:46:37.291965 22764 net.cpp:150] Setting up conv9_1
I0403 21:46:37.291982 22764 net.cpp:157] Top shape: 8 128 6 6 (36864)
I0403 21:46:37.291988 22764 net.cpp:165] Memory required for data: 5490458656
I0403 21:46:37.291999 22764 layer_factory.hpp:77] Creating layer conv9_1_relu
I0403 21:46:37.292009 22764 net.cpp:100] Creating Layer conv9_1_relu
I0403 21:46:37.292016 22764 net.cpp:434] conv9_1_relu <- conv9_1
I0403 21:46:37.292026 22764 net.cpp:395] conv9_1_relu -> conv9_1 (in-place)
I0403 21:46:37.292376 22764 net.cpp:150] Setting up conv9_1_relu
I0403 21:46:37.292390 22764 net.cpp:157] Top shape: 8 128 6 6 (36864)
I0403 21:46:37.292397 22764 net.cpp:165] Memory required for data: 5490606112
I0403 21:46:37.292403 22764 layer_factory.hpp:77] Creating layer conv9_2
I0403 21:46:37.292421 22764 net.cpp:100] Creating Layer conv9_2
I0403 21:46:37.292430 22764 net.cpp:434] conv9_2 <- conv9_1
I0403 21:46:37.292438 22764 net.cpp:408] conv9_2 -> conv9_2
I0403 21:46:37.296618 22764 net.cpp:150] Setting up conv9_2
I0403 21:46:37.296635 22764 net.cpp:157] Top shape: 8 256 4 4 (32768)
I0403 21:46:37.296641 22764 net.cpp:165] Memory required for data: 5490737184
I0403 21:46:37.296650 22764 layer_factory.hpp:77] Creating layer conv9_2_relu
I0403 21:46:37.296661 22764 net.cpp:100] Creating Layer conv9_2_relu
I0403 21:46:37.296667 22764 net.cpp:434] conv9_2_relu <- conv9_2
I0403 21:46:37.296677 22764 net.cpp:395] conv9_2_relu -> conv9_2 (in-place)
I0403 21:46:37.297013 22764 net.cpp:150] Setting up conv9_2_relu
I0403 21:46:37.297032 22764 net.cpp:157] Top shape: 8 256 4 4 (32768)
I0403 21:46:37.297039 22764 net.cpp:165] Memory required for data: 5490868256
I0403 21:46:37.297044 22764 layer_factory.hpp:77] Creating layer conv9_2_conv9_2_relu_0_split
I0403 21:46:37.297053 22764 net.cpp:100] Creating Layer conv9_2_conv9_2_relu_0_split
I0403 21:46:37.297060 22764 net.cpp:434] conv9_2_conv9_2_relu_0_split <- conv9_2
I0403 21:46:37.297075 22764 net.cpp:408] conv9_2_conv9_2_relu_0_split -> conv9_2_conv9_2_relu_0_split_0
I0403 21:46:37.297086 22764 net.cpp:408] conv9_2_conv9_2_relu_0_split -> conv9_2_conv9_2_relu_0_split_1
I0403 21:46:37.297098 22764 net.cpp:408] conv9_2_conv9_2_relu_0_split -> conv9_2_conv9_2_relu_0_split_2
I0403 21:46:37.297108 22764 net.cpp:408] conv9_2_conv9_2_relu_0_split -> conv9_2_conv9_2_relu_0_split_3
I0403 21:46:37.297195 22764 net.cpp:150] Setting up conv9_2_conv9_2_relu_0_split
I0403 21:46:37.297205 22764 net.cpp:157] Top shape: 8 256 4 4 (32768)
I0403 21:46:37.297212 22764 net.cpp:157] Top shape: 8 256 4 4 (32768)
I0403 21:46:37.297219 22764 net.cpp:157] Top shape: 8 256 4 4 (32768)
I0403 21:46:37.297224 22764 net.cpp:157] Top shape: 8 256 4 4 (32768)
I0403 21:46:37.297231 22764 net.cpp:165] Memory required for data: 5491392544
I0403 21:46:37.297236 22764 layer_factory.hpp:77] Creating layer conv4_3_norm
I0403 21:46:37.297248 22764 net.cpp:100] Creating Layer conv4_3_norm
I0403 21:46:37.297256 22764 net.cpp:434] conv4_3_norm <- conv4_3_relu4_3_0_split_1
I0403 21:46:37.297266 22764 net.cpp:408] conv4_3_norm -> conv4_3_norm
I0403 21:46:37.297458 22764 net.cpp:150] Setting up conv4_3_norm
I0403 21:46:37.297469 22764 net.cpp:157] Top shape: 8 512 64 64 (16777216)
I0403 21:46:37.297474 22764 net.cpp:165] Memory required for data: 5558501408
I0403 21:46:37.297483 22764 layer_factory.hpp:77] Creating layer conv4_3_norm_conv4_3_norm_0_split
I0403 21:46:37.297492 22764 net.cpp:100] Creating Layer conv4_3_norm_conv4_3_norm_0_split
I0403 21:46:37.297499 22764 net.cpp:434] conv4_3_norm_conv4_3_norm_0_split <- conv4_3_norm
I0403 21:46:37.297508 22764 net.cpp:408] conv4_3_norm_conv4_3_norm_0_split -> conv4_3_norm_conv4_3_norm_0_split_0
I0403 21:46:37.297525 22764 net.cpp:408] conv4_3_norm_conv4_3_norm_0_split -> conv4_3_norm_conv4_3_norm_0_split_1
I0403 21:46:37.297535 22764 net.cpp:408] conv4_3_norm_conv4_3_norm_0_split -> conv4_3_norm_conv4_3_norm_0_split_2
I0403 21:46:37.297544 22764 net.cpp:408] conv4_3_norm_conv4_3_norm_0_split -> conv4_3_norm_conv4_3_norm_0_split_3
I0403 21:46:37.297629 22764 net.cpp:150] Setting up conv4_3_norm_conv4_3_norm_0_split
I0403 21:46:37.297641 22764 net.cpp:157] Top shape: 8 512 64 64 (16777216)
I0403 21:46:37.297647 22764 net.cpp:157] Top shape: 8 512 64 64 (16777216)
I0403 21:46:37.297655 22764 net.cpp:157] Top shape: 8 512 64 64 (16777216)
I0403 21:46:37.297660 22764 net.cpp:157] Top shape: 8 512 64 64 (16777216)
I0403 21:46:37.297667 22764 net.cpp:165] Memory required for data: 5826936864
I0403 21:46:37.297672 22764 layer_factory.hpp:77] Creating layer conv4_3_norm_mbox_loc
I0403 21:46:37.297688 22764 net.cpp:100] Creating Layer conv4_3_norm_mbox_loc
I0403 21:46:37.297695 22764 net.cpp:434] conv4_3_norm_mbox_loc <- conv4_3_norm_conv4_3_norm_0_split_0
I0403 21:46:37.297706 22764 net.cpp:408] conv4_3_norm_mbox_loc -> conv4_3_norm_mbox_loc
I0403 21:46:37.300189 22764 net.cpp:150] Setting up conv4_3_norm_mbox_loc
I0403 21:46:37.300207 22764 net.cpp:157] Top shape: 8 16 64 64 (524288)
I0403 21:46:37.300213 22764 net.cpp:165] Memory required for data: 5829034016
I0403 21:46:37.300225 22764 layer_factory.hpp:77] Creating layer conv4_3_norm_mbox_loc_perm
I0403 21:46:37.300243 22764 net.cpp:100] Creating Layer conv4_3_norm_mbox_loc_perm
I0403 21:46:37.300251 22764 net.cpp:434] conv4_3_norm_mbox_loc_perm <- conv4_3_norm_mbox_loc
I0403 21:46:37.300262 22764 net.cpp:408] conv4_3_norm_mbox_loc_perm -> conv4_3_norm_mbox_loc_perm
I0403 21:46:37.300405 22764 net.cpp:150] Setting up conv4_3_norm_mbox_loc_perm
I0403 21:46:37.300416 22764 net.cpp:157] Top shape: 8 64 64 16 (524288)
I0403 21:46:37.300421 22764 net.cpp:165] Memory required for data: 5831131168
I0403 21:46:37.300428 22764 layer_factory.hpp:77] Creating layer conv4_3_norm_mbox_loc_flat
I0403 21:46:37.300446 22764 net.cpp:100] Creating Layer conv4_3_norm_mbox_loc_flat
I0403 21:46:37.300453 22764 net.cpp:434] conv4_3_norm_mbox_loc_flat <- conv4_3_norm_mbox_loc_perm
I0403 21:46:37.300460 22764 net.cpp:408] conv4_3_norm_mbox_loc_flat -> conv4_3_norm_mbox_loc_flat
I0403 21:46:37.300499 22764 net.cpp:150] Setting up conv4_3_norm_mbox_loc_flat
I0403 21:46:37.300509 22764 net.cpp:157] Top shape: 8 65536 (524288)
I0403 21:46:37.300514 22764 net.cpp:165] Memory required for data: 5833228320
I0403 21:46:37.300520 22764 layer_factory.hpp:77] Creating layer conv4_3_norm_mbox_conf
I0403 21:46:37.300544 22764 net.cpp:100] Creating Layer conv4_3_norm_mbox_conf
I0403 21:46:37.300552 22764 net.cpp:434] conv4_3_norm_mbox_conf <- conv4_3_norm_conv4_3_norm_0_split_1
I0403 21:46:37.300564 22764 net.cpp:408] conv4_3_norm_mbox_conf -> conv4_3_norm_mbox_conf
I0403 21:46:37.302178 22764 net.cpp:150] Setting up conv4_3_norm_mbox_conf
I0403 21:46:37.302196 22764 net.cpp:157] Top shape: 8 8 64 64 (262144)
I0403 21:46:37.302202 22764 net.cpp:165] Memory required for data: 5834276896
I0403 21:46:37.302212 22764 layer_factory.hpp:77] Creating layer conv4_3_norm_mbox_conf_perm
I0403 21:46:37.302225 22764 net.cpp:100] Creating Layer conv4_3_norm_mbox_conf_perm
I0403 21:46:37.302233 22764 net.cpp:434] conv4_3_norm_mbox_conf_perm <- conv4_3_norm_mbox_conf
I0403 21:46:37.302242 22764 net.cpp:408] conv4_3_norm_mbox_conf_perm -> conv4_3_norm_mbox_conf_perm
I0403 21:46:37.302381 22764 net.cpp:150] Setting up conv4_3_norm_mbox_conf_perm
I0403 21:46:37.302392 22764 net.cpp:157] Top shape: 8 64 64 8 (262144)
I0403 21:46:37.302398 22764 net.cpp:165] Memory required for data: 5835325472
I0403 21:46:37.302405 22764 layer_factory.hpp:77] Creating layer conv4_3_norm_mbox_conf_flat
I0403 21:46:37.302412 22764 net.cpp:100] Creating Layer conv4_3_norm_mbox_conf_flat
I0403 21:46:37.302420 22764 net.cpp:434] conv4_3_norm_mbox_conf_flat <- conv4_3_norm_mbox_conf_perm
I0403 21:46:37.302431 22764 net.cpp:408] conv4_3_norm_mbox_conf_flat -> conv4_3_norm_mbox_conf_flat
I0403 21:46:37.302464 22764 net.cpp:150] Setting up conv4_3_norm_mbox_conf_flat
I0403 21:46:37.302474 22764 net.cpp:157] Top shape: 8 32768 (262144)
I0403 21:46:37.302479 22764 net.cpp:165] Memory required for data: 5836374048
I0403 21:46:37.302484 22764 layer_factory.hpp:77] Creating layer conv4_3_norm_mbox_clean
I0403 21:46:37.302513 22764 net.cpp:100] Creating Layer conv4_3_norm_mbox_clean
I0403 21:46:37.302521 22764 net.cpp:434] conv4_3_norm_mbox_clean <- conv4_3_norm_conv4_3_norm_0_split_2
I0403 21:46:37.302531 22764 net.cpp:408] conv4_3_norm_mbox_clean -> conv4_3_norm_mbox_clean
I0403 21:46:37.304127 22764 net.cpp:150] Setting up conv4_3_norm_mbox_clean
I0403 21:46:37.304144 22764 net.cpp:157] Top shape: 8 4 64 64 (131072)
I0403 21:46:37.304150 22764 net.cpp:165] Memory required for data: 5836898336
I0403 21:46:37.304162 22764 layer_factory.hpp:77] Creating layer conv4_3_norm_mbox_clean_perm
I0403 21:46:37.304174 22764 net.cpp:100] Creating Layer conv4_3_norm_mbox_clean_perm
I0403 21:46:37.304183 22764 net.cpp:434] conv4_3_norm_mbox_clean_perm <- conv4_3_norm_mbox_clean
I0403 21:46:37.304191 22764 net.cpp:408] conv4_3_norm_mbox_clean_perm -> conv4_3_norm_mbox_clean_perm
I0403 21:46:37.304329 22764 net.cpp:150] Setting up conv4_3_norm_mbox_clean_perm
I0403 21:46:37.304340 22764 net.cpp:157] Top shape: 8 64 64 4 (131072)
I0403 21:46:37.304345 22764 net.cpp:165] Memory required for data: 5837422624
I0403 21:46:37.304352 22764 layer_factory.hpp:77] Creating layer conv4_3_norm_mbox_clean_flat
I0403 21:46:37.304359 22764 net.cpp:100] Creating Layer conv4_3_norm_mbox_clean_flat
I0403 21:46:37.304368 22764 net.cpp:434] conv4_3_norm_mbox_clean_flat <- conv4_3_norm_mbox_clean_perm
I0403 21:46:37.304378 22764 net.cpp:408] conv4_3_norm_mbox_clean_flat -> conv4_3_norm_mbox_clean_flat
I0403 21:46:37.304411 22764 net.cpp:150] Setting up conv4_3_norm_mbox_clean_flat
I0403 21:46:37.304420 22764 net.cpp:157] Top shape: 8 16384 (131072)
I0403 21:46:37.304425 22764 net.cpp:165] Memory required for data: 5837946912
I0403 21:46:37.304431 22764 layer_factory.hpp:77] Creating layer conv4_3_norm_mbox_priorbox
I0403 21:46:37.304446 22764 net.cpp:100] Creating Layer conv4_3_norm_mbox_priorbox
I0403 21:46:37.304455 22764 net.cpp:434] conv4_3_norm_mbox_priorbox <- conv4_3_norm_conv4_3_norm_0_split_3
I0403 21:46:37.304462 22764 net.cpp:434] conv4_3_norm_mbox_priorbox <- data_data_0_split_1
I0403 21:46:37.304473 22764 net.cpp:408] conv4_3_norm_mbox_priorbox -> conv4_3_norm_mbox_priorbox
I0403 21:46:37.304510 22764 net.cpp:150] Setting up conv4_3_norm_mbox_priorbox
I0403 21:46:37.304523 22764 net.cpp:157] Top shape: 1 2 65536 (131072)
I0403 21:46:37.304528 22764 net.cpp:165] Memory required for data: 5838471200
I0403 21:46:37.304535 22764 layer_factory.hpp:77] Creating layer fc7_mbox_loc
I0403 21:46:37.304549 22764 net.cpp:100] Creating Layer fc7_mbox_loc
I0403 21:46:37.304558 22764 net.cpp:434] fc7_mbox_loc <- fc7_relu7_0_split_1
I0403 21:46:37.304565 22764 net.cpp:408] fc7_mbox_loc -> fc7_mbox_loc
I0403 21:46:37.308190 22764 net.cpp:150] Setting up fc7_mbox_loc
I0403 21:46:37.308209 22764 net.cpp:157] Top shape: 8 24 32 32 (196608)
I0403 21:46:37.308219 22764 net.cpp:165] Memory required for data: 5839257632
I0403 21:46:37.308228 22764 layer_factory.hpp:77] Creating layer fc7_mbox_loc_perm
I0403 21:46:37.308240 22764 net.cpp:100] Creating Layer fc7_mbox_loc_perm
I0403 21:46:37.308246 22764 net.cpp:434] fc7_mbox_loc_perm <- fc7_mbox_loc
I0403 21:46:37.308257 22764 net.cpp:408] fc7_mbox_loc_perm -> fc7_mbox_loc_perm
I0403 21:46:37.308393 22764 net.cpp:150] Setting up fc7_mbox_loc_perm
I0403 21:46:37.308403 22764 net.cpp:157] Top shape: 8 32 32 24 (196608)
I0403 21:46:37.308408 22764 net.cpp:165] Memory required for data: 5840044064
I0403 21:46:37.308415 22764 layer_factory.hpp:77] Creating layer fc7_mbox_loc_flat
I0403 21:46:37.308424 22764 net.cpp:100] Creating Layer fc7_mbox_loc_flat
I0403 21:46:37.308431 22764 net.cpp:434] fc7_mbox_loc_flat <- fc7_mbox_loc_perm
I0403 21:46:37.308439 22764 net.cpp:408] fc7_mbox_loc_flat -> fc7_mbox_loc_flat
I0403 21:46:37.308477 22764 net.cpp:150] Setting up fc7_mbox_loc_flat
I0403 21:46:37.308487 22764 net.cpp:157] Top shape: 8 24576 (196608)
I0403 21:46:37.308493 22764 net.cpp:165] Memory required for data: 5840830496
I0403 21:46:37.308500 22764 layer_factory.hpp:77] Creating layer fc7_mbox_conf
I0403 21:46:37.308526 22764 net.cpp:100] Creating Layer fc7_mbox_conf
I0403 21:46:37.308535 22764 net.cpp:434] fc7_mbox_conf <- fc7_relu7_0_split_2
I0403 21:46:37.308544 22764 net.cpp:408] fc7_mbox_conf -> fc7_mbox_conf
I0403 21:46:37.310820 22764 net.cpp:150] Setting up fc7_mbox_conf
I0403 21:46:37.310844 22764 net.cpp:157] Top shape: 8 12 32 32 (98304)
I0403 21:46:37.310850 22764 net.cpp:165] Memory required for data: 5841223712
I0403 21:46:37.310859 22764 layer_factory.hpp:77] Creating layer fc7_mbox_conf_perm
I0403 21:46:37.310870 22764 net.cpp:100] Creating Layer fc7_mbox_conf_perm
I0403 21:46:37.310876 22764 net.cpp:434] fc7_mbox_conf_perm <- fc7_mbox_conf
I0403 21:46:37.310889 22764 net.cpp:408] fc7_mbox_conf_perm -> fc7_mbox_conf_perm
I0403 21:46:37.311023 22764 net.cpp:150] Setting up fc7_mbox_conf_perm
I0403 21:46:37.311033 22764 net.cpp:157] Top shape: 8 32 32 12 (98304)
I0403 21:46:37.311038 22764 net.cpp:165] Memory required for data: 5841616928
I0403 21:46:37.311045 22764 layer_factory.hpp:77] Creating layer fc7_mbox_conf_flat
I0403 21:46:37.311055 22764 net.cpp:100] Creating Layer fc7_mbox_conf_flat
I0403 21:46:37.311063 22764 net.cpp:434] fc7_mbox_conf_flat <- fc7_mbox_conf_perm
I0403 21:46:37.311069 22764 net.cpp:408] fc7_mbox_conf_flat -> fc7_mbox_conf_flat
I0403 21:46:37.311101 22764 net.cpp:150] Setting up fc7_mbox_conf_flat
I0403 21:46:37.311111 22764 net.cpp:157] Top shape: 8 12288 (98304)
I0403 21:46:37.311116 22764 net.cpp:165] Memory required for data: 5842010144
I0403 21:46:37.311130 22764 layer_factory.hpp:77] Creating layer fc7_mbox_clean
I0403 21:46:37.311142 22764 net.cpp:100] Creating Layer fc7_mbox_clean
I0403 21:46:37.311149 22764 net.cpp:434] fc7_mbox_clean <- fc7_relu7_0_split_3
I0403 21:46:37.311161 22764 net.cpp:408] fc7_mbox_clean -> fc7_mbox_clean
I0403 21:46:37.313045 22764 net.cpp:150] Setting up fc7_mbox_clean
I0403 21:46:37.313064 22764 net.cpp:157] Top shape: 8 6 32 32 (49152)
I0403 21:46:37.313071 22764 net.cpp:165] Memory required for data: 5842206752
I0403 21:46:37.313081 22764 layer_factory.hpp:77] Creating layer fc7_mbox_clean_perm
I0403 21:46:37.313091 22764 net.cpp:100] Creating Layer fc7_mbox_clean_perm
I0403 21:46:37.313097 22764 net.cpp:434] fc7_mbox_clean_perm <- fc7_mbox_clean
I0403 21:46:37.313107 22764 net.cpp:408] fc7_mbox_clean_perm -> fc7_mbox_clean_perm
I0403 21:46:37.313246 22764 net.cpp:150] Setting up fc7_mbox_clean_perm
I0403 21:46:37.313256 22764 net.cpp:157] Top shape: 8 32 32 6 (49152)
I0403 21:46:37.313261 22764 net.cpp:165] Memory required for data: 5842403360
I0403 21:46:37.313267 22764 layer_factory.hpp:77] Creating layer fc7_mbox_clean_flat
I0403 21:46:37.313277 22764 net.cpp:100] Creating Layer fc7_mbox_clean_flat
I0403 21:46:37.313292 22764 net.cpp:434] fc7_mbox_clean_flat <- fc7_mbox_clean_perm
I0403 21:46:37.313300 22764 net.cpp:408] fc7_mbox_clean_flat -> fc7_mbox_clean_flat
I0403 21:46:37.313338 22764 net.cpp:150] Setting up fc7_mbox_clean_flat
I0403 21:46:37.313347 22764 net.cpp:157] Top shape: 8 6144 (49152)
I0403 21:46:37.313352 22764 net.cpp:165] Memory required for data: 5842599968
I0403 21:46:37.313359 22764 layer_factory.hpp:77] Creating layer fc7_mbox_priorbox
I0403 21:46:37.313369 22764 net.cpp:100] Creating Layer fc7_mbox_priorbox
I0403 21:46:37.313376 22764 net.cpp:434] fc7_mbox_priorbox <- fc7_relu7_0_split_4
I0403 21:46:37.313385 22764 net.cpp:434] fc7_mbox_priorbox <- data_data_0_split_2
I0403 21:46:37.313395 22764 net.cpp:408] fc7_mbox_priorbox -> fc7_mbox_priorbox
I0403 21:46:37.313428 22764 net.cpp:150] Setting up fc7_mbox_priorbox
I0403 21:46:37.313438 22764 net.cpp:157] Top shape: 1 2 24576 (49152)
I0403 21:46:37.313443 22764 net.cpp:165] Memory required for data: 5842796576
I0403 21:46:37.313449 22764 layer_factory.hpp:77] Creating layer conv6_2_mbox_loc
I0403 21:46:37.313463 22764 net.cpp:100] Creating Layer conv6_2_mbox_loc
I0403 21:46:37.313472 22764 net.cpp:434] conv6_2_mbox_loc <- conv6_2_conv6_2_relu_0_split_1
I0403 21:46:37.313482 22764 net.cpp:408] conv6_2_mbox_loc -> conv6_2_mbox_loc
I0403 21:46:37.316293 22764 net.cpp:150] Setting up conv6_2_mbox_loc
I0403 21:46:37.316310 22764 net.cpp:157] Top shape: 8 24 16 16 (49152)
I0403 21:46:37.316316 22764 net.cpp:165] Memory required for data: 5842993184
I0403 21:46:37.316328 22764 layer_factory.hpp:77] Creating layer conv6_2_mbox_loc_perm
I0403 21:46:37.316341 22764 net.cpp:100] Creating Layer conv6_2_mbox_loc_perm
I0403 21:46:37.316349 22764 net.cpp:434] conv6_2_mbox_loc_perm <- conv6_2_mbox_loc
I0403 21:46:37.316357 22764 net.cpp:408] conv6_2_mbox_loc_perm -> conv6_2_mbox_loc_perm
I0403 21:46:37.316498 22764 net.cpp:150] Setting up conv6_2_mbox_loc_perm
I0403 21:46:37.316509 22764 net.cpp:157] Top shape: 8 16 16 24 (49152)
I0403 21:46:37.316514 22764 net.cpp:165] Memory required for data: 5843189792
I0403 21:46:37.316521 22764 layer_factory.hpp:77] Creating layer conv6_2_mbox_loc_flat
I0403 21:46:37.316529 22764 net.cpp:100] Creating Layer conv6_2_mbox_loc_flat
I0403 21:46:37.316537 22764 net.cpp:434] conv6_2_mbox_loc_flat <- conv6_2_mbox_loc_perm
I0403 21:46:37.316546 22764 net.cpp:408] conv6_2_mbox_loc_flat -> conv6_2_mbox_loc_flat
I0403 21:46:37.316581 22764 net.cpp:150] Setting up conv6_2_mbox_loc_flat
I0403 21:46:37.316591 22764 net.cpp:157] Top shape: 8 6144 (49152)
I0403 21:46:37.316596 22764 net.cpp:165] Memory required for data: 5843386400
I0403 21:46:37.316602 22764 layer_factory.hpp:77] Creating layer conv6_2_mbox_conf
I0403 21:46:37.316618 22764 net.cpp:100] Creating Layer conv6_2_mbox_conf
I0403 21:46:37.316627 22764 net.cpp:434] conv6_2_mbox_conf <- conv6_2_conv6_2_relu_0_split_2
I0403 21:46:37.316635 22764 net.cpp:408] conv6_2_mbox_conf -> conv6_2_mbox_conf
I0403 21:46:37.318424 22764 net.cpp:150] Setting up conv6_2_mbox_conf
I0403 21:46:37.318441 22764 net.cpp:157] Top shape: 8 12 16 16 (24576)
I0403 21:46:37.318449 22764 net.cpp:165] Memory required for data: 5843484704
I0403 21:46:37.318460 22764 layer_factory.hpp:77] Creating layer conv6_2_mbox_conf_perm
I0403 21:46:37.318471 22764 net.cpp:100] Creating Layer conv6_2_mbox_conf_perm
I0403 21:46:37.318483 22764 net.cpp:434] conv6_2_mbox_conf_perm <- conv6_2_mbox_conf
I0403 21:46:37.318491 22764 net.cpp:408] conv6_2_mbox_conf_perm -> conv6_2_mbox_conf_perm
I0403 21:46:37.318626 22764 net.cpp:150] Setting up conv6_2_mbox_conf_perm
I0403 21:46:37.318636 22764 net.cpp:157] Top shape: 8 16 16 12 (24576)
I0403 21:46:37.318641 22764 net.cpp:165] Memory required for data: 5843583008
I0403 21:46:37.318648 22764 layer_factory.hpp:77] Creating layer conv6_2_mbox_conf_flat
I0403 21:46:37.318656 22764 net.cpp:100] Creating Layer conv6_2_mbox_conf_flat
I0403 21:46:37.318665 22764 net.cpp:434] conv6_2_mbox_conf_flat <- conv6_2_mbox_conf_perm
I0403 21:46:37.318675 22764 net.cpp:408] conv6_2_mbox_conf_flat -> conv6_2_mbox_conf_flat
I0403 21:46:37.318706 22764 net.cpp:150] Setting up conv6_2_mbox_conf_flat
I0403 21:46:37.318720 22764 net.cpp:157] Top shape: 8 3072 (24576)
I0403 21:46:37.318727 22764 net.cpp:165] Memory required for data: 5843681312
I0403 21:46:37.318733 22764 layer_factory.hpp:77] Creating layer conv6_2_mbox_clean
I0403 21:46:37.318749 22764 net.cpp:100] Creating Layer conv6_2_mbox_clean
I0403 21:46:37.318758 22764 net.cpp:434] conv6_2_mbox_clean <- conv6_2_conv6_2_relu_0_split_3
I0403 21:46:37.318765 22764 net.cpp:408] conv6_2_mbox_clean -> conv6_2_mbox_clean
I0403 21:46:37.320260 22764 net.cpp:150] Setting up conv6_2_mbox_clean
I0403 21:46:37.320277 22764 net.cpp:157] Top shape: 8 6 16 16 (12288)
I0403 21:46:37.320284 22764 net.cpp:165] Memory required for data: 5843730464
I0403 21:46:37.320307 22764 layer_factory.hpp:77] Creating layer conv6_2_mbox_clean_perm
I0403 21:46:37.320322 22764 net.cpp:100] Creating Layer conv6_2_mbox_clean_perm
I0403 21:46:37.320329 22764 net.cpp:434] conv6_2_mbox_clean_perm <- conv6_2_mbox_clean
I0403 21:46:37.320338 22764 net.cpp:408] conv6_2_mbox_clean_perm -> conv6_2_mbox_clean_perm
I0403 21:46:37.320472 22764 net.cpp:150] Setting up conv6_2_mbox_clean_perm
I0403 21:46:37.320483 22764 net.cpp:157] Top shape: 8 16 16 6 (12288)
I0403 21:46:37.320500 22764 net.cpp:165] Memory required for data: 5843779616
I0403 21:46:37.320508 22764 layer_factory.hpp:77] Creating layer conv6_2_mbox_clean_flat
I0403 21:46:37.320518 22764 net.cpp:100] Creating Layer conv6_2_mbox_clean_flat
I0403 21:46:37.320526 22764 net.cpp:434] conv6_2_mbox_clean_flat <- conv6_2_mbox_clean_perm
I0403 21:46:37.320534 22764 net.cpp:408] conv6_2_mbox_clean_flat -> conv6_2_mbox_clean_flat
I0403 21:46:37.320570 22764 net.cpp:150] Setting up conv6_2_mbox_clean_flat
I0403 21:46:37.320580 22764 net.cpp:157] Top shape: 8 1536 (12288)
I0403 21:46:37.320585 22764 net.cpp:165] Memory required for data: 5843828768
I0403 21:46:37.320591 22764 layer_factory.hpp:77] Creating layer conv6_2_mbox_priorbox
I0403 21:46:37.320602 22764 net.cpp:100] Creating Layer conv6_2_mbox_priorbox
I0403 21:46:37.320611 22764 net.cpp:434] conv6_2_mbox_priorbox <- conv6_2_conv6_2_relu_0_split_4
I0403 21:46:37.320617 22764 net.cpp:434] conv6_2_mbox_priorbox <- data_data_0_split_3
I0403 21:46:37.320626 22764 net.cpp:408] conv6_2_mbox_priorbox -> conv6_2_mbox_priorbox
I0403 21:46:37.320668 22764 net.cpp:150] Setting up conv6_2_mbox_priorbox
I0403 21:46:37.320678 22764 net.cpp:157] Top shape: 1 2 6144 (12288)
I0403 21:46:37.320683 22764 net.cpp:165] Memory required for data: 5843877920
I0403 21:46:37.320689 22764 layer_factory.hpp:77] Creating layer conv7_2_mbox_loc
I0403 21:46:37.320703 22764 net.cpp:100] Creating Layer conv7_2_mbox_loc
I0403 21:46:37.320711 22764 net.cpp:434] conv7_2_mbox_loc <- conv7_2_conv7_2_relu_0_split_1
I0403 21:46:37.320719 22764 net.cpp:408] conv7_2_mbox_loc -> conv7_2_mbox_loc
I0403 21:46:37.323125 22764 net.cpp:150] Setting up conv7_2_mbox_loc
I0403 21:46:37.323143 22764 net.cpp:157] Top shape: 8 24 8 8 (12288)
I0403 21:46:37.323149 22764 net.cpp:165] Memory required for data: 5843927072
I0403 21:46:37.323160 22764 layer_factory.hpp:77] Creating layer conv7_2_mbox_loc_perm
I0403 21:46:37.323173 22764 net.cpp:100] Creating Layer conv7_2_mbox_loc_perm
I0403 21:46:37.323181 22764 net.cpp:434] conv7_2_mbox_loc_perm <- conv7_2_mbox_loc
I0403 21:46:37.323189 22764 net.cpp:408] conv7_2_mbox_loc_perm -> conv7_2_mbox_loc_perm
I0403 21:46:37.323338 22764 net.cpp:150] Setting up conv7_2_mbox_loc_perm
I0403 21:46:37.323348 22764 net.cpp:157] Top shape: 8 8 8 24 (12288)
I0403 21:46:37.323354 22764 net.cpp:165] Memory required for data: 5843976224
I0403 21:46:37.323361 22764 layer_factory.hpp:77] Creating layer conv7_2_mbox_loc_flat
I0403 21:46:37.323370 22764 net.cpp:100] Creating Layer conv7_2_mbox_loc_flat
I0403 21:46:37.323379 22764 net.cpp:434] conv7_2_mbox_loc_flat <- conv7_2_mbox_loc_perm
I0403 21:46:37.323386 22764 net.cpp:408] conv7_2_mbox_loc_flat -> conv7_2_mbox_loc_flat
I0403 21:46:37.323421 22764 net.cpp:150] Setting up conv7_2_mbox_loc_flat
I0403 21:46:37.323431 22764 net.cpp:157] Top shape: 8 1536 (12288)
I0403 21:46:37.323436 22764 net.cpp:165] Memory required for data: 5844025376
I0403 21:46:37.323442 22764 layer_factory.hpp:77] Creating layer conv7_2_mbox_conf
I0403 21:46:37.323456 22764 net.cpp:100] Creating Layer conv7_2_mbox_conf
I0403 21:46:37.323463 22764 net.cpp:434] conv7_2_mbox_conf <- conv7_2_conv7_2_relu_0_split_2
I0403 21:46:37.323475 22764 net.cpp:408] conv7_2_mbox_conf -> conv7_2_mbox_conf
I0403 21:46:37.325194 22764 net.cpp:150] Setting up conv7_2_mbox_conf
I0403 21:46:37.325212 22764 net.cpp:157] Top shape: 8 12 8 8 (6144)
I0403 21:46:37.325219 22764 net.cpp:165] Memory required for data: 5844049952
I0403 21:46:37.325229 22764 layer_factory.hpp:77] Creating layer conv7_2_mbox_conf_perm
I0403 21:46:37.325242 22764 net.cpp:100] Creating Layer conv7_2_mbox_conf_perm
I0403 21:46:37.325251 22764 net.cpp:434] conv7_2_mbox_conf_perm <- conv7_2_mbox_conf
I0403 21:46:37.325259 22764 net.cpp:408] conv7_2_mbox_conf_perm -> conv7_2_mbox_conf_perm
I0403 21:46:37.325402 22764 net.cpp:150] Setting up conv7_2_mbox_conf_perm
I0403 21:46:37.325412 22764 net.cpp:157] Top shape: 8 8 8 12 (6144)
I0403 21:46:37.325417 22764 net.cpp:165] Memory required for data: 5844074528
I0403 21:46:37.325423 22764 layer_factory.hpp:77] Creating layer conv7_2_mbox_conf_flat
I0403 21:46:37.325445 22764 net.cpp:100] Creating Layer conv7_2_mbox_conf_flat
I0403 21:46:37.325454 22764 net.cpp:434] conv7_2_mbox_conf_flat <- conv7_2_mbox_conf_perm
I0403 21:46:37.325462 22764 net.cpp:408] conv7_2_mbox_conf_flat -> conv7_2_mbox_conf_flat
I0403 21:46:37.325500 22764 net.cpp:150] Setting up conv7_2_mbox_conf_flat
I0403 21:46:37.325510 22764 net.cpp:157] Top shape: 8 768 (6144)
I0403 21:46:37.325515 22764 net.cpp:165] Memory required for data: 5844099104
I0403 21:46:37.325521 22764 layer_factory.hpp:77] Creating layer conv7_2_mbox_clean
I0403 21:46:37.325536 22764 net.cpp:100] Creating Layer conv7_2_mbox_clean
I0403 21:46:37.325544 22764 net.cpp:434] conv7_2_mbox_clean <- conv7_2_conv7_2_relu_0_split_3
I0403 21:46:37.325554 22764 net.cpp:408] conv7_2_mbox_clean -> conv7_2_mbox_clean
I0403 21:46:37.327050 22764 net.cpp:150] Setting up conv7_2_mbox_clean
I0403 21:46:37.327069 22764 net.cpp:157] Top shape: 8 6 8 8 (3072)
I0403 21:46:37.327077 22764 net.cpp:165] Memory required for data: 5844111392
I0403 21:46:37.327086 22764 layer_factory.hpp:77] Creating layer conv7_2_mbox_clean_perm
I0403 21:46:37.327100 22764 net.cpp:100] Creating Layer conv7_2_mbox_clean_perm
I0403 21:46:37.327111 22764 net.cpp:434] conv7_2_mbox_clean_perm <- conv7_2_mbox_clean
I0403 21:46:37.327123 22764 net.cpp:408] conv7_2_mbox_clean_perm -> conv7_2_mbox_clean_perm
I0403 21:46:37.327273 22764 net.cpp:150] Setting up conv7_2_mbox_clean_perm
I0403 21:46:37.327285 22764 net.cpp:157] Top shape: 8 8 8 6 (3072)
I0403 21:46:37.327289 22764 net.cpp:165] Memory required for data: 5844123680
I0403 21:46:37.327297 22764 layer_factory.hpp:77] Creating layer conv7_2_mbox_clean_flat
I0403 21:46:37.327306 22764 net.cpp:100] Creating Layer conv7_2_mbox_clean_flat
I0403 21:46:37.327313 22764 net.cpp:434] conv7_2_mbox_clean_flat <- conv7_2_mbox_clean_perm
I0403 21:46:37.327322 22764 net.cpp:408] conv7_2_mbox_clean_flat -> conv7_2_mbox_clean_flat
I0403 21:46:37.327355 22764 net.cpp:150] Setting up conv7_2_mbox_clean_flat
I0403 21:46:37.327365 22764 net.cpp:157] Top shape: 8 384 (3072)
I0403 21:46:37.327370 22764 net.cpp:165] Memory required for data: 5844135968
I0403 21:46:37.327376 22764 layer_factory.hpp:77] Creating layer conv7_2_mbox_priorbox
I0403 21:46:37.327389 22764 net.cpp:100] Creating Layer conv7_2_mbox_priorbox
I0403 21:46:37.327396 22764 net.cpp:434] conv7_2_mbox_priorbox <- conv7_2_conv7_2_relu_0_split_4
I0403 21:46:37.327404 22764 net.cpp:434] conv7_2_mbox_priorbox <- data_data_0_split_4
I0403 21:46:37.327417 22764 net.cpp:408] conv7_2_mbox_priorbox -> conv7_2_mbox_priorbox
I0403 21:46:37.327453 22764 net.cpp:150] Setting up conv7_2_mbox_priorbox
I0403 21:46:37.327463 22764 net.cpp:157] Top shape: 1 2 1536 (3072)
I0403 21:46:37.327468 22764 net.cpp:165] Memory required for data: 5844148256
I0403 21:46:37.327479 22764 layer_factory.hpp:77] Creating layer conv8_2_mbox_loc
I0403 21:46:37.327495 22764 net.cpp:100] Creating Layer conv8_2_mbox_loc
I0403 21:46:37.327503 22764 net.cpp:434] conv8_2_mbox_loc <- conv8_2_conv8_2_relu_0_split_1
I0403 21:46:37.327512 22764 net.cpp:408] conv8_2_mbox_loc -> conv8_2_mbox_loc
I0403 21:46:37.329236 22764 net.cpp:150] Setting up conv8_2_mbox_loc
I0403 21:46:37.329252 22764 net.cpp:157] Top shape: 8 16 6 6 (4608)
I0403 21:46:37.329260 22764 net.cpp:165] Memory required for data: 5844166688
I0403 21:46:37.329270 22764 layer_factory.hpp:77] Creating layer conv8_2_mbox_loc_perm
I0403 21:46:37.329282 22764 net.cpp:100] Creating Layer conv8_2_mbox_loc_perm
I0403 21:46:37.329296 22764 net.cpp:434] conv8_2_mbox_loc_perm <- conv8_2_mbox_loc
I0403 21:46:37.329306 22764 net.cpp:408] conv8_2_mbox_loc_perm -> conv8_2_mbox_loc_perm
I0403 21:46:37.329455 22764 net.cpp:150] Setting up conv8_2_mbox_loc_perm
I0403 21:46:37.329466 22764 net.cpp:157] Top shape: 8 6 6 16 (4608)
I0403 21:46:37.329471 22764 net.cpp:165] Memory required for data: 5844185120
I0403 21:46:37.329478 22764 layer_factory.hpp:77] Creating layer conv8_2_mbox_loc_flat
I0403 21:46:37.329485 22764 net.cpp:100] Creating Layer conv8_2_mbox_loc_flat
I0403 21:46:37.329504 22764 net.cpp:434] conv8_2_mbox_loc_flat <- conv8_2_mbox_loc_perm
I0403 21:46:37.329514 22764 net.cpp:408] conv8_2_mbox_loc_flat -> conv8_2_mbox_loc_flat
I0403 21:46:37.329550 22764 net.cpp:150] Setting up conv8_2_mbox_loc_flat
I0403 21:46:37.329560 22764 net.cpp:157] Top shape: 8 576 (4608)
I0403 21:46:37.329565 22764 net.cpp:165] Memory required for data: 5844203552
I0403 21:46:37.329571 22764 layer_factory.hpp:77] Creating layer conv8_2_mbox_conf
I0403 21:46:37.329591 22764 net.cpp:100] Creating Layer conv8_2_mbox_conf
I0403 21:46:37.329599 22764 net.cpp:434] conv8_2_mbox_conf <- conv8_2_conv8_2_relu_0_split_2
I0403 21:46:37.329608 22764 net.cpp:408] conv8_2_mbox_conf -> conv8_2_mbox_conf
I0403 21:46:37.331020 22764 net.cpp:150] Setting up conv8_2_mbox_conf
I0403 21:46:37.331037 22764 net.cpp:157] Top shape: 8 8 6 6 (2304)
I0403 21:46:37.331045 22764 net.cpp:165] Memory required for data: 5844212768
I0403 21:46:37.331056 22764 layer_factory.hpp:77] Creating layer conv8_2_mbox_conf_perm
I0403 21:46:37.331068 22764 net.cpp:100] Creating Layer conv8_2_mbox_conf_perm
I0403 21:46:37.331075 22764 net.cpp:434] conv8_2_mbox_conf_perm <- conv8_2_mbox_conf
I0403 21:46:37.331085 22764 net.cpp:408] conv8_2_mbox_conf_perm -> conv8_2_mbox_conf_perm
I0403 21:46:37.331235 22764 net.cpp:150] Setting up conv8_2_mbox_conf_perm
I0403 21:46:37.331248 22764 net.cpp:157] Top shape: 8 6 6 8 (2304)
I0403 21:46:37.331254 22764 net.cpp:165] Memory required for data: 5844221984
I0403 21:46:37.331260 22764 layer_factory.hpp:77] Creating layer conv8_2_mbox_conf_flat
I0403 21:46:37.331269 22764 net.cpp:100] Creating Layer conv8_2_mbox_conf_flat
I0403 21:46:37.331276 22764 net.cpp:434] conv8_2_mbox_conf_flat <- conv8_2_mbox_conf_perm
I0403 21:46:37.331284 22764 net.cpp:408] conv8_2_mbox_conf_flat -> conv8_2_mbox_conf_flat
I0403 21:46:37.331321 22764 net.cpp:150] Setting up conv8_2_mbox_conf_flat
I0403 21:46:37.331331 22764 net.cpp:157] Top shape: 8 288 (2304)
I0403 21:46:37.331336 22764 net.cpp:165] Memory required for data: 5844231200
I0403 21:46:37.331342 22764 layer_factory.hpp:77] Creating layer conv8_2_mbox_clean
I0403 21:46:37.331357 22764 net.cpp:100] Creating Layer conv8_2_mbox_clean
I0403 21:46:37.331364 22764 net.cpp:434] conv8_2_mbox_clean <- conv8_2_conv8_2_relu_0_split_3
I0403 21:46:37.331375 22764 net.cpp:408] conv8_2_mbox_clean -> conv8_2_mbox_clean
I0403 21:46:37.332841 22764 net.cpp:150] Setting up conv8_2_mbox_clean
I0403 21:46:37.332859 22764 net.cpp:157] Top shape: 8 4 6 6 (1152)
I0403 21:46:37.332867 22764 net.cpp:165] Memory required for data: 5844235808
I0403 21:46:37.332876 22764 layer_factory.hpp:77] Creating layer conv8_2_mbox_clean_perm
I0403 21:46:37.332890 22764 net.cpp:100] Creating Layer conv8_2_mbox_clean_perm
I0403 21:46:37.332898 22764 net.cpp:434] conv8_2_mbox_clean_perm <- conv8_2_mbox_clean
I0403 21:46:37.332908 22764 net.cpp:408] conv8_2_mbox_clean_perm -> conv8_2_mbox_clean_perm
I0403 21:46:37.333058 22764 net.cpp:150] Setting up conv8_2_mbox_clean_perm
I0403 21:46:37.333070 22764 net.cpp:157] Top shape: 8 6 6 4 (1152)
I0403 21:46:37.333075 22764 net.cpp:165] Memory required for data: 5844240416
I0403 21:46:37.333082 22764 layer_factory.hpp:77] Creating layer conv8_2_mbox_clean_flat
I0403 21:46:37.333091 22764 net.cpp:100] Creating Layer conv8_2_mbox_clean_flat
I0403 21:46:37.333099 22764 net.cpp:434] conv8_2_mbox_clean_flat <- conv8_2_mbox_clean_perm
I0403 21:46:37.333107 22764 net.cpp:408] conv8_2_mbox_clean_flat -> conv8_2_mbox_clean_flat
I0403 21:46:37.333145 22764 net.cpp:150] Setting up conv8_2_mbox_clean_flat
I0403 21:46:37.333155 22764 net.cpp:157] Top shape: 8 144 (1152)
I0403 21:46:37.333160 22764 net.cpp:165] Memory required for data: 5844245024
I0403 21:46:37.333168 22764 layer_factory.hpp:77] Creating layer conv8_2_mbox_priorbox
I0403 21:46:37.333178 22764 net.cpp:100] Creating Layer conv8_2_mbox_priorbox
I0403 21:46:37.333185 22764 net.cpp:434] conv8_2_mbox_priorbox <- conv8_2_conv8_2_relu_0_split_4
I0403 21:46:37.333192 22764 net.cpp:434] conv8_2_mbox_priorbox <- data_data_0_split_5
I0403 21:46:37.333214 22764 net.cpp:408] conv8_2_mbox_priorbox -> conv8_2_mbox_priorbox
I0403 21:46:37.333261 22764 net.cpp:150] Setting up conv8_2_mbox_priorbox
I0403 21:46:37.333271 22764 net.cpp:157] Top shape: 1 2 576 (1152)
I0403 21:46:37.333276 22764 net.cpp:165] Memory required for data: 5844249632
I0403 21:46:37.333283 22764 layer_factory.hpp:77] Creating layer conv9_2_mbox_loc
I0403 21:46:37.333297 22764 net.cpp:100] Creating Layer conv9_2_mbox_loc
I0403 21:46:37.333304 22764 net.cpp:434] conv9_2_mbox_loc <- conv9_2_conv9_2_relu_0_split_0
I0403 21:46:37.333315 22764 net.cpp:408] conv9_2_mbox_loc -> conv9_2_mbox_loc
I0403 21:46:37.334997 22764 net.cpp:150] Setting up conv9_2_mbox_loc
I0403 21:46:37.335014 22764 net.cpp:157] Top shape: 8 16 4 4 (2048)
I0403 21:46:37.335021 22764 net.cpp:165] Memory required for data: 5844257824
I0403 21:46:37.335031 22764 layer_factory.hpp:77] Creating layer conv9_2_mbox_loc_perm
I0403 21:46:37.335042 22764 net.cpp:100] Creating Layer conv9_2_mbox_loc_perm
I0403 21:46:37.335050 22764 net.cpp:434] conv9_2_mbox_loc_perm <- conv9_2_mbox_loc
I0403 21:46:37.335060 22764 net.cpp:408] conv9_2_mbox_loc_perm -> conv9_2_mbox_loc_perm
I0403 21:46:37.335208 22764 net.cpp:150] Setting up conv9_2_mbox_loc_perm
I0403 21:46:37.335218 22764 net.cpp:157] Top shape: 8 4 4 16 (2048)
I0403 21:46:37.335224 22764 net.cpp:165] Memory required for data: 5844266016
I0403 21:46:37.335232 22764 layer_factory.hpp:77] Creating layer conv9_2_mbox_loc_flat
I0403 21:46:37.335242 22764 net.cpp:100] Creating Layer conv9_2_mbox_loc_flat
I0403 21:46:37.335249 22764 net.cpp:434] conv9_2_mbox_loc_flat <- conv9_2_mbox_loc_perm
I0403 21:46:37.335256 22764 net.cpp:408] conv9_2_mbox_loc_flat -> conv9_2_mbox_loc_flat
I0403 21:46:37.335291 22764 net.cpp:150] Setting up conv9_2_mbox_loc_flat
I0403 21:46:37.335301 22764 net.cpp:157] Top shape: 8 256 (2048)
I0403 21:46:37.335306 22764 net.cpp:165] Memory required for data: 5844274208
I0403 21:46:37.335312 22764 layer_factory.hpp:77] Creating layer conv9_2_mbox_conf
I0403 21:46:37.335330 22764 net.cpp:100] Creating Layer conv9_2_mbox_conf
I0403 21:46:37.335337 22764 net.cpp:434] conv9_2_mbox_conf <- conv9_2_conv9_2_relu_0_split_1
I0403 21:46:37.335346 22764 net.cpp:408] conv9_2_mbox_conf -> conv9_2_mbox_conf
I0403 21:46:37.336954 22764 net.cpp:150] Setting up conv9_2_mbox_conf
I0403 21:46:37.336973 22764 net.cpp:157] Top shape: 8 8 4 4 (1024)
I0403 21:46:37.336982 22764 net.cpp:165] Memory required for data: 5844278304
I0403 21:46:37.336992 22764 layer_factory.hpp:77] Creating layer conv9_2_mbox_conf_perm
I0403 21:46:37.337002 22764 net.cpp:100] Creating Layer conv9_2_mbox_conf_perm
I0403 21:46:37.337010 22764 net.cpp:434] conv9_2_mbox_conf_perm <- conv9_2_mbox_conf
I0403 21:46:37.337018 22764 net.cpp:408] conv9_2_mbox_conf_perm -> conv9_2_mbox_conf_perm
I0403 21:46:37.337173 22764 net.cpp:150] Setting up conv9_2_mbox_conf_perm
I0403 21:46:37.337183 22764 net.cpp:157] Top shape: 8 4 4 8 (1024)
I0403 21:46:37.337188 22764 net.cpp:165] Memory required for data: 5844282400
I0403 21:46:37.337195 22764 layer_factory.hpp:77] Creating layer conv9_2_mbox_conf_flat
I0403 21:46:37.337206 22764 net.cpp:100] Creating Layer conv9_2_mbox_conf_flat
I0403 21:46:37.337214 22764 net.cpp:434] conv9_2_mbox_conf_flat <- conv9_2_mbox_conf_perm
I0403 21:46:37.337221 22764 net.cpp:408] conv9_2_mbox_conf_flat -> conv9_2_mbox_conf_flat
I0403 21:46:37.337258 22764 net.cpp:150] Setting up conv9_2_mbox_conf_flat
I0403 21:46:37.337267 22764 net.cpp:157] Top shape: 8 128 (1024)
I0403 21:46:37.337273 22764 net.cpp:165] Memory required for data: 5844286496
I0403 21:46:37.337280 22764 layer_factory.hpp:77] Creating layer conv9_2_mbox_clean
I0403 21:46:37.337293 22764 net.cpp:100] Creating Layer conv9_2_mbox_clean
I0403 21:46:37.337301 22764 net.cpp:434] conv9_2_mbox_clean <- conv9_2_conv9_2_relu_0_split_2
I0403 21:46:37.337311 22764 net.cpp:408] conv9_2_mbox_clean -> conv9_2_mbox_clean
I0403 21:46:37.338902 22764 net.cpp:150] Setting up conv9_2_mbox_clean
I0403 21:46:37.338930 22764 net.cpp:157] Top shape: 8 4 4 4 (512)
I0403 21:46:37.338937 22764 net.cpp:165] Memory required for data: 5844288544
I0403 21:46:37.338948 22764 layer_factory.hpp:77] Creating layer conv9_2_mbox_clean_perm
I0403 21:46:37.338958 22764 net.cpp:100] Creating Layer conv9_2_mbox_clean_perm
I0403 21:46:37.338964 22764 net.cpp:434] conv9_2_mbox_clean_perm <- conv9_2_mbox_clean
I0403 21:46:37.338976 22764 net.cpp:408] conv9_2_mbox_clean_perm -> conv9_2_mbox_clean_perm
I0403 21:46:37.339136 22764 net.cpp:150] Setting up conv9_2_mbox_clean_perm
I0403 21:46:37.339148 22764 net.cpp:157] Top shape: 8 4 4 4 (512)
I0403 21:46:37.339154 22764 net.cpp:165] Memory required for data: 5844290592
I0403 21:46:37.339159 22764 layer_factory.hpp:77] Creating layer conv9_2_mbox_clean_flat
I0403 21:46:37.339169 22764 net.cpp:100] Creating Layer conv9_2_mbox_clean_flat
I0403 21:46:37.339177 22764 net.cpp:434] conv9_2_mbox_clean_flat <- conv9_2_mbox_clean_perm
I0403 21:46:37.339184 22764 net.cpp:408] conv9_2_mbox_clean_flat -> conv9_2_mbox_clean_flat
I0403 21:46:37.339222 22764 net.cpp:150] Setting up conv9_2_mbox_clean_flat
I0403 21:46:37.339232 22764 net.cpp:157] Top shape: 8 64 (512)
I0403 21:46:37.339237 22764 net.cpp:165] Memory required for data: 5844292640
I0403 21:46:37.339244 22764 layer_factory.hpp:77] Creating layer conv9_2_mbox_priorbox
I0403 21:46:37.339252 22764 net.cpp:100] Creating Layer conv9_2_mbox_priorbox
I0403 21:46:37.339260 22764 net.cpp:434] conv9_2_mbox_priorbox <- conv9_2_conv9_2_relu_0_split_3
I0403 21:46:37.339267 22764 net.cpp:434] conv9_2_mbox_priorbox <- data_data_0_split_6
I0403 21:46:37.339279 22764 net.cpp:408] conv9_2_mbox_priorbox -> conv9_2_mbox_priorbox
I0403 21:46:37.339318 22764 net.cpp:150] Setting up conv9_2_mbox_priorbox
I0403 21:46:37.339328 22764 net.cpp:157] Top shape: 1 2 256 (512)
I0403 21:46:37.339332 22764 net.cpp:165] Memory required for data: 5844294688
I0403 21:46:37.339339 22764 layer_factory.hpp:77] Creating layer mbox_loc
I0403 21:46:37.339347 22764 net.cpp:100] Creating Layer mbox_loc
I0403 21:46:37.339355 22764 net.cpp:434] mbox_loc <- conv4_3_norm_mbox_loc_flat
I0403 21:46:37.339363 22764 net.cpp:434] mbox_loc <- fc7_mbox_loc_flat
I0403 21:46:37.339371 22764 net.cpp:434] mbox_loc <- conv6_2_mbox_loc_flat
I0403 21:46:37.339377 22764 net.cpp:434] mbox_loc <- conv7_2_mbox_loc_flat
I0403 21:46:37.339385 22764 net.cpp:434] mbox_loc <- conv8_2_mbox_loc_flat
I0403 21:46:37.339391 22764 net.cpp:434] mbox_loc <- conv9_2_mbox_loc_flat
I0403 21:46:37.339402 22764 net.cpp:408] mbox_loc -> mbox_loc
I0403 21:46:37.339455 22764 net.cpp:150] Setting up mbox_loc
I0403 21:46:37.339467 22764 net.cpp:157] Top shape: 8 98624 (788992)
I0403 21:46:37.339471 22764 net.cpp:165] Memory required for data: 5847450656
I0403 21:46:37.339478 22764 layer_factory.hpp:77] Creating layer mbox_conf
I0403 21:46:37.339488 22764 net.cpp:100] Creating Layer mbox_conf
I0403 21:46:37.339495 22764 net.cpp:434] mbox_conf <- conv4_3_norm_mbox_conf_flat
I0403 21:46:37.339503 22764 net.cpp:434] mbox_conf <- fc7_mbox_conf_flat
I0403 21:46:37.339511 22764 net.cpp:434] mbox_conf <- conv6_2_mbox_conf_flat
I0403 21:46:37.339517 22764 net.cpp:434] mbox_conf <- conv7_2_mbox_conf_flat
I0403 21:46:37.339525 22764 net.cpp:434] mbox_conf <- conv8_2_mbox_conf_flat
I0403 21:46:37.339531 22764 net.cpp:434] mbox_conf <- conv9_2_mbox_conf_flat
I0403 21:46:37.339540 22764 net.cpp:408] mbox_conf -> mbox_conf
I0403 21:46:37.339576 22764 net.cpp:150] Setting up mbox_conf
I0403 21:46:37.339612 22764 net.cpp:157] Top shape: 8 49312 (394496)
I0403 21:46:37.339617 22764 net.cpp:165] Memory required for data: 5849028640
I0403 21:46:37.339622 22764 layer_factory.hpp:77] Creating layer mbox_priorbox
I0403 21:46:37.339632 22764 net.cpp:100] Creating Layer mbox_priorbox
I0403 21:46:37.339640 22764 net.cpp:434] mbox_priorbox <- conv4_3_norm_mbox_priorbox
I0403 21:46:37.339648 22764 net.cpp:434] mbox_priorbox <- fc7_mbox_priorbox
I0403 21:46:37.339653 22764 net.cpp:434] mbox_priorbox <- conv6_2_mbox_priorbox
I0403 21:46:37.339660 22764 net.cpp:434] mbox_priorbox <- conv7_2_mbox_priorbox
I0403 21:46:37.339678 22764 net.cpp:434] mbox_priorbox <- conv8_2_mbox_priorbox
I0403 21:46:37.339684 22764 net.cpp:434] mbox_priorbox <- conv9_2_mbox_priorbox
I0403 21:46:37.339694 22764 net.cpp:408] mbox_priorbox -> mbox_priorbox
I0403 21:46:37.339730 22764 net.cpp:150] Setting up mbox_priorbox
I0403 21:46:37.339740 22764 net.cpp:157] Top shape: 1 2 98624 (197248)
I0403 21:46:37.339745 22764 net.cpp:165] Memory required for data: 5849817632
I0403 21:46:37.339751 22764 layer_factory.hpp:77] Creating layer mbox_clean
I0403 21:46:37.339762 22764 net.cpp:100] Creating Layer mbox_clean
I0403 21:46:37.339771 22764 net.cpp:434] mbox_clean <- conv4_3_norm_mbox_clean_flat
I0403 21:46:37.339777 22764 net.cpp:434] mbox_clean <- fc7_mbox_clean_flat
I0403 21:46:37.339785 22764 net.cpp:434] mbox_clean <- conv6_2_mbox_clean_flat
I0403 21:46:37.339792 22764 net.cpp:434] mbox_clean <- conv7_2_mbox_clean_flat
I0403 21:46:37.339799 22764 net.cpp:434] mbox_clean <- conv8_2_mbox_clean_flat
I0403 21:46:37.339805 22764 net.cpp:434] mbox_clean <- conv9_2_mbox_clean_flat
I0403 21:46:37.339815 22764 net.cpp:408] mbox_clean -> mbox_clean
I0403 21:46:37.339850 22764 net.cpp:150] Setting up mbox_clean
I0403 21:46:37.339859 22764 net.cpp:157] Top shape: 8 24656 (197248)
I0403 21:46:37.339864 22764 net.cpp:165] Memory required for data: 5850606624
I0403 21:46:37.339870 22764 layer_factory.hpp:77] Creating layer mbox_loss
I0403 21:46:37.339895 22764 net.cpp:100] Creating Layer mbox_loss
I0403 21:46:37.339901 22764 net.cpp:434] mbox_loss <- mbox_loc
I0403 21:46:37.339911 22764 net.cpp:434] mbox_loss <- mbox_conf
I0403 21:46:37.339918 22764 net.cpp:434] mbox_loss <- mbox_priorbox
…
  top: "label"
  include {
    phase: TEST
  }
  transform_param {
    mean_value: 104
    mean_value: 117
    mean_value: 123
    force_color: true
    resize_param {
      prob: 1
      resize_mode: WARP
      height: 512
      width: 512
      interp_mode: LINEAR
    }
  }
  data_param {
    source: "/data/siyu/dataset/coco/lmdb/COCO_Val2014_person_lmdb"
    batch_size: 2
    backend: LMDB
  }
  annotated_data_param {
    batch_sampler {
    }
    label_map_file: "/data/siyu/dataset/coco/labelmap_coco-person.prototxt"
    part_sampler_prob: 0
  }
}
layer {
  name: "conv1_1"
  type: "Convolution"
  bottom: "data"
  top: "conv1_1"
  param {
    lr_mult: 1
    decay_mult: 1
  }
  param {
    lr_mult: 2
    decay_mult: 0
  }
  convolution_param {
    num_output: 64
    pad: 1
    kernel_size: 3
    weight_filler {
      type: "xavier"
    }
    bias_filler {
      type: "constant"
      value: 0
    }
  }
}
layer {
  name: "relu1_1"
  type: "ReLU"
  bottom: "conv1_1"
  top: "conv1_1"
}
layer {
  name: "conv1_2"
  type: "Convolution"
  bottom: "conv1_1"
  top: "conv1_2"
  param {
    lr_mult: 1
    decay_mult: 1
  }
  param {
    lr_mult: 2
    decay_mult: 0
  }
  convolution_param {
    num_output: 64
    pad: 1
    kernel_size: 3
    weight_filler {
      type: "xavier"
    }
    bias_filler {
      type: "constant"
      value: 0
    }
  }
}
layer {
  name: "relu1_2"
  type: "ReLU"
  bottom: "conv1_2"
  top: "conv1_2"
}
layer {
  name: "pool1"
  type: "Pooling"
  bottom: "conv1_2"
  top: "pool1"
  pooling_param {
    pool: MAX
    kernel_size: 2
    stride: 2
  }
}
layer {
  name: "conv2_1"
  type: "Convolution"
  bottom: "pool1"
  top: "conv2_1"
  param {
    lr_mult: 1
    decay_mult: 1
  }
  param {
    lr_mult: 2
    decay_mult: 0
  }
  convolution_param {
    num_output: 128
    pad: 1
    kernel_size: 3
    weight_filler {
      type: "xavier"
    }
    bias_filler {
      type: "constant"
      value: 0
    }
  }
}
layer {
  name: "relu2_1"
  type: "ReLU"
  bottom: "conv2_1"
  top: "conv2_1"
}
layer {
  name: "conv2_2"
  type: "Convolution"
  bottom: "conv2_1"
  top: "conv2_2"
  param {
    lr_mult: 1
    decay_mult: 1
  }
  param {
    lr_mult: 2
    decay_mult: 0
  }
  convolution_param {
    num_output: 128
    pad: 1
    kernel_size: 3
    weight_filler {
      type: "xavier"
    }
    bias_filler {
      type: "constant"
      value: 0
    }
  }
}
layer {
  name: "relu2_2"
  type: "ReLU"
  bottom: "conv2_2"
  top: "conv2_2"
}
layer {
  name: "pool2"
  type: "Pooling"
  bottom: "conv2_2"
  top: "pool2"
  pooling_param {
    pool: MAX
    kernel_size: 2
    stride: 2
  }
}
layer {
  name: "conv3_1"
  type: "Convolution"
  bottom: "pool2"
  top: "conv3_1"
  param {
    lr_mult: 1
    decay_mult: 1
  }
  param {
    lr_mult: 2
    decay_mult: 0
  }
  convolution_param {
    num_output: 256
    pad: 1
    kernel_size: 3
    weight_filler {
      type: "xavier"
    }
    bias_filler {
      type: "constant"
      value: 0
    }
  }
}
layer {
  name: "relu3_1"
  type: "ReLU"
  bottom: "conv3_1"
  top: "conv3_1"
}
layer {
  name: "conv3_2"
  type: "Convolution"
  bottom: "conv3_1"
  top: "conv3_2"
  param {
    lr_mult: 1
    decay_mult: 1
  }
  param {
    lr_mult: 2
    decay_mult: 0
  }
  convolution_param {
    num_output: 256
    pad: 1
    kernel_size: 3
    weight_filler {
      type: "xavier"
    }
    bias_filler {
      type: "constant"
      value: 0
    }
  }
}
layer {
  name: "relu3_2"
  type: "ReLU"
  bottom: "conv3_2"
  top: "conv3_2"
}
layer {
  name: "conv3_3"
  type: "Convolution"
  bottom: "conv3_2"
  top: "conv3_3"
  param {
    lr_mult: 1
    decay_mult: 1
  }
  param {
    lr_mult: 2
    decay_mult: 0
  }
  convolution_param {
    num_output: 256
    pad: 1
    kernel_size: 3
    weight_filler {
      type: "xavier"
    }
    bias_filler {
      type: "constant"
      value: 0
    }
  }
}
layer {
  name: "relu3_3"
  type: "ReLU"
  bottom: "conv3_3"
  top: "conv3_3"
}
layer {
  name: "pool3"
  type: "Pooling"
  bottom: "conv3_3"
  top: "pool3"
  pooling_param {
    pool: MAX
    kernel_size: 2
    stride: 2
  }
}
layer {
  name: "conv4_1"
  type: "Convolution"
  bottom: "pool3"
  top: "conv4_1"
  param {
    lr_mult: 1
    decay_mult: 1
  }
  param {
    lr_mult: 2
    decay_mult: 0
  }
  convolution_param {
    num_output: 512
    pad: 1
    kernel_size: 3
    weight_filler {
      type: "xavier"
    }
    bias_filler {
      type: "constant"
      value: 0
    }
  }
}
layer {
  name: "relu4_1"
  type: "ReLU"
  bottom: "conv4_1"
  top: "conv4_1"
}
layer {
  name: "conv4_2"
  type: "Convolution"
  bottom: "conv4_1"
  top: "conv4_2"
  param {
    lr_mult: 1
    decay_mult: 1
  }
  param {
    lr_mult: 2
    decay_mult: 0
  }
  convolution_param {
    num_output: 512
    pad: 1
    kernel_size: 3
    weight_filler {
      type: "xavier"
    }
    bias_filler {
      type: "constant"
      value: 0
    }
  }
}
layer {
  name: "relu4_2"
  type: "ReLU"
  bottom: "conv4_2"
  top: "conv4_2"
}
layer {
  name: "conv4_3"
  type: "Convolution"
  bottom: "conv4_2"
  top: "conv4_3"
  param {
    lr_mult: 1
    decay_mult: 1
  }
  param {
    lr_mult: 2
    decay_mult: 0
  }
  convolution_param {
    num_output: 512
    pad: 1
    kernel_size: 3
    weight_filler {
      type: "xavier"
    }
    bias_filler {
      type: "constant"
      value: 0
    }
  }
}
layer {
  name: "relu4_3"
  type: "ReLU"
  bottom: "conv4_3"
  top: "conv4_3"
}
layer {
  name: "pool4"
  type: "Pooling"
  bottom: "conv4_3"
  top: "pool4"
  pooling_param {
    pool: MAX
    kernel_size: 2
    stride: 2
  }
}
layer {
  name: "conv5_1"
  type: "Convolution"
  bottom: "pool4"
  top: "conv5_1"
  param {
    lr_mult: 1
    decay_mult: 1
  }
  param {
    lr_mult: 2
    decay_mult: 0
  }
  convolution_param {
    num_output: 512
    pad: 1
    kernel_size: 3
    weight_filler {
      type: "xavier"
    }
    bias_filler {
      type: "constant"
      value: 0
    }
    dilation: 1
  }
}
layer {
  name: "relu5_1"
  type: "ReLU"
  bottom: "conv5_1"
  top: "conv5_1"
}
layer {
  name: "conv5_2"
  type: "Convolution"
  bottom: "conv5_1"
  top: "conv5_2"
  param {
    lr_mult: 1
    decay_mult: 1
  }
  param {
    lr_mult: 2
    decay_mult: 0
  }
  convolution_param {
    num_output: 512
    pad: 1
    kernel_size: 3
    weight_filler {
      type: "xavier"
    }
    bias_filler {
      type: "constant"
      value: 0
    }
    dilation: 1
  }
}
layer {
  name: "relu5_2"
  type: "ReLU"
  bottom: "conv5_2"
  top: "conv5_2"
}
layer {
  name: "conv5_3"
  type: "Convolution"
  bottom: "conv5_2"
  top: "conv5_3"
  param {
    lr_mult: 1
    decay_mult: 1
  }
  param {
    lr_mult: 2
    decay_mult: 0
  }
  convolution_param {
    num_output: 512
    pad: 1
    kernel_size: 3
    weight_filler {
      type: "xavier"
    }
    bias_filler {
      type: "constant"
      value: 0
    }
    dilation: 1
  }
}
layer {
  name: "relu5_3"
  type: "ReLU"
  bottom: "conv5_3"
  top: "conv5_3"
}
layer {
  name: "pool5"
  type: "Pooling"
  bottom: "conv5_3"
  top: "pool5"
  pooling_param {
    pool: MAX
    kernel_size: 3
    stride: 1
    pad: 1
  }
}
layer {
  name: "fc6"
  type: "Convolution"
  bottom: "pool5"
  top: "fc6"
  param {
    lr_mult: 1
    decay_mult: 1
  }
  param {
    lr_mult: 2
    decay_mult: 0
  }
  convolution_param {
    num_output: 1024
    pad: 6
    kernel_size: 3
    weight_filler {
      type: "xavier"
    }
    bias_filler {
      type: "constant"
      value: 0
    }
    dilation: 6
  }
}
layer {
  name: "relu6"
  type: "ReLU"
  bottom: "fc6"
  top: "fc6"
}
layer {
  name: "fc7"
  type: "Convolution"
  bottom: "fc6"
  top: "fc7"
  param {
    lr_mult: 1
    decay_mult: 1
  }
  param {
    lr_mult: 2
    decay_mult: 0
  }
  convolution_param {
    num_output: 1024
    kernel_size: 1
    weight_filler {
      type: "xavier"
    }
    bias_filler {
      type: "constant"
      value: 0
    }
  }
}
layer {
  name: "relu7"
  type: "ReLU"
  bottom: "fc7"
  top: "fc7"
}
layer {
  name: "conv6_1"
  type: "Convolution"
  bottom: "fc7"
  top: "conv6_1"
  param {
    lr_mult: 1
    decay_mult: 1
  }
  param {
    lr_mult: 2
    decay_mult: 0
  }
  convolution_param {
    num_output: 256
    pad: 0
    kernel_size: 1
    stride: 1
    weight_filler {
      type: "xavier"
    }
    bias_filler {
      type: "constant"
      value: 0
    }
  }
}
layer {
  name: "conv6_1_relu"
  type: "ReLU"
  bottom: "conv6_1"
  top: "conv6_1"
}
layer {
  name: "conv6_2"
  type: "Convolution"
  bottom: "conv6_1"
  top: "conv6_2"
  param {
    lr_mult: 1
    decay_mult: 1
  }
  param {
    lr_mult: 2
    decay_mult: 0
  }
  convolution_param {
    num_output: 512
    pad: 1
    kernel_size: 3
    stride: 2
    weight_filler {
      type: "xavier"
    }
    bias_filler {
      type: "constant"
      value: 0
    }
  }
}
layer {
  name: "conv6_2_relu"
  type: "ReLU"
  bottom: "conv6_2"
  top: "conv6_2"
}
layer {
  name: "conv7_1"
  type: "Convolution"
  bottom: "conv6_2"
  top: "conv7_1"
  param {
    lr_mult: 1
    decay_mult: 1
  }
  param {
    lr_mult: 2
    decay_mult: 0
  }
  convolution_param {
    num_output: 128
    pad: 0
    kernel_size: 1
    stride: 1
    weight_filler {
      type: "xavier"
    }
    bias_filler {
      type: "constant"
      value: 0
    }
  }
}
layer {
  name: "conv7_1_relu"
  type: "ReLU"
  bottom: "conv7_1"
  top: "conv7_1"
}
layer {
  name: "conv7_2"
  type: "Convolution"
  bottom: "conv7_1"
  top: "conv7_2"
  param {
    lr_mult: 1
    decay_mult: 1
  }
  param {
    lr_mult: 2
    decay_mult: 0
  }
  convolution_param {
    num_output: 256
    pad: 1
    kernel_size: 3
    stride: 2
    weight_filler {
      type: "xavier"
    }
    bias_filler {
      type: "constant"
      value: 0
    }
  }
}
layer {
  name: "conv7_2_relu"
  type: "ReLU"
  bottom: "conv7_2"
  top: "conv7_2"
}
layer {
  name: "conv8_1"
  type: "Convolution"
  bottom: "conv7_2"
  top: "conv8_1"
  param {
    lr_mult: 1
    decay_mult: 1
  }
  param {
    lr_mult: 2
    decay_mult: 0
  }
  convolution_param {
    num_output: 128
    pad: 0
    kernel_size: 1
    stride: 1
    weight_filler {
      type: "xavier"
    }
    bias_filler {
      type: "constant"
      value: 0
    }
  }
}
layer {
  name: "conv8_1_relu"
  type: "ReLU"
  bottom: "conv8_1"
  top: "conv8_1"
}
layer {
  name: "conv8_2"
  type: "Convolution"
  bottom: "conv8_1"
  top: "conv8_2"
  param {
    lr_mult: 1
    decay_mult: 1
  }
  param {
    lr_mult: 2
    decay_mult: 0
  }
  convolution_param {
    num_output: 256
    pad: 0
    kernel_size: 3
    stride: 1
    weight_filler {
      type: "xavier"
    }
    bias_filler {
      type: "constant"
      value: 0
    }
  }
}
layer {
  name: "conv8_2_relu"
  type: "ReLU"
  bottom: "conv8_2"
  top: "conv8_2"
}
layer {
  name: "conv9_1"
  type: "Convolution"
  bottom: "conv8_2"
  top: "conv9_1"
  param {
    lr_mult: 1
    decay_mult: 1
  }
  param {
    lr_mult: 2
    decay_mult: 0
  }
  convolution_param {
    num_output: 128
    pad: 0
    kernel_size: 1
    stride: 1
    weight_filler {
      type: "xavier"
    }
    bias_filler {
      type: "constant"
      value: 0
    }
  }
}
layer {
  name: "conv9_1_relu"
  type: "ReLU"
  bottom: "conv9_1"
  top: "conv9_1"
}
layer {
  name: "conv9_2"
  type: "Convolution"
  bottom: "conv9_1"
  top: "conv9_2"
  param {
    lr_mult: 1
    decay_mult: 1
  }
  param {
    lr_mult: 2
    decay_mult: 0
  }
  convolution_param {
    num_output: 256
    pad: 0
    kernel_size: 3
    stride: 1
    weight_filler {
      type: "xavier"
    }
    bias_filler {
      type: "constant"
      value: 0
    }
  }
}
layer {
  name: "conv9_2_relu"
  type: "ReLU"
  bottom: "conv9_2"
  top: "conv9_2"
}
layer {
  name: "conv4_3_norm"
  type: "Normalize"
  bottom: "conv4_3"
  top: "conv4_3_norm"
  norm_param {
    across_spatial: false
    scale_filler {
      type: "constant"
      value: 20
    }
    channel_shared: false
  }
}
layer {
  name: "conv4_3_norm_mbox_loc"
  type: "Convolution"
  bottom: "conv4_3_norm"
  top: "conv4_3_norm_mbox_loc"
  param {
    lr_mult: 1
    decay_mult: 1
  }
  param {
    lr_mult: 2
    decay_mult: 0
  }
  convolution_param {
    num_output: 16
    pad: 1
    kernel_size: 3
    stride: 1
    weight_filler {
      type: "xavier"
    }
    bias_filler {
      type: "constant"
      value: 0
    }
  }
}
layer {
  name: "conv4_3_norm_mbox_loc_perm"
  type: "Permute"
  bottom: "conv4_3_norm_mbox_loc"
  top: "conv4_3_norm_mbox_loc_perm"
  permute_param {
    order: 0
    order: 2
    order: 3
    order: 1
  }
}
layer {
  name: "conv4_3_norm_mbox_loc_flat"
  type: "Flatten"
  bottom: "conv4_3_norm_mbox_loc_perm"
  top: "conv4_3_norm_mbox_loc_flat"
  flatten_param {
    axis: 1
  }
}
layer {
  name: "conv4_3_norm_mbox_conf"
  type: "Convolution"
  bottom: "conv4_3_norm"
  top: "conv4_3_norm_mbox_conf"
  param {
    lr_mult: 1
    decay_mult: 1
  }
  param {
    lr_mult: 2
    decay_mult: 0
  }
  convolution_param {
    num_output: 8
    pad: 1
    kernel_size: 3
    stride: 1
    weight_filler {
      type: "xavier"
    }
    bias_filler {
      type: "constant"
      value: 0
    }
  }
}
layer {
  name: "conv4_3_norm_mbox_conf_perm"
  type: "Permute"
  bottom: "conv4_3_norm_mbox_conf"
  top: "conv4_3_norm_mbox_conf_perm"
  permute_param {
    order: 0
    order: 2
    order: 3
    order: 1
  }
}
layer {
  name: "conv4_3_norm_mbox_conf_flat"
  type: "Flatten"
  bottom: "conv4_3_norm_mbox_conf_perm"
  top: "conv4_3_norm_mbox_conf_flat"
  flatten_param {
    axis: 1
  }
}
layer {
  name: "conv4_3_norm_mbox_clean"
  type: "Convolution"
  bottom: "conv4_3_norm"
  top: "conv4_3_norm_mbox_clean"
  param {
    lr_mult: 1
    decay_mult: 1
  }
  param {
    lr_mult: 2
    decay_mult: 0
  }
  convolution_param {
    num_output: 4
    pad: 1
    kernel_size: 3
    stride: 1
    weight_filler {
      type: "xavier"
    }
    bias_filler {
      type: "constant"
      value: 0
    }
  }
}
layer {
  name: "conv4_3_norm_mbox_clean_perm"
  type: "Permute"
  bottom: "conv4_3_norm_mbox_clean"
  top: "conv4_3_norm_mbox_clean_perm"
  permute_param {
    order: 0
    order: 2
    order: 3
    order: 1
  }
}
layer {
  name: "conv4_3_norm_mbox_clean_flat"
  type: "Flatten"
  bottom: "conv4_3_norm_mbox_clean_perm"
  top: "conv4_3_norm_mbox_clean_flat"
  flatten_param {
    axis: 1
  }
}
layer {
  name: "conv4_3_norm_mbox_priorbox"
  type: "PriorBox"
  bottom: "conv4_3_norm"
  bottom: "data"
  top: "conv4_3_norm_mbox_priorbox"
  prior_box_param {
    min_size: 35.84
    max_size: 76.8
    aspect_ratio: 2
    flip: true
    clip: false
    variance: 0.1
    variance: 0.1
    variance: 0.2
    variance: 0.2
    step: 8
    offset: 0.5
  }
}
layer {
  name: "fc7_mbox_loc"
  type: "Convolution"
  bottom: "fc7"
  top: "fc7_mbox_loc"
  param {
    lr_mult: 1
    decay_mult: 1
  }
  param {
    lr_mult: 2
    decay_mult: 0
  }
  convolution_param {
    num_output: 24
    pad: 1
    kernel_size: 3
    stride: 1
    weight_filler {
      type: "xavier"
    }
    bias_filler {
      type: "constant"
      value: 0
    }
  }
}
layer {
  name: "fc7_mbox_loc_perm"
  type: "Permute"
  bottom: "fc7_mbox_loc"
  top: "fc7_mbox_loc_perm"
  permute_param {
    order: 0
    order: 2
    order: 3
    order: 1
  }
}
layer {
  name: "fc7_mbox_loc_flat"
  type: "Flatten"
  bottom: "fc7_mbox_loc_perm"
  top: "fc7_mbox_loc_flat"
  flatten_param {
    axis: 1
  }
}
layer {
  name: "fc7_mbox_conf"
  type: "Convolution"
  bottom: "fc7"
  top: "fc7_mbox_conf"
  param {
    lr_mult: 1
    decay_mult: 1
  }
  param {
    lr_mult: 2
    decay_mult: 0
  }
  convolution_param {
    num_output: 12
    pad: 1
    kernel_size: 3
    stride: 1
    weight_filler {
      type: "xavier"
    }
    bias_filler {
      type: "constant"
      value: 0
    }
  }
}
layer {
  name: "fc7_mbox_conf_perm"
  type: "Permute"
  bottom: "fc7_mbox_conf"
  top: "fc7_mbox_conf_perm"
  permute_param {
    order: 0
    order: 2
    order: 3
    order: 1
  }
}
layer {
  name: "fc7_mbox_conf_flat"
  type: "Flatten"
  bottom: "fc7_mbox_conf_perm"
  top: "fc7_mbox_conf_flat"
  flatten_param {
    axis: 1
  }
}
layer {
  name: "fc7_mbox_clean"
  type: "Convolution"
  bottom: "fc7"
  top: "fc7_mbox_clean"
  param {
    lr_mult: 1
    decay_mult: 1
  }
  param {
    lr_mult: 2
    decay_mult: 0
  }
  convolution_param {
    num_output: 6
    pad: 1
    kernel_size: 3
    stride: 1
    weight_filler {
      type: "xavier"
    }
    bias_filler {
      type: "constant"
      value: 0
    }
  }
}
layer {
  name: "fc7_mbox_clean_perm"
  type: "Permute"
  bottom: "fc7_mbox_clean"
  top: "fc7_mbox_clean_perm"
  permute_param {
    order: 0
    order: 2
    order: 3
    order: 1
  }
}
layer {
  name: "fc7_mbox_clean_flat"
  type: "Flatten"
  bottom: "fc7_mbox_clean_perm"
  top: "fc7_mbox_clean_flat"
  flatten_param {
    axis: 1
  }
}
layer {
  name: "fc7_mbox_priorbox"
  type: "PriorBox"
  bottom: "fc7"
  bottom: "data"
  top: "fc7_mbox_priorbox"
  prior_box_param {
    min_size: 76.8
    max_size: 168.96
    aspect_ratio: 2
    aspect_ratio: 3
    flip: true
    clip: false
    variance: 0.1
    variance: 0.1
    variance: 0.2
    variance: 0.2
    step: 16
    offset: 0.5
  }
}
layer {
  name: "conv6_2_mbox_loc"
  type: "Convolution"
  bottom: "conv6_2"
  top: "conv6_2_mbox_loc"
  param {
    lr_mult: 1
    decay_mult: 1
  }
  param {
    lr_mult: 2
    decay_mult: 0
  }
  convolution_param {
    num_output: 24
    pad: 1
    kernel_size: 3
    stride: 1
    weight_filler {
      type: "xavier"
    }
    bias_filler {
      type: "constant"
      value: 0
    }
  }
}
layer {
  name: "conv6_2_mbox_loc_perm"
  type: "Permute"
  bottom: "conv6_2_mbox_loc"
  top: "conv6_2_mbox_loc_perm"
  permute_param {
    order: 0
    order: 2
    order: 3
    order: 1
  }
}
layer {
  name: "conv6_2_mbox_loc_flat"
  type: "Flatten"
  bottom: "conv6_2_mbox_loc_perm"
  top: "conv6_2_mbox_loc_flat"
  flatten_param {
    axis: 1
  }
}
layer {
  name: "conv6_2_mbox_conf"
  type: "Convolution"
  bottom: "conv6_2"
  top: "conv6_2_mbox_conf"
  param {
    lr_mult: 1
    decay_mult: 1
  }
  param {
    lr_mult: 2
    decay_mult: 0
  }
  convolution_param {
    num_output: 12
    pad: 1
    kernel_size: 3
    stride: 1
    weight_filler {
      type: "xavier"
    }
    bias_filler {
      type: "constant"
      value: 0
    }
  }
}
layer {
  name: "conv6_2_mbox_conf_perm"
  type: "Permute"
  bottom: "conv6_2_mbox_conf"
  top: "conv6_2_mbox_conf_perm"
  permute_param {
    order: 0
    order: 2
    order: 3
    order: 1
  }
}
layer {
  name: "conv6_2_mbox_conf_flat"
  type: "Flatten"
  bottom: "conv6_2_mbox_conf_perm"
  top: "conv6_2_mbox_conf_flat"
  flatten_param {
    axis: 1
  }
}
layer {
  name: "conv6_2_mbox_clean"
  type: "Convolution"
  bottom: "conv6_2"
  top: "conv6_2_mbox_clean"
  param {
    lr_mult: 1
    decay_mult: 1
  }
  param {
    lr_mult: 2
    decay_mult: 0
  }
  convolution_param {
    num_output: 6
    pad: 1
    kernel_size: 3
    stride: 1
    weight_filler {
      type: "xavier"
    }
    bias_filler {
      type: "constant"
      value: 0
    }
  }
}
layer {
  name: "conv6_2_mbox_clean_perm"
  type: "Permute"
  bottom: "conv6_2_mbox_clean"
  top: "conv6_2_mbox_clean_perm"
  permute_param {
    order: 0
    order: 2
    order: 3
    order: 1
  }
}
layer {
  name: "conv6_2_mbox_clean_flat"
  type: "Flatten"
  bottom: "conv6_2_mbox_clean_perm"
  top: "conv6_2_mbox_clean_flat"
  flatten_param {
    axis: 1
  }
}
layer {
  name: "conv6_2_mbox_priorbox"
  type: "PriorBox"
  bottom: "conv6_2"
  bottom: "data"
  top: "conv6_2_mbox_priorbox"
  prior_box_param {
    min_size: 168.96
    max_size: 261.12
    aspect_ratio: 2
    aspect_ratio: 3
    flip: true
    clip: false
    variance: 0.1
    variance: 0.1
    variance: 0.2
    variance: 0.2
    step: 32
    offset: 0.5
  }
}
layer {
  name: "conv7_2_mbox_loc"
  type: "Convolution"
  bottom: "conv7_2"
  top: "conv7_2_mbox_loc"
  param {
    lr_mult: 1
    decay_mult: 1
  }
  param {
    lr_mult: 2
    decay_mult: 0
  }
  convolution_param {
    num_output: 24
    pad: 1
    kernel_size: 3
    stride: 1
    weight_filler {
      type: "xavier"
    }
    bias_filler {
      type: "constant"
      value: 0
    }
  }
}
layer {
  name: "conv7_2_mbox_loc_perm"
  type: "Permute"
  bottom: "conv7_2_mbox_loc"
  top: "conv7_2_mbox_loc_perm"
  permute_param {
    order: 0
    order: 2
    order: 3
    order: 1
  }
}
layer {
  name: "conv7_2_mbox_loc_flat"
  type: "Flatten"
  bottom: "conv7_2_mbox_loc_perm"
  top: "conv7_2_mbox_loc_flat"
  flatten_param {
    axis: 1
  }
}
layer {
  name: "conv7_2_mbox_conf"
  type: "Convolution"
  bottom: "conv7_2"
  top: "conv7_2_mbox_conf"
  param {
    lr_mult: 1
    decay_mult: 1
  }
  param {
    lr_mult: 2
    decay_mult: 0
  }
  convolution_param {
    num_output: 12
    pad: 1
    kernel_size: 3
    stride: 1
    weight_filler {
      type: "xavier"
    }
    bias_filler {
      type: "constant"
      value: 0
    }
  }
}
layer {
  name: "conv7_2_mbox_conf_perm"
  type: "Permute"
  bottom: "conv7_2_mbox_conf"
  top: "conv7_2_mbox_conf_perm"
  permute_param {
    order: 0
    order: 2
    order: 3
    order: 1
  }
}
layer {
  name: "conv7_2_mbox_conf_flat"
  type: "Flatten"
  bottom: "conv7_2_mbox_conf_perm"
  top: "conv7_2_mbox_conf_flat"
  flatten_param {
    axis: 1
  }
}
layer {
  name: "conv7_2_mbox_clean"
  type: "Convolution"
  bottom: "conv7_2"
  top: "conv7_2_mbox_clean"
  param {
    lr_mult: 1
    decay_mult: 1
  }
  param {
    lr_mult: 2
    decay_mult: 0
  }
  convolution_param {
    num_output: 6
    pad: 1
    kernel_size: 3
    stride: 1
    weight_filler {
      type: "xavier"
    }
    bias_filler {
      type: "constant"
      value: 0
    }
  }
}
layer {
  name: "conv7_2_mbox_clean_perm"
  type: "Permute"
  bottom: "conv7_2_mbox_clean"
  top: "conv7_2_mbox_clean_perm"
  permute_param {
    order: 0
    order: 2
    order: 3
    order: 1
  }
}
layer {
  name: "conv7_2_mbox_clean_flat"
  type: "Flatten"
  bottom: "conv7_2_mbox_clean_perm"
  top: "conv7_2_mbox_clean_flat"
  flatten_param {
    axis: 1
  }
}
layer {
  name: "conv7_2_mbox_priorbox"
  type: "PriorBox"
  bottom: "conv7_2"
  bottom: "data"
  top: "conv7_2_mbox_priorbox"
  prior_box_param {
    min_size: 261.12
    max_size: 353.28
    aspect_ratio: 2
    aspect_ratio: 3
    flip: true
    clip: false
    variance: 0.1
    variance: 0.1
    variance: 0.2
    variance: 0.2
    step: 64
    offset: 0.5
  }
}
layer {
  name: "conv8_2_mbox_loc"
  type: "Convolution"
  bottom: "conv8_2"
  top: "conv8_2_mbox_loc"
  param {
    lr_mult: 1
    decay_mult: 1
  }
  param {
    lr_mult: 2
    decay_mult: 0
  }
  convolution_param {
    num_output: 16
    pad: 1
    kernel_size: 3
    stride: 1
    weight_filler {
      type: "xavier"
    }
    bias_filler {
      type: "constant"
      value: 0
    }
  }
}
layer {
  name: "conv8_2_mbox_loc_perm"
  type: "Permute"
  bottom: "conv8_2_mbox_loc"
  top: "conv8_2_mbox_loc_perm"
  permute_param {
    order: 0
    order: 2
    order: 3
    order: 1
  }
}
layer {
  name: "conv8_2_mbox_loc_flat"
  type: "Flatten"
  bottom: "conv8_2_mbox_loc_perm"
  top: "conv8_2_mbox_loc_flat"
  flatten_param {
    axis: 1
  }
}
layer {
  name: "conv8_2_mbox_conf"
  type: "Convolution"
  bottom: "conv8_2"
  top: "conv8_2_mbox_conf"
  param {
    lr_mult: 1
    decay_mult: 1
  }
  param {
    lr_mult: 2
    decay_mult: 0
  }
  convolution_param {
    num_output: 8
    pad: 1
    kernel_size: 3
    stride: 1
    weight_filler {
      type: "xavier"
    }
    bias_filler {
      type: "constant"
      value: 0
    }
  }
}
layer {
  name: "conv8_2_mbox_conf_perm"
  type: "Permute"
  bottom: "conv8_2_mbox_conf"
  top: "conv8_2_mbox_conf_perm"
  permute_param {
    order: 0
    order: 2
    order: 3
    order: 1
  }
}
layer {
  name: "conv8_2_mbox_conf_flat"
  type: "Flatten"
  bottom: "conv8_2_mbox_conf_perm"
  top: "conv8_2_mbox_conf_flat"
  flatten_param {
    axis: 1
  }
}
layer {
  name: "conv8_2_mbox_clean"
  type: "Convolution"
  bottom: "conv8_2"
  top: "conv8_2_mbox_clean"
  param {
    lr_mult: 1
    decay_mult: 1
  }
  param {
    lr_mult: 2
    decay_mult: 0
  }
  convolution_param {
    num_output: 4
    pad: 1
    kernel_size: 3
    stride: 1
    weight_filler {
      type: "xavier"
    }
    bias_filler {
      type: "constant"
      value: 0
    }
  }
}
layer {
  name: "conv8_2_mbox_clean_perm"
  type: "Permute"
  bottom: "conv8_2_mbox_clean"
  top: "conv8_2_mbox_clean_perm"
  permute_param {
    order: 0
    order: 2
    order: 3
    order: 1
  }
}
layer {
  name: "conv8_2_mbox_clean_flat"
  type: "Flatten"
  bottom: "conv8_2_mbox_clean_perm"
  top: "conv8_2_mbox_clean_flat"
  flatten_param {
    axis: 1
  }
}
layer {
  name: "conv8_2_mbox_priorbox"
  type: "PriorBox"
  bottom: "conv8_2"
  bottom: "data"
  top: "conv8_2_mbox_priorbox"
  prior_box_param {
    min_size: 353.28
    max_size: 445.44
    aspect_ratio: 2
    flip: true
    clip: false
    variance: 0.1
    variance: 0.1
    variance: 0.2
    variance: 0.2
    step: 100
    offset: 0.5
  }
}
layer {
  name: "conv9_2_mbox_loc"
  type: "Convolution"
  bottom: "conv9_2"
  top: "conv9_2_mbox_loc"
  param {
    lr_mult: 1
    decay_mult: 1
  }
  param {
    lr_mult: 2
    decay_mult: 0
  }
  convolution_param {
    num_output: 16
    pad: 1
    kernel_size: 3
    stride: 1
    weight_filler {
      type: "xavier"
    }
    bias_filler {
      type: "constant"
      value: 0
    }
  }
}
layer {
  name: "conv9_2_mbox_loc_perm"
  type: "Permute"
  bottom: "conv9_2_mbox_loc"
  top: "conv9_2_mbox_loc_perm"
  permute_param {
    order: 0
    order: 2
    order: 3
    order: 1
  }
}
layer {
  name: "conv9_2_mbox_loc_flat"
  type: "Flatten"
  bottom: "conv9_2_mbox_loc_perm"
  top: "conv9_2_mbox_loc_flat"
  flatten_param {
    axis: 1
  }
}
layer {
  name: "conv9_2_mbox_conf"
  type: "Convolution"
  bottom: "conv9_2"
  top: "conv9_2_mbox_conf"
  param {
    lr_mult: 1
    decay_mult: 1
  }
  param {
    lr_mult: 2
    decay_mult: 0
  }
  convolution_param {
    num_output: 8
    pad: 1
    kernel_size: 3
    stride: 1
    weight_filler {
      type: "xavier"
    }
    bias_filler {
      type: "constant"
      value: 0
    }
  }
}
layer {
  name: "conv9_2_mbox_conf_perm"
  type: "Permute"
  bottom: "conv9_2_mbox_conf"
  top: "conv9_2_mbox_conf_perm"
  permute_param {
    order: 0
    order: 2
    order: 3
    order: 1
  }
}
layer {
  name: "conv9_2_mbox_conf_flat"
  type: "Flatten"
  bottom: "conv9_2_mbox_conf_perm"
  top: "conv9_2_mbox_conf_flat"
  flatten_param {
    axis: 1
  }
}
layer {
  name: "conv9_2_mbox_clean"
  type: "Convolution"
  bottom: "conv9_2"
  top: "conv9_2_mbox_clean"
  param {
    lr_mult: 1
    decay_mult: 1
  }
  param {
    lr_mult: 2
    decay_mult: 0
  }
  convolution_param {
    num_output: 4
    pad: 1
    kernel_size: 3
    stride: 1
    weight_filler {
      type: "xavier"
    }
    bias_filler {
      type: "constant"
      value: 0
    }
  }
}
layer {
  name: "conv9_2_mbox_clean_perm"
  type: "Permute"
  bottom: "conv9_2_mbox_clean"
  top: "conv9_2_mbox_clean_perm"
  permute_param {
    order: 0
    order: 2
    order: 3
    order: 1
  }
}
layer {
  name: "conv9_2_mbox_clean_flat"
  type: "Flatten"
  bottom: "conv9_2_mbox_clean_perm"
  top: "conv9_2_mbox_clean_flat"
  flatten_param {
    axis: 1
  }
}
layer {
  name: "conv9_2_mbox_priorbox"
  type: "PriorBox"
  bottom: "conv9_2"
  bottom: "data"
  top: "conv9_2_mbox_priorbox"
  prior_box_param {
    min_size: 445.44
    max_size: 537.6
    aspect_ratio: 2
    flip: true
    clip: false
    variance: 0.1
    variance: 0.1
    variance: 0.2
    variance: 0.2
    step: 300
    offset: 0.5
  }
}
layer {
  name: "mbox_loc"
  type: "Concat"
  bottom: "conv4_3_norm_mbox_loc_flat"
  bottom: "fc7_mbox_loc_flat"
  bottom: "conv6_2_mbox_loc_flat"
  bottom: "conv7_2_mbox_loc_flat"
  bottom: "conv8_2_mbox_loc_flat"
  bottom: "conv9_2_mbox_loc_flat"
  top: "mbox_loc"
  concat_param {
    axis: 1
  }
}
layer {
  name: "mbox_conf"
  type: "Concat"
  bottom: "conv4_3_norm_mbox_conf_flat"
  bottom: "fc7_mbox_conf_flat"
  bottom: "conv6_2_mbox_conf_flat"
  bottom: "conv7_2_mbox_conf_flat"
  bottom: "conv8_2_mbox_conf_flat"
  bottom: "conv9_2_mbox_conf_flat"
  top: "mbox_conf"
  concat_param {
    axis: 1
  }
}
layer {
  name: "mbox_priorbox"
  type: "Concat"
  bottom: "conv4_3_norm_mbox_priorbox"
  bottom: "fc7_mbox_priorbox"
  bottom: "conv6_2_mbox_priorbox"
  bottom: "conv7_2_mbox_priorbox"
  bottom: "conv8_2_mbox_priorbox"
  bottom: "conv9_2_mbox_priorbox"
  top: "mbox_priorbox"
  concat_param {
    axis: 2
  }
}
layer {
  name: "mbox_clean"
  type: "Concat"
  bottom: "conv4_3_norm_mbox_clean_flat"
  bottom: "fc7_mbox_clean_flat"
  bottom: "conv6_2_mbox_clean_flat"
  bottom: "conv7_2_mbox_clean_flat"
  bottom: "conv8_2_mbox_clean_flat"
  bottom: "conv9_2_mbox_clean_flat"
  top: "mbox_clean"
  concat_param {
    axis: 1
  }
}
layer {
  name: "mbox_conf_reshape"
  type: "Reshape"
  bottom: "mbox_conf"
  top: "mbox_conf_reshape"
  reshape_param {
    shape {
      dim: 0
      dim: -1
      dim: 2
    }
  }
}
layer {
  name: "mbox_conf_softmax"
  type: "Softmax"
  bottom: "mbox_conf_reshape"
  top: "mbox_conf_softmax"
  softmax_param {
    axis: 2
  }
}
layer {
  name: "mbox_conf_flatten"
  type: "Flatten"
  bottom: "mbox_conf_softmax"
  top: "mbox_conf_flatten"
  flatten_param {
    axis: 1
  }
}
layer {
  name: "mbox_clean_sigmoid"
  type: "Sigmoid"
  bottom: "mbox_clean"
  top: "mbox_clean_sigmoid"
}
layer {
  name: "detection_out"
  type: "DetectionOutput"
  bottom: "mbox_loc"
  bottom: "mbox_conf_flatten"
  bottom: "mbox_priorbox"
  bottom: "mbox_clean_sigmoid"
  top: "detection_out"
  include {
    phase: TEST
  }
I0403 21:46:37.346357 22764 layer_factory.hpp:77] Creating layer data
I0403 21:46:37.346439 22764 net.cpp:100] Creating Layer data
I0403 21:46:37.346456 22764 net.cpp:408] data -> data
I0403 21:46:37.346469 22764 net.cpp:408] data -> label
I0403 21:46:37.347954 22833 db_lmdb.cpp:35] Opened lmdb /data/siyu/dataset/coco/lmdb/COCO_Val2014_person_lmdb
I0403 21:46:37.352007 22764 annotated_data_layer.cpp:62] output data size: 2,3,512,512
I0403 21:46:37.363534 22764 net.cpp:150] Setting up data
I0403 21:46:37.363564 22764 net.cpp:157] Top shape: 2 3 512 512 (1572864)
I0403 21:46:37.363572 22764 net.cpp:157] Top shape: 1 1 6 8 (48)
I0403 21:46:37.363601 22764 net.cpp:165] Memory required for data: 6291648
I0403 21:46:37.363615 22764 layer_factory.hpp:77] Creating layer data_data_0_split
I0403 21:46:37.363633 22764 net.cpp:100] Creating Layer data_data_0_split
I0403 21:46:37.363646 22764 net.cpp:434] data_data_0_split <- data
I0403 21:46:37.363656 22764 net.cpp:408] data_data_0_split -> data_data_0_split_0
I0403 21:46:37.363672 22764 net.cpp:408] data_data_0_split -> data_data_0_split_1
I0403 21:46:37.363682 22764 net.cpp:408] data_data_0_split -> data_data_0_split_2
I0403 21:46:37.363692 22764 net.cpp:408] data_data_0_split -> data_data_0_split_3
I0403 21:46:37.363700 22764 net.cpp:408] data_data_0_split -> data_data_0_split_4
I0403 21:46:37.363708 22764 net.cpp:408] data_data_0_split -> data_data_0_split_5
I0403 21:46:37.363716 22764 net.cpp:408] data_data_0_split -> data_data_0_split_6
I0403 21:46:37.363911 22764 net.cpp:150] Setting up data_data_0_split
I0403 21:46:37.363924 22764 net.cpp:157] Top shape: 2 3 512 512 (1572864)
I0403 21:46:37.363931 22764 net.cpp:157] Top shape: 2 3 512 512 (1572864)
I0403 21:46:37.363937 22764 net.cpp:157] Top shape: 2 3 512 512 (1572864)
I0403 21:46:37.363943 22764 net.cpp:157] Top shape: 2 3 512 512 (1572864)
I0403 21:46:37.363950 22764 net.cpp:157] Top shape: 2 3 512 512 (1572864)
I0403 21:46:37.363955 22764 net.cpp:157] Top shape: 2 3 512 512 (1572864)
I0403 21:46:37.363961 22764 net.cpp:157] Top shape: 2 3 512 512 (1572864)
I0403 21:46:37.363966 22764 net.cpp:165] Memory required for data: 50331840
I0403 21:46:37.363972 22764 layer_factory.hpp:77] Creating layer conv1_1
I0403 21:46:37.363987 22764 net.cpp:100] Creating Layer conv1_1
I0403 21:46:37.363996 22764 net.cpp:434] conv1_1 <- data_data_0_split_0
I0403 21:46:37.364003 22764 net.cpp:408] conv1_1 -> conv1_1
I0403 21:46:37.366459 22764 net.cpp:150] Setting up conv1_1
I0403 21:46:37.366487 22764 net.cpp:157] Top shape: 2 64 512 512 (33554432)
I0403 21:46:37.366498 22764 net.cpp:165] Memory required for data: 184549568
I0403 21:46:37.366531 22764 layer_factory.hpp:77] Creating layer relu1_1
I0403 21:46:37.366544 22764 net.cpp:100] Creating Layer relu1_1
I0403 21:46:37.366550 22764 net.cpp:434] relu1_1 <- conv1_1
I0403 21:46:37.366559 22764 net.cpp:395] relu1_1 -> conv1_1 (in-place)
I0403 21:46:37.366943 22764 net.cpp:150] Setting up relu1_1
I0403 21:46:37.366960 22764 net.cpp:157] Top shape: 2 64 512 512 (33554432)
I0403 21:46:37.366971 22764 net.cpp:165] Memory required for data: 318767296
I0403 21:46:37.366977 22764 layer_factory.hpp:77] Creating layer conv1_2
I0403 21:46:37.366992 22764 net.cpp:100] Creating Layer conv1_2
I0403 21:46:37.366999 22764 net.cpp:434] conv1_2 <- conv1_1
I0403 21:46:37.367009 22764 net.cpp:408] conv1_2 -> conv1_2
I0403 21:46:37.378418 22764 net.cpp:150] Setting up conv1_2
I0403 21:46:37.378466 22764 net.cpp:157] Top shape: 2 64 512 512 (33554432)
I0403 21:46:37.378473 22764 net.cpp:165] Memory required for data: 452985024
I0403 21:46:37.378502 22764 layer_factory.hpp:77] Creating layer relu1_2
I0403 21:46:37.378541 22764 net.cpp:100] Creating Layer relu1_2
I0403 21:46:37.378556 22764 net.cpp:434] relu1_2 <- conv1_2
I0403 21:46:37.378566 22764 net.cpp:395] relu1_2 -> conv1_2 (in-place)
I0403 21:46:37.378924 22764 net.cpp:150] Setting up relu1_2
I0403 21:46:37.378940 22764 net.cpp:157] Top shape: 2 64 512 512 (33554432)
I0403 21:46:37.378953 22764 net.cpp:165] Memory required for data: 587202752
I0403 21:46:37.378959 22764 layer_factory.hpp:77] Creating layer pool1
I0403 21:46:37.378988 22764 net.cpp:100] Creating Layer pool1
I0403 21:46:37.378995 22764 net.cpp:434] pool1 <- conv1_2
I0403 21:46:37.379016 22764 net.cpp:408] pool1 -> pool1
I0403 21:46:37.379087 22764 net.cpp:150] Setting up pool1
I0403 21:46:37.379097 22764 net.cpp:157] Top shape: 2 64 256 256 (8388608)
I0403 21:46:37.379102 22764 net.cpp:165] Memory required for data: 620757184
I0403 21:46:37.379109 22764 layer_factory.hpp:77] Creating layer conv2_1
I0403 21:46:37.379168 22764 net.cpp:100] Creating Layer conv2_1
I0403 21:46:37.379176 22764 net.cpp:434] conv2_1 <- pool1
I0403 21:46:37.379192 22764 net.cpp:408] conv2_1 -> conv2_1
I0403 21:46:37.381822 22764 net.cpp:150] Setting up conv2_1
I0403 21:46:37.381844 22764 net.cpp:157] Top shape: 2 128 256 256 (16777216)
I0403 21:46:37.381850 22764 net.cpp:165] Memory required for data: 687866048
I0403 21:46:37.381862 22764 layer_factory.hpp:77] Creating layer relu2_1
I0403 21:46:37.381927 22764 net.cpp:100] Creating Layer relu2_1
I0403 21:46:37.381935 22764 net.cpp:434] relu2_1 <- conv2_1
I0403 21:46:37.381944 22764 net.cpp:395] relu2_1 -> conv2_1 (in-place)
I0403 21:46:37.382169 22764 net.cpp:150] Setting up relu2_1
I0403 21:46:37.382182 22764 net.cpp:157] Top shape: 2 128 256 256 (16777216)
I0403 21:46:37.382187 22764 net.cpp:165] Memory required for data: 754974912
I0403 21:46:37.382194 22764 layer_factory.hpp:77] Creating layer conv2_2
I0403 21:46:37.382246 22764 net.cpp:100] Creating Layer conv2_2
I0403 21:46:37.382254 22764 net.cpp:434] conv2_2 <- conv2_1
I0403 21:46:37.382263 22764 net.cpp:408] conv2_2 -> conv2_2
I0403 21:46:37.385448 22764 net.cpp:150] Setting up conv2_2
I0403 21:46:37.385476 22764 net.cpp:157] Top shape: 2 128 256 256 (16777216)
I0403 21:46:37.385483 22764 net.cpp:165] Memory required for data: 822083776
I0403 21:46:37.385491 22764 layer_factory.hpp:77] Creating layer relu2_2
I0403 21:46:37.385524 22764 net.cpp:100] Creating Layer relu2_2
I0403 21:46:37.385532 22764 net.cpp:434] relu2_2 <- conv2_2
I0403 21:46:37.385540 22764 net.cpp:395] relu2_2 -> conv2_2 (in-place)
I0403 21:46:37.385906 22764 net.cpp:150] Setting up relu2_2
I0403 21:46:37.385922 22764 net.cpp:157] Top shape: 2 128 256 256 (16777216)
I0403 21:46:37.385928 22764 net.cpp:165] Memory required for data: 889192640
I0403 21:46:37.385934 22764 layer_factory.hpp:77] Creating layer pool2
I0403 21:46:37.385962 22764 net.cpp:100] Creating Layer pool2
I0403 21:46:37.385969 22764 net.cpp:434] pool2 <- conv2_2
I0403 21:46:37.385978 22764 net.cpp:408] pool2 -> pool2
I0403 21:46:37.386047 22764 net.cpp:150] Setting up pool2
I0403 21:46:37.386057 22764 net.cpp:157] Top shape: 2 128 128 128 (4194304)
I0403 21:46:37.386062 22764 net.cpp:165] Memory required for data: 905969856
I0403 21:46:37.386070 22764 layer_factory.hpp:77] Creating layer conv3_1
I0403 21:46:37.386106 22764 net.cpp:100] Creating Layer conv3_1
I0403 21:46:37.386114 22764 net.cpp:434] conv3_1 <- pool2
I0403 21:46:37.386123 22764 net.cpp:408] conv3_1 -> conv3_1
I0403 21:46:37.390393 22764 net.cpp:150] Setting up conv3_1
I0403 21:46:37.390410 22764 net.cpp:157] Top shape: 2 256 128 128 (8388608)
I0403 21:46:37.390422 22764 net.cpp:165] Memory required for data: 939524288
I0403 21:46:37.390437 22764 layer_factory.hpp:77] Creating layer relu3_1
I0403 21:46:37.390465 22764 net.cpp:100] Creating Layer relu3_1
I0403 21:46:37.390473 22764 net.cpp:434] relu3_1 <- conv3_1
I0403 21:46:37.390480 22764 net.cpp:395] relu3_1 -> conv3_1 (in-place)
I0403 21:46:37.390853 22764 net.cpp:150] Setting up relu3_1
I0403 21:46:37.390869 22764 net.cpp:157] Top shape: 2 256 128 128 (8388608)
I0403 21:46:37.390880 22764 net.cpp:165] Memory required for data: 973078720
I0403 21:46:37.390900 22764 layer_factory.hpp:77] Creating layer conv3_2
I0403 21:46:37.390933 22764 net.cpp:100] Creating Layer conv3_2
I0403 21:46:37.390941 22764 net.cpp:434] conv3_2 <- conv3_1
I0403 21:46:37.390952 22764 net.cpp:408] conv3_2 -> conv3_2
I0403 21:46:37.398203 22764 net.cpp:150] Setting up conv3_2
I0403 21:46:37.398231 22764 net.cpp:157] Top shape: 2 256 128 128 (8388608)
I0403 21:46:37.398237 22764 net.cpp:165] Memory required for data: 1006633152
I0403 21:46:37.398247 22764 layer_factory.hpp:77] Creating layer relu3_2
I0403 21:46:37.398267 22764 net.cpp:100] Creating Layer relu3_2
I0403 21:46:37.398274 22764 net.cpp:434] relu3_2 <- conv3_2
I0403 21:46:37.398283 22764 net.cpp:395] relu3_2 -> conv3_2 (in-place)
I0403 21:46:37.398528 22764 net.cpp:150] Setting up relu3_2
I0403 21:46:37.398543 22764 net.cpp:157] Top shape: 2 256 128 128 (8388608)
I0403 21:46:37.398548 22764 net.cpp:165] Memory required for data: 1040187584
I0403 21:46:37.398553 22764 layer_factory.hpp:77] Creating layer conv3_3
I0403 21:46:37.398577 22764 net.cpp:100] Creating Layer conv3_3
I0403 21:46:37.398586 22764 net.cpp:434] conv3_3 <- conv3_2
I0403 21:46:37.398597 22764 net.cpp:408] conv3_3 -> conv3_3
I0403 21:46:37.405895 22764 net.cpp:150] Setting up conv3_3
I0403 21:46:37.405915 22764 net.cpp:157] Top shape: 2 256 128 128 (8388608)
I0403 21:46:37.405926 22764 net.cpp:165] Memory required for data: 1073742016
I0403 21:46:37.405938 22764 layer_factory.hpp:77] Creating layer relu3_3
I0403 21:46:37.405962 22764 net.cpp:100] Creating Layer relu3_3
I0403 21:46:37.405971 22764 net.cpp:434] relu3_3 <- conv3_3
I0403 21:46:37.405978 22764 net.cpp:395] relu3_3 -> conv3_3 (in-place)
I0403 21:46:37.406359 22764 net.cpp:150] Setting up relu3_3
I0403 21:46:37.406375 22764 net.cpp:157] Top shape: 2 256 128 128 (8388608)
I0403 21:46:37.406400 22764 net.cpp:165] Memory required for data: 1107296448
I0403 21:46:37.406414 22764 layer_factory.hpp:77] Creating layer pool3
I0403 21:46:37.406431 22764 net.cpp:100] Creating Layer pool3
I0403 21:46:37.406438 22764 net.cpp:434] pool3 <- conv3_3
I0403 21:46:37.406446 22764 net.cpp:408] pool3 -> pool3
I0403 21:46:37.406519 22764 net.cpp:150] Setting up pool3
I0403 21:46:37.406529 22764 net.cpp:157] Top shape: 2 256 64 64 (2097152)
I0403 21:46:37.406534 22764 net.cpp:165] Memory required for data: 1115685056
I0403 21:46:37.406539 22764 layer_factory.hpp:77] Creating layer conv4_1
I0403 21:46:37.406568 22764 net.cpp:100] Creating Layer conv4_1
I0403 21:46:37.406575 22764 net.cpp:434] conv4_1 <- pool3
I0403 21:46:37.406585 22764 net.cpp:408] conv4_1 -> conv4_1
I0403 21:46:37.419520 22764 net.cpp:150] Setting up conv4_1
I0403 21:46:37.419539 22764 net.cpp:157] Top shape: 2 512 64 64 (4194304)
I0403 21:46:37.419553 22764 net.cpp:165] Memory required for data: 1132462272
I0403 21:46:37.419564 22764 layer_factory.hpp:77] Creating layer relu4_1
I0403 21:46:37.419595 22764 net.cpp:100] Creating Layer relu4_1
I0403 21:46:37.419602 22764 net.cpp:434] relu4_1 <- conv4_1
I0403 21:46:37.419610 22764 net.cpp:395] relu4_1 -> conv4_1 (in-place)
I0403 21:46:37.419989 22764 net.cpp:150] Setting up relu4_1
I0403 21:46:37.420006 22764 net.cpp:157] Top shape: 2 512 64 64 (4194304)
I0403 21:46:37.420017 22764 net.cpp:165] Memory required for data: 1149239488
I0403 21:46:37.420030 22764 layer_factory.hpp:77] Creating layer conv4_2
I0403 21:46:37.420044 22764 net.cpp:100] Creating Layer conv4_2
I0403 21:46:37.420053 22764 net.cpp:434] conv4_2 <- conv4_1
I0403 21:46:37.420063 22764 net.cpp:408] conv4_2 -> conv4_2
I0403 21:46:37.453815 22764 net.cpp:150] Setting up conv4_2
I0403 21:46:37.453866 22764 net.cpp:157] Top shape: 2 512 64 64 (4194304)
I0403 21:46:37.453876 22764 net.cpp:165] Memory required for data: 1166016704
I0403 21:46:37.453907 22764 layer_factory.hpp:77] Creating layer relu4_2
I0403 21:46:37.453930 22764 net.cpp:100] Creating Layer relu4_2
I0403 21:46:37.453943 22764 net.cpp:434] relu4_2 <- conv4_2
I0403 21:46:37.453963 22764 net.cpp:395] relu4_2 -> conv4_2 (in-place)
I0403 21:46:37.454351 22764 net.cpp:150] Setting up relu4_2
I0403 21:46:37.454372 22764 net.cpp:157] Top shape: 2 512 64 64 (4194304)
I0403 21:46:37.454381 22764 net.cpp:165] Memory required for data: 1182793920
I0403 21:46:37.454391 22764 layer_factory.hpp:77] Creating layer conv4_3
I0403 21:46:37.454418 22764 net.cpp:100] Creating Layer conv4_3
I0403 21:46:37.454432 22764 net.cpp:434] conv4_3 <- conv4_2
I0403 21:46:37.454447 22764 net.cpp:408] conv4_3 -> conv4_3
I0403 21:46:37.476364 22764 net.cpp:150] Setting up conv4_3
I0403 21:46:37.476392 22764 net.cpp:157] Top shape: 2 512 64 64 (4194304)
I0403 21:46:37.476397 22764 net.cpp:165] Memory required for data: 1199571136
I0403 21:46:37.476408 22764 layer_factory.hpp:77] Creating layer relu4_3
I0403 21:46:37.476420 22764 net.cpp:100] Creating Layer relu4_3
I0403 21:46:37.476428 22764 net.cpp:434] relu4_3 <- conv4_3
I0403 21:46:37.476441 22764 net.cpp:395] relu4_3 -> conv4_3 (in-place)
I0403 21:46:37.476764 22764 net.cpp:150] Setting up relu4_3
I0403 21:46:37.476778 22764 net.cpp:157] Top shape: 2 512 64 64 (4194304)
I0403 21:46:37.476783 22764 net.cpp:165] Memory required for data: 1216348352
I0403 21:46:37.476789 22764 layer_factory.hpp:77] Creating layer conv4_3_relu4_3_0_split
I0403 21:46:37.476797 22764 net.cpp:100] Creating Layer conv4_3_relu4_3_0_split
I0403 21:46:37.476802 22764 net.cpp:434] conv4_3_relu4_3_0_split <- conv4_3
I0403 21:46:37.476810 22764 net.cpp:408] conv4_3_relu4_3_0_split -> conv4_3_relu4_3_0_split_0
I0403 21:46:37.476819 22764 net.cpp:408] conv4_3_relu4_3_0_split -> conv4_3_relu4_3_0_split_1
I0403 21:46:37.476876 22764 net.cpp:150] Setting up conv4_3_relu4_3_0_split
I0403 21:46:37.476886 22764 net.cpp:157] Top shape: 2 512 64 64 (4194304)
I0403 21:46:37.476891 22764 net.cpp:157] Top shape: 2 512 64 64 (4194304)
I0403 21:46:37.476896 22764 net.cpp:165] Memory required for data: 1249902784
I0403 21:46:37.476920 22764 layer_factory.hpp:77] Creating layer pool4
I0403 21:46:37.476932 22764 net.cpp:100] Creating Layer pool4
I0403 21:46:37.476938 22764 net.cpp:434] pool4 <- conv4_3_relu4_3_0_split_0
I0403 21:46:37.476944 22764 net.cpp:408] pool4 -> pool4
I0403 21:46:37.476997 22764 net.cpp:150] Setting up pool4
I0403 21:46:37.477007 22764 net.cpp:157] Top shape: 2 512 32 32 (1048576)
I0403 21:46:37.477011 22764 net.cpp:165] Memory required for data: 1254097088
I0403 21:46:37.477016 22764 layer_factory.hpp:77] Creating layer conv5_1
I0403 21:46:37.477030 22764 net.cpp:100] Creating Layer conv5_1
I0403 21:46:37.477038 22764 net.cpp:434] conv5_1 <- pool4
I0403 21:46:37.477046 22764 net.cpp:408] conv5_1 -> conv5_1
I0403 21:46:37.499131 22764 net.cpp:150] Setting up conv5_1
I0403 21:46:37.499158 22764 net.cpp:157] Top shape: 2 512 32 32 (1048576)
I0403 21:46:37.499164 22764 net.cpp:165] Memory required for data: 1258291392
I0403 21:46:37.499174 22764 layer_factory.hpp:77] Creating layer relu5_1
I0403 21:46:37.499188 22764 net.cpp:100] Creating Layer relu5_1
I0403 21:46:37.499195 22764 net.cpp:434] relu5_1 <- conv5_1
I0403 21:46:37.499207 22764 net.cpp:395] relu5_1 -> conv5_1 (in-place)
I0403 21:46:37.499758 22764 net.cpp:150] Setting up relu5_1
I0403 21:46:37.499780 22764 net.cpp:157] Top shape: 2 512 32 32 (1048576)
I0403 21:46:37.499789 22764 net.cpp:165] Memory required for data: 1262485696
I0403 21:46:37.499799 22764 layer_factory.hpp:77] Creating layer conv5_2
I0403 21:46:37.499820 22764 net.cpp:100] Creating Layer conv5_2
I0403 21:46:37.499830 22764 net.cpp:434] conv5_2 <- conv5_1
I0403 21:46:37.499842 22764 net.cpp:408] conv5_2 -> conv5_2
I0403 21:46:37.520802 22764 net.cpp:150] Setting up conv5_2
I0403 21:46:37.520828 22764 net.cpp:157] Top shape: 2 512 32 32 (1048576)
I0403 21:46:37.520833 22764 net.cpp:165] Memory required for data: 1266680000
I0403 21:46:37.520843 22764 layer_factory.hpp:77] Creating layer relu5_2
I0403 21:46:37.520855 22764 net.cpp:100] Creating Layer relu5_2
I0403 21:46:37.520862 22764 net.cpp:434] relu5_2 <- conv5_2
I0403 21:46:37.520870 22764 net.cpp:395] relu5_2 -> conv5_2 (in-place)
I0403 21:46:37.521073 22764 net.cpp:150] Setting up relu5_2
I0403 21:46:37.521086 22764 net.cpp:157] Top shape: 2 512 32 32 (1048576)
I0403 21:46:37.521090 22764 net.cpp:165] Memory required for data: 1270874304
I0403 21:46:37.521095 22764 layer_factory.hpp:77] Creating layer conv5_3
I0403 21:46:37.521111 22764 net.cpp:100] Creating Layer conv5_3
I0403 21:46:37.521117 22764 net.cpp:434] conv5_3 <- conv5_2
I0403 21:46:37.521126 22764 net.cpp:408] conv5_3 -> conv5_3
I0403 21:46:37.541821 22764 net.cpp:150] Setting up conv5_3
I0403 21:46:37.541846 22764 net.cpp:157] Top shape: 2 512 32 32 (1048576)
I0403 21:46:37.541851 22764 net.cpp:165] Memory required for data: 1275068608
I0403 21:46:37.541862 22764 layer_factory.hpp:77] Creating layer relu5_3
I0403 21:46:37.541879 22764 net.cpp:100] Creating Layer relu5_3
I0403 21:46:37.541887 22764 net.cpp:434] relu5_3 <- conv5_3
I0403 21:46:37.541895 22764 net.cpp:395] relu5_3 -> conv5_3 (in-place)
I0403 21:46:37.542213 22764 net.cpp:150] Setting up relu5_3
I0403 21:46:37.542227 22764 net.cpp:157] Top shape: 2 512 32 32 (1048576)
I0403 21:46:37.542232 22764 net.cpp:165] Memory required for data: 1279262912
I0403 21:46:37.542238 22764 layer_factory.hpp:77] Creating layer pool5
I0403 21:46:37.542248 22764 net.cpp:100] Creating Layer pool5
I0403 21:46:37.542253 22764 net.cpp:434] pool5 <- conv5_3
I0403 21:46:37.542260 22764 net.cpp:408] pool5 -> pool5
I0403 21:46:37.542325 22764 net.cpp:150] Setting up pool5
I0403 21:46:37.542335 22764 net.cpp:157] Top shape: 2 512 32 32 (1048576)
I0403 21:46:37.542338 22764 net.cpp:165] Memory required for data: 1283457216
I0403 21:46:37.542343 22764 layer_factory.hpp:77] Creating layer fc6
I0403 21:46:37.542357 22764 net.cpp:100] Creating Layer fc6
I0403 21:46:37.542364 22764 net.cpp:434] fc6 <- pool5
I0403 21:46:37.542372 22764 net.cpp:408] fc6 -> fc6
I0403 21:46:37.581867 22764 net.cpp:150] Setting up fc6
I0403 21:46:37.581915 22764 net.cpp:157] Top shape: 2 1024 32 32 (2097152)
I0403 21:46:37.581920 22764 net.cpp:165] Memory required for data: 1291845824
I0403 21:46:37.581933 22764 layer_factory.hpp:77] Creating layer relu6
I0403 21:46:37.581944 22764 net.cpp:100] Creating Layer relu6
I0403 21:46:37.581953 22764 net.cpp:434] relu6 <- fc6
I0403 21:46:37.581960 22764 net.cpp:395] relu6 -> fc6 (in-place)
I0403 21:46:37.582216 22764 net.cpp:150] Setting up relu6
I0403 21:46:37.582228 22764 net.cpp:157] Top shape: 2 1024 32 32 (2097152)
I0403 21:46:37.582233 22764 net.cpp:165] Memory required for data: 1300234432
I0403 21:46:37.582237 22764 layer_factory.hpp:77] Creating layer fc7
I0403 21:46:37.582252 22764 net.cpp:100] Creating Layer fc7
I0403 21:46:37.582258 22764 net.cpp:434] fc7 <- fc6
I0403 21:46:37.582265 22764 net.cpp:408] fc7 -> fc7
I0403 21:46:37.593703 22764 net.cpp:150] Setting up fc7
I0403 21:46:37.593722 22764 net.cpp:157] Top shape: 2 1024 32 32 (2097152)
I0403 21:46:37.593727 22764 net.cpp:165] Memory required for data: 1308623040
I0403 21:46:37.593736 22764 layer_factory.hpp:77] Creating layer relu7
I0403 21:46:37.593745 22764 net.cpp:100] Creating Layer relu7
I0403 21:46:37.593751 22764 net.cpp:434] relu7 <- fc7
I0403 21:46:37.593760 22764 net.cpp:395] relu7 -> fc7 (in-place)
I0403 21:46:37.593960 22764 net.cpp:150] Setting up relu7
I0403 21:46:37.593972 22764 net.cpp:157] Top shape: 2 1024 32 32 (2097152)
I0403 21:46:37.593977 22764 net.cpp:165] Memory required for data: 1317011648
I0403 21:46:37.593983 22764 layer_factory.hpp:77] Creating layer fc7_relu7_0_split
I0403 21:46:37.593992 22764 net.cpp:100] Creating Layer fc7_relu7_0_split
I0403 21:46:37.593998 22764 net.cpp:434] fc7_relu7_0_split <- fc7
I0403 21:46:37.594007 22764 net.cpp:408] fc7_relu7_0_split -> fc7_relu7_0_split_0
…
I0403 21:46:37.615902 22764 net.cpp:150] Setting up conv7_2_conv7_2_relu_0_split
I0403 21:46:37.615912 22764 net.cpp:157] Top shape: 2 256 8 8 (32768)
I0403 21:46:37.615917 22764 net.cpp:157] Top shape: 2 256 8 8 (32768)
I0403 21:46:37.615922 22764 net.cpp:157] Top shape: 2 256 8 8 (32768)
I0403 21:46:37.615927 22764 net.cpp:157] Top shape: 2 256 8 8 (32768)
I0403 21:46:37.615931 22764 net.cpp:157] Top shape: 2 256 8 8 (32768)
I0403 21:46:37.615936 22764 net.cpp:165] Memory required for data: 1371930816
I0403 21:46:37.615941 22764 layer_factory.hpp:77] Creating layer conv8_1
I0403 21:46:37.615954 22764 net.cpp:100] Creating Layer conv8_1
I0403 21:46:37.615963 22764 net.cpp:434] conv8_1 <- conv7_2_conv7_2_relu_0_split_0
I0403 21:46:37.615972 22764 net.cpp:408] conv8_1 -> conv8_1
I0403 21:46:37.617311 22764 net.cpp:150] Setting up conv8_1
I0403 21:46:37.617324 22764 net.cpp:157] Top shape: 2 128 8 8 (16384)
I0403 21:46:37.617341 22764 net.cpp:165] Memory required for data: 1371996352
I0403 21:46:37.617347 22764 layer_factory.hpp:77] Creating layer conv8_1_relu
I0403 21:46:37.617359 22764 net.cpp:100] Creating Layer conv8_1_relu
I0403 21:46:37.617364 22764 net.cpp:434] conv8_1_relu <- conv8_1
I0403 21:46:37.617372 22764 net.cpp:395] conv8_1_relu -> conv8_1 (in-place)
I0403 21:46:37.617553 22764 net.cpp:150] Setting up conv8_1_relu
I0403 21:46:37.617565 22764 net.cpp:157] Top shape: 2 128 8 8 (16384)
I0403 21:46:37.617570 22764 net.cpp:165] Memory required for data: 1372061888
I0403 21:46:37.617574 22764 layer_factory.hpp:77] Creating layer conv8_2
I0403 21:46:37.617590 22764 net.cpp:100] Creating Layer conv8_2
I0403 21:46:37.617597 22764 net.cpp:434] conv8_2 <- conv8_1
I0403 21:46:37.617606 22764 net.cpp:408] conv8_2 -> conv8_2
I0403 21:46:37.620926 22764 net.cpp:150] Setting up conv8_2
I0403 21:46:37.620954 22764 net.cpp:157] Top shape: 2 256 6 6 (18432)
I0403 21:46:37.620959 22764 net.cpp:165] Memory required for data: 1372135616
I0403 21:46:37.620966 22764 layer_factory.hpp:77] Creating layer conv8_2_relu
I0403 21:46:37.620975 22764 net.cpp:100] Creating Layer conv8_2_relu
I0403 21:46:37.620993 22764 net.cpp:434] conv8_2_relu <- conv8_2
I0403 21:46:37.621011 22764 net.cpp:395] conv8_2_relu -> conv8_2 (in-place)
I0403 21:46:37.621335 22764 net.cpp:150] Setting up conv8_2_relu
I0403 21:46:37.621352 22764 net.cpp:157] Top shape: 2 256 6 6 (18432)
I0403 21:46:37.621359 22764 net.cpp:165] Memory required for data: 1372209344
I0403 21:46:37.621367 22764 layer_factory.hpp:77] Creating layer conv8_2_conv8_2_relu_0_split
I0403 21:46:37.621383 22764 net.cpp:100] Creating Layer conv8_2_conv8_2_relu_0_split
I0403 21:46:37.621394 22764 net.cpp:434] conv8_2_conv8_2_relu_0_split <- conv8_2
I0403 21:46:37.621403 22764 net.cpp:408] conv8_2_conv8_2_relu_0_split -> conv8_2_conv8_2_relu_0_split_0
I0403 21:46:37.621415 22764 net.cpp:408] conv8_2_conv8_2_relu_0_split -> conv8_2_conv8_2_relu_0_split_1
I0403 21:46:37.621423 22764 net.cpp:408] conv8_2_conv8_2_relu_0_split -> conv8_2_conv8_2_relu_0_split_2
I0403 21:46:37.621433 22764 net.cpp:408] conv8_2_conv8_2_relu_0_split -> conv8_2_conv8_2_relu_0_split_3
I0403 21:46:37.621440 22764 net.cpp:408] conv8_2_conv8_2_relu_0_split -> conv8_2_conv8_2_relu_0_split_4
I0403 21:46:37.621587 22764 net.cpp:150] Setting up conv8_2_conv8_2_relu_0_split
I0403 21:46:37.621598 22764 net.cpp:157] Top shape: 2 256 6 6 (18432)
I0403 21:46:37.621603 22764 net.cpp:157] Top shape: 2 256 6 6 (18432)
I0403 21:46:37.621608 22764 net.cpp:157] Top shape: 2 256 6 6 (18432)
I0403 21:46:37.621613 22764 net.cpp:157] Top shape: 2 256 6 6 (18432)
I0403 21:46:37.621628 22764 net.cpp:157] Top shape: 2 256 6 6 (18432)
I0403 21:46:37.621632 22764 net.cpp:165] Memory required for data: 1372577984
I0403 21:46:37.621639 22764 layer_factory.hpp:77] Creating layer conv9_1
I0403 21:46:37.621654 22764 net.cpp:100] Creating Layer conv9_1
I0403 21:46:37.621660 22764 net.cpp:434] conv9_1 <- conv8_2_conv8_2_relu_0_split_0
I0403 21:46:37.621668 22764 net.cpp:408] conv9_1 -> conv9_1
I0403 21:46:37.623018 22764 net.cpp:150] Setting up conv9_1
I0403 21:46:37.623033 22764 net.cpp:157] Top shape: 2 128 6 6 (9216)
I0403 21:46:37.623049 22764 net.cpp:165] Memory required for data: 1372614848
I0403 21:46:37.623056 22764 layer_factory.hpp:77] Creating layer conv9_1_relu
I0403 21:46:37.623064 22764 net.cpp:100] Creating Layer conv9_1_relu
I0403 21:46:37.623070 22764 net.cpp:434] conv9_1_relu <- conv9_1
I0403 21:46:37.623077 22764 net.cpp:395] conv9_1_relu -> conv9_1 (in-place)
I0403 21:46:37.623405 22764 net.cpp:150] Setting up conv9_1_relu
I0403 21:46:37.623419 22764 net.cpp:157] Top shape: 2 128 6 6 (9216)
I0403 21:46:37.623435 22764 net.cpp:165] Memory required for data: 1372651712
I0403 21:46:37.623440 22764 layer_factory.hpp:77] Creating layer conv9_2
I0403 21:46:37.623451 22764 net.cpp:100] Creating Layer conv9_2
I0403 21:46:37.623457 22764 net.cpp:434] conv9_2 <- conv9_1
I0403 21:46:37.623466 22764 net.cpp:408] conv9_2 -> conv9_2
I0403 21:46:37.627094 22764 net.cpp:150] Setting up conv9_2
I0403 21:46:37.627120 22764 net.cpp:157] Top shape: 2 256 4 4 (8192)
I0403 21:46:37.627125 22764 net.cpp:165] Memory required for data: 1372684480
I0403 21:46:37.627133 22764 layer_factory.hpp:77] Creating layer conv9_2_relu
I0403 21:46:37.627141 22764 net.cpp:100] Creating Layer conv9_2_relu
I0403 21:46:37.627147 22764 net.cpp:434] conv9_2_relu <- conv9_2
I0403 21:46:37.627153 22764 net.cpp:395] conv9_2_relu -> conv9_2 (in-place)
I0403 21:46:37.627324 22764 net.cpp:150] Setting up conv9_2_relu
I0403 21:46:37.627337 22764 net.cpp:157] Top shape: 2 256 4 4 (8192)
I0403 21:46:37.627342 22764 net.cpp:165] Memory required for data: 1372717248
I0403 21:46:37.627347 22764 layer_factory.hpp:77] Creating layer conv9_2_conv9_2_relu_0_split
I0403 21:46:37.627357 22764 net.cpp:100] Creating Layer conv9_2_conv9_2_relu_0_split
I0403 21:46:37.627363 22764 net.cpp:434] conv9_2_conv9_2_relu_0_split <- conv9_2
I0403 21:46:37.627369 22764 net.cpp:408] conv9_2_conv9_2_relu_0_split -> conv9_2_conv9_2_relu_0_split_0
I0403 21:46:37.627377 22764 net.cpp:408] conv9_2_conv9_2_relu_0_split -> conv9_2_conv9_2_relu_0_split_1
I0403 21:46:37.627384 22764 net.cpp:408] conv9_2_conv9_2_relu_0_split -> conv9_2_conv9_2_relu_0_split_2
I0403 21:46:37.627393 22764 net.cpp:408] conv9_2_conv9_2_relu_0_split -> conv9_2_conv9_2_relu_0_split_3
I0403 21:46:37.627490 22764 net.cpp:150] Setting up conv9_2_conv9_2_relu_0_split
I0403 21:46:37.627499 22764 net.cpp:157] Top shape: 2 256 4 4 (8192)
I0403 21:46:37.627504 22764 net.cpp:157] Top shape: 2 256 4 4 (8192)
I0403 21:46:37.627509 22764 net.cpp:157] Top shape: 2 256 4 4 (8192)
I0403 21:46:37.627514 22764 net.cpp:157] Top shape: 2 256 4 4 (8192)
I0403 21:46:37.627518 22764 net.cpp:165] Memory required for data: 1372848320
I0403 21:46:37.627522 22764 layer_factory.hpp:77] Creating layer conv4_3_norm
I0403 21:46:37.627533 22764 net.cpp:100] Creating Layer conv4_3_norm
I0403 21:46:37.627538 22764 net.cpp:434] conv4_3_norm <- conv4_3_relu4_3_0_split_1
I0403 21:46:37.627544 22764 net.cpp:408] conv4_3_norm -> conv4_3_norm
I0403 21:46:37.627770 22764 net.cpp:150] Setting up conv4_3_norm
I0403 21:46:37.627782 22764 net.cpp:157] Top shape: 2 512 64 64 (4194304)
I0403 21:46:37.627787 22764 net.cpp:165] Memory required for data: 1389625536
I0403 21:46:37.627794 22764 layer_factory.hpp:77] Creating layer conv4_3_norm_conv4_3_norm_0_split
I0403 21:46:37.627800 22764 net.cpp:100] Creating Layer conv4_3_norm_conv4_3_norm_0_split
I0403 21:46:37.627805 22764 net.cpp:434] conv4_3_norm_conv4_3_norm_0_split <- conv4_3_norm
I0403 21:46:37.627812 22764 net.cpp:408] conv4_3_norm_conv4_3_norm_0_split -> conv4_3_norm_conv4_3_norm_0_split_0
I0403 21:46:37.627835 22764 net.cpp:408] conv4_3_norm_conv4_3_norm_0_split -> conv4_3_norm_conv4_3_norm_0_split_1
I0403 21:46:37.627845 22764 net.cpp:408] conv4_3_norm_conv4_3_norm_0_split -> conv4_3_norm_conv4_3_norm_0_split_2
I0403 21:46:37.627851 22764 net.cpp:408] conv4_3_norm_conv4_3_norm_0_split -> conv4_3_norm_conv4_3_norm_0_split_3
I0403 21:46:37.627934 22764 net.cpp:150] Setting up conv4_3_norm_conv4_3_norm_0_split
I0403 21:46:37.627945 22764 net.cpp:157] Top shape: 2 512 64 64 (4194304)
I0403 21:46:37.627950 22764 net.cpp:157] Top shape: 2 512 64 64 (4194304)
I0403 21:46:37.627954 22764 net.cpp:157] Top shape: 2 512 64 64 (4194304)
I0403 21:46:37.627959 22764 net.cpp:157] Top shape: 2 512 64 64 (4194304)
I0403 21:46:37.627964 22764 net.cpp:165] Memory required for data: 1456734400
I0403 21:46:37.627967 22764 layer_factory.hpp:77] Creating layer conv4_3_norm_mbox_loc
I0403 21:46:37.627979 22764 net.cpp:100] Creating Layer conv4_3_norm_mbox_loc
I0403 21:46:37.627986 22764 net.cpp:434] conv4_3_norm_mbox_loc <- conv4_3_norm_conv4_3_norm_0_split_0
I0403 21:46:37.627995 22764 net.cpp:408] conv4_3_norm_mbox_loc -> conv4_3_norm_mbox_loc
I0403 21:46:37.629690 22764 net.cpp:150] Setting up conv4_3_norm_mbox_loc
I0403 21:46:37.629705 22764 net.cpp:157] Top shape: 2 16 64 64 (131072)
I0403 21:46:37.629721 22764 net.cpp:165] Memory required for data: 1457258688
I0403 21:46:37.629730 22764 layer_factory.hpp:77] Creating layer conv4_3_norm_mbox_loc_perm
I0403 21:46:37.629742 22764 net.cpp:100] Creating Layer conv4_3_norm_mbox_loc_perm
I0403 21:46:37.629748 22764 net.cpp:434] conv4_3_norm_mbox_loc_perm <- conv4_3_norm_mbox_loc
I0403 21:46:37.629755 22764 net.cpp:408] conv4_3_norm_mbox_loc_perm -> conv4_3_norm_mbox_loc_perm
I0403 21:46:37.629907 22764 net.cpp:150] Setting up conv4_3_norm_mbox_loc_perm
I0403 21:46:37.629917 22764 net.cpp:157] Top shape: 2 64 64 16 (131072)
I0403 21:46:37.629921 22764 net.cpp:165] Memory required for data: 1457782976
I0403 21:46:37.629926 22764 layer_factory.hpp:77] Creating layer conv4_3_norm_mbox_loc_flat
I0403 21:46:37.629935 22764 net.cpp:100] Creating Layer conv4_3_norm_mbox_loc_flat
I0403 21:46:37.629940 22764 net.cpp:434] conv4_3_norm_mbox_loc_flat <- conv4_3_norm_mbox_loc_perm
I0403 21:46:37.629946 22764 net.cpp:408] conv4_3_norm_mbox_loc_flat -> conv4_3_norm_mbox_loc_flat
I0403 21:46:37.629983 22764 net.cpp:150] Setting up conv4_3_norm_mbox_loc_flat
I0403 21:46:37.629993 22764 net.cpp:157] Top shape: 2 65536 (131072)
I0403 21:46:37.629997 22764 net.cpp:165] Memory required for data: 1458307264
I0403 21:46:37.630002 22764 layer_factory.hpp:77] Creating layer conv4_3_norm_mbox_conf
I0403 21:46:37.630022 22764 net.cpp:100] Creating Layer conv4_3_norm_mbox_conf
I0403 21:46:37.630028 22764 net.cpp:434] conv4_3_norm_mbox_conf <- conv4_3_norm_conv4_3_norm_0_split_1
I0403 21:46:37.630036 22764 net.cpp:408] conv4_3_norm_mbox_conf -> conv4_3_norm_mbox_conf
I0403 21:46:37.632036 22764 net.cpp:150] Setting up conv4_3_norm_mbox_conf
I0403 21:46:37.632051 22764 net.cpp:157] Top shape: 2 8 64 64 (65536)
I0403 21:46:37.632068 22764 net.cpp:165] Memory required for data: 1458569408
I0403 21:46:37.632077 22764 layer_factory.hpp:77] Creating layer conv4_3_norm_mbox_conf_perm
I0403 21:46:37.632089 22764 net.cpp:100] Creating Layer conv4_3_norm_mbox_conf_perm
I0403 21:46:37.632095 22764 net.cpp:434] conv4_3_norm_mbox_conf_perm <- conv4_3_norm_mbox_conf
I0403 21:46:37.632102 22764 net.cpp:408] conv4_3_norm_mbox_conf_perm -> conv4_3_norm_mbox_conf_perm
I0403 21:46:37.632258 22764 net.cpp:150] Setting up conv4_3_norm_mbox_conf_perm
I0403 21:46:37.632268 22764 net.cpp:157] Top shape: 2 64 64 8 (65536)
I0403 21:46:37.632272 22764 net.cpp:165] Memory required for data: 1458831552
I0403 21:46:37.632277 22764 layer_factory.hpp:77] Creating layer conv4_3_norm_mbox_conf_flat
I0403 21:46:37.632284 22764 net.cpp:100] Creating Layer conv4_3_norm_mbox_conf_flat
I0403 21:46:37.632289 22764 net.cpp:434] conv4_3_norm_mbox_conf_flat <- conv4_3_norm_mbox_conf_perm
I0403 21:46:37.632297 22764 net.cpp:408] conv4_3_norm_mbox_conf_flat -> conv4_3_norm_mbox_conf_flat
I0403 21:46:37.632344 22764 net.cpp:150] Setting up conv4_3_norm_mbox_conf_flat
I0403 21:46:37.632354 22764 net.cpp:157] Top shape: 2 32768 (65536)
I0403 21:46:37.632357 22764 net.cpp:165] Memory required for data: 1459093696
I0403 21:46:37.632362 22764 layer_factory.hpp:77] Creating layer conv4_3_norm_mbox_clean
I0403 21:46:37.632385 22764 net.cpp:100] Creating Layer conv4_3_norm_mbox_clean
I0403 21:46:37.632393 22764 net.cpp:434] conv4_3_norm_mbox_clean <- conv4_3_norm_conv4_3_norm_0_split_2
I0403 21:46:37.632401 22764 net.cpp:408] conv4_3_norm_mbox_clean -> conv4_3_norm_mbox_clean
I0403 21:46:37.633882 22764 net.cpp:150] Setting up conv4_3_norm_mbox_clean
I0403 21:46:37.633895 22764 net.cpp:157] Top shape: 2 4 64 64 (32768)
I0403 21:46:37.633913 22764 net.cpp:165] Memory required for data: 1459224768
I0403 21:46:37.633919 22764 layer_factory.hpp:77] Creating layer conv4_3_norm_mbox_clean_perm
I0403 21:46:37.633927 22764 net.cpp:100] Creating Layer conv4_3_norm_mbox_clean_perm
I0403 21:46:37.633934 22764 net.cpp:434] conv4_3_norm_mbox_clean_perm <- conv4_3_norm_mbox_clean
I0403 21:46:37.633942 22764 net.cpp:408] conv4_3_norm_mbox_clean_perm -> conv4_3_norm_mbox_clean_perm
I0403 21:46:37.634089 22764 net.cpp:150] Setting up conv4_3_norm_mbox_clean_perm
I0403 21:46:37.634099 22764 net.cpp:157] Top shape: 2 64 64 4 (32768)
I0403 21:46:37.634104 22764 net.cpp:165] Memory required for data: 1459355840
I0403 21:46:37.634109 22764 layer_factory.hpp:77] Creating layer conv4_3_norm_mbox_clean_flat
I0403 21:46:37.634119 22764 net.cpp:100] Creating Layer conv4_3_norm_mbox_clean_flat
I0403 21:46:37.634125 22764 net.cpp:434] conv4_3_norm_mbox_clean_flat <- conv4_3_norm_mbox_clean_perm
I0403 21:46:37.634132 22764 net.cpp:408] conv4_3_norm_mbox_clean_flat -> conv4_3_norm_mbox_clean_flat
I0403 21:46:37.634168 22764 net.cpp:150] Setting up conv4_3_norm_mbox_clean_flat
I0403 21:46:37.634178 22764 net.cpp:157] Top shape: 2 16384 (32768)
I0403 21:46:37.634182 22764 net.cpp:165] Memory required for data: 1459486912
I0403 21:46:37.634187 22764 layer_factory.hpp:77] Creating layer conv4_3_norm_mbox_priorbox
I0403 21:46:37.634198 22764 net.cpp:100] Creating Layer conv4_3_norm_mbox_priorbox
I0403 21:46:37.634207 22764 net.cpp:434] conv4_3_norm_mbox_priorbox <- conv4_3_norm_conv4_3_norm_0_split_3
I0403 21:46:37.634212 22764 net.cpp:434] conv4_3_norm_mbox_priorbox <- data_data_0_split_1
I0403 21:46:37.634219 22764 net.cpp:408] conv4_3_norm_mbox_priorbox -> conv4_3_norm_mbox_priorbox
I0403 21:46:37.634258 22764 net.cpp:150] Setting up conv4_3_norm_mbox_priorbox
I0403 21:46:37.634268 22764 net.cpp:157] Top shape: 1 2 65536 (131072)
I0403 21:46:37.634271 22764 net.cpp:165] Memory required for data: 1460011200
I0403 21:46:37.634275 22764 layer_factory.hpp:77] Creating layer fc7_mbox_loc
I0403 21:46:37.634287 22764 net.cpp:100] Creating Layer fc7_mbox_loc
I0403 21:46:37.634294 22764 net.cpp:434] fc7_mbox_loc <- fc7_relu7_0_split_1
I0403 21:46:37.634304 22764 net.cpp:408] fc7_mbox_loc -> fc7_mbox_loc
I0403 21:46:37.637940 22764 net.cpp:150] Setting up fc7_mbox_loc
I0403 21:46:37.637955 22764 net.cpp:157] Top shape: 2 24 32 32 (49152)
I0403 21:46:37.637974 22764 net.cpp:165] Memory required for data: 1460207808
I0403 21:46:37.637981 22764 layer_factory.hpp:77] Creating layer fc7_mbox_loc_perm
I0403 21:46:37.637989 22764 net.cpp:100] Creating Layer fc7_mbox_loc_perm
I0403 21:46:37.637995 22764 net.cpp:434] fc7_mbox_loc_perm <- fc7_mbox_loc
I0403 21:46:37.638001 22764 net.cpp:408] fc7_mbox_loc_perm -> fc7_mbox_loc_perm
I0403 21:46:37.638152 22764 net.cpp:150] Setting up fc7_mbox_loc_perm
I0403 21:46:37.638162 22764 net.cpp:157] Top shape: 2 32 32 24 (49152)
I0403 21:46:37.638167 22764 net.cpp:165] Memory required for data: 1460404416
I0403 21:46:37.638172 22764 layer_factory.hpp:77] Creating layer fc7_mbox_loc_flat
I0403 21:46:37.638188 22764 net.cpp:100] Creating Layer fc7_mbox_loc_flat
I0403 21:46:37.638195 22764 net.cpp:434] fc7_mbox_loc_flat <- fc7_mbox_loc_perm
I0403 21:46:37.638200 22764 net.cpp:408] fc7_mbox_loc_flat -> fc7_mbox_loc_flat
I0403 21:46:37.638252 22764 net.cpp:150] Setting up fc7_mbox_loc_flat
I0403 21:46:37.638262 22764 net.cpp:157] Top shape: 2 24576 (49152)
I0403 21:46:37.638267 22764 net.cpp:165] Memory required for data: 1460601024
I0403 21:46:37.638272 22764 layer_factory.hpp:77] Creating layer fc7_mbox_conf
I0403 21:46:37.638284 22764 net.cpp:100] Creating Layer fc7_mbox_conf
I0403 21:46:37.638293 22764 net.cpp:434] fc7_mbox_conf <- fc7_relu7_0_split_2
I0403 21:46:37.638301 22764 net.cpp:408] fc7_mbox_conf -> fc7_mbox_conf
I0403 21:46:37.641484 22764 net.cpp:150] Setting up fc7_mbox_conf
I0403 21:46:37.641515 22764 net.cpp:157] Top shape: 2 12 32 32 (24576)
I0403 21:46:37.641520 22764 net.cpp:165] Memory required for data: 1460699328
I0403 21:46:37.641528 22764 layer_factory.hpp:77] Creating layer fc7_mbox_conf_perm
I0403 21:46:37.641537 22764 net.cpp:100] Creating Layer fc7_mbox_conf_perm
I0403 21:46:37.641543 22764 net.cpp:434] fc7_mbox_conf_perm <- fc7_mbox_conf
I0403 21:46:37.641551 22764 net.cpp:408] fc7_mbox_conf_perm -> fc7_mbox_conf_perm
I0403 21:46:37.641710 22764 net.cpp:150] Setting up fc7_mbox_conf_perm
I0403 21:46:37.641721 22764 net.cpp:157] Top shape: 2 32 32 12 (24576)
I0403 21:46:37.641726 22764 net.cpp:165] Memory required for data: 1460797632
I0403 21:46:37.641731 22764 layer_factory.hpp:77] Creating layer fc7_mbox_conf_flat
I0403 21:46:37.641749 22764 net.cpp:100] Creating Layer fc7_mbox_conf_flat
I0403 21:46:37.641757 22764 net.cpp:434] fc7_mbox_conf_flat <- fc7_mbox_conf_perm
I0403 21:46:37.641764 22764 net.cpp:408] fc7_mbox_conf_flat -> fc7_mbox_conf_flat
I0403 21:46:37.641808 22764 net.cpp:150] Setting up fc7_mbox_conf_flat
I0403 21:46:37.641819 22764 net.cpp:157] Top shape: 2 12288 (24576)
I0403 21:46:37.641824 22764 net.cpp:165] Memory required for data: 1460895936
I0403 21:46:37.641829 22764 layer_factory.hpp:77] Creating layer fc7_mbox_clean
I0403 21:46:37.641840 22764 net.cpp:100] Creating Layer fc7_mbox_clean
I0403 21:46:37.641849 22764 net.cpp:434] fc7_mbox_clean <- fc7_relu7_0_split_3
I0403 21:46:37.641858 22764 net.cpp:408] fc7_mbox_clean -> fc7_mbox_clean
I0403 21:46:37.643592 22764 net.cpp:150] Setting up fc7_mbox_clean
I0403 21:46:37.643609 22764 net.cpp:157] Top shape: 2 6 32 32 (12288)
I0403 21:46:37.643613 22764 net.cpp:165] Memory required for data: 1460945088
I0403 21:46:37.643621 22764 layer_factory.hpp:77] Creating layer fc7_mbox_clean_perm
I0403 21:46:37.643635 22764 net.cpp:100] Creating Layer fc7_mbox_clean_perm
I0403 21:46:37.643642 22764 net.cpp:434] fc7_mbox_clean_perm <- fc7_mbox_clean
I0403 21:46:37.643649 22764 net.cpp:408] fc7_mbox_clean_perm -> fc7_mbox_clean_perm
I0403 21:46:37.643802 22764 net.cpp:150] Setting up fc7_mbox_clean_perm
I0403 21:46:37.643812 22764 net.cpp:157] Top shape: 2 32 32 6 (12288)
I0403 21:46:37.643816 22764 net.cpp:165] Memory required for data: 1460994240
I0403 21:46:37.643821 22764 layer_factory.hpp:77] Creating layer fc7_mbox_clean_flat
I0403 21:46:37.643829 22764 net.cpp:100] Creating Layer fc7_mbox_clean_flat
I0403 21:46:37.643834 22764 net.cpp:434] fc7_mbox_clean_flat <- fc7_mbox_clean_perm
I0403 21:46:37.643842 22764 net.cpp:408] fc7_mbox_clean_flat -> fc7_mbox_clean_flat
I0403 21:46:37.643878 22764 net.cpp:150] Setting up fc7_mbox_clean_flat
I0403 21:46:37.643889 22764 net.cpp:157] Top shape: 2 6144 (12288)
I0403 21:46:37.643894 22764 net.cpp:165] Memory required for data: 1461043392
I0403 21:46:37.643899 22764 layer_factory.hpp:77] Creating layer fc7_mbox_priorbox
I0403 21:46:37.643908 22764 net.cpp:100] Creating Layer fc7_mbox_priorbox
I0403 21:46:37.643911 22764 net.cpp:434] fc7_mbox_priorbox <- fc7_relu7_0_split_4
I0403 21:46:37.643918 22764 net.cpp:434] fc7_mbox_priorbox <- data_data_0_split_2
I0403 21:46:37.643925 22764 net.cpp:408] fc7_mbox_priorbox -> fc7_mbox_priorbox
I0403 21:46:37.643961 22764 net.cpp:150] Setting up fc7_mbox_priorbox
I0403 21:46:37.643972 22764 net.cpp:157] Top shape: 1 2 24576 (49152)
I0403 21:46:37.643977 22764 net.cpp:165] Memory required for data: 1461240000
I0403 21:46:37.643990 22764 layer_factory.hpp:77] Creating layer conv6_2_mbox_loc
I0403 21:46:37.644003 22764 net.cpp:100] Creating Layer conv6_2_mbox_loc
I0403 21:46:37.644011 22764 net.cpp:434] conv6_2_mbox_loc <- conv6_2_conv6_2_relu_0_split_1
I0403 21:46:37.644018 22764 net.cpp:408] conv6_2_mbox_loc -> conv6_2_mbox_loc
I0403 21:46:37.646087 22764 net.cpp:150] Setting up conv6_2_mbox_loc
I0403 21:46:37.646102 22764 net.cpp:157] Top shape: 2 24 16 16 (12288)
I0403 21:46:37.646107 22764 net.cpp:165] Memory required for data: 1461289152
I0403 21:46:37.646117 22764 layer_factory.hpp:77] Creating layer conv6_2_mbox_loc_perm
I0403 21:46:37.646128 22764 net.cpp:100] Creating Layer conv6_2_mbox_loc_perm
I0403 21:46:37.646133 22764 net.cpp:434] conv6_2_mbox_loc_perm <- conv6_2_mbox_loc
I0403 21:46:37.646142 22764 net.cpp:408] conv6_2_mbox_loc_perm -> conv6_2_mbox_loc_perm
I0403 21:46:37.646291 22764 net.cpp:150] Setting up conv6_2_mbox_loc_perm
I0403 21:46:37.646299 22764 net.cpp:157] Top shape: 2 16 16 24 (12288)
I0403 21:46:37.646306 22764 net.cpp:165] Memory required for data: 1461338304
I0403 21:46:37.646312 22764 layer_factory.hpp:77] Creating layer conv6_2_mbox_loc_flat
I0403 21:46:37.646319 22764 net.cpp:100] Creating Layer conv6_2_mbox_loc_flat
I0403 21:46:37.646323 22764 net.cpp:434] conv6_2_mbox_loc_flat <- conv6_2_mbox_loc_perm
I0403 21:46:37.646330 22764 net.cpp:408] conv6_2_mbox_loc_flat -> conv6_2_mbox_loc_flat
I0403 21:46:37.646368 22764 net.cpp:150] Setting up conv6_2_mbox_loc_flat
I0403 21:46:37.646378 22764 net.cpp:157] Top shape: 2 6144 (12288)
I0403 21:46:37.646384 22764 net.cpp:165] Memory required for data: 1461387456
I0403 21:46:37.646387 22764 layer_factory.hpp:77] Creating layer conv6_2_mbox_conf
I0403 21:46:37.646402 22764 net.cpp:100] Creating Layer conv6_2_mbox_conf
I0403 21:46:37.646410 22764 net.cpp:434] conv6_2_mbox_conf <- conv6_2_conv6_2_relu_0_split_2
I0403 21:46:37.646420 22764 net.cpp:408] conv6_2_mbox_conf -> conv6_2_mbox_conf
I0403 21:46:37.648159 22764 net.cpp:150] Setting up conv6_2_mbox_conf
I0403 21:46:37.648185 22764 net.cpp:157] Top shape: 2 12 16 16 (6144)
I0403 21:46:37.648190 22764 net.cpp:165] Memory required for data: 1461412032
I0403 21:46:37.648198 22764 layer_factory.hpp:77] Creating layer conv6_2_mbox_conf_perm
I0403 21:46:37.648207 22764 net.cpp:100] Creating Layer conv6_2_mbox_conf_perm
I0403 21:46:37.648214 22764 net.cpp:434] conv6_2_mbox_conf_perm <- conv6_2_mbox_conf
I0403 21:46:37.648222 22764 net.cpp:408] conv6_2_mbox_conf_perm -> conv6_2_mbox_conf_perm
I0403 21:46:37.648371 22764 net.cpp:150] Setting up conv6_2_mbox_conf_perm
I0403 21:46:37.648381 22764 net.cpp:157] Top shape: 2 16 16 12 (6144)
I0403 21:46:37.648386 22764 net.cpp:165] Memory required for data: 1461436608
I0403 21:46:37.648391 22764 layer_factory.hpp:77] Creating layer conv6_2_mbox_conf_flat
I0403 21:46:37.648409 22764 net.cpp:100] Creating Layer conv6_2_mbox_conf_flat
I0403 21:46:37.648418 22764 net.cpp:434] conv6_2_mbox_conf_flat <- conv6_2_mbox_conf_perm
I0403 21:46:37.648424 22764 net.cpp:408] conv6_2_mbox_conf_flat -> conv6_2_mbox_conf_flat
I0403 21:46:37.648463 22764 net.cpp:150] Setting up conv6_2_mbox_conf_flat
I0403 21:46:37.648473 22764 net.cpp:157] Top shape: 2 3072 (6144)
I0403 21:46:37.648478 22764 net.cpp:165] Memory required for data: 1461461184
I0403 21:46:37.648483 22764 layer_factory.hpp:77] Creating layer conv6_2_mbox_clean
I0403 21:46:37.648505 22764 net.cpp:100] Creating Layer conv6_2_mbox_clean
I0403 21:46:37.648514 22764 net.cpp:434] conv6_2_mbox_clean <- conv6_2_conv6_2_relu_0_split_3
I0403 21:46:37.648522 22764 net.cpp:408] conv6_2_mbox_clean -> conv6_2_mbox_clean
I0403 21:46:37.649914 22764 net.cpp:150] Setting up conv6_2_mbox_clean
I0403 21:46:37.649929 22764 net.cpp:157] Top shape: 2 6 16 16 (3072)
I0403 21:46:37.649945 22764 net.cpp:165] Memory required for data: 1461473472
I0403 21:46:37.649966 22764 layer_factory.hpp:77] Creating layer conv6_2_mbox_clean_perm
I0403 21:46:37.649984 22764 net.cpp:100] Creating Layer conv6_2_mbox_clean_perm
I0403 21:46:37.649991 22764 net.cpp:434] conv6_2_mbox_clean_perm <- conv6_2_mbox_clean
I0403 21:46:37.650008 22764 net.cpp:408] conv6_2_mbox_clean_perm -> conv6_2_mbox_clean_perm
I0403 21:46:37.650163 22764 net.cpp:150] Setting up conv6_2_mbox_clean_perm
I0403 21:46:37.650174 22764 net.cpp:157] Top shape: 2 16 16 6 (3072)
I0403 21:46:37.650179 22764 net.cpp:165] Memory required for data: 1461485760
I0403 21:46:37.650183 22764 layer_factory.hpp:77] Creating layer conv6_2_mbox_clean_flat
I0403 21:46:37.650210 22764 net.cpp:100] Creating Layer conv6_2_mbox_clean_flat
I0403 21:46:37.650218 22764 net.cpp:434] conv6_2_mbox_clean_flat <- conv6_2_mbox_clean_perm
I0403 21:46:37.650225 22764 net.cpp:408] conv6_2_mbox_clean_flat -> conv6_2_mbox_clean_flat
I0403 21:46:37.650267 22764 net.cpp:150] Setting up conv6_2_mbox_clean_flat
I0403 21:46:37.650277 22764 net.cpp:157] Top shape: 2 1536 (3072)
I0403 21:46:37.650282 22764 net.cpp:165] Memory required for data: 1461498048
I0403 21:46:37.650287 22764 layer_factory.hpp:77] Creating layer conv6_2_mbox_priorbox
I0403 21:46:37.650301 22764 net.cpp:100] Creating Layer conv6_2_mbox_priorbox
I0403 21:46:37.650308 22764 net.cpp:434] conv6_2_mbox_priorbox <- conv6_2_conv6_2_relu_0_split_4
I0403 21:46:37.650315 22764 net.cpp:434] conv6_2_mbox_priorbox <- data_data_0_split_3
I0403 21:46:37.650326 22764 net.cpp:408] conv6_2_mbox_priorbox -> conv6_2_mbox_priorbox
I0403 21:46:37.650365 22764 net.cpp:150] Setting up conv6_2_mbox_priorbox
I0403 21:46:37.650375 22764 net.cpp:157] Top shape: 1 2 6144 (12288)
I0403 21:46:37.650379 22764 net.cpp:165] Memory required for data: 1461547200
I0403 21:46:37.650383 22764 layer_factory.hpp:77] Creating layer conv7_2_mbox_loc
I0403 21:46:37.650396 22764 net.cpp:100] Creating Layer conv7_2_mbox_loc
I0403 21:46:37.650404 22764 net.cpp:434] conv7_2_mbox_loc <- conv7_2_conv7_2_relu_0_split_1
I0403 21:46:37.650413 22764 net.cpp:408] conv7_2_mbox_loc -> conv7_2_mbox_loc
I0403 21:46:37.652140 22764 net.cpp:150] Setting up conv7_2_mbox_loc
I0403 21:46:37.652158 22764 net.cpp:157] Top shape: 2 24 8 8 (3072)
I0403 21:46:37.652163 22764 net.cpp:165] Memory required for data: 1461559488
I0403 21:46:37.652170 22764 layer_factory.hpp:77] Creating layer conv7_2_mbox_loc_perm
I0403 21:46:37.652181 22764 net.cpp:100] Creating Layer conv7_2_mbox_loc_perm
I0403 21:46:37.652187 22764 net.cpp:434] conv7_2_mbox_loc_perm <- conv7_2_mbox_loc
I0403 21:46:37.652195 22764 net.cpp:408] conv7_2_mbox_loc_perm -> conv7_2_mbox_loc_perm
I0403 21:46:37.652354 22764 net.cpp:150] Setting up conv7_2_mbox_loc_perm
I0403 21:46:37.652364 22764 net.cpp:157] Top shape: 2 8 8 24 (3072)
I0403 21:46:37.652369 22764 net.cpp:165] Memory required for data: 1461571776
I0403 21:46:37.652374 22764 layer_factory.hpp:77] Creating layer conv7_2_mbox_loc_flat
I0403 21:46:37.652382 22764 net.cpp:100] Creating Layer conv7_2_mbox_loc_flat
I0403 21:46:37.652387 22764 net.cpp:434] conv7_2_mbox_loc_flat <- conv7_2_mbox_loc_perm
I0403 21:46:37.652395 22764 net.cpp:408] conv7_2_mbox_loc_flat -> conv7_2_mbox_loc_flat
I0403 21:46:37.652431 22764 net.cpp:150] Setting up conv7_2_mbox_loc_flat
I0403 21:46:37.652441 22764 net.cpp:157] Top shape: 2 1536 (3072)
I0403 21:46:37.652446 22764 net.cpp:165] Memory required for data: 1461584064
I0403 21:46:37.652449 22764 layer_factory.hpp:77] Creating layer conv7_2_mbox_conf
I0403 21:46:37.652464 22764 net.cpp:100] Creating Layer conv7_2_mbox_conf
I0403 21:46:37.652472 22764 net.cpp:434] conv7_2_mbox_conf <- conv7_2_conv7_2_relu_0_split_2
I0403 21:46:37.652480 22764 net.cpp:408] conv7_2_mbox_conf -> conv7_2_mbox_conf
I0403 21:46:37.653977 22764 net.cpp:150] Setting up conv7_2_mbox_conf
I0403 21:46:37.654003 22764 net.cpp:157] Top shape: 2 12 8 8 (1536)
I0403 21:46:37.654008 22764 net.cpp:165] Memory required for data: 1461590208
I0403 21:46:37.654018 22764 layer_factory.hpp:77] Creating layer conv7_2_mbox_conf_perm
I0403 21:46:37.654028 22764 net.cpp:100] Creating Layer conv7_2_mbox_conf_perm
I0403 21:46:37.654033 22764 net.cpp:434] conv7_2_mbox_conf_perm <- conv7_2_mbox_conf
I0403 21:46:37.654040 22764 net.cpp:408] conv7_2_mbox_conf_perm -> conv7_2_mbox_conf_perm
I0403 21:46:37.654206 22764 net.cpp:150] Setting up conv7_2_mbox_conf_perm
I0403 21:46:37.654217 22764 net.cpp:157] Top shape: 2 8 8 12 (1536)
I0403 21:46:37.654222 22764 net.cpp:165] Memory required for data: 1461596352
I0403 21:46:37.654227 22764 layer_factory.hpp:77] Creating layer conv7_2_mbox_conf_flat
I0403 21:46:37.654234 22764 net.cpp:100] Creating Layer conv7_2_mbox_conf_flat
I0403 21:46:37.654242 22764 net.cpp:434] conv7_2_mbox_conf_flat <- conv7_2_mbox_conf_perm
I0403 21:46:37.654250 22764 net.cpp:408] conv7_2_mbox_conf_flat -> conv7_2_mbox_conf_flat
I0403 21:46:37.654289 22764 net.cpp:150] Setting up conv7_2_mbox_conf_flat
I0403 21:46:37.654299 22764 net.cpp:157] Top shape: 2 768 (1536)
I0403 21:46:37.654302 22764 net.cpp:165] Memory required for data: 1461602496
I0403 21:46:37.654307 22764 layer_factory.hpp:77] Creating layer conv7_2_mbox_clean
I0403 21:46:37.654320 22764 net.cpp:100] Creating Layer conv7_2_mbox_clean
I0403 21:46:37.654327 22764 net.cpp:434] conv7_2_mbox_clean <- conv7_2_conv7_2_relu_0_split_3
I0403 21:46:37.654336 22764 net.cpp:408] conv7_2_mbox_clean -> conv7_2_mbox_clean
I0403 21:46:37.655820 22764 net.cpp:150] Setting up conv7_2_mbox_clean
I0403 21:46:37.655838 22764 net.cpp:157] Top shape: 2 6 8 8 (768)
I0403 21:46:37.655843 22764 net.cpp:165] Memory required for data: 1461605568
I0403 21:46:37.655854 22764 layer_factory.hpp:77] Creating layer conv7_2_mbox_clean_perm
I0403 21:46:37.655864 22764 net.cpp:100] Creating Layer conv7_2_mbox_clean_perm
I0403 21:46:37.655875 22764 net.cpp:434] conv7_2_mbox_clean_perm <- conv7_2_mbox_clean
I0403 21:46:37.655884 22764 net.cpp:408] conv7_2_mbox_clean_perm -> conv7_2_mbox_clean_perm
I0403 21:46:37.656078 22764 net.cpp:150] Setting up conv7_2_mbox_clean_perm
I0403 21:46:37.656088 22764 net.cpp:157] Top shape: 2 8 8 6 (768)
I0403 21:46:37.656092 22764 net.cpp:165] Memory required for data: 1461608640
I0403 21:46:37.656097 22764 layer_factory.hpp:77] Creating layer conv7_2_mbox_clean_flat
I0403 21:46:37.656113 22764 net.cpp:100] Creating Layer conv7_2_mbox_clean_flat
I0403 21:46:37.656121 22764 net.cpp:434] conv7_2_mbox_clean_flat <- conv7_2_mbox_clean_perm
I0403 21:46:37.656131 22764 net.cpp:408] conv7_2_mbox_clean_flat -> conv7_2_mbox_clean_flat
I0403 21:46:37.656172 22764 net.cpp:150] Setting up conv7_2_mbox_clean_flat
I0403 21:46:37.656180 22764 net.cpp:157] Top shape: 2 384 (768)
I0403 21:46:37.656185 22764 net.cpp:165] Memory required for data: 1461611712
I0403 21:46:37.656191 22764 layer_factory.hpp:77] Creating layer conv7_2_mbox_priorbox
I0403 21:46:37.656199 22764 net.cpp:100] Creating Layer conv7_2_mbox_priorbox
I0403 21:46:37.656208 22764 net.cpp:434] conv7_2_mbox_priorbox <- conv7_2_conv7_2_relu_0_split_4
I0403 21:46:37.656213 22764 net.cpp:434] conv7_2_mbox_priorbox <- data_data_0_split_4
I0403 21:46:37.656221 22764 net.cpp:408] conv7_2_mbox_priorbox -> conv7_2_mbox_priorbox
I0403 21:46:37.656261 22764 net.cpp:150] Setting up conv7_2_mbox_priorbox
I0403 21:46:37.656271 22764 net.cpp:157] Top shape: 1 2 1536 (3072)
I0403 21:46:37.656275 22764 net.cpp:165] Memory required for data: 1461624000
I0403 21:46:37.656280 22764 layer_factory.hpp:77] Creating layer conv8_2_mbox_loc
I0403 21:46:37.656291 22764 net.cpp:100] Creating Layer conv8_2_mbox_loc
I0403 21:46:37.656298 22764 net.cpp:434] conv8_2_mbox_loc <- conv8_2_conv8_2_relu_0_split_1
I0403 21:46:37.656308 22764 net.cpp:408] conv8_2_mbox_loc -> conv8_2_mbox_loc
I0403 21:46:37.658399 22764 net.cpp:150] Setting up conv8_2_mbox_loc
I0403 21:46:37.658414 22764 net.cpp:157] Top shape: 2 16 6 6 (1152)
I0403 21:46:37.658432 22764 net.cpp:165] Memory required for data: 1461628608
I0403 21:46:37.658442 22764 layer_factory.hpp:77] Creating layer conv8_2_mbox_loc_perm
I0403 21:46:37.658449 22764 net.cpp:100] Creating Layer conv8_2_mbox_loc_perm
I0403 21:46:37.658454 22764 net.cpp:434] conv8_2_mbox_loc_perm <- conv8_2_mbox_loc
I0403 21:46:37.658462 22764 net.cpp:408] conv8_2_mbox_loc_perm -> conv8_2_mbox_loc_perm
I0403 21:46:37.658622 22764 net.cpp:150] Setting up conv8_2_mbox_loc_perm
I0403 21:46:37.658640 22764 net.cpp:157] Top shape: 2 6 6 16 (1152)
I0403 21:46:37.658645 22764 net.cpp:165] Memory required for data: 1461633216
I0403 21:46:37.658651 22764 layer_factory.hpp:77] Creating layer conv8_2_mbox_loc_flat
I0403 21:46:37.658660 22764 net.cpp:100] Creating Layer conv8_2_mbox_loc_flat
I0403 21:46:37.658665 22764 net.cpp:434] conv8_2_mbox_loc_flat <- conv8_2_mbox_loc_perm
I0403 21:46:37.658671 22764 net.cpp:408] conv8_2_mbox_loc_flat -> conv8_2_mbox_loc_flat
I0403 21:46:37.658710 22764 net.cpp:150] Setting up conv8_2_mbox_loc_flat
I0403 21:46:37.658720 22764 net.cpp:157] Top shape: 2 576 (1152)
I0403 21:46:37.658725 22764 net.cpp:165] Memory required for data: 1461637824
I0403 21:46:37.658730 22764 layer_factory.hpp:77] Creating layer conv8_2_mbox_conf
I0403 21:46:37.658742 22764 net.cpp:100] Creating Layer conv8_2_mbox_conf
I0403 21:46:37.658751 22764 net.cpp:434] conv8_2_mbox_conf <- conv8_2_conv8_2_relu_0_split_2
I0403 21:46:37.658759 22764 net.cpp:408] conv8_2_mbox_conf -> conv8_2_mbox_conf
I0403 21:46:37.660231 22764 net.cpp:150] Setting up conv8_2_mbox_conf
I0403 21:46:37.660257 22764 net.cpp:157] Top shape: 2 8 6 6 (576)
I0403 21:46:37.660264 22764 net.cpp:165] Memory required for data: 1461640128
I0403 21:46:37.660272 22764 layer_factory.hpp:77] Creating layer conv8_2_mbox_conf_perm
I0403 21:46:37.660280 22764 net.cpp:100] Creating Layer conv8_2_mbox_conf_perm
I0403 21:46:37.660285 22764 net.cpp:434] conv8_2_mbox_conf_perm <- conv8_2_mbox_conf
I0403 21:46:37.660292 22764 net.cpp:408] conv8_2_mbox_conf_perm -> conv8_2_mbox_conf_perm
I0403 21:46:37.660450 22764 net.cpp:150] Setting up conv8_2_mbox_conf_perm
I0403 21:46:37.660460 22764 net.cpp:157] Top shape: 2 6 6 8 (576)
I0403 21:46:37.660465 22764 net.cpp:165] Memory required for data: 1461642432
I0403 21:46:37.660470 22764 layer_factory.hpp:77] Creating layer conv8_2_mbox_conf_flat
I0403 21:46:37.660476 22764 net.cpp:100] Creating Layer conv8_2_mbox_conf_flat
I0403 21:46:37.660481 22764 net.cpp:434] conv8_2_mbox_conf_flat <- conv8_2_mbox_conf_perm
I0403 21:46:37.660490 22764 net.cpp:408] conv8_2_mbox_conf_flat -> conv8_2_mbox_conf_flat
I0403 21:46:37.660526 22764 net.cpp:150] Setting up conv8_2_mbox_conf_flat
I0403 21:46:37.660537 22764 net.cpp:157] Top shape: 2 288 (576)
I0403 21:46:37.660540 22764 net.cpp:165] Memory required for data: 1461644736
I0403 21:46:37.660547 22764 layer_factory.hpp:77] Creating layer conv8_2_mbox_clean
I0403 21:46:37.660557 22764 net.cpp:100] Creating Layer conv8_2_mbox_clean
I0403 21:46:37.660565 22764 net.cpp:434] conv8_2_mbox_clean <- conv8_2_conv8_2_relu_0_split_3
I0403 21:46:37.660575 22764 net.cpp:408] conv8_2_mbox_clean -> conv8_2_mbox_clean
I0403 21:46:37.661942 22764 net.cpp:150] Setting up conv8_2_mbox_clean
I0403 21:46:37.661957 22764 net.cpp:157] Top shape: 2 4 6 6 (288)
I0403 21:46:37.661973 22764 net.cpp:165] Memory required for data: 1461645888
I0403 21:46:37.661981 22764 layer_factory.hpp:77] Creating layer conv8_2_mbox_clean_perm
I0403 21:46:37.661996 22764 net.cpp:100] Creating Layer conv8_2_mbox_clean_perm
I0403 21:46:37.662003 22764 net.cpp:434] conv8_2_mbox_clean_perm <- conv8_2_mbox_clean
I0403 21:46:37.662009 22764 net.cpp:408] conv8_2_mbox_clean_perm -> conv8_2_mbox_clean_perm
I0403 21:46:37.662170 22764 net.cpp:150] Setting up conv8_2_mbox_clean_perm
I0403 21:46:37.662181 22764 net.cpp:157] Top shape: 2 6 6 4 (288)
I0403 21:46:37.662185 22764 net.cpp:165] Memory required for data: 1461647040
I0403 21:46:37.662190 22764 layer_factory.hpp:77] Creating layer conv8_2_mbox_clean_flat
I0403 21:46:37.662197 22764 net.cpp:100] Creating Layer conv8_2_mbox_clean_flat
I0403 21:46:37.662202 22764 net.cpp:434] conv8_2_mbox_clean_flat <- conv8_2_mbox_clean_perm
I0403 21:46:37.662209 22764 net.cpp:408] conv8_2_mbox_clean_flat -> conv8_2_mbox_clean_flat
I0403 21:46:37.662248 22764 net.cpp:150] Setting up conv8_2_mbox_clean_flat
I0403 21:46:37.662259 22764 net.cpp:157] Top shape: 2 144 (288)
I0403 21:46:37.662264 22764 net.cpp:165] Memory required for data: 1461648192
I0403 21:46:37.662268 22764 layer_factory.hpp:77] Creating layer conv8_2_mbox_priorbox
I0403 21:46:37.662286 22764 net.cpp:100] Creating Layer conv8_2_mbox_priorbox
I0403 21:46:37.662292 22764 net.cpp:434] conv8_2_mbox_priorbox <- conv8_2_conv8_2_relu_0_split_4
I0403 21:46:37.662298 22764 net.cpp:434] conv8_2_mbox_priorbox <- data_data_0_split_5
I0403 21:46:37.662307 22764 net.cpp:408] conv8_2_mbox_priorbox -> conv8_2_mbox_priorbox
I0403 21:46:37.662348 22764 net.cpp:150] Setting up conv8_2_mbox_priorbox
I0403 21:46:37.662359 22764 net.cpp:157] Top shape: 1 2 576 (1152)
I0403 21:46:37.662364 22764 net.cpp:165] Memory required for data: 1461652800
I0403 21:46:37.662369 22764 layer_factory.hpp:77] Creating layer conv9_2_mbox_loc
I0403 21:46:37.662382 22764 net.cpp:100] Creating Layer conv9_2_mbox_loc
I0403 21:46:37.662389 22764 net.cpp:434] conv9_2_mbox_loc <- conv9_2_conv9_2_relu_0_split_0
I0403 21:46:37.662396 22764 net.cpp:408] conv9_2_mbox_loc -> conv9_2_mbox_loc
I0403 21:46:37.663985 22764 net.cpp:150] Setting up conv9_2_mbox_loc
I0403 21:46:37.664000 22764 net.cpp:157] Top shape: 2 16 4 4 (512)
I0403 21:46:37.664016 22764 net.cpp:165] Memory required for data: 1461654848
I0403 21:46:37.664023 22764 layer_factory.hpp:77] Creating layer conv9_2_mbox_loc_perm
I0403 21:46:37.664033 22764 net.cpp:100] Creating Layer conv9_2_mbox_loc_perm
I0403 21:46:37.664039 22764 net.cpp:434] conv9_2_mbox_loc_perm <- conv9_2_mbox_loc
I0403 21:46:37.664047 22764 net.cpp:408] conv9_2_mbox_loc_perm -> conv9_2_mbox_loc_perm
I0403 21:46:37.664204 22764 net.cpp:150] Setting up conv9_2_mbox_loc_perm
I0403 21:46:37.664216 22764 net.cpp:157] Top shape: 2 4 4 16 (512)
I0403 21:46:37.664219 22764 net.cpp:165] Memory required for data: 1461656896
I0403 21:46:37.664224 22764 layer_factory.hpp:77] Creating layer conv9_2_mbox_loc_flat
I0403 21:46:37.664233 22764 net.cpp:100] Creating Layer conv9_2_mbox_loc_flat
I0403 21:46:37.664242 22764 net.cpp:434] conv9_2_mbox_loc_flat <- conv9_2_mbox_loc_perm
I0403 21:46:37.664248 22764 net.cpp:408] conv9_2_mbox_loc_flat -> conv9_2_mbox_loc_flat
I0403 21:46:37.664286 22764 net.cpp:150] Setting up conv9_2_mbox_loc_flat
I0403 21:46:37.664296 22764 net.cpp:157] Top shape: 2 256 (512)
I0403 21:46:37.664300 22764 net.cpp:165] Memory required for data: 1461658944
I0403 21:46:37.664305 22764 layer_factory.hpp:77] Creating layer conv9_2_mbox_conf
I0403 21:46:37.664317 22764 net.cpp:100] Creating Layer conv9_2_mbox_conf
I0403 21:46:37.664325 22764 net.cpp:434] conv9_2_mbox_conf <- conv9_2_conv9_2_relu_0_split_1
I0403 21:46:37.664333 22764 net.cpp:408] conv9_2_mbox_conf -> conv9_2_mbox_conf
I0403 21:46:37.665761 22764 net.cpp:150] Setting up conv9_2_mbox_conf
I0403 21:46:37.665776 22764 net.cpp:157] Top shape: 2 8 4 4 (256)
I0403 21:46:37.665792 22764 net.cpp:165] Memory required for data: 1461659968
I0403 21:46:37.665801 22764 layer_factory.hpp:77] Creating layer conv9_2_mbox_conf_perm
I0403 21:46:37.665810 22764 net.cpp:100] Creating Layer conv9_2_mbox_conf_perm
I0403 21:46:37.665815 22764 net.cpp:434] conv9_2_mbox_conf_perm <- conv9_2_mbox_conf
I0403 21:46:37.665822 22764 net.cpp:408] conv9_2_mbox_conf_perm -> conv9_2_mbox_conf_perm
I0403 21:46:37.665985 22764 net.cpp:150] Setting up conv9_2_mbox_conf_perm
I0403 21:46:37.665995 22764 net.cpp:157] Top shape: 2 4 4 8 (256)
I0403 21:46:37.665999 22764 net.cpp:165] Memory required for data: 1461660992
I0403 21:46:37.666004 22764 layer_factory.hpp:77] Creating layer conv9_2_mbox_conf_flat
I0403 21:46:37.666012 22764 net.cpp:100] Creating Layer conv9_2_mbox_conf_flat
I0403 21:46:37.666016 22764 net.cpp:434] conv9_2_mbox_conf_flat <- conv9_2_mbox_conf_perm
I0403 21:46:37.666023 22764 net.cpp:408] conv9_2_mbox_conf_flat -> conv9_2_mbox_conf_flat
I0403 21:46:37.666060 22764 net.cpp:150] Setting up conv9_2_mbox_conf_flat
I0403 21:46:37.666070 22764 net.cpp:157] Top shape: 2 128 (256)
I0403 21:46:37.666074 22764 net.cpp:165] Memory required for data: 1461662016
I0403 21:46:37.666079 22764 layer_factory.hpp:77] Creating layer conv9_2_mbox_clean
I0403 21:46:37.666092 22764 net.cpp:100] Creating Layer conv9_2_mbox_clean
I0403 21:46:37.666110 22764 net.cpp:434] conv9_2_mbox_clean <- conv9_2_conv9_2_relu_0_split_2
I0403 21:46:37.666118 22764 net.cpp:408] conv9_2_mbox_clean -> conv9_2_mbox_clean
I0403 21:46:37.667520 22764 net.cpp:150] Setting up conv9_2_mbox_clean
I0403 21:46:37.667536 22764 net.cpp:157] Top shape: 2 4 4 4 (128)
I0403 21:46:37.667551 22764 net.cpp:165] Memory required for data: 1461662528
I0403 21:46:37.667560 22764 layer_factory.hpp:77] Creating layer conv9_2_mbox_clean_perm
I0403 21:46:37.667568 22764 net.cpp:100] Creating Layer conv9_2_mbox_clean_perm
I0403 21:46:37.667574 22764 net.cpp:434] conv9_2_mbox_clean_perm <- conv9_2_mbox_clean
I0403 21:46:37.667596 22764 net.cpp:408] conv9_2_mbox_clean_perm -> conv9_2_mbox_clean_perm
I0403 21:46:37.667765 22764 net.cpp:150] Setting up conv9_2_mbox_clean_perm
I0403 21:46:37.667776 22764 net.cpp:157] Top shape: 2 4 4 4 (128)
I0403 21:46:37.667780 22764 net.cpp:165] Memory required for data: 1461663040
I0403 21:46:37.667785 22764 layer_factory.hpp:77] Creating layer conv9_2_mbox_clean_flat
I0403 21:46:37.667793 22764 net.cpp:100] Creating Layer conv9_2_mbox_clean_flat
I0403 21:46:37.667798 22764 net.cpp:434] conv9_2_mbox_clean_flat <- conv9_2_mbox_clean_perm
I0403 21:46:37.667805 22764 net.cpp:408] conv9_2_mbox_clean_flat -> conv9_2_mbox_clean_flat
I0403 21:46:37.667845 22764 net.cpp:150] Setting up conv9_2_mbox_clean_flat
I0403 21:46:37.667855 22764 net.cpp:157] Top shape: 2 64 (128)
I0403 21:46:37.667860 22764 net.cpp:165] Memory required for data: 1461663552
I0403 21:46:37.667865 22764 layer_factory.hpp:77] Creating layer conv9_2_mbox_priorbox
I0403 21:46:37.667873 22764 net.cpp:100] Creating Layer conv9_2_mbox_priorbox
I0403 21:46:37.667881 22764 net.cpp:434] conv9_2_mbox_priorbox <- conv9_2_conv9_2_relu_0_split_3
I0403 21:46:37.667886 22764 net.cpp:434] conv9_2_mbox_priorbox <- data_data_0_split_6
I0403 21:46:37.667893 22764 net.cpp:408] conv9_2_mbox_priorbox -> conv9_2_mbox_priorbox
I0403 21:46:37.667933 22764 net.cpp:150] Setting up conv9_2_mbox_priorbox
I0403 21:46:37.667943 22764 net.cpp:157] Top shape: 1 2 256 (512)
I0403 21:46:37.667948 22764 net.cpp:165] Memory required for data: 1461665600
I0403 21:46:37.667953 22764 layer_factory.hpp:77] Creating layer mbox_loc
I0403 21:46:37.667968 22764 net.cpp:100] Creating Layer mbox_loc
I0403 21:46:37.667978 22764 net.cpp:434] mbox_loc <- conv4_3_norm_mbox_loc_flat
I0403 21:46:37.667984 22764 net.cpp:434] mbox_loc <- fc7_mbox_loc_flat
I0403 21:46:37.667989 22764 net.cpp:434] mbox_loc <- conv6_2_mbox_loc_flat
I0403 21:46:37.667995 22764 net.cpp:434] mbox_loc <- conv7_2_mbox_loc_flat
I0403 21:46:37.668000 22764 net.cpp:434] mbox_loc <- conv8_2_mbox_loc_flat
I0403 21:46:37.668005 22764 net.cpp:434] mbox_loc <- conv9_2_mbox_loc_flat
I0403 21:46:37.668011 22764 net.cpp:408] mbox_loc -> mbox_loc
I0403 21:46:37.668066 22764 net.cpp:150] Setting up mbox_loc
I0403 21:46:37.668077 22764 net.cpp:157] Top shape: 2 98624 (197248)
I0403 21:46:37.668082 22764 net.cpp:165] Memory required for data: 1462454592
I0403 21:46:37.668087 22764 layer_factory.hpp:77] Creating layer mbox_conf
I0403 21:46:37.668095 22764 net.cpp:100] Creating Layer mbox_conf
I0403 21:46:37.668102 22764 net.cpp:434] mbox_conf <- conv4_3_norm_mbox_conf_flat
I0403 21:46:37.668109 22764 net.cpp:434] mbox_conf <- fc7_mbox_conf_flat
I0403 21:46:37.668115 22764 net.cpp:434] mbox_conf <- conv6_2_mbox_conf_flat
I0403 21:46:37.668120 22764 net.cpp:434] mbox_conf <- conv7_2_mbox_conf_flat
I0403 21:46:37.668126 22764 net.cpp:434] mbox_conf <- conv8_2_mbox_conf_flat
I0403 21:46:37.668131 22764 net.cpp:434] mbox_conf <- conv9_2_mbox_conf_flat
I0403 21:46:37.668141 22764 net.cpp:408] mbox_conf -> mbox_conf
I0403 21:46:37.668181 22764 net.cpp:150] Setting up mbox_conf
I0403 21:46:37.668191 22764 net.cpp:157] Top shape: 2 49312 (98624)
I0403 21:46:37.668195 22764 net.cpp:165] Memory required for data: 1462849088
I0403 21:46:37.668201 22764 layer_factory.hpp:77] Creating layer mbox_priorbox
I0403 21:46:37.668208 22764 net.cpp:100] Creating Layer mbox_priorbox
I0403 21:46:37.668222 22764 net.cpp:434] mbox_priorbox <- conv4_3_norm_mbox_priorbox
I0403 21:46:37.668228 22764 net.cpp:434] mbox_priorbox <- fc7_mbox_priorbox
I0403 21:46:37.668234 22764 net.cpp:434] mbox_priorbox <- conv6_2_mbox_priorbox
I0403 21:46:37.668239 22764 net.cpp:434] mbox_priorbox <- conv7_2_mbox_priorbox
I0403 21:46:37.668244 22764 net.cpp:434] mbox_priorbox <- conv8_2_mbox_priorbox
I0403 21:46:37.668248 22764 net.cpp:434] mbox_priorbox <- conv9_2_mbox_priorbox
I0403 21:46:37.668254 22764 net.cpp:408] mbox_priorbox -> mbox_priorbox
I0403 21:46:37.668294 22764 net.cpp:150] Setting up mbox_priorbox
I0403 21:46:37.668304 22764 net.cpp:157] Top shape: 1 2 98624 (197248)
I0403 21:46:37.668309 22764 net.cpp:165] Memory required for data: 1463638080
I0403 21:46:37.668313 22764 layer_factory.hpp:77] Creating layer mbox_clean
I0403 21:46:37.668323 22764 net.cpp:100] Creating Layer mbox_clean
I0403 21:46:37.668329 22764 net.cpp:434] mbox_clean <- conv4_3_norm_mbox_clean_flat
I0403 21:46:37.668335 22764 net.cpp:434] mbox_clean <- fc7_mbox_clean_flat
I0403 21:46:37.668341 22764 net.cpp:434] mbox_clean <- conv6_2_mbox_clean_flat
I0403 21:46:37.668346 22764 net.cpp:434] mbox_clean <- conv7_2_mbox_clean_flat
I0403 21:46:37.668351 22764 net.cpp:434] mbox_clean <- conv8_2_mbox_clean_flat
I0403 21:46:37.668356 22764 net.cpp:434] mbox_clean <- conv9_2_mbox_clean_flat
I0403 21:46:37.668361 22764 net.cpp:408] mbox_clean -> mbox_clean
I0403 21:46:37.668401 22764 net.cpp:150] Setting up mbox_clean
I0403 21:46:37.668411 22764 net.cpp:157] Top shape: 2 24656 (49312)
I0403 21:46:37.668414 22764 net.cpp:165] Memory required for data: 1463835328
I0403 21:46:37.668419 22764 layer_factory.hpp:77] Creating layer mbox_conf_reshape
I0403 21:46:37.668428 22764 net.cpp:100] Creating Layer mbox_conf_reshape
I0403 21:46:37.668436 22764 net.cpp:434] mbox_conf_reshape <- mbox_conf
I0403 21:46:37.668442 22764 net.cpp:408] mbox_conf_reshape -> mbox_conf_reshape
I0403 21:46:37.668488 22764 net.cpp:150] Setting up mbox_conf_reshape
I0403 21:46:37.668498 22764 net.cpp:157] Top shape: 2 24656 2 (98624)
I0403 21:46:37.668501 22764 net.cpp:165] Memory required for data: 1464229824
I0403 21:46:37.668505 22764 layer_factory.hpp:77] Creating layer mbox_conf_softmax
I0403 21:46:37.668514 22764 net.cpp:100] Creating Layer mbox_conf_softmax
I0403 21:46:37.668521 22764 net.cpp:434] mbox_conf_softmax <- mbox_conf_reshape
I0403 21:46:37.668527 22764 net.cpp:408] mbox_conf_softmax -> mbox_conf_softmax
I0403 21:46:37.668833 22764 net.cpp:150] Setting up mbox_conf_softmax
I0403 21:46:37.668848 22764 net.cpp:157] Top shape: 2 24656 2 (98624)
I0403 21:46:37.668853 22764 net.cpp:165] Memory required for data: 1464624320
I0403 21:46:37.668858 22764 layer_factory.hpp:77] Creating layer mbox_conf_flatten
I0403 21:46:37.668864 22764 net.cpp:100] Creating Layer mbox_conf_flatten
I0403 21:46:37.668869 22764 net.cpp:434] mbox_conf_flatten <- mbox_conf_softmax
I0403 21:46:37.668875 22764 net.cpp:408] mbox_conf_flatten -> mbox_conf_flatten
I0403 21:46:37.668916 22764 net.cpp:150] Setting up mbox_conf_flatten
I0403 21:46:37.668926 22764 net.cpp:157] Top shape: 2 49312 (98624)
I0403 21:46:37.668931 22764 net.cpp:165] Memory required for data: 1465018816
I0403 21:46:37.668936 22764 layer_factory.hpp:77] Creating layer mbox_clean_sigmoid
I0403 21:46:37.668957 22764 net.cpp:100] Creating Layer mbox_clean_sigmoid
I0403 21:46:37.668967 22764 net.cpp:434] mbox_clean_sigmoid <- mbox_clean
I0403 21:46:37.668972 22764 net.cpp:408] mbox_clean_sigmoid -> mbox_clean_sigmoid
I0403 21:46:37.669350 22764 net.cpp:150] Setting up mbox_clean_sigmoid
I0403 21:46:37.669364 22764 net.cpp:157] Top shape: 2 24656 (49312)
I0403 21:46:37.669369 22764 net.cpp:165] Memory required for data: 1465216064
I0403 21:46:37.669375 22764 layer_factory.hpp:77] Creating layer detection_out
I0403 21:46:37.669400 22764 net.cpp:100] Creating Layer detection_out
I0403 21:46:37.669409 22764 net.cpp:434] detection_out <- mbox_loc
I0403 21:46:37.669414 22764 net.cpp:434] detection_out <- mbox_conf_flatten
I0403 21:46:37.669420 22764 net.cpp:434] detection_out <- mbox_priorbox
I0403 21:46:37.669432 22764 net.cpp:434] detection_out <- mbox_clean_sigmoid
I0403 21:46:37.669443 22764 net.cpp:408] detection_out -> detection_out
I0403 21:46:37.677613 22764 net.cpp:150] Setting up detection_out
I0403 21:46:37.677628 22764 net.cpp:157] Top shape: 1 1 1 8 (8)
I0403 21:46:37.677644 22764 net.cpp:165] Memory required for data: 1465216096
I0403 21:46:37.677649 22764 layer_factory.hpp:77] Creating layer detection_eval
I0403 21:46:37.677659 22764 net.cpp:100] Creating Layer detection_eval
I0403 21:46:37.677664 22764 net.cpp:434] detection_eval <- detection_out
I0403 21:46:37.677671 22764 net.cpp:434] detection_eval <- label
I0403 21:46:37.677677 22764 net.cpp:408] detection_eval -> detection_eval
I0403 21:46:37.682067 22764 net.cpp:150] Setting up detection_eval
I0403 21:46:37.682080 22764 net.cpp:157] Top shape: 1 1 2 5 (10)
I0403 21:46:37.682096 22764 net.cpp:165] Memory required for data: 1465216136
I0403 21:46:37.682101 22764 net.cpp:228] detection_eval does not need backward computation.
I0403 21:46:37.682106 22764 net.cpp:228] detection_out does not need backward computation.
I0403 21:46:37.682112 22764 net.cpp:228] mbox_clean_sigmoid does not need backward computation.
I0403 21:46:37.682117 22764 net.cpp:228] mbox_conf_flatten does not need backward computation.
…
