…
        max_scale: 1
        min_aspect_ratio: 0.5
        max_aspect_ratio: 2
      }
      sample_constraint {
        min_jaccard_overlap: 0.9
      }
      max_sample: 1
      max_trials: 50
    }
    batch_sampler {
      sampler {
        min_scale: 0.3
        max_scale: 1
        min_aspect_ratio: 0.5
        max_aspect_ratio: 2
      }
      sample_constraint {
        max_jaccard_overlap: 1
      }
      max_sample: 1
      max_trials: 50
    }
    label_map_file: "/data/siyu/dataset/coco/labelmap_coco-person.prototxt"
    part_sampler_prob: 0.8
  }
}
layer {
  name: "conv1_1"
  type: "Convolution"
  bottom: "data"
  top: "conv1_1"
  param {
    lr_mult: 1
    decay_mult: 1
  }
  param {
    lr_mult: 2
    decay_mult: 0
  }
  convolution_param {
    num_output: 64
    pad: 1
    kernel_size: 3
    weight_filler {
      type: "xavier"
    }
    bias_filler {
      type: "constant"
      value: 0
    }
  }
}
layer {
  name: "relu1_1"
  type: "ReLU"
  bottom: "conv1_1"
  top: "conv1_1"
}
layer {
  name: "conv1_2"
  type: "Convolution"
  bottom: "conv1_1"
  top: "conv1_2"
  param {
    lr_mult: 1
    decay_mult: 1
  }
  param {
    lr_mult: 2
    decay_mult: 0
  }
  convolution_param {
    num_output: 64
    pad: 1
    kernel_size: 3
    weight_filler {
      type: "xavier"
    }
    bias_filler {
      type: "constant"
      value: 0
    }
  }
}
layer {
  name: "relu1_2"
  type: "ReLU"
  bottom: "conv1_2"
  top: "conv1_2"
}
layer {
  name: "pool1"
  type: "Pooling"
  bottom: "conv1_2"
  top: "pool1"
  pooling_param {
    pool: MAX
    kernel_size: 2
    stride: 2
  }
}
layer {
  name: "conv2_1"
  type: "Convolution"
  bottom: "pool1"
  top: "conv2_1"
  param {
    lr_mult: 1
    decay_mult: 1
  }
  param {
    lr_mult: 2
    decay_mult: 0
  }
  convolution_param {
    num_output: 128
    pad: 1
    kernel_size: 3
    weight_filler {
      type: "xavier"
    }
    bias_filler {
      type: "constant"
      value: 0
    }
  }
}
layer {
  name: "relu2_1"
  type: "ReLU"
  bottom: "conv2_1"
  top: "conv2_1"
}
layer {
  name: "conv2_2"
  type: "Convolution"
  bottom: "conv2_1"
  top: "conv2_2"
  param {
    lr_mult: 1
    decay_mult: 1
  }
  param {
    lr_mult: 2
    decay_mult: 0
  }
  convolution_param {
    num_output: 128
    pad: 1
    kernel_size: 3
    weight_filler {
      type: "xavier"
    }
    bias_filler {
      type: "constant"
      value: 0
    }
  }
}
layer {
  name: "relu2_2"
  type: "ReLU"
  bottom: "conv2_2"
  top: "conv2_2"
}
layer {
  name: "pool2"
  type: "Pooling"
  bottom: "conv2_2"
  top: "pool2"
  pooling_param {
    pool: MAX
    kernel_size: 2
    stride: 2
  }
}
layer {
  name: "conv3_1"
  type: "Convolution"
  bottom: "pool2"
  top: "conv3_1"
  param {
    lr_mult: 1
    decay_mult: 1
  }
  param {
    lr_mult: 2
    decay_mult: 0
  }
  convolution_param {
    num_output: 256
    pad: 1
    kernel_size: 3
    weight_filler {
      type: "xavier"
    }
    bias_filler {
      type: "constant"
      value: 0
    }
  }
}
layer {
  name: "relu3_1"
  type: "ReLU"
  bottom: "conv3_1"
  top: "conv3_1"
}
layer {
  name: "conv3_2"
  type: "Convolution"
  bottom: "conv3_1"
  top: "conv3_2"
  param {
    lr_mult: 1
    decay_mult: 1
  }
  param {
    lr_mult: 2
    decay_mult: 0
  }
  convolution_param {
    num_output: 256
    pad: 1
    kernel_size: 3
    weight_filler {
      type: "xavier"
    }
    bias_filler {
      type: "constant"
      value: 0
    }
  }
}
layer {
  name: "relu3_2"
  type: "ReLU"
  bottom: "conv3_2"
  top: "conv3_2"
}
layer {
  name: "conv3_3"
  type: "Convolution"
  bottom: "conv3_2"
  top: "conv3_3"
  param {
    lr_mult: 1
    decay_mult: 1
  }
  param {
    lr_mult: 2
    decay_mult: 0
  }
  convolution_param {
    num_output: 256
    pad: 1
    kernel_size: 3
    weight_filler {
      type: "xavier"
    }
    bias_filler {
      type: "constant"
      value: 0
    }
  }
}
layer {
  name: "relu3_3"
  type: "ReLU"
  bottom: "conv3_3"
  top: "conv3_3"
}
layer {
  name: "pool3"
  type: "Pooling"
  bottom: "conv3_3"
  top: "pool3"
  pooling_param {
    pool: MAX
    kernel_size: 2
    stride: 2
  }
}
layer {
  name: "conv4_1"
  type: "Convolution"
  bottom: "pool3"
  top: "conv4_1"
  param {
    lr_mult: 1
    decay_mult: 1
  }
  param {
    lr_mult: 2
    decay_mult: 0
  }
  convolution_param {
    num_output: 512
    pad: 1
    kernel_size: 3
    weight_filler {
      type: "xavier"
    }
    bias_filler {
      type: "constant"
      value: 0
    }
  }
}
layer {
  name: "relu4_1"
  type: "ReLU"
  bottom: "conv4_1"
  top: "conv4_1"
}
layer {
  name: "conv4_2"
  type: "Convolution"
  bottom: "conv4_1"
  top: "conv4_2"
  param {
    lr_mult: 1
    decay_mult: 1
  }
  param {
    lr_mult: 2
    decay_mult: 0
  }
  convolution_param {
    num_output: 512
    pad: 1
    kernel_size: 3
    weight_filler {
      type: "xavier"
    }
    bias_filler {
      type: "constant"
      value: 0
    }
  }
}
layer {
  name: "relu4_2"
  type: "ReLU"
  bottom: "conv4_2"
  top: "conv4_2"
}
layer {
  name: "conv4_3"
  type: "Convolution"
  bottom: "conv4_2"
  top: "conv4_3"
  param {
    lr_mult: 1
    decay_mult: 1
  }
  param {
    lr_mult: 2
    decay_mult: 0
  }
  convolution_param {
    num_output: 512
    pad: 1
    kernel_size: 3
    weight_filler {
      type: "xavier"
    }
    bias_filler {
      type: "constant"
      value: 0
    }
  }
}
layer {
  name: "relu4_3"
  type: "ReLU"
  bottom: "conv4_3"
  top: "conv4_3"
}
layer {
  name: "pool4"
  type: "Pooling"
  bottom: "conv4_3"
  top: "pool4"
  pooling_param {
    pool: MAX
    kernel_size: 2
    stride: 2
  }
}
layer {
  name: "conv5_1"
  type: "Convolution"
  bottom: "pool4"
  top: "conv5_1"
  param {
    lr_mult: 1
    decay_mult: 1
  }
  param {
    lr_mult: 2
    decay_mult: 0
  }
  convolution_param {
    num_output: 512
    pad: 1
    kernel_size: 3
    weight_filler {
      type: "xavier"
    }
    bias_filler {
      type: "constant"
      value: 0
    }
    dilation: 1
  }
}
layer {
  name: "relu5_1"
  type: "ReLU"
  bottom: "conv5_1"
  top: "conv5_1"
}
layer {
  name: "conv5_2"
  type: "Convolution"
  bottom: "conv5_1"
  top: "conv5_2"
  param {
    lr_mult: 1
    decay_mult: 1
  }
  param {
    lr_mult: 2
    decay_mult: 0
  }
  convolution_param {
    num_output: 512
    pad: 1
    kernel_size: 3
    weight_filler {
      type: "xavier"
    }
    bias_filler {
      type: "constant"
      value: 0
    }
    dilation: 1
  }
}
layer {
  name: "relu5_2"
  type: "ReLU"
  bottom: "conv5_2"
  top: "conv5_2"
}
layer {
  name: "conv5_3"
  type: "Convolution"
  bottom: "conv5_2"
  top: "conv5_3"
  param {
    lr_mult: 1
    decay_mult: 1
  }
  param {
    lr_mult: 2
    decay_mult: 0
  }
  convolution_param {
    num_output: 512
    pad: 1
    kernel_size: 3
    weight_filler {
      type: "xavier"
    }
    bias_filler {
      type: "constant"
      value: 0
    }
    dilation: 1
  }
}
layer {
  name: "relu5_3"
  type: "ReLU"
  bottom: "conv5_3"
  top: "conv5_3"
}
layer {
  name: "pool5"
  type: "Pooling"
  bottom: "conv5_3"
  top: "pool5"
  pooling_param {
    pool: MAX
    kernel_size: 3
    stride: 1
    pad: 1
  }
}
layer {
  name: "fc6"
  type: "Convolution"
  bottom: "pool5"
  top: "fc6"
  param {
    lr_mult: 1
    decay_mult: 1
  }
  param {
    lr_mult: 2
    decay_mult: 0
  }
  convolution_param {
    num_output: 1024
    pad: 6
    kernel_size: 3
    weight_filler {
      type: "xavier"
    }
    bias_filler {
      type: "constant"
      value: 0
    }
    dilation: 6
  }
}
layer {
  name: "relu6"
  type: "ReLU"
  bottom: "fc6"
  top: "fc6"
}
layer {
  name: "fc7"
  type: "Convolution"
  bottom: "fc6"
  top: "fc7"
  param {
    lr_mult: 1
    decay_mult: 1
  }
  param {
    lr_mult: 2
    decay_mult: 0
  }
  convolution_param {
    num_output: 1024
    kernel_size: 1
    weight_filler {
      type: "xavier"
    }
    bias_filler {
      type: "constant"
      value: 0
    }
  }
}
layer {
  name: "relu7"
  type: "ReLU"
  bottom: "fc7"
  top: "fc7"
}
layer {
  name: "conv6_1"
  type: "Convolution"
  bottom: "fc7"
  top: "conv6_1"
  param {
    lr_mult: 1
    decay_mult: 1
  }
  param {
    lr_mult: 2
    decay_mult: 0
  }
  convolution_param {
    num_output: 256
    pad: 0
    kernel_size: 1
    stride: 1
    weight_filler {
      type: "xavier"
    }
    bias_filler {
      type: "constant"
      value: 0
    }
  }
}
layer {
  name: "conv6_1_relu"
  type: "ReLU"
  bottom: "conv6_1"
  top: "conv6_1"
}
layer {
  name: "conv6_2"
  type: "Convolution"
  bottom: "conv6_1"
  top: "conv6_2"
  param {
    lr_mult: 1
    decay_mult: 1
  }
  param {
    lr_mult: 2
    decay_mult: 0
  }
  convolution_param {
    num_output: 512
    pad: 1
    kernel_size: 3
    stride: 2
    weight_filler {
      type: "xavier"
    }
    bias_filler {
      type: "constant"
      value: 0
    }
  }
}
layer {
  name: "conv6_2_relu"
  type: "ReLU"
  bottom: "conv6_2"
  top: "conv6_2"
}
layer {
  name: "conv7_1"
  type: "Convolution"
  bottom: "conv6_2"
  top: "conv7_1"
  param {
    lr_mult: 1
    decay_mult: 1
  }
  param {
    lr_mult: 2
    decay_mult: 0
  }
  convolution_param {
    num_output: 128
    pad: 0
    kernel_size: 1
    stride: 1
    weight_filler {
      type: "xavier"
    }
    bias_filler {
      type: "constant"
      value: 0
    }
  }
}
layer {
  name: "conv7_1_relu"
  type: "ReLU"
  bottom: "conv7_1"
  top: "conv7_1"
}
layer {
  name: "conv7_2"
  type: "Convolution"
  bottom: "conv7_1"
  top: "conv7_2"
  param {
    lr_mult: 1
    decay_mult: 1
  }
  param {
    lr_mult: 2
    decay_mult: 0
  }
  convolution_param {
    num_output: 256
    pad: 1
    kernel_size: 3
    stride: 2
    weight_filler {
      type: "xavier"
    }
    bias_filler {
      type: "constant"
      value: 0
    }
  }
}
layer {
  name: "conv7_2_relu"
  type: "ReLU"
  bottom: "conv7_2"
  top: "conv7_2"
}
layer {
  name: "conv8_1"
  type: "Convolution"
  bottom: "conv7_2"
  top: "conv8_1"
  param {
    lr_mult: 1
    decay_mult: 1
  }
  param {
    lr_mult: 2
    decay_mult: 0
  }
  convolution_param {
    num_output: 128
    pad: 0
    kernel_size: 1
    stride: 1
    weight_filler {
      type: "xavier"
    }
    bias_filler {
      type: "constant"
      value: 0
    }
  }
}
layer {
  name: "conv8_1_relu"
  type: "ReLU"
  bottom: "conv8_1"
  top: "conv8_1"
}
layer {
  name: "conv8_2"
  type: "Convolution"
  bottom: "conv8_1"
  top: "conv8_2"
  param {
    lr_mult: 1
    decay_mult: 1
  }
  param {
    lr_mult: 2
    decay_mult: 0
  }
  convolution_param {
    num_output: 256
    pad: 0
    kernel_size: 3
    stride: 1
    weight_filler {
      type: "xavier"
    }
    bias_filler {
      type: "constant"
      value: 0
    }
  }
}
layer {
  name: "conv8_2_relu"
  type: "ReLU"
  bottom: "conv8_2"
  top: "conv8_2"
}
layer {
  name: "conv9_1"
  type: "Convolution"
  bottom: "conv8_2"
  top: "conv9_1"
  param {
    lr_mult: 1
    decay_mult: 1
  }
  param {
    lr_mult: 2
    decay_mult: 0
  }
  convolution_param {
    num_output: 128
    pad: 0
    kernel_size: 1
    stride: 1
    weight_filler {
      type: "xavier"
    }
    bias_filler {
      type: "constant"
      value: 0
    }
  }
}
layer {
  name: "conv9_1_relu"
  type: "ReLU"
  bottom: "conv9_1"
  top: "conv9_1"
}
layer {
  name: "conv9_2"
  type: "Convolution"
  bottom: "conv9_1"
  top: "conv9_2"
  param {
    lr_mult: 1
    decay_mult: 1
  }
  param {
    lr_mult: 2
    decay_mult: 0
  }
  convolution_param {
    num_output: 256
    pad: 0
    kernel_size: 3
    stride: 1
    weight_filler {
      type: "xavier"
    }
    bias_filler {
      type: "constant"
      value: 0
    }
  }
}
layer {
  name: "conv9_2_relu"
  type: "ReLU"
  bottom: "conv9_2"
  top: "conv9_2"
}
layer {
  name: "conv4_3_norm"
  type: "Normalize"
  bottom: "conv4_3"
  top: "conv4_3_norm"
  norm_param {
    across_spatial: false
    scale_filler {
      type: "constant"
      value: 20
    }
    channel_shared: false
  }
}
layer {
  name: "conv4_3_norm_mbox_loc"
  type: "Convolution"
  bottom: "conv4_3_norm"
  top: "conv4_3_norm_mbox_loc"
  param {
    lr_mult: 1
    decay_mult: 1
  }
  param {
    lr_mult: 2
    decay_mult: 0
  }
  convolution_param {
    num_output: 16
    pad: 1
    kernel_size: 3
    stride: 1
    weight_filler {
      type: "xavier"
    }
    bias_filler {
      type: "constant"
      value: 0
    }
  }
}
layer {
  name: "conv4_3_norm_mbox_loc_perm"
  type: "Permute"
  bottom: "conv4_3_norm_mbox_loc"
  top: "conv4_3_norm_mbox_loc_perm"
  permute_param {
    order: 0
    order: 2
    order: 3
    order: 1
  }
}
layer {
  name: "conv4_3_norm_mbox_loc_flat"
  type: "Flatten"
  bottom: "conv4_3_norm_mbox_loc_perm"
  top: "conv4_3_norm_mbox_loc_flat"
  flatten_param {
    axis: 1
  }
}
layer {
  name: "conv4_3_norm_mbox_conf"
  type: "Convolution"
  bottom: "conv4_3_norm"
  top: "conv4_3_norm_mbox_conf"
  param {
    lr_mult: 1
    decay_mult: 1
  }
  param {
    lr_mult: 2
    decay_mult: 0
  }
  convolution_param {
    num_output: 8
    pad: 1
    kernel_size: 3
    stride: 1
    weight_filler {
      type: "xavier"
    }
    bias_filler {
      type: "constant"
      value: 0
    }
  }
}
layer {
  name: "conv4_3_norm_mbox_conf_perm"
  type: "Permute"
  bottom: "conv4_3_norm_mbox_conf"
  top: "conv4_3_norm_mbox_conf_perm"
  permute_param {
    order: 0
    order: 2
    order: 3
    order: 1
  }
}
layer {
  name: "conv4_3_norm_mbox_conf_flat"
  type: "Flatten"
  bottom: "conv4_3_norm_mbox_conf_perm"
  top: "conv4_3_norm_mbox_conf_flat"
  flatten_param {
    axis: 1
  }
}
layer {
  name: "conv4_3_norm_mbox_clean"
  type: "Convolution"
  bottom: "conv4_3_norm"
  top: "conv4_3_norm_mbox_clean"
  param {
    lr_mult: 1
    decay_mult: 1
  }
  param {
    lr_mult: 2
    decay_mult: 0
  }
  convolution_param {
    num_output: 4
    pad: 1
    kernel_size: 3
    stride: 1
    weight_filler {
      type: "xavier"
    }
    bias_filler {
      type: "constant"
      value: 0
    }
  }
}
layer {
  name: "conv4_3_norm_mbox_clean_perm"
  type: "Permute"
  bottom: "conv4_3_norm_mbox_clean"
  top: "conv4_3_norm_mbox_clean_perm"
  permute_param {
    order: 0
    order: 2
    order: 3
    order: 1
  }
}
layer {
  name: "conv4_3_norm_mbox_clean_flat"
  type: "Flatten"
  bottom: "conv4_3_norm_mbox_clean_perm"
  top: "conv4_3_norm_mbox_clean_flat"
  flatten_param {
    axis: 1
  }
}
layer {
  name: "conv4_3_norm_mbox_priorbox"
  type: "PriorBox"
  bottom: "conv4_3_norm"
  bottom: "data"
  top: "conv4_3_norm_mbox_priorbox"
  prior_box_param {
    min_size: 35.84
    max_size: 76.8
    aspect_ratio: 2
    flip: true
    clip: false
    variance: 0.1
    variance: 0.1
    variance: 0.2
    variance: 0.2
    step: 8
    offset: 0.5
  }
}
layer {
  name: "fc7_mbox_loc"
  type: "Convolution"
  bottom: "fc7"
  top: "fc7_mbox_loc"
  param {
    lr_mult: 1
    decay_mult: 1
  }
  param {
    lr_mult: 2
    decay_mult: 0
  }
  convolution_param {
    num_output: 24
    pad: 1
    kernel_size: 3
    stride: 1
    weight_filler {
      type: "xavier"
    }
    bias_filler {
      type: "constant"
      value: 0
    }
  }
}
layer {
  name: "fc7_mbox_loc_perm"
  type: "Permute"
  bottom: "fc7_mbox_loc"
  top: "fc7_mbox_loc_perm"
  permute_param {
    order: 0
    order: 2
    order: 3
    order: 1
  }
}
layer {
  name: "fc7_mbox_loc_flat"
  type: "Flatten"
  bottom: "fc7_mbox_loc_perm"
  top: "fc7_mbox_loc_flat"
  flatten_param {
    axis: 1
  }
}
layer {
  name: "fc7_mbox_conf"
  type: "Convolution"
  bottom: "fc7"
  top: "fc7_mbox_conf"
  param {
    lr_mult: 1
    decay_mult: 1
  }
  param {
    lr_mult: 2
    decay_mult: 0
  }
  convolution_param {
    num_output: 12
    pad: 1
    kernel_size: 3
    stride: 1
    weight_filler {
      type: "xavier"
    }
    bias_filler {
      type: "constant"
      value: 0
    }
  }
}
layer {
  name: "fc7_mbox_conf_perm"
  type: "Permute"
  bottom: "fc7_mbox_conf"
  top: "fc7_mbox_conf_perm"
  permute_param {
    order: 0
    order: 2
    order: 3
    order: 1
  }
}
layer {
  name: "fc7_mbox_conf_flat"
  type: "Flatten"
  bottom: "fc7_mbox_conf_perm"
  top: "fc7_mbox_conf_flat"
  flatten_param {
    axis: 1
  }
}
layer {
  name: "fc7_mbox_clean"
  type: "Convolution"
  bottom: "fc7"
  top: "fc7_mbox_clean"
  param {
    lr_mult: 1
    decay_mult: 1
  }
  param {
    lr_mult: 2
    decay_mult: 0
  }
  convolution_param {
    num_output: 6
    pad: 1
    kernel_size: 3
    stride: 1
    weight_filler {
      type: "xavier"
    }
    bias_filler {
      type: "constant"
      value: 0
    }
  }
}
layer {
  name: "fc7_mbox_clean_perm"
  type: "Permute"
  bottom: "fc7_mbox_clean"
  top: "fc7_mbox_clean_perm"
  permute_param {
    order: 0
    order: 2
    order: 3
    order: 1
  }
}
layer {
  name: "fc7_mbox_clean_flat"
  type: "Flatten"
  bottom: "fc7_mbox_clean_perm"
  top: "fc7_mbox_clean_flat"
  flatten_param {
    axis: 1
  }
}
layer {
  name: "fc7_mbox_priorbox"
  type: "PriorBox"
  bottom: "fc7"
  bottom: "data"
  top: "fc7_mbox_priorbox"
  prior_box_param {
    min_size: 76.8
    max_size: 168.96
    aspect_ratio: 2
    aspect_ratio: 3
    flip: true
    clip: false
    variance: 0.1
    variance: 0.1
    variance: 0.2
    variance: 0.2
    step: 16
    offset: 0.5
  }
}
layer {
  name: "conv6_2_mbox_loc"
  type: "Convolution"
  bottom: "conv6_2"
  top: "conv6_2_mbox_loc"
  param {
    lr_mult: 1
    decay_mult: 1
  }
  param {
    lr_mult: 2
    decay_mult: 0
  }
  convolution_param {
    num_output: 24
    pad: 1
    kernel_size: 3
    stride: 1
    weight_filler {
      type: "xavier"
    }
    bias_filler {
      type: "constant"
      value: 0
    }
  }
}
layer {
  name: "conv6_2_mbox_loc_perm"
  type: "Permute"
  bottom: "conv6_2_mbox_loc"
  top: "conv6_2_mbox_loc_perm"
  permute_param {
    order: 0
    order: 2
    order: 3
    order: 1
  }
}
layer {
  name: "conv6_2_mbox_loc_flat"
  type: "Flatten"
  bottom: "conv6_2_mbox_loc_perm"
  top: "conv6_2_mbox_loc_flat"
  flatten_param {
    axis: 1
  }
}
layer {
  name: "conv6_2_mbox_conf"
  type: "Convolution"
  bottom: "conv6_2"
  top: "conv6_2_mbox_conf"
  param {
    lr_mult: 1
    decay_mult: 1
  }
  param {
    lr_mult: 2
    decay_mult: 0
  }
  convolution_param {
    num_output: 12
    pad: 1
    kernel_size: 3
    stride: 1
    weight_filler {
      type: "xavier"
    }
    bias_filler {
      type: "constant"
      value: 0
    }
  }
}
layer {
  name: "conv6_2_mbox_conf_perm"
  type: "Permute"
  bottom: "conv6_2_mbox_conf"
  top: "conv6_2_mbox_conf_perm"
  permute_param {
    order: 0
    order: 2
    order: 3
    order: 1
  }
}
layer {
  name: "conv6_2_mbox_conf_flat"
  type: "Flatten"
  bottom: "conv6_2_mbox_conf_perm"
  top: "conv6_2_mbox_conf_flat"
  flatten_param {
    axis: 1
  }
}
layer {
  name: "conv6_2_mbox_clean"
  type: "Convolution"
  bottom: "conv6_2"
  top: "conv6_2_mbox_clean"
  param {
    lr_mult: 1
    decay_mult: 1
  }
  param {
    lr_mult: 2
    decay_mult: 0
  }
  convolution_param {
    num_output: 6
    pad: 1
    kernel_size: 3
    stride: 1
    weight_filler {
      type: "xavier"
    }
    bias_filler {
      type: "constant"
      value: 0
    }
  }
}
layer {
  name: "conv6_2_mbox_clean_perm"
  type: "Permute"
  bottom: "conv6_2_mbox_clean"
  top: "conv6_2_mbox_clean_perm"
  permute_param {
    order: 0
    order: 2
    order: 3
    order: 1
  }
}
layer {
  name: "conv6_2_mbox_clean_flat"
  type: "Flatten"
  bottom: "conv6_2_mbox_clean_perm"
  top: "conv6_2_mbox_clean_flat"
  flatten_param {
    axis: 1
  }
}
layer {
  name: "conv6_2_mbox_priorbox"
  type: "PriorBox"
  bottom: "conv6_2"
  bottom: "data"
  top: "conv6_2_mbox_priorbox"
  prior_box_param {
    min_size: 168.96
    max_size: 261.12
    aspect_ratio: 2
    aspect_ratio: 3
    flip: true
    clip: false
    variance: 0.1
    variance: 0.1
    variance: 0.2
    variance: 0.2
    step: 32
    offset: 0.5
  }
}
layer {
  name: "conv7_2_mbox_loc"
  type: "Convolution"
  bottom: "conv7_2"
  top: "conv7_2_mbox_loc"
  param {
    lr_mult: 1
    decay_mult: 1
  }
  param {
    lr_mult: 2
    decay_mult: 0
  }
  convolution_param {
    num_output: 24
    pad: 1
    kernel_size: 3
    stride: 1
    weight_filler {
      type: "xavier"
    }
    bias_filler {
      type: "constant"
      value: 0
    }
  }
}
layer {
  name: "conv7_2_mbox_loc_perm"
  type: "Permute"
  bottom: "conv7_2_mbox_loc"
  top: "conv7_2_mbox_loc_perm"
  permute_param {
    order: 0
    order: 2
    order: 3
    order: 1
  }
}
layer {
  name: "conv7_2_mbox_loc_flat"
  type: "Flatten"
  bottom: "conv7_2_mbox_loc_perm"
  top: "conv7_2_mbox_loc_flat"
  flatten_param {
    axis: 1
  }
}
layer {
  name: "conv7_2_mbox_conf"
  type: "Convolution"
  bottom: "conv7_2"
  top: "conv7_2_mbox_conf"
  param {
    lr_mult: 1
    decay_mult: 1
  }
  param {
    lr_mult: 2
    decay_mult: 0
  }
  convolution_param {
    num_output: 12
    pad: 1
    kernel_size: 3
    stride: 1
    weight_filler {
      type: "xavier"
    }
    bias_filler {
      type: "constant"
      value: 0
    }
  }
}
layer {
  name: "conv7_2_mbox_conf_perm"
  type: "Permute"
  bottom: "conv7_2_mbox_conf"
  top: "conv7_2_mbox_conf_perm"
  permute_param {
    order: 0
    order: 2
    order: 3
    order: 1
  }
}
layer {
  name: "conv7_2_mbox_conf_flat"
  type: "Flatten"
  bottom: "conv7_2_mbox_conf_perm"
  top: "conv7_2_mbox_conf_flat"
  flatten_param {
    axis: 1
  }
}
layer {
  name: "conv7_2_mbox_clean"
  type: "Convolution"
  bottom: "conv7_2"
  top: "conv7_2_mbox_clean"
  param {
    lr_mult: 1
    decay_mult: 1
  }
  param {
    lr_mult: 2
    decay_mult: 0
  }
  convolution_param {
    num_output: 6
    pad: 1
    kernel_size: 3
    stride: 1
    weight_filler {
      type: "xavier"
    }
    bias_filler {
      type: "constant"
      value: 0
    }
  }
}
layer {
  name: "conv7_2_mbox_clean_perm"
  type: "Permute"
  bottom: "conv7_2_mbox_clean"
  top: "conv7_2_mbox_clean_perm"
  permute_param {
    order: 0
    order: 2
    order: 3
    order: 1
  }
}
layer {
  name: "conv7_2_mbox_clean_flat"
  type: "Flatten"
  bottom: "conv7_2_mbox_clean_perm"
  top: "conv7_2_mbox_clean_flat"
  flatten_param {
    axis: 1
  }
}
layer {
  name: "conv7_2_mbox_priorbox"
  type: "PriorBox"
  bottom: "conv7_2"
  bottom: "data"
  top: "conv7_2_mbox_priorbox"
  prior_box_param {
    min_size: 261.12
    max_size: 353.28
    aspect_ratio: 2
    aspect_ratio: 3
    flip: true
    clip: false
    variance: 0.1
    variance: 0.1
    variance: 0.2
    variance: 0.2
    step: 64
    offset: 0.5
  }
}
layer {
  name: "conv8_2_mbox_loc"
  type: "Convolution"
  bottom: "conv8_2"
  top: "conv8_2_mbox_loc"
  param {
    lr_mult: 1
    decay_mult: 1
  }
  param {
    lr_mult: 2
    decay_mult: 0
  }
  convolution_param {
    num_output: 16
    pad: 1
    kernel_size: 3
    stride: 1
    weight_filler {
      type: "xavier"
    }
    bias_filler {
      type: "constant"
      value: 0
    }
  }
}
layer {
  name: "conv8_2_mbox_loc_perm"
  type: "Permute"
  bottom: "conv8_2_mbox_loc"
  top: "conv8_2_mbox_loc_perm"
  permute_param {
    order: 0
    order: 2
    order: 3
    order: 1
  }
}
layer {
  name: "conv8_2_mbox_loc_flat"
  type: "Flatten"
  bottom: "conv8_2_mbox_loc_perm"
  top: "conv8_2_mbox_loc_flat"
  flatten_param {
    axis: 1
  }
}
layer {
  name: "conv8_2_mbox_conf"
  type: "Convolution"
  bottom: "conv8_2"
  top: "conv8_2_mbox_conf"
  param {
    lr_mult: 1
    decay_mult: 1
  }
  param {
    lr_mult: 2
    decay_mult: 0
  }
  convolution_param {
    num_output: 8
    pad: 1
    kernel_size: 3
    stride: 1
    weight_filler {
      type: "xavier"
    }
    bias_filler {
      type: "constant"
      value: 0
    }
  }
}
layer {
  name: "conv8_2_mbox_conf_perm"
  type: "Permute"
  bottom: "conv8_2_mbox_conf"
  top: "conv8_2_mbox_conf_perm"
  permute_param {
    order: 0
    order: 2
    order: 3
    order: 1
  }
}
layer {
  name: "conv8_2_mbox_conf_flat"
  type: "Flatten"
  bottom: "conv8_2_mbox_conf_perm"
  top: "conv8_2_mbox_conf_flat"
  flatten_param {
    axis: 1
  }
}
layer {
  name: "conv8_2_mbox_clean"
  type: "Convolution"
  bottom: "conv8_2"
  top: "conv8_2_mbox_clean"
  param {
    lr_mult: 1
    decay_mult: 1
  }
  param {
    lr_mult: 2
    decay_mult: 0
  }
  convolution_param {
    num_output: 4
    pad: 1
    kernel_size: 3
    stride: 1
    weight_filler {
      type: "xavier"
    }
    bias_filler {
      type: "constant"
      value: 0
    }
  }
}
layer {
  name: "conv8_2_mbox_clean_perm"
  type: "Permute"
  bottom: "conv8_2_mbox_clean"
  top: "conv8_2_mbox_clean_perm"
  permute_param {
    order: 0
    order: 2
    order: 3
    order: 1
  }
}
layer {
  name: "conv8_2_mbox_clean_flat"
  type: "Flatten"
  bottom: "conv8_2_mbox_clean_perm"
  top: "conv8_2_mbox_clean_flat"
  flatten_param {
    axis: 1
  }
}
layer {
  name: "conv8_2_mbox_priorbox"
  type: "PriorBox"
  bottom: "conv8_2"
  bottom: "data"
  top: "conv8_2_mbox_priorbox"
  prior_box_param {
    min_size: 353.28
    max_size: 445.44
    aspect_ratio: 2
    flip: true
    clip: false
    variance: 0.1
    variance: 0.1
    variance: 0.2
    variance: 0.2
    step: 100
    offset: 0.5
  }
}
layer {
  name: "conv9_2_mbox_loc"
  type: "Convolution"
  bottom: "conv9_2"
  top: "conv9_2_mbox_loc"
  param {
    lr_mult: 1
    decay_mult: 1
  }
  param {
    lr_mult: 2
    decay_mult: 0
  }
  convolution_param {
    num_output: 16
    pad: 1
    kernel_size: 3
    stride: 1
    weight_filler {
      type: "xavier"
    }
    bias_filler {
      type: "constant"
      value: 0
    }
  }
}
layer {
  name: "conv9_2_mbox_loc_perm"
  type: "Permute"
  bottom: "conv9_2_mbox_loc"
  top: "conv9_2_mbox_loc_perm"
  permute_param {
    order: 0
    order: 2
    order: 3
    order: 1
  }
}
layer {
  name: "conv9_2_mbox_loc_flat"
  type: "Flatten"
  bottom: "conv9_2_mbox_loc_perm"
  top: "conv9_2_mbox_loc_flat"
  flatten_param {
    axis: 1
  }
}
layer {
  name: "conv9_2_mbox_conf"
  type: "Convolution"
  bottom: "conv9_2"
  top: "conv9_2_mbox_conf"
  param {
    lr_mult: 1
    decay_mult: 1
  }
  param {
    lr_mult: 2
    decay_mult: 0
  }
  convolution_param {
    num_output: 8
    pad: 1
    kernel_size: 3
    stride: 1
    weight_filler {
      type: "xavier"
    }
    bias_filler {
      type: "constant"
      value: 0
    }
  }
}
layer {
  name: "conv9_2_mbox_conf_perm"
  type: "Permute"
  bottom: "conv9_2_mbox_conf"
  top: "conv9_2_mbox_conf_perm"
  permute_param {
    order: 0
    order: 2
    order: 3
    order: 1
  }
}
layer {
  name: "conv9_2_mbox_conf_flat"
  type: "Flatten"
  bottom: "conv9_2_mbox_conf_perm"
  top: "conv9_2_mbox_conf_flat"
  flatten_param {
    axis: 1
  }
}
layer {
  name: "conv9_2_mbox_clean"
  type: "Convolution"
  bottom: "conv9_2"
  top: "conv9_2_mbox_clean"
  param {
    lr_mult: 1
    decay_mult: 1
  }
  param {
    lr_mult: 2
    decay_mult: 0
  }
  convolution_param {
    num_output: 4
    pad: 1
    kernel_size: 3
    stride: 1
    weight_filler {
      type: "xavier"
    }
    bias_filler {
      type: "constant"
      value: 0
    }
  }
}
layer {
  name: "conv9_2_mbox_clean_perm"
  type: "Permute"
  bottom: "conv9_2_mbox_clean"
  top: "conv9_2_mbox_clean_perm"
  permute_param {
    order: 0
    order: 2
    order: 3
    order: 1
  }
}
layer {
  name: "conv9_2_mbox_clean_fl
I0331 19:44:47.145603 18658 layer_factory.hpp:77] Creating layer data
I0331 19:44:47.146080 18658 net.cpp:100] Creating Layer data
I0331 19:44:47.146118 18658 net.cpp:408] data -> data
I0331 19:44:47.146186 18658 net.cpp:408] data -> label
I0331 19:44:47.150017 18694 db_lmdb.cpp:35] Opened lmdb /data/siyu/dataset/coco/lmdb/COCO_Train2014_person_lmdb
I0331 19:44:47.169631 18658 annotated_data_layer.cpp:62] output data size: 8,3,512,512
I0331 19:44:47.211102 18658 net.cpp:150] Setting up data
I0331 19:44:47.211153 18658 net.cpp:157] Top shape: 8 3 512 512 (6291456)
I0331 19:44:47.211161 18658 net.cpp:157] Top shape: 1 1 1 8 (8)
I0331 19:44:47.211166 18658 net.cpp:165] Memory required for data: 25165856
I0331 19:44:47.211179 18658 layer_factory.hpp:77] Creating layer data_data_0_split
I0331 19:44:47.211199 18658 net.cpp:100] Creating Layer data_data_0_split
I0331 19:44:47.211208 18658 net.cpp:434] data_data_0_split <- data
I0331 19:44:47.211225 18658 net.cpp:408] data_data_0_split -> data_data_0_split_0
I0331 19:44:47.211241 18658 net.cpp:408] data_data_0_split -> data_data_0_split_1
I0331 19:44:47.211249 18658 net.cpp:408] data_data_0_split -> data_data_0_split_2
I0331 19:44:47.211257 18658 net.cpp:408] data_data_0_split -> data_data_0_split_3
I0331 19:44:47.211266 18658 net.cpp:408] data_data_0_split -> data_data_0_split_4
I0331 19:44:47.211273 18658 net.cpp:408] data_data_0_split -> data_data_0_split_5
I0331 19:44:47.211282 18658 net.cpp:408] data_data_0_split -> data_data_0_split_6
I0331 19:44:47.211365 18658 net.cpp:150] Setting up data_data_0_split
I0331 19:44:47.211374 18658 net.cpp:157] Top shape: 8 3 512 512 (6291456)
I0331 19:44:47.211380 18658 net.cpp:157] Top shape: 8 3 512 512 (6291456)
I0331 19:44:47.211385 18658 net.cpp:157] Top shape: 8 3 512 512 (6291456)
I0331 19:44:47.211390 18658 net.cpp:157] Top shape: 8 3 512 512 (6291456)
I0331 19:44:47.211416 18658 net.cpp:157] Top shape: 8 3 512 512 (6291456)
I0331 19:44:47.211422 18658 net.cpp:157] Top shape: 8 3 512 512 (6291456)
I0331 19:44:47.211428 18658 net.cpp:157] Top shape: 8 3 512 512 (6291456)
I0331 19:44:47.211433 18658 net.cpp:165] Memory required for data: 201326624
I0331 19:44:47.211438 18658 layer_factory.hpp:77] Creating layer conv1_1
I0331 19:44:47.211460 18658 net.cpp:100] Creating Layer conv1_1
I0331 19:44:47.211467 18658 net.cpp:434] conv1_1 <- data_data_0_split_0
I0331 19:44:47.211477 18658 net.cpp:408] conv1_1 -> conv1_1
I0331 19:44:47.483783 18658 net.cpp:150] Setting up conv1_1
I0331 19:44:47.483824 18658 net.cpp:157] Top shape: 8 64 512 512 (134217728)
I0331 19:44:47.483829 18658 net.cpp:165] Memory required for data: 738197536
I0331 19:44:47.483852 18658 layer_factory.hpp:77] Creating layer relu1_1
I0331 19:44:47.483867 18658 net.cpp:100] Creating Layer relu1_1
I0331 19:44:47.483876 18658 net.cpp:434] relu1_1 <- conv1_1
I0331 19:44:47.483886 18658 net.cpp:395] relu1_1 -> conv1_1 (in-place)
I0331 19:44:47.484205 18658 net.cpp:150] Setting up relu1_1
I0331 19:44:47.484220 18658 net.cpp:157] Top shape: 8 64 512 512 (134217728)
I0331 19:44:47.484225 18658 net.cpp:165] Memory required for data: 1275068448
I0331 19:44:47.484231 18658 layer_factory.hpp:77] Creating layer conv1_2
I0331 19:44:47.484249 18658 net.cpp:100] Creating Layer conv1_2
I0331 19:44:47.484256 18658 net.cpp:434] conv1_2 <- conv1_1
I0331 19:44:47.484266 18658 net.cpp:408] conv1_2 -> conv1_2
I0331 19:44:47.486743 18658 net.cpp:150] Setting up conv1_2
I0331 19:44:47.486763 18658 net.cpp:157] Top shape: 8 64 512 512 (134217728)
I0331 19:44:47.486768 18658 net.cpp:165] Memory required for data: 1811939360
I0331 19:44:47.486780 18658 layer_factory.hpp:77] Creating layer relu1_2
I0331 19:44:47.486793 18658 net.cpp:100] Creating Layer relu1_2
I0331 19:44:47.486801 18658 net.cpp:434] relu1_2 <- conv1_2
I0331 19:44:47.486807 18658 net.cpp:395] relu1_2 -> conv1_2 (in-place)
I0331 19:44:47.486970 18658 net.cpp:150] Setting up relu1_2
I0331 19:44:47.486982 18658 net.cpp:157] Top shape: 8 64 512 512 (134217728)
I0331 19:44:47.486987 18658 net.cpp:165] Memory required for data: 2348810272
I0331 19:44:47.486992 18658 layer_factory.hpp:77] Creating layer pool1
I0331 19:44:47.487002 18658 net.cpp:100] Creating Layer pool1
I0331 19:44:47.487010 18658 net.cpp:434] pool1 <- conv1_2
I0331 19:44:47.487018 18658 net.cpp:408] pool1 -> pool1
I0331 19:44:47.487071 18658 net.cpp:150] Setting up pool1
I0331 19:44:47.487081 18658 net.cpp:157] Top shape: 8 64 256 256 (33554432)
I0331 19:44:47.487084 18658 net.cpp:165] Memory required for data: 2483028000
I0331 19:44:47.487089 18658 layer_factory.hpp:77] Creating layer conv2_1
I0331 19:44:47.487102 18658 net.cpp:100] Creating Layer conv2_1
I0331 19:44:47.487109 18658 net.cpp:434] conv2_1 <- pool1
I0331 19:44:47.487118 18658 net.cpp:408] conv2_1 -> conv2_1
I0331 19:44:47.489153 18658 net.cpp:150] Setting up conv2_1
I0331 19:44:47.489171 18658 net.cpp:157] Top shape: 8 128 256 256 (67108864)
I0331 19:44:47.489176 18658 net.cpp:165] Memory required for data: 2751463456
I0331 19:44:47.489187 18658 layer_factory.hpp:77] Creating layer relu2_1
I0331 19:44:47.489202 18658 net.cpp:100] Creating Layer relu2_1
I0331 19:44:47.489208 18658 net.cpp:434] relu2_1 <- conv2_1
I0331 19:44:47.489215 18658 net.cpp:395] relu2_1 -> conv2_1 (in-place)
I0331 19:44:47.489377 18658 net.cpp:150] Setting up relu2_1
I0331 19:44:47.489388 18658 net.cpp:157] Top shape: 8 128 256 256 (67108864)
I0331 19:44:47.489393 18658 net.cpp:165] Memory required for data: 3019898912
I0331 19:44:47.489398 18658 layer_factory.hpp:77] Creating layer conv2_2
I0331 19:44:47.489414 18658 net.cpp:100] Creating Layer conv2_2
I0331 19:44:47.489421 18658 net.cpp:434] conv2_2 <- conv2_1
I0331 19:44:47.489429 18658 net.cpp:408] conv2_2 -> conv2_2
I0331 19:44:47.491493 18658 net.cpp:150] Setting up conv2_2
I0331 19:44:47.491509 18658 net.cpp:157] Top shape: 8 128 256 256 (67108864)
I0331 19:44:47.491515 18658 net.cpp:165] Memory required for data: 3288334368
I0331 19:44:47.491542 18658 layer_factory.hpp:77] Creating layer relu2_2
I0331 19:44:47.491552 18658 net.cpp:100] Creating Layer relu2_2
I0331 19:44:47.491557 18658 net.cpp:434] relu2_2 <- conv2_2
I0331 19:44:47.491565 18658 net.cpp:395] relu2_2 -> conv2_2 (in-place)
I0331 19:44:47.491904 18658 net.cpp:150] Setting up relu2_2
I0331 19:44:47.491919 18658 net.cpp:157] Top shape: 8 128 256 256 (67108864)
I0331 19:44:47.491925 18658 net.cpp:165] Memory required for data: 3556769824
I0331 19:44:47.491930 18658 layer_factory.hpp:77] Creating layer pool2
I0331 19:44:47.491943 18658 net.cpp:100] Creating Layer pool2
I0331 19:44:47.491950 18658 net.cpp:434] pool2 <- conv2_2
I0331 19:44:47.491957 18658 net.cpp:408] pool2 -> pool2
I0331 19:44:47.492003 18658 net.cpp:150] Setting up pool2
I0331 19:44:47.492012 18658 net.cpp:157] Top shape: 8 128 128 128 (16777216)
I0331 19:44:47.492017 18658 net.cpp:165] Memory required for data: 3623878688
I0331 19:44:47.492022 18658 layer_factory.hpp:77] Creating layer conv3_1
I0331 19:44:47.492036 18658 net.cpp:100] Creating Layer conv3_1
I0331 19:44:47.492044 18658 net.cpp:434] conv3_1 <- pool2
I0331 19:44:47.492053 18658 net.cpp:408] conv3_1 -> conv3_1
I0331 19:44:47.495993 18658 net.cpp:150] Setting up conv3_1
I0331 19:44:47.496011 18658 net.cpp:157] Top shape: 8 256 128 128 (33554432)
I0331 19:44:47.496016 18658 net.cpp:165] Memory required for data: 3758096416
I0331 19:44:47.496027 18658 layer_factory.hpp:77] Creating layer relu3_1
I0331 19:44:47.496038 18658 net.cpp:100] Creating Layer relu3_1
I0331 19:44:47.496047 18658 net.cpp:434] relu3_1 <- conv3_1
I0331 19:44:47.496052 18658 net.cpp:395] relu3_1 -> conv3_1 (in-place)
I0331 19:44:47.496218 18658 net.cpp:150] Setting up relu3_1
I0331 19:44:47.496230 18658 net.cpp:157] Top shape: 8 256 128 128 (33554432)
I0331 19:44:47.496235 18658 net.cpp:165] Memory required for data: 3892314144
I0331 19:44:47.496240 18658 layer_factory.hpp:77] Creating layer conv3_2
I0331 19:44:47.496253 18658 net.cpp:100] Creating Layer conv3_2
I0331 19:44:47.496259 18658 net.cpp:434] conv3_2 <- conv3_1
I0331 19:44:47.496268 18658 net.cpp:408] conv3_2 -> conv3_2
I0331 19:44:47.501989 18658 net.cpp:150] Setting up conv3_2
I0331 19:44:47.502007 18658 net.cpp:157] Top shape: 8 256 128 128 (33554432)
I0331 19:44:47.502013 18658 net.cpp:165] Memory required for data: 4026531872
I0331 19:44:47.502022 18658 layer_factory.hpp:77] Creating layer relu3_2
I0331 19:44:47.502030 18658 net.cpp:100] Creating Layer relu3_2
I0331 19:44:47.502035 18658 net.cpp:434] relu3_2 <- conv3_2
I0331 19:44:47.502041 18658 net.cpp:395] relu3_2 -> conv3_2 (in-place)
I0331 19:44:47.502213 18658 net.cpp:150] Setting up relu3_2
I0331 19:44:47.502224 18658 net.cpp:157] Top shape: 8 256 128 128 (33554432)
I0331 19:44:47.502229 18658 net.cpp:165] Memory required for data: 4160749600
I0331 19:44:47.502234 18658 layer_factory.hpp:77] Creating layer conv3_3
I0331 19:44:47.502249 18658 net.cpp:100] Creating Layer conv3_3
I0331 19:44:47.502256 18658 net.cpp:434] conv3_3 <- conv3_2
I0331 19:44:47.502265 18658 net.cpp:408] conv3_3 -> conv3_3
I0331 19:44:47.508158 18658 net.cpp:150] Setting up conv3_3
I0331 19:44:47.508175 18658 net.cpp:157] Top shape: 8 256 128 128 (33554432)
I0331 19:44:47.508180 18658 net.cpp:165] Memory required for data: 4294967328
I0331 19:44:47.508189 18658 layer_factory.hpp:77] Creating layer relu3_3
I0331 19:44:47.508198 18658 net.cpp:100] Creating Layer relu3_3
I0331 19:44:47.508208 18658 net.cpp:434] relu3_3 <- conv3_3
I0331 19:44:47.508214 18658 net.cpp:395] relu3_3 -> conv3_3 (in-place)
I0331 19:44:47.508502 18658 net.cpp:150] Setting up relu3_3
I0331 19:44:47.508517 18658 net.cpp:157] Top shape: 8 256 128 128 (33554432)
I0331 19:44:47.508522 18658 net.cpp:165] Memory required for data: 4429185056
I0331 19:44:47.508527 18658 layer_factory.hpp:77] Creating layer pool3
I0331 19:44:47.508538 18658 net.cpp:100] Creating Layer pool3
I0331 19:44:47.508543 18658 net.cpp:434] pool3 <- conv3_3
I0331 19:44:47.508551 18658 net.cpp:408] pool3 -> pool3
I0331 19:44:47.508594 18658 net.cpp:150] Setting up pool3
I0331 19:44:47.508615 18658 net.cpp:157] Top shape: 8 256 64 64 (8388608)
I0331 19:44:47.508620 18658 net.cpp:165] Memory required for data: 4462739488
I0331 19:44:47.508625 18658 layer_factory.hpp:77] Creating layer conv4_1
I0331 19:44:47.508636 18658 net.cpp:100] Creating Layer conv4_1
I0331 19:44:47.508644 18658 net.cpp:434] conv4_1 <- pool3
I0331 19:44:47.508652 18658 net.cpp:408] conv4_1 -> conv4_1
I0331 19:44:47.519985 18658 net.cpp:150] Setting up conv4_1
I0331 19:44:47.520010 18658 net.cpp:157] Top shape: 8 512 64 64 (16777216)
I0331 19:44:47.520016 18658 net.cpp:165] Memory required for data: 4529848352
I0331 19:44:47.520025 18658 layer_factory.hpp:77] Creating layer relu4_1
I0331 19:44:47.520035 18658 net.cpp:100] Creating Layer relu4_1
I0331 19:44:47.520042 18658 net.cpp:434] relu4_1 <- conv4_1
I0331 19:44:47.520051 18658 net.cpp:395] relu4_1 -> conv4_1 (in-place)
I0331 19:44:47.520218 18658 net.cpp:150] Setting up relu4_1
I0331 19:44:47.520231 18658 net.cpp:157] Top shape: 8 512 64 64 (16777216)
I0331 19:44:47.520236 18658 net.cpp:165] Memory required for data: 4596957216
I0331 19:44:47.520241 18658 layer_factory.hpp:77] Creating layer conv4_2
I0331 19:44:47.520254 18658 net.cpp:100] Creating Layer conv4_2
I0331 19:44:47.520262 18658 net.cpp:434] conv4_2 <- conv4_1
I0331 19:44:47.520272 18658 net.cpp:408] conv4_2 -> conv4_2
I0331 19:44:47.540506 18658 net.cpp:150] Setting up conv4_2
I0331 19:44:47.540551 18658 net.cpp:157] Top shape: 8 512 64 64 (16777216)
I0331 19:44:47.540557 18658 net.cpp:165] Memory required for data: 4664066080
I0331 19:44:47.540577 18658 layer_factory.hpp:77] Creating layer relu4_2
I0331 19:44:47.540592 18658 net.cpp:100] Creating Layer relu4_2
I0331 19:44:47.540601 18658 net.cpp:434] relu4_2 <- conv4_2
I0331 19:44:47.540611 18658 net.cpp:395] relu4_2 -> conv4_2 (in-place)
I0331 19:44:47.540789 18658 net.cpp:150] Setting up relu4_2
I0331 19:44:47.540802 18658 net.cpp:157] Top shape: 8 512 64 64 (16777216)
I0331 19:44:47.540807 18658 net.cpp:165] Memory required for data: 4731174944
I0331 19:44:47.540812 18658 layer_factory.hpp:77] Creating layer conv4_3
I0331 19:44:47.540827 18658 net.cpp:100] Creating Layer conv4_3
I0331 19:44:47.540833 18658 net.cpp:434] conv4_3 <- conv4_2
I0331 19:44:47.540843 18658 net.cpp:408] conv4_3 -> conv4_3
I0331 19:44:47.561992 18658 net.cpp:150] Setting up conv4_3
I0331 19:44:47.562036 18658 net.cpp:157] Top shape: 8 512 64 64 (16777216)
I0331 19:44:47.562041 18658 net.cpp:165] Memory required for data: 4798283808
I0331 19:44:47.562052 18658 layer_factory.hpp:77] Creating layer relu4_3
I0331 19:44:47.562065 18658 net.cpp:100] Creating Layer relu4_3
I0331 19:44:47.562074 18658 net.cpp:434] relu4_3 <- conv4_3
I0331 19:44:47.562085 18658 net.cpp:395] relu4_3 -> conv4_3 (in-place)
I0331 19:44:47.562386 18658 net.cpp:150] Setting up relu4_3
I0331 19:44:47.562399 18658 net.cpp:157] Top shape: 8 512 64 64 (16777216)
I0331 19:44:47.562404 18658 net.cpp:165] Memory required for data: 4865392672
I0331 19:44:47.562410 18658 layer_factory.hpp:77] Creating layer conv4_3_relu4_3_0_split
I0331 19:44:47.562419 18658 net.cpp:100] Creating Layer conv4_3_relu4_3_0_split
I0331 19:44:47.562427 18658 net.cpp:434] conv4_3_relu4_3_0_split <- conv4_3
I0331 19:44:47.562435 18658 net.cpp:408] conv4_3_relu4_3_0_split -> conv4_3_relu4_3_0_split_0
I0331 19:44:47.562446 18658 net.cpp:408] conv4_3_relu4_3_0_split -> conv4_3_relu4_3_0_split_1
I0331 19:44:47.562491 18658 net.cpp:150] Setting up conv4_3_relu4_3_0_split
I0331 19:44:47.562500 18658 net.cpp:157] Top shape: 8 512 64 64 (16777216)
I0331 19:44:47.562505 18658 net.cpp:157] Top shape: 8 512 64 64 (16777216)
I0331 19:44:47.562510 18658 net.cpp:165] Memory required for data: 4999610400
I0331 19:44:47.562515 18658 layer_factory.hpp:77] Creating layer pool4
I0331 19:44:47.562525 18658 net.cpp:100] Creating Layer pool4
I0331 19:44:47.562531 18658 net.cpp:434] pool4 <- conv4_3_relu4_3_0_split_0
I0331 19:44:47.562541 18658 net.cpp:408] pool4 -> pool4
I0331 19:44:47.562579 18658 net.cpp:150] Setting up pool4
I0331 19:44:47.562603 18658 net.cpp:157] Top shape: 8 512 32 32 (4194304)
I0331 19:44:47.562609 18658 net.cpp:165] Memory required for data: 5016387616
I0331 19:44:47.562613 18658 layer_factory.hpp:77] Creating layer conv5_1
I0331 19:44:47.562628 18658 net.cpp:100] Creating Layer conv5_1
I0331 19:44:47.562636 18658 net.cpp:434] conv5_1 <- pool4
I0331 19:44:47.562646 18658 net.cpp:408] conv5_1 -> conv5_1
I0331 19:44:47.583108 18658 net.cpp:150] Setting up conv5_1
I0331 19:44:47.583140 18658 net.cpp:157] Top shape: 8 512 32 32 (4194304)
I0331 19:44:47.583147 18658 net.cpp:165] Memory required for data: 5033164832
I0331 19:44:47.583158 18658 layer_factory.hpp:77] Creating layer relu5_1
I0331 19:44:47.583173 18658 net.cpp:100] Creating Layer relu5_1
I0331 19:44:47.583183 18658 net.cpp:434] relu5_1 <- conv5_1
I0331 19:44:47.583190 18658 net.cpp:395] relu5_1 -> conv5_1 (in-place)
I0331 19:44:47.583367 18658 net.cpp:150] Setting up relu5_1
I0331 19:44:47.583379 18658 net.cpp:157] Top shape: 8 512 32 32 (4194304)
I0331 19:44:47.583384 18658 net.cpp:165] Memory required for data: 5049942048
I0331 19:44:47.583389 18658 layer_factory.hpp:77] Creating layer conv5_2
I0331 19:44:47.583405 18658 net.cpp:100] Creating Layer conv5_2
I0331 19:44:47.583412 18658 net.cpp:434] conv5_2 <- conv5_1
I0331 19:44:47.583421 18658 net.cpp:408] conv5_2 -> conv5_2
I0331 19:44:47.604403 18658 net.cpp:150] Setting up conv5_2
I0331 19:44:47.604446 18658 net.cpp:157] Top shape: 8 512 32 32 (4194304)
I0331 19:44:47.604451 18658 net.cpp:165] Memory required for data: 5066719264
I0331 19:44:47.604462 18658 layer_factory.hpp:77] Creating layer relu5_2
I0331 19:44:47.604477 18658 net.cpp:100] Creating Layer relu5_2
I0331 19:44:47.604486 18658 net.cpp:434] relu5_2 <- conv5_2
I0331 19:44:47.604496 18658 net.cpp:395] relu5_2 -> conv5_2 (in-place)
I0331 19:44:47.604663 18658 net.cpp:150] Setting up relu5_2
I0331 19:44:47.604676 18658 net.cpp:157] Top shape: 8 512 32 32 (4194304)
I0331 19:44:47.604681 18658 net.cpp:165] Memory required for data: 5083496480
I0331 19:44:47.604686 18658 layer_factory.hpp:77] Creating layer conv5_3
I0331 19:44:47.604701 18658 net.cpp:100] Creating Layer conv5_3
I0331 19:44:47.604708 18658 net.cpp:434] conv5_3 <- conv5_2
I0331 19:44:47.604715 18658 net.cpp:408] conv5_3 -> conv5_3
I0331 19:44:47.625087 18658 net.cpp:150] Setting up conv5_3
I0331 19:44:47.625133 18658 net.cpp:157] Top shape: 8 512 32 32 (4194304)
I0331 19:44:47.625138 18658 net.cpp:165] Memory required for data: 5100273696
I0331 19:44:47.625149 18658 layer_factory.hpp:77] Creating layer relu5_3
I0331 19:44:47.625177 18658 net.cpp:100] Creating Layer relu5_3
I0331 19:44:47.625190 18658 net.cpp:434] relu5_3 <- conv5_3
I0331 19:44:47.625200 18658 net.cpp:395] relu5_3 -> conv5_3 (in-place)
I0331 19:44:47.625499 18658 net.cpp:150] Setting up relu5_3
I0331 19:44:47.625514 18658 net.cpp:157] Top shape: 8 512 32 32 (4194304)
I0331 19:44:47.625519 18658 net.cpp:165] Memory required for data: 5117050912
I0331 19:44:47.625525 18658 layer_factory.hpp:77] Creating layer pool5
I0331 19:44:47.625535 18658 net.cpp:100] Creating Layer pool5
I0331 19:44:47.625541 18658 net.cpp:434] pool5 <- conv5_3
I0331 19:44:47.625550 18658 net.cpp:408] pool5 -> pool5
I0331 19:44:47.625600 18658 net.cpp:150] Setting up pool5
I0331 19:44:47.625609 18658 net.cpp:157] Top shape: 8 512 32 32 (4194304)
I0331 19:44:47.625614 18658 net.cpp:165] Memory required for data: 5133828128
I0331 19:44:47.625619 18658 layer_factory.hpp:77] Creating layer fc6
I0331 19:44:47.625635 18658 net.cpp:100] Creating Layer fc6
I0331 19:44:47.625643 18658 net.cpp:434] fc6 <- pool5
I0331 19:44:47.625649 18658 net.cpp:408] fc6 -> fc6
I0331 19:44:47.664697 18658 net.cpp:150] Setting up fc6
I0331 19:44:47.664731 18658 net.cpp:157] Top shape: 8 1024 32 32 (8388608)
I0331 19:44:47.664736 18658 net.cpp:165] Memory required for data: 5167382560
I0331 19:44:47.664747 18658 layer_factory.hpp:77] Creating layer relu6
I0331 19:44:47.664759 18658 net.cpp:100] Creating Layer relu6
I0331 19:44:47.664767 18658 net.cpp:434] relu6 <- fc6
I0331 19:44:47.664778 18658 net.cpp:395] relu6 -> fc6 (in-place)
I0331 19:44:47.665042 18658 net.cpp:150] Setting up relu6
I0331 19:44:47.665055 18658 net.cpp:157] Top shape: 8 1024 32 32 (8388608)
I0331 19:44:47.665060 18658 net.cpp:165] Memory required for data: 5200936992
I0331 19:44:47.665066 18658 layer_factory.hpp:77] Creating layer fc7
I0331 19:44:47.665081 18658 net.cpp:100] Creating Layer fc7
I0331 19:44:47.665088 18658 net.cpp:434] fc7 <- fc6
I0331 19:44:47.665098 18658 net.cpp:408] fc7 -> fc7
I0331 19:44:47.674527 18658 net.cpp:150] Setting up fc7
I0331 19:44:47.674546 18658 net.cpp:157] Top shape: 8 1024 32 32 (8388608)
I0331 19:44:47.674551 18658 net.cpp:165] Memory required for data: 5234491424
I0331 19:44:47.674561 18658 layer_factory.hpp:77] Creating layer relu7
I0331 19:44:47.674568 18658 net.cpp:100] Creating Layer relu7
I0331 19:44:47.674576 18658 net.cpp:434] relu7 <- fc7
I0331 19:44:47.674582 18658 net.cpp:395] relu7 -> fc7 (in-place)
I0331 19:44:47.674885 18658 net.cpp:150] Setting up relu7
I0331 19:44:47.674899 18658 net.cpp:157] Top shape: 8 1024 32 32 (8388608)
I0331 19:44:47.674904 18658 net.cpp:165] Memory required for data: 5268045856
I0331 19:44:47.674908 18658 layer_factory.hpp:77] Creating layer fc7_relu7_0_split
I0331 19:44:47.674917 18658 net.cpp:100] Creating Layer fc7_relu7_0_split
I0331 19:44:47.674924 18658 net.cpp:434] fc7_relu7_0_split <- fc7
I0331 19:44:47.674932 18658 net.cpp:408] fc7_relu7_0_split -> fc7_relu7_0_split_0
I0331 19:44:47.674942 18658 net.cpp:408] fc7_relu7_0_split -> fc7_relu7_0_split_1
I0331 19:44:47.674958 18658 net.cpp:408] fc7_relu7_0_split -> fc7_relu7_0_split_2
I0331 19:44:47.674968 18658 net.cpp:408] fc7_relu7_0_split -> fc7_relu7_0_split_3
I0331 19:44:47.674974 18658 net.cpp:408] fc7_relu7_0_split -> fc7_relu7_0_split_4
I0331 19:44:47.675055 18658 net.cpp:150] Setting up fc7_relu7_0_split
I0331 19:44:47.675063 18658 net.cpp:157] Top shape: 8 1024 32 32 (8388608)
I0331 19:44:47.675070 18658 net.cpp:157] Top shape: 8 1024 32 32 (8388608)
I0331 19:44:47.675074 18658 net.cpp:157] Top shape: 8 1024 32 32 (8388608)
I0331 19:44:47.675079 18658 net.cpp:157] Top shape: 8 1024 32 32 (8388608)
I0331 19:44:47.675084 18658 net.cpp:157] Top shape: 8 1024 32 32 (8388608)
I0331 19:44:47.675088 18658 net.cpp:165] Memory required for data: 5435818016
I0331 19:44:47.675096 18658 layer_factory.hpp:77] Creating layer conv6_1
I0331 19:44:47.675107 18658 net.cpp:100] Creating Layer conv6_1
I0331 19:44:47.675117 18658 net.cpp:434] conv6_1 <- fc7_relu7_0_split_0
I0331 19:44:47.675125 18658 net.cpp:408] conv6_1 -> conv6_1
I0331 19:44:47.678297 18658 net.cpp:150] Setting up conv6_1
I0331 19:44:47.678313 18658 net.cpp:157] Top shape: 8 256 32 32 (2097152)
I0331 19:44:47.678318 18658 net.cpp:165] Memory required for data: 5444206624
I0331 19:44:47.678325 18658 layer_factory.hpp:77] Creating layer conv6_1_relu
I0331 19:44:47.678338 18658 net.cpp:100] Creating Layer conv6_1_relu
I0331 19:44:47.678344 18658 net.cpp:434] conv6_1_relu <- conv6_1
I0331 19:44:47.678350 18658 net.cpp:395] conv6_1_relu -> conv6_1 (in-place)
I0331 19:44:47.678649 18658 net.cpp:150] Setting up conv6_1_relu
I0331 19:44:47.678665 18658 net.cpp:157] Top shape: 8 256 32 32 (2097152)
I0331 19:44:47.678670 18658 net.cpp:165] Memory required for data: 5452595232
I0331 19:44:47.678678 18658 layer_factory.hpp:77] Creating layer conv6_2
I0331 19:44:47.678689 18658 net.cpp:100] Creating Layer conv6_2
I0331 19:44:47.678697 18658 net.cpp:434] conv6_2 <- conv6_1
I0331 19:44:47.678707 18658 net.cpp:408] conv6_2 -> conv6_2
I0331 19:44:47.689625 18658 net.cpp:150] Setting up conv6_2
I0331 19:44:47.689671 18658 net.cpp:157] Top shape: 8 512 16 16 (1048576)
I0331 19:44:47.689677 18658 net.cpp:165] Memory required for data: 5456789536
I0331 19:44:47.689698 18658 layer_factory.hpp:77] Creating layer conv6_2_relu
I0331 19:44:47.689714 18658 net.cpp:100] Creating Layer conv6_2_relu
I0331 19:44:47.689724 18658 net.cpp:434] conv6_2_relu <- conv6_2
I0331 19:44:47.689733 18658 net.cpp:395] conv6_2_relu -> conv6_2 (in-place)
I0331 19:44:47.689909 18658 net.cpp:150] Setting up conv6_2_relu
I0331 19:44:47.689939 18658 net.cpp:157] Top shape: 8 512 16 16 (1048576)
I0331 19:44:47.689944 18658 net.cpp:165] Memory required for data: 5460983840
I0331 19:44:47.689949 18658 layer_factory.hpp:77] Creating layer conv6_2_conv6_2_relu_0_split
I0331 19:44:47.689957 18658 net.cpp:100] Creating Layer conv6_2_conv6_2_relu_0_split
I0331 19:44:47.689965 18658 net.cpp:434] conv6_2_conv6_2_relu_0_split <- conv6_2
I0331 19:44:47.689972 18658 net.cpp:408] conv6_2_conv6_2_relu_0_split -> conv6_2_conv6_2_relu_0_split_0
I0331 19:44:47.689983 18658 net.cpp:408] conv6_2_conv6_2_relu_0_split -> conv6_2_conv6_2_relu_0_split_1
I0331 19:44:47.689992 18658 net.cpp:408] conv6_2_conv6_2_relu_0_split -> conv6_2_conv6_2_relu_0_split_2
I0331 19:44:47.689999 18658 net.cpp:408] conv6_2_conv6_2_relu_0_split -> conv6_2_conv6_2_relu_0_split_3
I0331 19:44:47.690008 18658 net.cpp:408] conv6_2_conv6_2_relu_0_split -> conv6_2_conv6_2_relu_0_split_4
I0331 19:44:47.690084 18658 net.cpp:150] Setting up conv6_2_conv6_2_relu_0_split
I0331 19:44:47.690094 18658 net.cpp:157] Top shape: 8 512 16 16 (1048576)
I0331 19:44:47.690099 18658 net.cpp:157] Top shape: 8 512 16 16 (1048576)
I0331 19:44:47.690104 18658 net.cpp:157] Top shape: 8 512 16 16 (1048576)
I0331 19:44:47.690109 18658 net.cpp:157] Top shape: 8 512 16 16 (1048576)
I0331 19:44:47.690115 18658 net.cpp:157] Top shape: 8 512 16 16 (1048576)
I0331 19:44:47.690119 18658 net.cpp:165] Memory required for data: 5481955360
I0331 19:44:47.690124 18658 layer_factory.hpp:77] Creating layer conv7_1
I0331 19:44:47.690141 18658 net.cpp:100] Creating Layer conv7_1
I0331 19:44:47.690148 18658 net.cpp:434] conv7_1 <- conv6_2_conv6_2_relu_0_split_0
I0331 19:44:47.690156 18658 net.cpp:408] conv7_1 -> conv7_1
I0331 19:44:47.691853 18658 net.cpp:150] Setting up conv7_1
I0331 19:44:47.691870 18658 net.cpp:157] Top shape: 8 128 16 16 (262144)
I0331 19:44:47.691876 18658 net.cpp:165] Memory required for data: 5483003936
I0331 19:44:47.691885 18658 layer_factory.hpp:77] Creating layer conv7_1_relu
I0331 19:44:47.691895 18658 net.cpp:100] Creating Layer conv7_1_relu
I0331 19:44:47.691903 18658 net.cpp:434] conv7_1_relu <- conv7_1
I0331 19:44:47.691912 18658 net.cpp:395] conv7_1_relu -> conv7_1 (in-place)
I0331 19:44:47.692230 18658 net.cpp:150] Setting up conv7_1_relu
I0331 19:44:47.692256 18658 net.cpp:157] Top shape: 8 128 16 16 (262144)
I0331 19:44:47.692263 18658 net.cpp:165] Memory required for data: 5484052512
I0331 19:44:47.692270 18658 layer_factory.hpp:77] Creating layer conv7_2
I0331 19:44:47.692282 18658 net.cpp:100] Creating Layer conv7_2
I0331 19:44:47.692291 18658 net.cpp:434] conv7_2 <- conv7_1
I0331 19:44:47.692299 18658 net.cpp:408] conv7_2 -> conv7_2
I0331 19:44:47.695883 18658 net.cpp:150] Setting up conv7_2
I0331 19:44:47.695900 18658 net.cpp:157] Top shape: 8 256 8 8 (131072)
I0331 19:44:47.695905 18658 net.cpp:165] Memory required for data: 5484576800
I0331 19:44:47.695914 18658 layer_factory.hpp:77] Creating layer conv7_2_relu
I0331 19:44:47.695922 18658 net.cpp:100] Creating Layer conv7_2_relu
I0331 19:44:47.695930 18658 net.cpp:434] conv7_2_relu <- conv7_2
I0331 19:44:47.695935 18658 net.cpp:395] conv7_2_relu -> conv7_2 (in-place)
I0331 19:44:47.696233 18658 net.cpp:150] Setting up conv7_2_relu
I0331 19:44:47.696247 18658 net.cpp:157] Top shape: 8 256 8 8 (131072)
I0331 19:44:47.696254 18658 net.cpp:165] Memory required for data: 5485101088
I0331 19:44:47.696259 18658 layer_factory.hpp:77] Creating layer conv7_2_conv7_2_relu_0_split
I0331 19:44:47.696267 18658 net.cpp:100] Creating Layer conv7_2_conv7_2_relu_0_split
I0331 19:44:47.696274 18658 net.cpp:434] conv7_2_conv7_2_relu_0_split <- conv7_2
I0331 19:44:47.696281 18658 net.cpp:408] conv7_2_conv7_2_relu_0_split -> conv7_2_conv7_2_relu_0_split_0
I0331 19:44:47.696291 18658 net.cpp:408] conv7_2_conv7_2_relu_0_split -> conv7_2_conv7_2_relu_0_split_1
I0331 19:44:47.696301 18658 net.cpp:408] conv7_2_conv7_2_relu_0_split -> conv7_2_conv7_2_relu_0_split_2
I0331 19:44:47.696308 18658 net.cpp:408] conv7_2_conv7_2_relu_0_split -> conv7_2_conv7_2_relu_0_split_3
I0331 19:44:47.696327 18658 net.cpp:408] conv7_2_conv7_2_relu_0_split -> conv7_2_conv7_2_relu_0_split_4
I0331 19:44:47.696410 18658 net.cpp:150] Setting up conv7_2_conv7_2_relu_0_split
I0331 19:44:47.696419 18658 net.cpp:157] Top shape: 8 256 8 8 (131072)
I0331 19:44:47.696424 18658 net.cpp:157] Top shape: 8 256 8 8 (131072)
I0331 19:44:47.696429 18658 net.cpp:157] Top shape: 8 256 8 8 (131072)
I0331 19:44:47.696434 18658 net.cpp:157] Top shape: 8 256 8 8 (131072)
I0331 19:44:47.696440 18658 net.cpp:157] Top shape: 8 256 8 8 (131072)
I0331 19:44:47.696444 18658 net.cpp:165] Memory required for data: 5487722528
I0331 19:44:47.696449 18658 layer_factory.hpp:77] Creating layer conv8_1
I0331 19:44:47.696465 18658 net.cpp:100] Creating Layer conv8_1
I0331 19:44:47.696471 18658 net.cpp:434] conv8_1 <- conv7_2_conv7_2_relu_0_split_0
I0331 19:44:47.696480 18658 net.cpp:408] conv8_1 -> conv8_1
I0331 19:44:47.698175 18658 net.cpp:150] Setting up conv8_1
I0331 19:44:47.698191 18658 net.cpp:157] Top shape: 8 128 8 8 (65536)
I0331 19:44:47.698196 18658 net.cpp:165] Memory required for data: 5487984672
I0331 19:44:47.698204 18658 layer_factory.hpp:77] Creating layer conv8_1_relu
I0331 19:44:47.698215 18658 net.cpp:100] Creating Layer conv8_1_relu
I0331 19:44:47.698220 18658 net.cpp:434] conv8_1_relu <- conv8_1
I0331 19:44:47.698228 18658 net.cpp:395] conv8_1_relu -> conv8_1 (in-place)
I0331 19:44:47.698391 18658 net.cpp:150] Setting up conv8_1_relu
I0331 19:44:47.698403 18658 net.cpp:157] Top shape: 8 128 8 8 (65536)
I0331 19:44:47.698408 18658 net.cpp:165] Memory required for data: 5488246816
I0331 19:44:47.698413 18658 layer_factory.hpp:77] Creating layer conv8_2
I0331 19:44:47.698427 18658 net.cpp:100] Creating Layer conv8_2
I0331 19:44:47.698434 18658 net.cpp:434] conv8_2 <- conv8_1
I0331 19:44:47.698443 18658 net.cpp:408] conv8_2 -> conv8_2
I0331 19:44:47.702226 18658 net.cpp:150] Setting up conv8_2
I0331 19:44:47.702242 18658 net.cpp:157] Top shape: 8 256 6 6 (73728)
I0331 19:44:47.702247 18658 net.cpp:165] Memory required for data: 5488541728
I0331 19:44:47.702255 18658 layer_factory.hpp:77] Creating layer conv8_2_relu
I0331 19:44:47.702265 18658 net.cpp:100] Creating Layer conv8_2_relu
I0331 19:44:47.702271 18658 net.cpp:434] conv8_2_relu <- conv8_2
I0331 19:44:47.702277 18658 net.cpp:395] conv8_2_relu -> conv8_2 (in-place)
I0331 19:44:47.702572 18658 net.cpp:150] Setting up conv8_2_relu
I0331 19:44:47.702586 18658 net.cpp:157] Top shape: 8 256 6 6 (73728)
I0331 19:44:47.702591 18658 net.cpp:165] Memory required for data: 5488836640
I0331 19:44:47.702596 18658 layer_factory.hpp:77] Creating layer conv8_2_conv8_2_relu_0_split
I0331 19:44:47.702606 18658 net.cpp:100] Creating Layer conv8_2_conv8_2_relu_0_split
I0331 19:44:47.702615 18658 net.cpp:434] conv8_2_conv8_2_relu_0_split <- conv8_2
I0331 19:44:47.702621 18658 net.cpp:408] conv8_2_conv8_2_relu_0_split -> conv8_2_conv8_2_relu_0_split_0
I0331 19:44:47.702633 18658 net.cpp:408] conv8_2_conv8_2_relu_0_split -> conv8_2_conv8_2_relu_0_split_1
I0331 19:44:47.702641 18658 net.cpp:408] conv8_2_conv8_2_relu_0_split -> conv8_2_conv8_2_relu_0_split_2
I0331 19:44:47.702649 18658 net.cpp:408] conv8_2_conv8_2_relu_0_split -> conv8_2_conv8_2_relu_0_split_3
I0331 19:44:47.702657 18658 net.cpp:408] conv8_2_conv8_2_relu_0_split -> conv8_2_conv8_2_relu_0_split_4
I0331 19:44:47.702739 18658 net.cpp:150] Setting up conv8_2_conv8_2_relu_0_split
I0331 19:44:47.702747 18658 net.cpp:157] Top shape: 8 256 6 6 (73728)
I0331 19:44:47.702752 18658 net.cpp:157] Top shape: 8 256 6 6 (73728)
I0331 19:44:47.702757 18658 net.cpp:157] Top shape: 8 256 6 6 (73728)
I0331 19:44:47.702764 18658 net.cpp:157] Top shape: 8 256 6 6 (73728)
I0331 19:44:47.702769 18658 net.cpp:157] Top shape: 8 256 6 6 (73728)
I0331 19:44:47.702772 18658 net.cpp:165] Memory required for data: 5490311200
I0331 19:44:47.702776 18658 layer_factory.hpp:77] Creating layer conv9_1
I0331 19:44:47.702792 18658 net.cpp:100] Creating Layer conv9_1
I0331 19:44:47.702798 18658 net.cpp:434] conv9_1 <- conv8_2_conv8_2_relu_0_split_0
I0331 19:44:47.702818 18658 net.cpp:408] conv9_1 -> conv9_1
I0331 19:44:47.703913 18658 net.cpp:150] Setting up conv9_1
I0331 19:44:47.703928 18658 net.cpp:157] Top shape: 8 128 6 6 (36864)
I0331 19:44:47.703934 18658 net.cpp:165] Memory required for data: 5490458656
I0331 19:44:47.703941 18658 layer_factory.hpp:77] Creating layer conv9_1_relu
I0331 19:44:47.703953 18658 net.cpp:100] Creating Layer conv9_1_relu
I0331 19:44:47.703959 18658 net.cpp:434] conv9_1_relu <- conv9_1
I0331 19:44:47.703965 18658 net.cpp:395] conv9_1_relu -> conv9_1 (in-place)
I0331 19:44:47.704260 18658 net.cpp:150] Setting up conv9_1_relu
I0331 19:44:47.704274 18658 net.cpp:157] Top shape: 8 128 6 6 (36864)
I0331 19:44:47.704279 18658 net.cpp:165] Memory required for data: 5490606112
I0331 19:44:47.704285 18658 layer_factory.hpp:77] Creating layer conv9_2
I0331 19:44:47.704299 18658 net.cpp:100] Creating Layer conv9_2
I0331 19:44:47.704308 18658 net.cpp:434] conv9_2 <- conv9_1
I0331 19:44:47.704314 18658 net.cpp:408] conv9_2 -> conv9_2
I0331 19:44:47.707762 18658 net.cpp:150] Setting up conv9_2
I0331 19:44:47.707779 18658 net.cpp:157] Top shape: 8 256 4 4 (32768)
I0331 19:44:47.707784 18658 net.cpp:165] Memory required for data: 5490737184
I0331 19:44:47.707792 18658 layer_factory.hpp:77] Creating layer conv9_2_relu
I0331 19:44:47.707800 18658 net.cpp:100] Creating Layer conv9_2_relu
I0331 19:44:47.707808 18658 net.cpp:434] conv9_2_relu <- conv9_2
I0331 19:44:47.707815 18658 net.cpp:395] conv9_2_relu -> conv9_2 (in-place)
I0331 19:44:47.708102 18658 net.cpp:150] Setting up conv9_2_relu
I0331 19:44:47.708117 18658 net.cpp:157] Top shape: 8 256 4 4 (32768)
I0331 19:44:47.708122 18658 net.cpp:165] Memory required for data: 5490868256
I0331 19:44:47.708127 18658 layer_factory.hpp:77] Creating layer conv9_2_conv9_2_relu_0_split
I0331 19:44:47.708134 18658 net.cpp:100] Creating Layer conv9_2_conv9_2_relu_0_split
I0331 19:44:47.708142 18658 net.cpp:434] conv9_2_conv9_2_relu_0_split <- conv9_2
I0331 19:44:47.708150 18658 net.cpp:408] conv9_2_conv9_2_relu_0_split -> conv9_2_conv9_2_relu_0_split_0
I0331 19:44:47.708160 18658 net.cpp:408] conv9_2_conv9_2_relu_0_split -> conv9_2_conv9_2_relu_0_split_1
I0331 19:44:47.708168 18658 net.cpp:408] conv9_2_conv9_2_relu_0_split -> conv9_2_conv9_2_relu_0_split_2
I0331 19:44:47.708175 18658 net.cpp:408] conv9_2_conv9_2_relu_0_split -> conv9_2_conv9_2_relu_0_split_3
I0331 19:44:47.708246 18658 net.cpp:150] Setting up conv9_2_conv9_2_relu_0_split
I0331 19:44:47.708256 18658 net.cpp:157] Top shape: 8 256 4 4 (32768)
I0331 19:44:47.708261 18658 net.cpp:157] Top shape: 8 256 4 4 (32768)
I0331 19:44:47.708266 18658 net.cpp:157] Top shape: 8 256 4 4 (32768)
I0331 19:44:47.708271 18658 net.cpp:157] Top shape: 8 256 4 4 (32768)
I0331 19:44:47.708276 18658 net.cpp:165] Memory required for data: 5491392544
I0331 19:44:47.708279 18658 layer_factory.hpp:77] Creating layer conv4_3_norm
I0331 19:44:47.708292 18658 net.cpp:100] Creating Layer conv4_3_norm
I0331 19:44:47.708298 18658 net.cpp:434] conv4_3_norm <- conv4_3_relu4_3_0_split_1
I0331 19:44:47.708307 18658 net.cpp:408] conv4_3_norm -> conv4_3_norm
I0331 19:44:47.708458 18658 net.cpp:150] Setting up conv4_3_norm
I0331 19:44:47.708467 18658 net.cpp:157] Top shape: 8 512 64 64 (16777216)
I0331 19:44:47.708472 18658 net.cpp:165] Memory required for data: 5558501408
I0331 19:44:47.708478 18658 layer_factory.hpp:77] Creating layer conv4_3_norm_conv4_3_norm_0_split
I0331 19:44:47.708487 18658 net.cpp:100] Creating Layer conv4_3_norm_conv4_3_norm_0_split
I0331 19:44:47.708493 18658 net.cpp:434] conv4_3_norm_conv4_3_norm_0_split <- conv4_3_norm
I0331 19:44:47.708500 18658 net.cpp:408] conv4_3_norm_conv4_3_norm_0_split -> conv4_3_norm_conv4_3_norm_0_split_0
I0331 19:44:47.708516 18658 net.cpp:408] conv4_3_norm_conv4_3_norm_0_split -> conv4_3_norm_conv4_3_norm_0_split_1
I0331 19:44:47.708525 18658 net.cpp:408] conv4_3_norm_conv4_3_norm_0_split -> conv4_3_norm_conv4_3_norm_0_split_2
I0331 19:44:47.708533 18658 net.cpp:408] conv4_3_norm_conv4_3_norm_0_split -> conv4_3_norm_conv4_3_norm_0_split_3
I0331 19:44:47.708606 18658 net.cpp:150] Setting up conv4_3_norm_conv4_3_norm_0_split
I0331 19:44:47.708616 18658 net.cpp:157] Top shape: 8 512 64 64 (16777216)
I0331 19:44:47.708622 18658 net.cpp:157] Top shape: 8 512 64 64 (16777216)
I0331 19:44:47.708627 18658 net.cpp:157] Top shape: 8 512 64 64 (16777216)
I0331 19:44:47.708632 18658 net.cpp:157] Top shape: 8 512 64 64 (16777216)
I0331 19:44:47.708636 18658 net.cpp:165] Memory required for data: 5826936864
I0331 19:44:47.708640 18658 layer_factory.hpp:77] Creating layer conv4_3_norm_mbox_loc
I0331 19:44:47.708654 18658 net.cpp:100] Creating Layer conv4_3_norm_mbox_loc
I0331 19:44:47.708662 18658 net.cpp:434] conv4_3_norm_mbox_loc <- conv4_3_norm_conv4_3_norm_0_split_0
I0331 19:44:47.708672 18658 net.cpp:408] conv4_3_norm_mbox_loc -> conv4_3_norm_mbox_loc
I0331 19:44:47.712929 18658 net.cpp:150] Setting up conv4_3_norm_mbox_loc
I0331 19:44:47.713008 18658 net.cpp:157] Top shape: 8 16 64 64 (524288)
I0331 19:44:47.713024 18658 net.cpp:165] Memory required for data: 5829034016
I0331 19:44:47.713047 18658 layer_factory.hpp:77] Creating layer conv4_3_norm_mbox_loc_perm
I0331 19:44:47.713109 18658 net.cpp:100] Creating Layer conv4_3_norm_mbox_loc_perm
I0331 19:44:47.713129 18658 net.cpp:434] conv4_3_norm_mbox_loc_perm <- conv4_3_norm_mbox_loc
I0331 19:44:47.713173 18658 net.cpp:408] conv4_3_norm_mbox_loc_perm -> conv4_3_norm_mbox_loc_perm
I0331 19:44:47.713398 18658 net.cpp:150] Setting up conv4_3_norm_mbox_loc_perm
I0331 19:44:47.713414 18658 net.cpp:157] Top shape: 8 64 64 16 (524288)
I0331 19:44:47.713420 18658 net.cpp:165] Memory required for data: 5831131168
I0331 19:44:47.713426 18658 layer_factory.hpp:77] Creating layer conv4_3_norm_mbox_loc_flat
I0331 19:44:47.713451 18658 net.cpp:100] Creating Layer conv4_3_norm_mbox_loc_flat
I0331 19:44:47.713469 18658 net.cpp:434] conv4_3_norm_mbox_loc_flat <- conv4_3_norm_mbox_loc_perm
I0331 19:44:47.713487 18658 net.cpp:408] conv4_3_norm_mbox_loc_flat -> conv4_3_norm_mbox_loc_flat
I0331 19:44:47.713539 18658 net.cpp:150] Setting up conv4_3_norm_mbox_loc_flat
I0331 19:44:47.713551 18658 net.cpp:157] Top shape: 8 65536 (524288)
I0331 19:44:47.713557 18658 net.cpp:165] Memory required for data: 5833228320
I0331 19:44:47.713565 18658 layer_factory.hpp:77] Creating layer conv4_3_norm_mbox_conf
I0331 19:44:47.713596 18658 net.cpp:100] Creating Layer conv4_3_norm_mbox_conf
I0331 19:44:47.713606 18658 net.cpp:434] conv4_3_norm_mbox_conf <- conv4_3_norm_conv4_3_norm_0_split_1
I0331 19:44:47.713623 18658 net.cpp:408] conv4_3_norm_mbox_conf -> conv4_3_norm_mbox_conf
I0331 19:44:47.715505 18658 net.cpp:150] Setting up conv4_3_norm_mbox_conf
I0331 19:44:47.715526 18658 net.cpp:157] Top shape: 8 8 64 64 (262144)
I0331 19:44:47.715534 18658 net.cpp:165] Memory required for data: 5834276896
I0331 19:44:47.715548 18658 layer_factory.hpp:77] Creating layer conv4_3_norm_mbox_conf_perm
I0331 19:44:47.715564 18658 net.cpp:100] Creating Layer conv4_3_norm_mbox_conf_perm
I0331 19:44:47.715574 18658 net.cpp:434] conv4_3_norm_mbox_conf_perm <- conv4_3_norm_mbox_conf
I0331 19:44:47.715605 18658 net.cpp:408] conv4_3_norm_mbox_conf_perm -> conv4_3_norm_mbox_conf_perm
I0331 19:44:47.715762 18658 net.cpp:150] Setting up conv4_3_norm_mbox_conf_perm
I0331 19:44:47.715775 18658 net.cpp:157] Top shape: 8 64 64 8 (262144)
I0331 19:44:47.715782 18658 net.cpp:165] Memory required for data: 5835325472
I0331 19:44:47.715792 18658 layer_factory.hpp:77] Creating layer conv4_3_norm_mbox_conf_flat
I0331 19:44:47.715804 18658 net.cpp:100] Creating Layer conv4_3_norm_mbox_conf_flat
I0331 19:44:47.715813 18658 net.cpp:434] conv4_3_norm_mbox_conf_flat <- conv4_3_norm_mbox_conf_perm
I0331 19:44:47.715823 18658 net.cpp:408] conv4_3_norm_mbox_conf_flat -> conv4_3_norm_mbox_conf_flat
I0331 19:44:47.715862 18658 net.cpp:150] Setting up conv4_3_norm_mbox_conf_flat
I0331 19:44:47.715873 18658 net.cpp:157] Top shape: 8 32768 (262144)
I0331 19:44:47.715878 18658 net.cpp:165] Memory required for data: 5836374048
I0331 19:44:47.715885 18658 layer_factory.hpp:77] Creating layer conv4_3_norm_mbox_clean
I0331 19:44:47.715922 18658 net.cpp:100] Creating Layer conv4_3_norm_mbox_clean
I0331 19:44:47.715932 18658 net.cpp:434] conv4_3_norm_mbox_clean <- conv4_3_norm_conv4_3_norm_0_split_2
I0331 19:44:47.715945 18658 net.cpp:408] conv4_3_norm_mbox_clean -> conv4_3_norm_mbox_clean
I0331 19:44:47.717649 18658 net.cpp:150] Setting up conv4_3_norm_mbox_clean
I0331 19:44:47.717670 18658 net.cpp:157] Top shape: 8 4 64 64 (131072)
I0331 19:44:47.717680 18658 net.cpp:165] Memory required for data: 5836898336
I0331 19:44:47.717694 18658 layer_factory.hpp:77] Creating layer conv4_3_norm_mbox_clean_perm
I0331 19:44:47.717708 18658 net.cpp:100] Creating Layer conv4_3_norm_mbox_clean_perm
I0331 19:44:47.717717 18658 net.cpp:434] conv4_3_norm_mbox_clean_perm <- conv4_3_norm_mbox_clean
I0331 19:44:47.717728 18658 net.cpp:408] conv4_3_norm_mbox_clean_perm -> conv4_3_norm_mbox_clean_perm
I0331 19:44:47.717886 18658 net.cpp:150] Setting up conv4_3_norm_mbox_clean_perm
I0331 19:44:47.717900 18658 net.cpp:157] Top shape: 8 64 64 4 (131072)
I0331 19:44:47.717908 18658 net.cpp:165] Memory required for data: 5837422624
I0331 19:44:47.717916 18658 layer_factory.hpp:77] Creating layer conv4_3_norm_mbox_clean_flat
I0331 19:44:47.717928 18658 net.cpp:100] Creating Layer conv4_3_norm_mbox_clean_flat
I0331 19:44:47.717938 18658 net.cpp:434] conv4_3_norm_mbox_clean_flat <- conv4_3_norm_mbox_clean_perm
I0331 19:44:47.717947 18658 net.cpp:408] conv4_3_norm_mbox_clean_flat -> conv4_3_norm_mbox_clean_flat
I0331 19:44:47.717984 18658 net.cpp:150] Setting up conv4_3_norm_mbox_clean_flat
I0331 19:44:47.717995 18658 net.cpp:157] Top shape: 8 16384 (131072)
I0331 19:44:47.718000 18658 net.cpp:165] Memory required for data: 5837946912
I0331 19:44:47.718008 18658 layer_factory.hpp:77] Creating layer conv4_3_norm_mbox_priorbox
I0331 19:44:47.718020 18658 net.cpp:100] Creating Layer conv4_3_norm_mbox_priorbox
I0331 19:44:47.718029 18658 net.cpp:434] conv4_3_norm_mbox_priorbox <- conv4_3_norm_conv4_3_norm_0_split_3
I0331 19:44:47.718039 18658 net.cpp:434] conv4_3_norm_mbox_priorbox <- data_data_0_split_1
I0331 19:44:47.718055 18658 net.cpp:408] conv4_3_norm_mbox_priorbox -> conv4_3_norm_mbox_priorbox
I0331 19:44:47.718103 18658 net.cpp:150] Setting up conv4_3_norm_mbox_priorbox
I0331 19:44:47.718116 18658 net.cpp:157] Top shape: 1 2 65536 (131072)
I0331 19:44:47.718122 18658 net.cpp:165] Memory required for data: 5838471200
I0331 19:44:47.718127 18658 layer_factory.hpp:77] Creating layer fc7_mbox_loc
I0331 19:44:47.718145 18658 net.cpp:100] Creating Layer fc7_mbox_loc
I0331 19:44:47.718156 18658 net.cpp:434] fc7_mbox_loc <- fc7_relu7_0_split_1
I0331 19:44:47.718171 18658 net.cpp:408] fc7_mbox_loc -> fc7_mbox_loc
I0331 19:44:47.722203 18658 net.cpp:150] Setting up fc7_mbox_loc
I0331 19:44:47.722224 18658 net.cpp:157] Top shape: 8 24 32 32 (196608)
I0331 19:44:47.722234 18658 net.cpp:165] Memory required for data: 5839257632
I0331 19:44:47.722245 18658 layer_factory.hpp:77] Creating layer fc7_mbox_loc_perm
I0331 19:44:47.722260 18658 net.cpp:100] Creating Layer fc7_mbox_loc_perm
I0331 19:44:47.722271 18658 net.cpp:434] fc7_mbox_loc_perm <- fc7_mbox_loc
I0331 19:44:47.722283 18658 net.cpp:408] fc7_mbox_loc_perm -> fc7_mbox_loc_perm
I0331 19:44:47.722436 18658 net.cpp:150] Setting up fc7_mbox_loc_perm
I0331 19:44:47.722450 18658 net.cpp:157] Top shape: 8 32 32 24 (196608)
I0331 19:44:47.722455 18658 net.cpp:165] Memory required for data: 5840044064
I0331 19:44:47.722462 18658 layer_factory.hpp:77] Creating layer fc7_mbox_loc_flat
I0331 19:44:47.722473 18658 net.cpp:100] Creating Layer fc7_mbox_loc_flat
I0331 19:44:47.722481 18658 net.cpp:434] fc7_mbox_loc_flat <- fc7_mbox_loc_perm
I0331 19:44:47.722493 18658 net.cpp:408] fc7_mbox_loc_flat -> fc7_mbox_loc_flat
I0331 19:44:47.722532 18658 net.cpp:150] Setting up fc7_mbox_loc_flat
I0331 19:44:47.722543 18658 net.cpp:157] Top shape: 8 24576 (196608)
I0331 19:44:47.722551 18658 net.cpp:165] Memory required for data: 5840830496
I0331 19:44:47.722558 18658 layer_factory.hpp:77] Creating layer fc7_mbox_conf
I0331 19:44:47.722587 18658 net.cpp:100] Creating Layer fc7_mbox_conf
I0331 19:44:47.722599 18658 net.cpp:434] fc7_mbox_conf <- fc7_relu7_0_split_2
I0331 19:44:47.722614 18658 net.cpp:408] fc7_mbox_conf -> fc7_mbox_conf
I0331 19:44:47.725060 18658 net.cpp:150] Setting up fc7_mbox_conf
I0331 19:44:47.725077 18658 net.cpp:157] Top shape: 8 12 32 32 (98304)
I0331 19:44:47.725085 18658 net.cpp:165] Memory required for data: 5841223712
I0331 19:44:47.725098 18658 layer_factory.hpp:77] Creating layer fc7_mbox_conf_perm
I0331 19:44:47.725111 18658 net.cpp:100] Creating Layer fc7_mbox_conf_perm
I0331 19:44:47.725119 18658 net.cpp:434] fc7_mbox_conf_perm <- fc7_mbox_conf
I0331 19:44:47.725131 18658 net.cpp:408] fc7_mbox_conf_perm -> fc7_mbox_conf_perm
I0331 19:44:47.725265 18658 net.cpp:150] Setting up fc7_mbox_conf_perm
I0331 19:44:47.725277 18658 net.cpp:157] Top shape: 8 32 32 12 (98304)
I0331 19:44:47.725283 18658 net.cpp:165] Memory required for data: 5841616928
I0331 19:44:47.725289 18658 layer_factory.hpp:77] Creating layer fc7_mbox_conf_flat
I0331 19:44:47.725301 18658 net.cpp:100] Creating Layer fc7_mbox_conf_flat
I0331 19:44:47.725308 18658 net.cpp:434] fc7_mbox_conf_flat <- fc7_mbox_conf_perm
I0331 19:44:47.725317 18658 net.cpp:408] fc7_mbox_conf_flat -> fc7_mbox_conf_flat
I0331 19:44:47.725353 18658 net.cpp:150] Setting up fc7_mbox_conf_flat
I0331 19:44:47.725363 18658 net.cpp:157] Top shape: 8 12288 (98304)
I0331 19:44:47.725369 18658 net.cpp:165] Memory required for data: 5842010144
I0331 19:44:47.725376 18658 layer_factory.hpp:77] Creating layer fc7_mbox_clean
I0331 19:44:47.725391 18658 net.cpp:100] Creating Layer fc7_mbox_clean
I0331 19:44:47.725401 18658 net.cpp:434] fc7_mbox_clean <- fc7_relu7_0_split_3
I0331 19:44:47.725414 18658 net.cpp:408] fc7_mbox_clean -> fc7_mbox_clean
I0331 19:44:47.727233 18658 net.cpp:150] Setting up fc7_mbox_clean
I0331 19:44:47.727250 18658 net.cpp:157] Top shape: 8 6 32 32 (49152)
I0331 19:44:47.727257 18658 net.cpp:165] Memory required for data: 5842206752
I0331 19:44:47.727269 18658 layer_factory.hpp:77] Creating layer fc7_mbox_clean_perm
I0331 19:44:47.727282 18658 net.cpp:100] Creating Layer fc7_mbox_clean_perm
I0331 19:44:47.727290 18658 net.cpp:434] fc7_mbox_clean_perm <- fc7_mbox_clean
I0331 19:44:47.727303 18658 net.cpp:408] fc7_mbox_clean_perm -> fc7_mbox_clean_perm
I0331 19:44:47.727442 18658 net.cpp:150] Setting up fc7_mbox_clean_perm
I0331 19:44:47.727452 18658 net.cpp:157] Top shape: 8 32 32 6 (49152)
I0331 19:44:47.727458 18658 net.cpp:165] Memory required for data: 5842403360
I0331 19:44:47.727464 18658 layer_factory.hpp:77] Creating layer fc7_mbox_clean_flat
I0331 19:44:47.727475 18658 net.cpp:100] Creating Layer fc7_mbox_clean_flat
I0331 19:44:47.727486 18658 net.cpp:434] fc7_mbox_clean_flat <- fc7_mbox_clean_perm
I0331 19:44:47.727497 18658 net.cpp:408] fc7_mbox_clean_flat -> fc7_mbox_clean_flat
I0331 19:44:47.727531 18658 net.cpp:150] Setting up fc7_mbox_clean_flat
I0331 19:44:47.727541 18658 net.cpp:157] Top shape: 8 6144 (49152)
I0331 19:44:47.727546 18658 net.cpp:165] Memory required for data: 5842599968
I0331 19:44:47.727555 18658 layer_factory.hpp:77] Creating layer fc7_mbox_priorbox
I0331 19:44:47.727567 18658 net.cpp:100] Creating Layer fc7_mbox_priorbox
I0331 19:44:47.727599 18658 net.cpp:434] fc7_mbox_priorbox <- fc7_relu7_0_split_4
I0331 19:44:47.727617 18658 net.cpp:434] fc7_mbox_priorbox <- data_data_0_split_2
I0331 19:44:47.727628 18658 net.cpp:408] fc7_mbox_priorbox -> fc7_mbox_priorbox
I0331 19:44:47.727671 18658 net.cpp:150] Setting up fc7_mbox_priorbox
I0331 19:44:47.727681 18658 net.cpp:157] Top shape: 1 2 24576 (49152)
I0331 19:44:47.727689 18658 net.cpp:165] Memory required for data: 5842796576
I0331 19:44:47.727695 18658 layer_factory.hpp:77] Creating layer conv6_2_mbox_loc
I0331 19:44:47.727710 18658 net.cpp:100] Creating Layer conv6_2_mbox_loc
I0331 19:44:47.727720 18658 net.cpp:434] conv6_2_mbox_loc <- conv6_2_conv6_2_relu_0_split_1
I0331 19:44:47.727730 18658 net.cpp:408] conv6_2_mbox_loc -> conv6_2_mbox_loc
I0331 19:44:47.730581 18658 net.cpp:150] Setting up conv6_2_mbox_loc
I0331 19:44:47.730599 18658 net.cpp:157] Top shape: 8 24 16 16 (49152)
I0331 19:44:47.730607 18658 net.cpp:165] Memory required for data: 5842993184
I0331 19:44:47.730617 18658 layer_factory.hpp:77] Creating layer conv6_2_mbox_loc_perm
I0331 19:44:47.730633 18658 net.cpp:100] Creating Layer conv6_2_mbox_loc_perm
I0331 19:44:47.730643 18658 net.cpp:434] conv6_2_mbox_loc_perm <- conv6_2_mbox_loc
I0331 19:44:47.730653 18658 net.cpp:408] conv6_2_mbox_loc_perm -> conv6_2_mbox_loc_perm
I0331 19:44:47.730788 18658 net.cpp:150] Setting up conv6_2_mbox_loc_perm
I0331 19:44:47.730801 18658 net.cpp:157] Top shape: 8 16 16 24 (49152)
I0331 19:44:47.730808 18658 net.cpp:165] Memory required for data: 5843189792
I0331 19:44:47.730816 18658 layer_factory.hpp:77] Creating layer conv6_2_mbox_loc_flat
I0331 19:44:47.730826 18658 net.cpp:100] Creating Layer conv6_2_mbox_loc_flat
I0331 19:44:47.730834 18658 net.cpp:434] conv6_2_mbox_loc_flat <- conv6_2_mbox_loc_perm
I0331 19:44:47.730844 18658 net.cpp:408] conv6_2_mbox_loc_flat -> conv6_2_mbox_loc_flat
I0331 19:44:47.730877 18658 net.cpp:150] Setting up conv6_2_mbox_loc_flat
I0331 19:44:47.730888 18658 net.cpp:157] Top shape: 8 6144 (49152)
I0331 19:44:47.730895 18658 net.cpp:165] Memory required for data: 5843386400
I0331 19:44:47.730901 18658 layer_factory.hpp:77] Creating layer conv6_2_mbox_conf
I0331 19:44:47.730921 18658 net.cpp:100] Creating Layer conv6_2_mbox_conf
I0331 19:44:47.730929 18658 net.cpp:434] conv6_2_mbox_conf <- conv6_2_conv6_2_relu_0_split_2
I0331 19:44:47.730940 18658 net.cpp:408] conv6_2_mbox_conf -> conv6_2_mbox_conf
I0331 19:44:47.732818 18658 net.cpp:150] Setting up conv6_2_mbox_conf
I0331 19:44:47.732838 18658 net.cpp:157] Top shape: 8 12 16 16 (24576)
I0331 19:44:47.732846 18658 net.cpp:165] Memory required for data: 5843484704
I0331 19:44:47.732856 18658 layer_factory.hpp:77] Creating layer conv6_2_mbox_conf_perm
I0331 19:44:47.732870 18658 net.cpp:100] Creating Layer conv6_2_mbox_conf_perm
I0331 19:44:47.732880 18658 net.cpp:434] conv6_2_mbox_conf_perm <- conv6_2_mbox_conf
I0331 19:44:47.732889 18658 net.cpp:408] conv6_2_mbox_conf_perm -> conv6_2_mbox_conf_perm
I0331 19:44:47.733031 18658 net.cpp:150] Setting up conv6_2_mbox_conf_perm
I0331 19:44:47.733041 18658 net.cpp:157] Top shape: 8 16 16 12 (24576)
I0331 19:44:47.733047 18658 net.cpp:165] Memory required for data: 5843583008
I0331 19:44:47.733055 18658 layer_factory.hpp:77] Creating layer conv6_2_mbox_conf_flat
I0331 19:44:47.733063 18658 net.cpp:100] Creating Layer conv6_2_mbox_conf_flat
I0331 19:44:47.733073 18658 net.cpp:434] conv6_2_mbox_conf_flat <- conv6_2_mbox_conf_perm
I0331 19:44:47.733084 18658 net.cpp:408] conv6_2_mbox_conf_flat -> conv6_2_mbox_conf_flat
I0331 19:44:47.733121 18658 net.cpp:150] Setting up conv6_2_mbox_conf_flat
I0331 19:44:47.733131 18658 net.cpp:157] Top shape: 8 3072 (24576)
I0331 19:44:47.733137 18658 net.cpp:165] Memory required for data: 5843681312
I0331 19:44:47.733145 18658 layer_factory.hpp:77] Creating layer conv6_2_mbox_clean
I0331 19:44:47.733161 18658 net.cpp:100] Creating Layer conv6_2_mbox_clean
I0331 19:44:47.733170 18658 net.cpp:434] conv6_2_mbox_clean <- conv6_2_conv6_2_relu_0_split_3
I0331 19:44:47.733182 18658 net.cpp:408] conv6_2_mbox_clean -> conv6_2_mbox_clean
I0331 19:44:47.734714 18658 net.cpp:150] Setting up conv6_2_mbox_clean
I0331 19:44:47.734732 18658 net.cpp:157] Top shape: 8 6 16 16 (12288)
I0331 19:44:47.734740 18658 net.cpp:165] Memory required for data: 5843730464
I0331 19:44:47.734766 18658 layer_factory.hpp:77] Creating layer conv6_2_mbox_clean_perm
I0331 19:44:47.734782 18658 net.cpp:100] Creating Layer conv6_2_mbox_clean_perm
I0331 19:44:47.734789 18658 net.cpp:434] conv6_2_mbox_clean_perm <- conv6_2_mbox_clean
I0331 19:44:47.734802 18658 net.cpp:408] conv6_2_mbox_clean_perm -> conv6_2_mbox_clean_perm
I0331 19:44:47.734941 18658 net.cpp:150] Setting up conv6_2_mbox_clean_perm
I0331 19:44:47.734952 18658 net.cpp:157] Top shape: 8 16 16 6 (12288)
I0331 19:44:47.734958 18658 net.cpp:165] Memory required for data: 5843779616
I0331 19:44:47.734977 18658 layer_factory.hpp:77] Creating layer conv6_2_mbox_clean_flat
I0331 19:44:47.734988 18658 net.cpp:100] Creating Layer conv6_2_mbox_clean_flat
I0331 19:44:47.734995 18658 net.cpp:434] conv6_2_mbox_clean_flat <- conv6_2_mbox_clean_perm
I0331 19:44:47.735007 18658 net.cpp:408] conv6_2_mbox_clean_flat -> conv6_2_mbox_clean_flat
I0331 19:44:47.735040 18658 net.cpp:150] Setting up conv6_2_mbox_clean_flat
I0331 19:44:47.735050 18658 net.cpp:157] Top shape: 8 1536 (12288)
I0331 19:44:47.735055 18658 net.cpp:165] Memory required for data: 5843828768
I0331 19:44:47.735061 18658 layer_factory.hpp:77] Creating layer conv6_2_mbox_priorbox
I0331 19:44:47.735074 18658 net.cpp:100] Creating Layer conv6_2_mbox_priorbox
I0331 19:44:47.735082 18658 net.cpp:434] conv6_2_mbox_priorbox <- conv6_2_conv6_2_relu_0_split_4
I0331 19:44:47.735090 18658 net.cpp:434] conv6_2_mbox_priorbox <- data_data_0_split_3
I0331 19:44:47.735103 18658 net.cpp:408] conv6_2_mbox_priorbox -> conv6_2_mbox_priorbox
I0331 19:44:47.735138 18658 net.cpp:150] Setting up conv6_2_mbox_priorbox
I0331 19:44:47.735148 18658 net.cpp:157] Top shape: 1 2 6144 (12288)
I0331 19:44:47.735153 18658 net.cpp:165] Memory required for data: 5843877920
I0331 19:44:47.735158 18658 layer_factory.hpp:77] Creating layer conv7_2_mbox_loc
I0331 19:44:47.735175 18658 net.cpp:100] Creating Layer conv7_2_mbox_loc
I0331 19:44:47.735183 18658 net.cpp:434] conv7_2_mbox_loc <- conv7_2_conv7_2_relu_0_split_1
I0331 19:44:47.735193 18658 net.cpp:408] conv7_2_mbox_loc -> conv7_2_mbox_loc
I0331 19:44:47.737702 18658 net.cpp:150] Setting up conv7_2_mbox_loc
I0331 19:44:47.737721 18658 net.cpp:157] Top shape: 8 24 8 8 (12288)
I0331 19:44:47.737727 18658 net.cpp:165] Memory required for data: 5843927072
I0331 19:44:47.737737 18658 layer_factory.hpp:77] Creating layer conv7_2_mbox_loc_perm
I0331 19:44:47.737749 18658 net.cpp:100] Creating Layer conv7_2_mbox_loc_perm
I0331 19:44:47.737757 18658 net.cpp:434] conv7_2_mbox_loc_perm <- conv7_2_mbox_loc
I0331 19:44:47.737767 18658 net.cpp:408] conv7_2_mbox_loc_perm -> conv7_2_mbox_loc_perm
I0331 19:44:47.737910 18658 net.cpp:150] Setting up conv7_2_mbox_loc_perm
I0331 19:44:47.737922 18658 net.cpp:157] Top shape: 8 8 8 24 (12288)
I0331 19:44:47.737928 18658 net.cpp:165] Memory required for data: 5843976224
I0331 19:44:47.737933 18658 layer_factory.hpp:77] Creating layer conv7_2_mbox_loc_flat
I0331 19:44:47.737943 18658 net.cpp:100] Creating Layer conv7_2_mbox_loc_flat
I0331 19:44:47.737951 18658 net.cpp:434] conv7_2_mbox_loc_flat <- conv7_2_mbox_loc_perm
I0331 19:44:47.737959 18658 net.cpp:408] conv7_2_mbox_loc_flat -> conv7_2_mbox_loc_flat
I0331 19:44:47.737994 18658 net.cpp:150] Setting up conv7_2_mbox_loc_flat
I0331 19:44:47.738003 18658 net.cpp:157] Top shape: 8 1536 (12288)
I0331 19:44:47.738009 18658 net.cpp:165] Memory required for data: 5844025376
I0331 19:44:47.738015 18658 layer_factory.hpp:77] Creating layer conv7_2_mbox_conf
I0331 19:44:47.738029 18658 net.cpp:100] Creating Layer conv7_2_mbox_conf
I0331 19:44:47.738039 18658 net.cpp:434] conv7_2_mbox_conf <- conv7_2_conv7_2_relu_0_split_2
I0331 19:44:47.738049 18658 net.cpp:408] conv7_2_mbox_conf -> conv7_2_mbox_conf
I0331 19:44:47.739799 18658 net.cpp:150] Setting up conv7_2_mbox_conf
I0331 19:44:47.739816 18658 net.cpp:157] Top shape: 8 12 8 8 (6144)
I0331 19:44:47.739822 18658 net.cpp:165] Memory required for data: 5844049952
I0331 19:44:47.739832 18658 layer_factory.hpp:77] Creating layer conv7_2_mbox_conf_perm
I0331 19:44:47.739845 18658 net.cpp:100] Creating Layer conv7_2_mbox_conf_perm
I0331 19:44:47.739855 18658 net.cpp:434] conv7_2_mbox_conf_perm <- conv7_2_mbox_conf
I0331 19:44:47.739864 18658 net.cpp:408] conv7_2_mbox_conf_perm -> conv7_2_mbox_conf_perm
I0331 19:44:47.740008 18658 net.cpp:150] Setting up conv7_2_mbox_conf_perm
I0331 19:44:47.740020 18658 net.cpp:157] Top shape: 8 8 8 12 (6144)
I0331 19:44:47.740025 18658 net.cpp:165] Memory required for data: 5844074528
I0331 19:44:47.740031 18658 layer_factory.hpp:77] Creating layer conv7_2_mbox_conf_flat
I0331 19:44:47.740052 18658 net.cpp:100] Creating Layer conv7_2_mbox_conf_flat
I0331 19:44:47.740059 18658 net.cpp:434] conv7_2_mbox_conf_flat <- conv7_2_mbox_conf_perm
I0331 19:44:47.740068 18658 net.cpp:408] conv7_2_mbox_conf_flat -> conv7_2_mbox_conf_flat
I0331 19:44:47.740105 18658 net.cpp:150] Setting up conv7_2_mbox_conf_flat
I0331 19:44:47.740115 18658 net.cpp:157] Top shape: 8 768 (6144)
I0331 19:44:47.740121 18658 net.cpp:165] Memory required for data: 5844099104
I0331 19:44:47.740128 18658 layer_factory.hpp:77] Creating layer conv7_2_mbox_clean
I0331 19:44:47.740144 18658 net.cpp:100] Creating Layer conv7_2_mbox_clean
I0331 19:44:47.740151 18658 net.cpp:434] conv7_2_mbox_clean <- conv7_2_conv7_2_relu_0_split_3
I0331 19:44:47.740162 18658 net.cpp:408] conv7_2_mbox_clean -> conv7_2_mbox_clean
I0331 19:44:47.741680 18658 net.cpp:150] Setting up conv7_2_mbox_clean
I0331 19:44:47.741698 18658 net.cpp:157] Top shape: 8 6 8 8 (3072)
I0331 19:44:47.741703 18658 net.cpp:165] Memory required for data: 5844111392
I0331 19:44:47.741714 18658 layer_factory.hpp:77] Creating layer conv7_2_mbox_clean_perm
I0331 19:44:47.741726 18658 net.cpp:100] Creating Layer conv7_2_mbox_clean_perm
I0331 19:44:47.741736 18658 net.cpp:434] conv7_2_mbox_clean_perm <- conv7_2_mbox_clean
I0331 19:44:47.741746 18658 net.cpp:408] conv7_2_mbox_clean_perm -> conv7_2_mbox_clean_perm
I0331 19:44:47.741896 18658 net.cpp:150] Setting up conv7_2_mbox_clean_perm
I0331 19:44:47.741907 18658 net.cpp:157] Top shape: 8 8 8 6 (3072)
I0331 19:44:47.741912 18658 net.cpp:165] Memory required for data: 5844123680
I0331 19:44:47.741919 18658 layer_factory.hpp:77] Creating layer conv7_2_mbox_clean_flat
I0331 19:44:47.741936 18658 net.cpp:100] Creating Layer conv7_2_mbox_clean_flat
I0331 19:44:47.741945 18658 net.cpp:434] conv7_2_mbox_clean_flat <- conv7_2_mbox_clean_perm
I0331 19:44:47.741956 18658 net.cpp:408] conv7_2_mbox_clean_flat -> conv7_2_mbox_clean_flat
I0331 19:44:47.742004 18658 net.cpp:150] Setting up conv7_2_mbox_clean_flat
I0331 19:44:47.742019 18658 net.cpp:157] Top shape: 8 384 (3072)
I0331 19:44:47.742027 18658 net.cpp:165] Memory required for data: 5844135968
I0331 19:44:47.742035 18658 layer_factory.hpp:77] Creating layer conv7_2_mbox_priorbox
I0331 19:44:47.742049 18658 net.cpp:100] Creating Layer conv7_2_mbox_priorbox
I0331 19:44:47.742060 18658 net.cpp:434] conv7_2_mbox_priorbox <- conv7_2_conv7_2_relu_0_split_4
I0331 19:44:47.742071 18658 net.cpp:434] conv7_2_mbox_priorbox <- data_data_0_split_4
I0331 19:44:47.742084 18658 net.cpp:408] conv7_2_mbox_priorbox -> conv7_2_mbox_priorbox
I0331 19:44:47.742139 18658 net.cpp:150] Setting up conv7_2_mbox_priorbox
I0331 19:44:47.742154 18658 net.cpp:157] Top shape: 1 2 1536 (3072)
I0331 19:44:47.742162 18658 net.cpp:165] Memory required for data: 5844148256
I0331 19:44:47.742174 18658 layer_factory.hpp:77] Creating layer conv8_2_mbox_loc
I0331 19:44:47.742195 18658 net.cpp:100] Creating Layer conv8_2_mbox_loc
I0331 19:44:47.742208 18658 net.cpp:434] conv8_2_mbox_loc <- conv8_2_conv8_2_relu_0_split_1
I0331 19:44:47.742228 18658 net.cpp:408] conv8_2_mbox_loc -> conv8_2_mbox_loc
I0331 19:44:47.743942 18658 net.cpp:150] Setting up conv8_2_mbox_loc
I0331 19:44:47.743959 18658 net.cpp:157] Top shape: 8 16 6 6 (4608)
I0331 19:44:47.743965 18658 net.cpp:165] Memory required for data: 5844166688
I0331 19:44:47.743976 18658 layer_factory.hpp:77] Creating layer conv8_2_mbox_loc_perm
I0331 19:44:47.743989 18658 net.cpp:100] Creating Layer conv8_2_mbox_loc_perm
I0331 19:44:47.743999 18658 net.cpp:434] conv8_2_mbox_loc_perm <- conv8_2_mbox_loc
I0331 19:44:47.744006 18658 net.cpp:408] conv8_2_mbox_loc_perm -> conv8_2_mbox_loc_perm
I0331 19:44:47.744156 18658 net.cpp:150] Setting up conv8_2_mbox_loc_perm
I0331 19:44:47.744168 18658 net.cpp:157] Top shape: 8 6 6 16 (4608)
I0331 19:44:47.744173 18658 net.cpp:165] Memory required for data: 5844185120
I0331 19:44:47.744179 18658 layer_factory.hpp:77] Creating layer conv8_2_mbox_loc_flat
I0331 19:44:47.744186 18658 net.cpp:100] Creating Layer conv8_2_mbox_loc_flat
I0331 19:44:47.744206 18658 net.cpp:434] conv8_2_mbox_loc_flat <- conv8_2_mbox_loc_perm
I0331 19:44:47.744216 18658 net.cpp:408] conv8_2_mbox_loc_flat -> conv8_2_mbox_loc_flat
I0331 19:44:47.744252 18658 net.cpp:150] Setting up conv8_2_mbox_loc_flat
I0331 19:44:47.744262 18658 net.cpp:157] Top shape: 8 576 (4608)
I0331 19:44:47.744268 18658 net.cpp:165] Memory required for data: 5844203552
I0331 19:44:47.744277 18658 layer_factory.hpp:77] Creating layer conv8_2_mbox_conf
I0331 19:44:47.744293 18658 net.cpp:100] Creating Layer conv8_2_mbox_conf
I0331 19:44:47.744302 18658 net.cpp:434] conv8_2_mbox_conf <- conv8_2_conv8_2_relu_0_split_2
I0331 19:44:47.744310 18658 net.cpp:408] conv8_2_mbox_conf -> conv8_2_mbox_conf
I0331 19:44:47.745723 18658 net.cpp:150] Setting up conv8_2_mbox_conf
I0331 19:44:47.745740 18658 net.cpp:157] Top shape: 8 8 6 6 (2304)
I0331 19:44:47.745745 18658 net.cpp:165] Memory required for data: 5844212768
I0331 19:44:47.745755 18658 layer_factory.hpp:77] Creating layer conv8_2_mbox_conf_perm
I0331 19:44:47.745770 18658 net.cpp:100] Creating Layer conv8_2_mbox_conf_perm
I0331 19:44:47.745776 18658 net.cpp:434] conv8_2_mbox_conf_perm <- conv8_2_mbox_conf
I0331 19:44:47.745785 18658 net.cpp:408] conv8_2_mbox_conf_perm -> conv8_2_mbox_conf_perm
I0331 19:44:47.745973 18658 net.cpp:150] Setting up conv8_2_mbox_conf_perm
I0331 19:44:47.745990 18658 net.cpp:157] Top shape: 8 6 6 8 (2304)
I0331 19:44:47.745996 18658 net.cpp:165] Memory required for data: 5844221984
I0331 19:44:47.746006 18658 layer_factory.hpp:77] Creating layer conv8_2_mbox_conf_flat
I0331 19:44:47.746018 18658 net.cpp:100] Creating Layer conv8_2_mbox_conf_flat
I0331 19:44:47.746028 18658 net.cpp:434] conv8_2_mbox_conf_flat <- conv8_2_mbox_conf_perm
I0331 19:44:47.746038 18658 net.cpp:408] conv8_2_mbox_conf_flat -> conv8_2_mbox_conf_flat
I0331 19:44:47.746088 18658 net.cpp:150] Setting up conv8_2_mbox_conf_flat
I0331 19:44:47.746100 18658 net.cpp:157] Top shape: 8 288 (2304)
I0331 19:44:47.746111 18658 net.cpp:165] Memory required for data: 5844231200
I0331 19:44:47.746120 18658 layer_factory.hpp:77] Creating layer conv8_2_mbox_clean
I0331 19:44:47.746141 18658 net.cpp:100] Creating Layer conv8_2_mbox_clean
I0331 19:44:47.746152 18658 net.cpp:434] conv8_2_mbox_clean <- conv8_2_conv8_2_relu_0_split_3
I0331 19:44:47.746166 18658 net.cpp:408] conv8_2_mbox_clean -> conv8_2_mbox_clean
I0331 19:44:47.747689 18658 net.cpp:150] Setting up conv8_2_mbox_clean
I0331 19:44:47.747707 18658 net.cpp:157] Top shape: 8 4 6 6 (1152)
I0331 19:44:47.747714 18658 net.cpp:165] Memory required for data: 5844235808
I0331 19:44:47.747725 18658 layer_factory.hpp:77] Creating layer conv8_2_mbox_clean_perm
I0331 19:44:47.747737 18658 net.cpp:100] Creating Layer conv8_2_mbox_clean_perm
I0331 19:44:47.747745 18658 net.cpp:434] conv8_2_mbox_clean_perm <- conv8_2_mbox_clean
I0331 19:44:47.747759 18658 net.cpp:408] conv8_2_mbox_clean_perm -> conv8_2_mbox_clean_perm
I0331 19:44:47.747922 18658 net.cpp:150] Setting up conv8_2_mbox_clean_perm
I0331 19:44:47.747939 18658 net.cpp:157] Top shape: 8 6 6 4 (1152)
I0331 19:44:47.747947 18658 net.cpp:165] Memory required for data: 5844240416
I0331 19:44:47.747957 18658 layer_factory.hpp:77] Creating layer conv8_2_mbox_clean_flat
I0331 19:44:47.747967 18658 net.cpp:100] Creating Layer conv8_2_mbox_clean_flat
I0331 19:44:47.747978 18658 net.cpp:434] conv8_2_mbox_clean_flat <- conv8_2_mbox_clean_perm
I0331 19:44:47.747988 18658 net.cpp:408] conv8_2_mbox_clean_flat -> conv8_2_mbox_clean_flat
I0331 19:44:47.748040 18658 net.cpp:150] Setting up conv8_2_mbox_clean_flat
I0331 19:44:47.748064 18658 net.cpp:157] Top shape: 8 144 (1152)
I0331 19:44:47.748070 18658 net.cpp:165] Memory required for data: 5844245024
I0331 19:44:47.748078 18658 layer_factory.hpp:77] Creating layer conv8_2_mbox_priorbox
I0331 19:44:47.748092 18658 net.cpp:100] Creating Layer conv8_2_mbox_priorbox
I0331 19:44:47.748100 18658 net.cpp:434] conv8_2_mbox_priorbox <- conv8_2_conv8_2_relu_0_split_4
I0331 19:44:47.748107 18658 net.cpp:434] conv8_2_mbox_priorbox <- data_data_0_split_5
I0331 19:44:47.748128 18658 net.cpp:408] conv8_2_mbox_priorbox -> conv8_2_mbox_priorbox
I0331 19:44:47.748172 18658 net.cpp:150] Setting up conv8_2_mbox_priorbox
I0331 19:44:47.748183 18658 net.cpp:157] Top shape: 1 2 576 (1152)
I0331 19:44:47.748188 18658 net.cpp:165] Memory required for data: 5844249632
I0331 19:44:47.748195 18658 layer_factory.hpp:77] Creating layer conv9_2_mbox_loc
I0331 19:44:47.748209 18658 net.cpp:100] Creating Layer conv9_2_mbox_loc
I0331 19:44:47.748217 18658 net.cpp:434] conv9_2_mbox_loc <- conv9_2_conv9_2_relu_0_split_0
I0331 19:44:47.748229 18658 net.cpp:408] conv9_2_mbox_loc -> conv9_2_mbox_loc
I0331 19:44:47.749917 18658 net.cpp:150] Setting up conv9_2_mbox_loc
I0331 19:44:47.749935 18658 net.cpp:157] Top shape: 8 16 4 4 (2048)
I0331 19:44:47.749940 18658 net.cpp:165] Memory required for data: 5844257824
I0331 19:44:47.749950 18658 layer_factory.hpp:77] Creating layer conv9_2_mbox_loc_perm
I0331 19:44:47.749963 18658 net.cpp:100] Creating Layer conv9_2_mbox_loc_perm
I0331 19:44:47.749969 18658 net.cpp:434] conv9_2_mbox_loc_perm <- conv9_2_mbox_loc
I0331 19:44:47.749980 18658 net.cpp:408] conv9_2_mbox_loc_perm -> conv9_2_mbox_loc_perm
I0331 19:44:47.750133 18658 net.cpp:150] Setting up conv9_2_mbox_loc_perm
I0331 19:44:47.750144 18658 net.cpp:157] Top shape: 8 4 4 16 (2048)
I0331 19:44:47.750149 18658 net.cpp:165] Memory required for data: 5844266016
I0331 19:44:47.750154 18658 layer_factory.hpp:77] Creating layer conv9_2_mbox_loc_flat
I0331 19:44:47.750162 18658 net.cpp:100] Creating Layer conv9_2_mbox_loc_flat
I0331 19:44:47.750170 18658 net.cpp:434] conv9_2_mbox_loc_flat <- conv9_2_mbox_loc_perm
I0331 19:44:47.750180 18658 net.cpp:408] conv9_2_mbox_loc_flat -> conv9_2_mbox_loc_flat
I0331 19:44:47.750214 18658 net.cpp:150] Setting up conv9_2_mbox_loc_flat
I0331 19:44:47.750223 18658 net.cpp:157] Top shape: 8 256 (2048)
I0331 19:44:47.750229 18658 net.cpp:165] Memory required for data: 5844274208
I0331 19:44:47.750236 18658 layer_factory.hpp:77] Creating layer conv9_2_mbox_conf
I0331 19:44:47.750253 18658 net.cpp:100] Creating Layer conv9_2_mbox_conf
I0331 19:44:47.750262 18658 net.cpp:434] conv9_2_mbox_conf <- conv9_2_conv9_2_relu_0_split_1
I0331 19:44:47.750270 18658 net.cpp:408] conv9_2_mbox_conf -> conv9_2_mbox_conf
I0331 19:44:47.752180 18658 net.cpp:150] Setting up conv9_2_mbox_conf
I0331 19:44:47.752202 18658 net.cpp:157] Top shape: 8 8 4 4 (1024)
I0331 19:44:47.752212 18658 net.cpp:165] Memory required for data: 5844278304
I0331 19:44:47.752228 18658 layer_factory.hpp:77] Creating layer conv9_2_mbox_conf_perm
I0331 19:44:47.752243 18658 net.cpp:100] Creating Layer conv9_2_mbox_conf_perm
I0331 19:44:47.752252 18658 net.cpp:434] conv9_2_mbox_conf_perm <- conv9_2_mbox_conf
I0331 19:44:47.752269 18658 net.cpp:408] conv9_2_mbox_conf_perm -> conv9_2_mbox_conf_perm
I0331 19:44:47.752482 18658 net.cpp:150] Setting up conv9_2_mbox_conf_perm
I0331 19:44:47.752496 18658 net.cpp:157] Top shape: 8 4 4 8 (1024)
I0331 19:44:47.752503 18658 net.cpp:165] Memory required for data: 5844282400
I0331 19:44:47.752512 18658 layer_factory.hpp:77] Creating layer conv9_2_mbox_conf_flat
I0331 19:44:47.752526 18658 net.cpp:100] Creating Layer conv9_2_mbox_conf_flat
I0331 19:44:47.752537 18658 net.cpp:434] conv9_2_mbox_conf_flat <- conv9_2_mbox_conf_perm
I0331 19:44:47.752550 18658 net.cpp:408] conv9_2_mbox_conf_flat -> conv9_2_mbox_conf_flat
I0331 19:44:47.752598 18658 net.cpp:150] Setting up conv9_2_mbox_conf_flat
I0331 19:44:47.752610 18658 net.cpp:157] Top shape: 8 128 (1024)
I0331 19:44:47.752619 18658 net.cpp:165] Memory required for data: 5844286496
I0331 19:44:47.752627 18658 layer_factory.hpp:77] Creating layer conv9_2_mbox_clean
I0331 19:44:47.752650 18658 net.cpp:100] Creating Layer conv9_2_mbox_clean
I0331 19:44:47.752660 18658 net.cpp:434] conv9_2_mbox_clean <- conv9_2_conv9_2_relu_0_split_2
I0331 19:44:47.752672 18658 net.cpp:408] conv9_2_mbox_clean -> conv9_2_mbox_clean
I0331 19:44:47.754494 18658 net.cpp:150] Setting up conv9_2_mbox_clean
I0331 19:44:47.754515 18658 net.cpp:157] Top shape: 8 4 4 4 (512)
I0331 19:44:47.754535 18658 net.cpp:165] Memory required for data: 5844288544
I0331 19:44:47.754546 18658 layer_factory.hpp:77] Creating layer conv9_2_mbox_clean_perm
I0331 19:44:47.754557 18658 net.cpp:100] Creating Layer conv9_2_mbox_clean_perm
I0331 19:44:47.754565 18658 net.cpp:434] conv9_2_mbox_clean_perm <- conv9_2_mbox_clean
I0331 19:44:47.754577 18658 net.cpp:408] conv9_2_mbox_clean_perm -> conv9_2_mbox_clean_perm
I0331 19:44:47.754729 18658 net.cpp:150] Setting up conv9_2_mbox_clean_perm
I0331 19:44:47.754739 18658 net.cpp:157] Top shape: 8 4 4 4 (512)
I0331 19:44:47.754745 18658 net.cpp:165] Memory required for data: 5844290592
I0331 19:44:47.754751 18658 layer_factory.hpp:77] Creating layer conv9_2_mbox_clean_flat
I0331 19:44:47.754761 18658 net.cpp:100] Creating Layer conv9_2_mbox_clean_flat
I0331 19:44:47.754770 18658 net.cpp:434] conv9_2_mbox_clean_flat <- conv9_2_mbox_clean_perm
I0331 19:44:47.754778 18658 net.cpp:408] conv9_2_mbox_clean_flat -> conv9_2_mbox_clean_flat
I0331 19:44:47.754817 18658 net.cpp:150] Setting up conv9_2_mbox_clean_flat
I0331 19:44:47.754827 18658 net.cpp:157] Top shape: 8 64 (512)
I0331 19:44:47.754830 18658 net.cpp:165] Memory required for data: 5844292640
I0331 19:44:47.754837 18658 layer_factory.hpp:77] Creating layer conv9_2_mbox_priorbox
I0331 19:44:47.754848 18658 net.cpp:100] Creating Layer conv9_2_mbox_priorbox
I0331 19:44:47.754856 18658 net.cpp:434] conv9_2_mbox_priorbox <- conv9_2_conv9_2_relu_0_split_3
I0331 19:44:47.754864 18658 net.cpp:434] conv9_2_mbox_priorbox <- data_data_0_split_6
I0331 19:44:47.754873 18658 net.cpp:408] conv9_2_mbox_priorbox -> conv9_2_mbox_priorbox
I0331 19:44:47.754912 18658 net.cpp:150] Setting up conv9_2_mbox_priorbox
I0331 19:44:47.754922 18658 net.cpp:157] Top shape: 1 2 256 (512)
I0331 19:44:47.754927 18658 net.cpp:165] Memory required for data: 5844294688
I0331 19:44:47.754935 18658 layer_factory.hpp:77] Creating layer mbox_loc
I0331 19:44:47.754950 18658 net.cpp:100] Creating Layer mbox_loc
I0331 19:44:47.754957 18658 net.cpp:434] mbox_loc <- conv4_3_norm_mbox_loc_flat
I0331 19:44:47.754964 18658 net.cpp:434] mbox_loc <- fc7_mbox_loc_flat
I0331 19:44:47.754973 18658 net.cpp:434] mbox_loc <- conv6_2_mbox_loc_flat
I0331 19:44:47.754981 18658 net.cpp:434] mbox_loc <- conv7_2_mbox_loc_flat
I0331 19:44:47.754987 18658 net.cpp:434] mbox_loc <- conv8_2_mbox_loc_flat
I0331 19:44:47.754994 18658 net.cpp:434] mbox_loc <- conv9_2_mbox_loc_flat
I0331 19:44:47.755003 18658 net.cpp:408] mbox_loc -> mbox_loc
I0331 19:44:47.755061 18658 net.cpp:150] Setting up mbox_loc
I0331 19:44:47.755071 18658 net.cpp:157] Top shape: 8 98624 (788992)
I0331 19:44:47.755077 18658 net.cpp:165] Memory required for data: 5847450656
I0331 19:44:47.755082 18658 layer_factory.hpp:77] Creating layer mbox_conf
I0331 19:44:47.755091 18658 net.cpp:100] Creating Layer mbox_conf
I0331 19:44:47.755100 18658 net.cpp:434] mbox_conf <- conv4_3_norm_mbox_conf_flat
I0331 19:44:47.755107 18658 net.cpp:434] mbox_conf <- fc7_mbox_conf_flat
I0331 19:44:47.755116 18658 net.cpp:434] mbox_conf <- conv6_2_mbox_conf_flat
I0331 19:44:47.755123 18658 net.cpp:434] mbox_conf <- conv7_2_mbox_conf_flat
I0331 19:44:47.755129 18658 net.cpp:434] mbox_conf <- conv8_2_mbox_conf_flat
I0331 19:44:47.755137 18658 net.cpp:434] mbox_conf <- conv9_2_mbox_conf_flat
I0331 19:44:47.755146 18658 net.cpp:408] mbox_conf -> mbox_conf
I0331 19:44:47.755182 18658 net.cpp:150] Setting up mbox_conf
I0331 19:44:47.755192 18658 net.cpp:157] Top shape: 8 49312 (394496)
I0331 19:44:47.755195 18658 net.cpp:165] Memory required for data: 5849028640
I0331 19:44:47.755203 18658 layer_factory.hpp:77] Creating layer mbox_priorbox
I0331 19:44:47.755213 18658 net.cpp:100] Creating Layer mbox_priorbox
I0331 19:44:47.755218 18658 net.cpp:434] mbox_priorbox <- conv4_3_norm_mbox_priorbox
I0331 19:44:47.755228 18658 net.cpp:434] mbox_priorbox <- fc7_mbox_priorbox
I0331 19:44:47.755234 18658 net.cpp:434] mbox_priorbox <- conv6_2_mbox_priorbox
I0331 19:44:47.755240 18658 net.cpp:434] mbox_priorbox <- conv7_2_mbox_priorbox
I0331 19:44:47.755257 18658 net.cpp:434] mbox_priorbox <- conv8_2_mbox_priorbox
I0331 19:44:47.755264 18658 net.cpp:434] mbox_priorbox <- conv9_2_mbox_priorbox
I0331 19:44:47.755270 18658 net.cpp:408] mbox_priorbox -> mbox_priorbox
I0331 19:44:47.755309 18658 net.cpp:150] Setting up mbox_priorbox
I0331 19:44:47.755319 18658 net.cpp:157] Top shape: 1 2 98624 (197248)
I0331 19:44:47.755323 18658 net.cpp:165] Memory required for data: 5849817632
I0331 19:44:47.755329 18658 layer_factory.hpp:77] Creating layer mbox_clean
I0331 19:44:47.755339 18658 net.cpp:100] Creating Layer mbox_clean
I0331 19:44:47.755347 18658 net.cpp:434] mbox_clean <- conv4_3_norm_mbox_clean_flat
I0331 19:44:47.755354 18658 net.cpp:434] mbox_clean <- fc7_mbox_clean_flat
I0331 19:44:47.755362 18658 net.cpp:434] mbox_clean <- conv6_2_mbox_clean_flat
I0331 19:44:47.755370 18658 net.cpp:434] mbox_clean <- conv7_2_mbox_clean_flat
I0331 19:44:47.755380 18658 net.cpp:434] mbox_clean <- conv8_2_mbox_clean_flat
I0331 19:44:47.755388 18658 net.cpp:434] mbox_clean <- conv9_2_mbox_clean_flat
I0331 19:44:47.755396 18658 net.cpp:408] mbox_clean -> mbox_clean
I0331 19:44:47.755439 18658 net.cpp:150] Setting up mbox_clean
I0331 19:44:47.755448 18658 net.cpp:157] Top shape: 8 24656 (197248)
I0331 19:44:47.755453 18658 net.cpp:165] Memory required for data: 5850606624
I0331 19:44:47.755458 18658 layer_factory.hpp:77] Creating layer mbox_loss
I0331 19:44:47.755476 18658 net.cpp:100] Creating Layer mbox_loss
I0331 19:44:47.755484 18658 net.cpp:434] mbox_loss <- mbox_loc
I0331 19:44:47.755491 18658 net.cpp:434] mbox_loss <- mbox_conf
I0331 19:44:47.755498 18658 net.cpp:434] mbox_loss <- mbox_priorbox
…
  top: "label"
  include {
    phase: TEST
  }
  transform_param {
    mean_value: 104
    mean_value: 117
    mean_value: 123
    force_color: true
    resize_param {
      prob: 1
      resize_mode: WARP
      height: 512
      width: 512
      interp_mode: LINEAR
    }
  }
  data_param {
    source: "/data/siyu/dataset/coco/lmdb/COCO_Val2014_person_lmdb"
    batch_size: 2
    backend: LMDB
  }
  annotated_data_param {
    batch_sampler {
    }
    label_map_file: "/data/siyu/dataset/coco/labelmap_coco-person.prototxt"
    part_sampler_prob: 0
  }
}
layer {
  name: "conv1_1"
  type: "Convolution"
  bottom: "data"
  top: "conv1_1"
  param {
    lr_mult: 1
    decay_mult: 1
  }
  param {
    lr_mult: 2
    decay_mult: 0
  }
  convolution_param {
    num_output: 64
    pad: 1
    kernel_size: 3
    weight_filler {
      type: "xavier"
    }
    bias_filler {
      type: "constant"
      value: 0
    }
  }
}
layer {
  name: "relu1_1"
  type: "ReLU"
  bottom: "conv1_1"
  top: "conv1_1"
}
layer {
  name: "conv1_2"
  type: "Convolution"
  bottom: "conv1_1"
  top: "conv1_2"
  param {
    lr_mult: 1
    decay_mult: 1
  }
  param {
    lr_mult: 2
    decay_mult: 0
  }
  convolution_param {
    num_output: 64
    pad: 1
    kernel_size: 3
    weight_filler {
      type: "xavier"
    }
    bias_filler {
      type: "constant"
      value: 0
    }
  }
}
layer {
  name: "relu1_2"
  type: "ReLU"
  bottom: "conv1_2"
  top: "conv1_2"
}
layer {
  name: "pool1"
  type: "Pooling"
  bottom: "conv1_2"
  top: "pool1"
  pooling_param {
    pool: MAX
    kernel_size: 2
    stride: 2
  }
}
layer {
  name: "conv2_1"
  type: "Convolution"
  bottom: "pool1"
  top: "conv2_1"
  param {
    lr_mult: 1
    decay_mult: 1
  }
  param {
    lr_mult: 2
    decay_mult: 0
  }
  convolution_param {
    num_output: 128
    pad: 1
    kernel_size: 3
    weight_filler {
      type: "xavier"
    }
    bias_filler {
      type: "constant"
      value: 0
    }
  }
}
layer {
  name: "relu2_1"
  type: "ReLU"
  bottom: "conv2_1"
  top: "conv2_1"
}
layer {
  name: "conv2_2"
  type: "Convolution"
  bottom: "conv2_1"
  top: "conv2_2"
  param {
    lr_mult: 1
    decay_mult: 1
  }
  param {
    lr_mult: 2
    decay_mult: 0
  }
  convolution_param {
    num_output: 128
    pad: 1
    kernel_size: 3
    weight_filler {
      type: "xavier"
    }
    bias_filler {
      type: "constant"
      value: 0
    }
  }
}
layer {
  name: "relu2_2"
  type: "ReLU"
  bottom: "conv2_2"
  top: "conv2_2"
}
layer {
  name: "pool2"
  type: "Pooling"
  bottom: "conv2_2"
  top: "pool2"
  pooling_param {
    pool: MAX
    kernel_size: 2
    stride: 2
  }
}
layer {
  name: "conv3_1"
  type: "Convolution"
  bottom: "pool2"
  top: "conv3_1"
  param {
    lr_mult: 1
    decay_mult: 1
  }
  param {
    lr_mult: 2
    decay_mult: 0
  }
  convolution_param {
    num_output: 256
    pad: 1
    kernel_size: 3
    weight_filler {
      type: "xavier"
    }
    bias_filler {
      type: "constant"
      value: 0
    }
  }
}
layer {
  name: "relu3_1"
  type: "ReLU"
  bottom: "conv3_1"
  top: "conv3_1"
}
layer {
  name: "conv3_2"
  type: "Convolution"
  bottom: "conv3_1"
  top: "conv3_2"
  param {
    lr_mult: 1
    decay_mult: 1
  }
  param {
    lr_mult: 2
    decay_mult: 0
  }
  convolution_param {
    num_output: 256
    pad: 1
    kernel_size: 3
    weight_filler {
      type: "xavier"
    }
    bias_filler {
      type: "constant"
      value: 0
    }
  }
}
layer {
  name: "relu3_2"
  type: "ReLU"
  bottom: "conv3_2"
  top: "conv3_2"
}
layer {
  name: "conv3_3"
  type: "Convolution"
  bottom: "conv3_2"
  top: "conv3_3"
  param {
    lr_mult: 1
    decay_mult: 1
  }
  param {
    lr_mult: 2
    decay_mult: 0
  }
  convolution_param {
    num_output: 256
    pad: 1
    kernel_size: 3
    weight_filler {
      type: "xavier"
    }
    bias_filler {
      type: "constant"
      value: 0
    }
  }
}
layer {
  name: "relu3_3"
  type: "ReLU"
  bottom: "conv3_3"
  top: "conv3_3"
}
layer {
  name: "pool3"
  type: "Pooling"
  bottom: "conv3_3"
  top: "pool3"
  pooling_param {
    pool: MAX
    kernel_size: 2
    stride: 2
  }
}
layer {
  name: "conv4_1"
  type: "Convolution"
  bottom: "pool3"
  top: "conv4_1"
  param {
    lr_mult: 1
    decay_mult: 1
  }
  param {
    lr_mult: 2
    decay_mult: 0
  }
  convolution_param {
    num_output: 512
    pad: 1
    kernel_size: 3
    weight_filler {
      type: "xavier"
    }
    bias_filler {
      type: "constant"
      value: 0
    }
  }
}
layer {
  name: "relu4_1"
  type: "ReLU"
  bottom: "conv4_1"
  top: "conv4_1"
}
layer {
  name: "conv4_2"
  type: "Convolution"
  bottom: "conv4_1"
  top: "conv4_2"
  param {
    lr_mult: 1
    decay_mult: 1
  }
  param {
    lr_mult: 2
    decay_mult: 0
  }
  convolution_param {
    num_output: 512
    pad: 1
    kernel_size: 3
    weight_filler {
      type: "xavier"
    }
    bias_filler {
      type: "constant"
      value: 0
    }
  }
}
layer {
  name: "relu4_2"
  type: "ReLU"
  bottom: "conv4_2"
  top: "conv4_2"
}
layer {
  name: "conv4_3"
  type: "Convolution"
  bottom: "conv4_2"
  top: "conv4_3"
  param {
    lr_mult: 1
    decay_mult: 1
  }
  param {
    lr_mult: 2
    decay_mult: 0
  }
  convolution_param {
    num_output: 512
    pad: 1
    kernel_size: 3
    weight_filler {
      type: "xavier"
    }
    bias_filler {
      type: "constant"
      value: 0
    }
  }
}
layer {
  name: "relu4_3"
  type: "ReLU"
  bottom: "conv4_3"
  top: "conv4_3"
}
layer {
  name: "pool4"
  type: "Pooling"
  bottom: "conv4_3"
  top: "pool4"
  pooling_param {
    pool: MAX
    kernel_size: 2
    stride: 2
  }
}
layer {
  name: "conv5_1"
  type: "Convolution"
  bottom: "pool4"
  top: "conv5_1"
  param {
    lr_mult: 1
    decay_mult: 1
  }
  param {
    lr_mult: 2
    decay_mult: 0
  }
  convolution_param {
    num_output: 512
    pad: 1
    kernel_size: 3
    weight_filler {
      type: "xavier"
    }
    bias_filler {
      type: "constant"
      value: 0
    }
    dilation: 1
  }
}
layer {
  name: "relu5_1"
  type: "ReLU"
  bottom: "conv5_1"
  top: "conv5_1"
}
layer {
  name: "conv5_2"
  type: "Convolution"
  bottom: "conv5_1"
  top: "conv5_2"
  param {
    lr_mult: 1
    decay_mult: 1
  }
  param {
    lr_mult: 2
    decay_mult: 0
  }
  convolution_param {
    num_output: 512
    pad: 1
    kernel_size: 3
    weight_filler {
      type: "xavier"
    }
    bias_filler {
      type: "constant"
      value: 0
    }
    dilation: 1
  }
}
layer {
  name: "relu5_2"
  type: "ReLU"
  bottom: "conv5_2"
  top: "conv5_2"
}
layer {
  name: "conv5_3"
  type: "Convolution"
  bottom: "conv5_2"
  top: "conv5_3"
  param {
    lr_mult: 1
    decay_mult: 1
  }
  param {
    lr_mult: 2
    decay_mult: 0
  }
  convolution_param {
    num_output: 512
    pad: 1
    kernel_size: 3
    weight_filler {
      type: "xavier"
    }
    bias_filler {
      type: "constant"
      value: 0
    }
    dilation: 1
  }
}
layer {
  name: "relu5_3"
  type: "ReLU"
  bottom: "conv5_3"
  top: "conv5_3"
}
layer {
  name: "pool5"
  type: "Pooling"
  bottom: "conv5_3"
  top: "pool5"
  pooling_param {
    pool: MAX
    kernel_size: 3
    stride: 1
    pad: 1
  }
}
layer {
  name: "fc6"
  type: "Convolution"
  bottom: "pool5"
  top: "fc6"
  param {
    lr_mult: 1
    decay_mult: 1
  }
  param {
    lr_mult: 2
    decay_mult: 0
  }
  convolution_param {
    num_output: 1024
    pad: 6
    kernel_size: 3
    weight_filler {
      type: "xavier"
    }
    bias_filler {
      type: "constant"
      value: 0
    }
    dilation: 6
  }
}
layer {
  name: "relu6"
  type: "ReLU"
  bottom: "fc6"
  top: "fc6"
}
layer {
  name: "fc7"
  type: "Convolution"
  bottom: "fc6"
  top: "fc7"
  param {
    lr_mult: 1
    decay_mult: 1
  }
  param {
    lr_mult: 2
    decay_mult: 0
  }
  convolution_param {
    num_output: 1024
    kernel_size: 1
    weight_filler {
      type: "xavier"
    }
    bias_filler {
      type: "constant"
      value: 0
    }
  }
}
layer {
  name: "relu7"
  type: "ReLU"
  bottom: "fc7"
  top: "fc7"
}
layer {
  name: "conv6_1"
  type: "Convolution"
  bottom: "fc7"
  top: "conv6_1"
  param {
    lr_mult: 1
    decay_mult: 1
  }
  param {
    lr_mult: 2
    decay_mult: 0
  }
  convolution_param {
    num_output: 256
    pad: 0
    kernel_size: 1
    stride: 1
    weight_filler {
      type: "xavier"
    }
    bias_filler {
      type: "constant"
      value: 0
    }
  }
}
layer {
  name: "conv6_1_relu"
  type: "ReLU"
  bottom: "conv6_1"
  top: "conv6_1"
}
layer {
  name: "conv6_2"
  type: "Convolution"
  bottom: "conv6_1"
  top: "conv6_2"
  param {
    lr_mult: 1
    decay_mult: 1
  }
  param {
    lr_mult: 2
    decay_mult: 0
  }
  convolution_param {
    num_output: 512
    pad: 1
    kernel_size: 3
    stride: 2
    weight_filler {
      type: "xavier"
    }
    bias_filler {
      type: "constant"
      value: 0
    }
  }
}
layer {
  name: "conv6_2_relu"
  type: "ReLU"
  bottom: "conv6_2"
  top: "conv6_2"
}
layer {
  name: "conv7_1"
  type: "Convolution"
  bottom: "conv6_2"
  top: "conv7_1"
  param {
    lr_mult: 1
    decay_mult: 1
  }
  param {
    lr_mult: 2
    decay_mult: 0
  }
  convolution_param {
    num_output: 128
    pad: 0
    kernel_size: 1
    stride: 1
    weight_filler {
      type: "xavier"
    }
    bias_filler {
      type: "constant"
      value: 0
    }
  }
}
layer {
  name: "conv7_1_relu"
  type: "ReLU"
  bottom: "conv7_1"
  top: "conv7_1"
}
layer {
  name: "conv7_2"
  type: "Convolution"
  bottom: "conv7_1"
  top: "conv7_2"
  param {
    lr_mult: 1
    decay_mult: 1
  }
  param {
    lr_mult: 2
    decay_mult: 0
  }
  convolution_param {
    num_output: 256
    pad: 1
    kernel_size: 3
    stride: 2
    weight_filler {
      type: "xavier"
    }
    bias_filler {
      type: "constant"
      value: 0
    }
  }
}
layer {
  name: "conv7_2_relu"
  type: "ReLU"
  bottom: "conv7_2"
  top: "conv7_2"
}
layer {
  name: "conv8_1"
  type: "Convolution"
  bottom: "conv7_2"
  top: "conv8_1"
  param {
    lr_mult: 1
    decay_mult: 1
  }
  param {
    lr_mult: 2
    decay_mult: 0
  }
  convolution_param {
    num_output: 128
    pad: 0
    kernel_size: 1
    stride: 1
    weight_filler {
      type: "xavier"
    }
    bias_filler {
      type: "constant"
      value: 0
    }
  }
}
layer {
  name: "conv8_1_relu"
  type: "ReLU"
  bottom: "conv8_1"
  top: "conv8_1"
}
layer {
  name: "conv8_2"
  type: "Convolution"
  bottom: "conv8_1"
  top: "conv8_2"
  param {
    lr_mult: 1
    decay_mult: 1
  }
  param {
    lr_mult: 2
    decay_mult: 0
  }
  convolution_param {
    num_output: 256
    pad: 0
    kernel_size: 3
    stride: 1
    weight_filler {
      type: "xavier"
    }
    bias_filler {
      type: "constant"
      value: 0
    }
  }
}
layer {
  name: "conv8_2_relu"
  type: "ReLU"
  bottom: "conv8_2"
  top: "conv8_2"
}
layer {
  name: "conv9_1"
  type: "Convolution"
  bottom: "conv8_2"
  top: "conv9_1"
  param {
    lr_mult: 1
    decay_mult: 1
  }
  param {
    lr_mult: 2
    decay_mult: 0
  }
  convolution_param {
    num_output: 128
    pad: 0
    kernel_size: 1
    stride: 1
    weight_filler {
      type: "xavier"
    }
    bias_filler {
      type: "constant"
      value: 0
    }
  }
}
layer {
  name: "conv9_1_relu"
  type: "ReLU"
  bottom: "conv9_1"
  top: "conv9_1"
}
layer {
  name: "conv9_2"
  type: "Convolution"
  bottom: "conv9_1"
  top: "conv9_2"
  param {
    lr_mult: 1
    decay_mult: 1
  }
  param {
    lr_mult: 2
    decay_mult: 0
  }
  convolution_param {
    num_output: 256
    pad: 0
    kernel_size: 3
    stride: 1
    weight_filler {
      type: "xavier"
    }
    bias_filler {
      type: "constant"
      value: 0
    }
  }
}
layer {
  name: "conv9_2_relu"
  type: "ReLU"
  bottom: "conv9_2"
  top: "conv9_2"
}
layer {
  name: "conv4_3_norm"
  type: "Normalize"
  bottom: "conv4_3"
  top: "conv4_3_norm"
  norm_param {
    across_spatial: false
    scale_filler {
      type: "constant"
      value: 20
    }
    channel_shared: false
  }
}
layer {
  name: "conv4_3_norm_mbox_loc"
  type: "Convolution"
  bottom: "conv4_3_norm"
  top: "conv4_3_norm_mbox_loc"
  param {
    lr_mult: 1
    decay_mult: 1
  }
  param {
    lr_mult: 2
    decay_mult: 0
  }
  convolution_param {
    num_output: 16
    pad: 1
    kernel_size: 3
    stride: 1
    weight_filler {
      type: "xavier"
    }
    bias_filler {
      type: "constant"
      value: 0
    }
  }
}
layer {
  name: "conv4_3_norm_mbox_loc_perm"
  type: "Permute"
  bottom: "conv4_3_norm_mbox_loc"
  top: "conv4_3_norm_mbox_loc_perm"
  permute_param {
    order: 0
    order: 2
    order: 3
    order: 1
  }
}
layer {
  name: "conv4_3_norm_mbox_loc_flat"
  type: "Flatten"
  bottom: "conv4_3_norm_mbox_loc_perm"
  top: "conv4_3_norm_mbox_loc_flat"
  flatten_param {
    axis: 1
  }
}
layer {
  name: "conv4_3_norm_mbox_conf"
  type: "Convolution"
  bottom: "conv4_3_norm"
  top: "conv4_3_norm_mbox_conf"
  param {
    lr_mult: 1
    decay_mult: 1
  }
  param {
    lr_mult: 2
    decay_mult: 0
  }
  convolution_param {
    num_output: 8
    pad: 1
    kernel_size: 3
    stride: 1
    weight_filler {
      type: "xavier"
    }
    bias_filler {
      type: "constant"
      value: 0
    }
  }
}
layer {
  name: "conv4_3_norm_mbox_conf_perm"
  type: "Permute"
  bottom: "conv4_3_norm_mbox_conf"
  top: "conv4_3_norm_mbox_conf_perm"
  permute_param {
    order: 0
    order: 2
    order: 3
    order: 1
  }
}
layer {
  name: "conv4_3_norm_mbox_conf_flat"
  type: "Flatten"
  bottom: "conv4_3_norm_mbox_conf_perm"
  top: "conv4_3_norm_mbox_conf_flat"
  flatten_param {
    axis: 1
  }
}
layer {
  name: "conv4_3_norm_mbox_clean"
  type: "Convolution"
  bottom: "conv4_3_norm"
  top: "conv4_3_norm_mbox_clean"
  param {
    lr_mult: 1
    decay_mult: 1
  }
  param {
    lr_mult: 2
    decay_mult: 0
  }
  convolution_param {
    num_output: 4
    pad: 1
    kernel_size: 3
    stride: 1
    weight_filler {
      type: "xavier"
    }
    bias_filler {
      type: "constant"
      value: 0
    }
  }
}
layer {
  name: "conv4_3_norm_mbox_clean_perm"
  type: "Permute"
  bottom: "conv4_3_norm_mbox_clean"
  top: "conv4_3_norm_mbox_clean_perm"
  permute_param {
    order: 0
    order: 2
    order: 3
    order: 1
  }
}
layer {
  name: "conv4_3_norm_mbox_clean_flat"
  type: "Flatten"
  bottom: "conv4_3_norm_mbox_clean_perm"
  top: "conv4_3_norm_mbox_clean_flat"
  flatten_param {
    axis: 1
  }
}
layer {
  name: "conv4_3_norm_mbox_priorbox"
  type: "PriorBox"
  bottom: "conv4_3_norm"
  bottom: "data"
  top: "conv4_3_norm_mbox_priorbox"
  prior_box_param {
    min_size: 35.84
    max_size: 76.8
    aspect_ratio: 2
    flip: true
    clip: false
    variance: 0.1
    variance: 0.1
    variance: 0.2
    variance: 0.2
    step: 8
    offset: 0.5
  }
}
layer {
  name: "fc7_mbox_loc"
  type: "Convolution"
  bottom: "fc7"
  top: "fc7_mbox_loc"
  param {
    lr_mult: 1
    decay_mult: 1
  }
  param {
    lr_mult: 2
    decay_mult: 0
  }
  convolution_param {
    num_output: 24
    pad: 1
    kernel_size: 3
    stride: 1
    weight_filler {
      type: "xavier"
    }
    bias_filler {
      type: "constant"
      value: 0
    }
  }
}
layer {
  name: "fc7_mbox_loc_perm"
  type: "Permute"
  bottom: "fc7_mbox_loc"
  top: "fc7_mbox_loc_perm"
  permute_param {
    order: 0
    order: 2
    order: 3
    order: 1
  }
}
layer {
  name: "fc7_mbox_loc_flat"
  type: "Flatten"
  bottom: "fc7_mbox_loc_perm"
  top: "fc7_mbox_loc_flat"
  flatten_param {
    axis: 1
  }
}
layer {
  name: "fc7_mbox_conf"
  type: "Convolution"
  bottom: "fc7"
  top: "fc7_mbox_conf"
  param {
    lr_mult: 1
    decay_mult: 1
  }
  param {
    lr_mult: 2
    decay_mult: 0
  }
  convolution_param {
    num_output: 12
    pad: 1
    kernel_size: 3
    stride: 1
    weight_filler {
      type: "xavier"
    }
    bias_filler {
      type: "constant"
      value: 0
    }
  }
}
layer {
  name: "fc7_mbox_conf_perm"
  type: "Permute"
  bottom: "fc7_mbox_conf"
  top: "fc7_mbox_conf_perm"
  permute_param {
    order: 0
    order: 2
    order: 3
    order: 1
  }
}
layer {
  name: "fc7_mbox_conf_flat"
  type: "Flatten"
  bottom: "fc7_mbox_conf_perm"
  top: "fc7_mbox_conf_flat"
  flatten_param {
    axis: 1
  }
}
layer {
  name: "fc7_mbox_clean"
  type: "Convolution"
  bottom: "fc7"
  top: "fc7_mbox_clean"
  param {
    lr_mult: 1
    decay_mult: 1
  }
  param {
    lr_mult: 2
    decay_mult: 0
  }
  convolution_param {
    num_output: 6
    pad: 1
    kernel_size: 3
    stride: 1
    weight_filler {
      type: "xavier"
    }
    bias_filler {
      type: "constant"
      value: 0
    }
  }
}
layer {
  name: "fc7_mbox_clean_perm"
  type: "Permute"
  bottom: "fc7_mbox_clean"
  top: "fc7_mbox_clean_perm"
  permute_param {
    order: 0
    order: 2
    order: 3
    order: 1
  }
}
layer {
  name: "fc7_mbox_clean_flat"
  type: "Flatten"
  bottom: "fc7_mbox_clean_perm"
  top: "fc7_mbox_clean_flat"
  flatten_param {
    axis: 1
  }
}
layer {
  name: "fc7_mbox_priorbox"
  type: "PriorBox"
  bottom: "fc7"
  bottom: "data"
  top: "fc7_mbox_priorbox"
  prior_box_param {
    min_size: 76.8
    max_size: 168.96
    aspect_ratio: 2
    aspect_ratio: 3
    flip: true
    clip: false
    variance: 0.1
    variance: 0.1
    variance: 0.2
    variance: 0.2
    step: 16
    offset: 0.5
  }
}
layer {
  name: "conv6_2_mbox_loc"
  type: "Convolution"
  bottom: "conv6_2"
  top: "conv6_2_mbox_loc"
  param {
    lr_mult: 1
    decay_mult: 1
  }
  param {
    lr_mult: 2
    decay_mult: 0
  }
  convolution_param {
    num_output: 24
    pad: 1
    kernel_size: 3
    stride: 1
    weight_filler {
      type: "xavier"
    }
    bias_filler {
      type: "constant"
      value: 0
    }
  }
}
layer {
  name: "conv6_2_mbox_loc_perm"
  type: "Permute"
  bottom: "conv6_2_mbox_loc"
  top: "conv6_2_mbox_loc_perm"
  permute_param {
    order: 0
    order: 2
    order: 3
    order: 1
  }
}
layer {
  name: "conv6_2_mbox_loc_flat"
  type: "Flatten"
  bottom: "conv6_2_mbox_loc_perm"
  top: "conv6_2_mbox_loc_flat"
  flatten_param {
    axis: 1
  }
}
layer {
  name: "conv6_2_mbox_conf"
  type: "Convolution"
  bottom: "conv6_2"
  top: "conv6_2_mbox_conf"
  param {
    lr_mult: 1
    decay_mult: 1
  }
  param {
    lr_mult: 2
    decay_mult: 0
  }
  convolution_param {
    num_output: 12
    pad: 1
    kernel_size: 3
    stride: 1
    weight_filler {
      type: "xavier"
    }
    bias_filler {
      type: "constant"
      value: 0
    }
  }
}
layer {
  name: "conv6_2_mbox_conf_perm"
  type: "Permute"
  bottom: "conv6_2_mbox_conf"
  top: "conv6_2_mbox_conf_perm"
  permute_param {
    order: 0
    order: 2
    order: 3
    order: 1
  }
}
layer {
  name: "conv6_2_mbox_conf_flat"
  type: "Flatten"
  bottom: "conv6_2_mbox_conf_perm"
  top: "conv6_2_mbox_conf_flat"
  flatten_param {
    axis: 1
  }
}
layer {
  name: "conv6_2_mbox_clean"
  type: "Convolution"
  bottom: "conv6_2"
  top: "conv6_2_mbox_clean"
  param {
    lr_mult: 1
    decay_mult: 1
  }
  param {
    lr_mult: 2
    decay_mult: 0
  }
  convolution_param {
    num_output: 6
    pad: 1
    kernel_size: 3
    stride: 1
    weight_filler {
      type: "xavier"
    }
    bias_filler {
      type: "constant"
      value: 0
    }
  }
}
layer {
  name: "conv6_2_mbox_clean_perm"
  type: "Permute"
  bottom: "conv6_2_mbox_clean"
  top: "conv6_2_mbox_clean_perm"
  permute_param {
    order: 0
    order: 2
    order: 3
    order: 1
  }
}
layer {
  name: "conv6_2_mbox_clean_flat"
  type: "Flatten"
  bottom: "conv6_2_mbox_clean_perm"
  top: "conv6_2_mbox_clean_flat"
  flatten_param {
    axis: 1
  }
}
layer {
  name: "conv6_2_mbox_priorbox"
  type: "PriorBox"
  bottom: "conv6_2"
  bottom: "data"
  top: "conv6_2_mbox_priorbox"
  prior_box_param {
    min_size: 168.96
    max_size: 261.12
    aspect_ratio: 2
    aspect_ratio: 3
    flip: true
    clip: false
    variance: 0.1
    variance: 0.1
    variance: 0.2
    variance: 0.2
    step: 32
    offset: 0.5
  }
}
layer {
  name: "conv7_2_mbox_loc"
  type: "Convolution"
  bottom: "conv7_2"
  top: "conv7_2_mbox_loc"
  param {
    lr_mult: 1
    decay_mult: 1
  }
  param {
    lr_mult: 2
    decay_mult: 0
  }
  convolution_param {
    num_output: 24
    pad: 1
    kernel_size: 3
    stride: 1
    weight_filler {
      type: "xavier"
    }
    bias_filler {
      type: "constant"
      value: 0
    }
  }
}
layer {
  name: "conv7_2_mbox_loc_perm"
  type: "Permute"
  bottom: "conv7_2_mbox_loc"
  top: "conv7_2_mbox_loc_perm"
  permute_param {
    order: 0
    order: 2
    order: 3
    order: 1
  }
}
layer {
  name: "conv7_2_mbox_loc_flat"
  type: "Flatten"
  bottom: "conv7_2_mbox_loc_perm"
  top: "conv7_2_mbox_loc_flat"
  flatten_param {
    axis: 1
  }
}
layer {
  name: "conv7_2_mbox_conf"
  type: "Convolution"
  bottom: "conv7_2"
  top: "conv7_2_mbox_conf"
  param {
    lr_mult: 1
    decay_mult: 1
  }
  param {
    lr_mult: 2
    decay_mult: 0
  }
  convolution_param {
    num_output: 12
    pad: 1
    kernel_size: 3
    stride: 1
    weight_filler {
      type: "xavier"
    }
    bias_filler {
      type: "constant"
      value: 0
    }
  }
}
layer {
  name: "conv7_2_mbox_conf_perm"
  type: "Permute"
  bottom: "conv7_2_mbox_conf"
  top: "conv7_2_mbox_conf_perm"
  permute_param {
    order: 0
    order: 2
    order: 3
    order: 1
  }
}
layer {
  name: "conv7_2_mbox_conf_flat"
  type: "Flatten"
  bottom: "conv7_2_mbox_conf_perm"
  top: "conv7_2_mbox_conf_flat"
  flatten_param {
    axis: 1
  }
}
layer {
  name: "conv7_2_mbox_clean"
  type: "Convolution"
  bottom: "conv7_2"
  top: "conv7_2_mbox_clean"
  param {
    lr_mult: 1
    decay_mult: 1
  }
  param {
    lr_mult: 2
    decay_mult: 0
  }
  convolution_param {
    num_output: 6
    pad: 1
    kernel_size: 3
    stride: 1
    weight_filler {
      type: "xavier"
    }
    bias_filler {
      type: "constant"
      value: 0
    }
  }
}
layer {
  name: "conv7_2_mbox_clean_perm"
  type: "Permute"
  bottom: "conv7_2_mbox_clean"
  top: "conv7_2_mbox_clean_perm"
  permute_param {
    order: 0
    order: 2
    order: 3
    order: 1
  }
}
layer {
  name: "conv7_2_mbox_clean_flat"
  type: "Flatten"
  bottom: "conv7_2_mbox_clean_perm"
  top: "conv7_2_mbox_clean_flat"
  flatten_param {
    axis: 1
  }
}
layer {
  name: "conv7_2_mbox_priorbox"
  type: "PriorBox"
  bottom: "conv7_2"
  bottom: "data"
  top: "conv7_2_mbox_priorbox"
  prior_box_param {
    min_size: 261.12
    max_size: 353.28
    aspect_ratio: 2
    aspect_ratio: 3
    flip: true
    clip: false
    variance: 0.1
    variance: 0.1
    variance: 0.2
    variance: 0.2
    step: 64
    offset: 0.5
  }
}
layer {
  name: "conv8_2_mbox_loc"
  type: "Convolution"
  bottom: "conv8_2"
  top: "conv8_2_mbox_loc"
  param {
    lr_mult: 1
    decay_mult: 1
  }
  param {
    lr_mult: 2
    decay_mult: 0
  }
  convolution_param {
    num_output: 16
    pad: 1
    kernel_size: 3
    stride: 1
    weight_filler {
      type: "xavier"
    }
    bias_filler {
      type: "constant"
      value: 0
    }
  }
}
layer {
  name: "conv8_2_mbox_loc_perm"
  type: "Permute"
  bottom: "conv8_2_mbox_loc"
  top: "conv8_2_mbox_loc_perm"
  permute_param {
    order: 0
    order: 2
    order: 3
    order: 1
  }
}
layer {
  name: "conv8_2_mbox_loc_flat"
  type: "Flatten"
  bottom: "conv8_2_mbox_loc_perm"
  top: "conv8_2_mbox_loc_flat"
  flatten_param {
    axis: 1
  }
}
layer {
  name: "conv8_2_mbox_conf"
  type: "Convolution"
  bottom: "conv8_2"
  top: "conv8_2_mbox_conf"
  param {
    lr_mult: 1
    decay_mult: 1
  }
  param {
    lr_mult: 2
    decay_mult: 0
  }
  convolution_param {
    num_output: 8
    pad: 1
    kernel_size: 3
    stride: 1
    weight_filler {
      type: "xavier"
    }
    bias_filler {
      type: "constant"
      value: 0
    }
  }
}
layer {
  name: "conv8_2_mbox_conf_perm"
  type: "Permute"
  bottom: "conv8_2_mbox_conf"
  top: "conv8_2_mbox_conf_perm"
  permute_param {
    order: 0
    order: 2
    order: 3
    order: 1
  }
}
layer {
  name: "conv8_2_mbox_conf_flat"
  type: "Flatten"
  bottom: "conv8_2_mbox_conf_perm"
  top: "conv8_2_mbox_conf_flat"
  flatten_param {
    axis: 1
  }
}
layer {
  name: "conv8_2_mbox_clean"
  type: "Convolution"
  bottom: "conv8_2"
  top: "conv8_2_mbox_clean"
  param {
    lr_mult: 1
    decay_mult: 1
  }
  param {
    lr_mult: 2
    decay_mult: 0
  }
  convolution_param {
    num_output: 4
    pad: 1
    kernel_size: 3
    stride: 1
    weight_filler {
      type: "xavier"
    }
    bias_filler {
      type: "constant"
      value: 0
    }
  }
}
layer {
  name: "conv8_2_mbox_clean_perm"
  type: "Permute"
  bottom: "conv8_2_mbox_clean"
  top: "conv8_2_mbox_clean_perm"
  permute_param {
    order: 0
    order: 2
    order: 3
    order: 1
  }
}
layer {
  name: "conv8_2_mbox_clean_flat"
  type: "Flatten"
  bottom: "conv8_2_mbox_clean_perm"
  top: "conv8_2_mbox_clean_flat"
  flatten_param {
    axis: 1
  }
}
layer {
  name: "conv8_2_mbox_priorbox"
  type: "PriorBox"
  bottom: "conv8_2"
  bottom: "data"
  top: "conv8_2_mbox_priorbox"
  prior_box_param {
    min_size: 353.28
    max_size: 445.44
    aspect_ratio: 2
    flip: true
    clip: false
    variance: 0.1
    variance: 0.1
    variance: 0.2
    variance: 0.2
    step: 100
    offset: 0.5
  }
}
layer {
  name: "conv9_2_mbox_loc"
  type: "Convolution"
  bottom: "conv9_2"
  top: "conv9_2_mbox_loc"
  param {
    lr_mult: 1
    decay_mult: 1
  }
  param {
    lr_mult: 2
    decay_mult: 0
  }
  convolution_param {
    num_output: 16
    pad: 1
    kernel_size: 3
    stride: 1
    weight_filler {
      type: "xavier"
    }
    bias_filler {
      type: "constant"
      value: 0
    }
  }
}
layer {
  name: "conv9_2_mbox_loc_perm"
  type: "Permute"
  bottom: "conv9_2_mbox_loc"
  top: "conv9_2_mbox_loc_perm"
  permute_param {
    order: 0
    order: 2
    order: 3
    order: 1
  }
}
layer {
  name: "conv9_2_mbox_loc_flat"
  type: "Flatten"
  bottom: "conv9_2_mbox_loc_perm"
  top: "conv9_2_mbox_loc_flat"
  flatten_param {
    axis: 1
  }
}
layer {
  name: "conv9_2_mbox_conf"
  type: "Convolution"
  bottom: "conv9_2"
  top: "conv9_2_mbox_conf"
  param {
    lr_mult: 1
    decay_mult: 1
  }
  param {
    lr_mult: 2
    decay_mult: 0
  }
  convolution_param {
    num_output: 8
    pad: 1
    kernel_size: 3
    stride: 1
    weight_filler {
      type: "xavier"
    }
    bias_filler {
      type: "constant"
      value: 0
    }
  }
}
layer {
  name: "conv9_2_mbox_conf_perm"
  type: "Permute"
  bottom: "conv9_2_mbox_conf"
  top: "conv9_2_mbox_conf_perm"
  permute_param {
    order: 0
    order: 2
    order: 3
    order: 1
  }
}
layer {
  name: "conv9_2_mbox_conf_flat"
  type: "Flatten"
  bottom: "conv9_2_mbox_conf_perm"
  top: "conv9_2_mbox_conf_flat"
  flatten_param {
    axis: 1
  }
}
layer {
  name: "conv9_2_mbox_clean"
  type: "Convolution"
  bottom: "conv9_2"
  top: "conv9_2_mbox_clean"
  param {
    lr_mult: 1
    decay_mult: 1
  }
  param {
    lr_mult: 2
    decay_mult: 0
  }
  convolution_param {
    num_output: 4
    pad: 1
    kernel_size: 3
    stride: 1
    weight_filler {
      type: "xavier"
    }
    bias_filler {
      type: "constant"
      value: 0
    }
  }
}
layer {
  name: "conv9_2_mbox_clean_perm"
  type: "Permute"
  bottom: "conv9_2_mbox_clean"
  top: "conv9_2_mbox_clean_perm"
  permute_param {
    order: 0
    order: 2
    order: 3
    order: 1
  }
}
layer {
  name: "conv9_2_mbox_clean_flat"
  type: "Flatten"
  bottom: "conv9_2_mbox_clean_perm"
  top: "conv9_2_mbox_clean_flat"
  flatten_param {
    axis: 1
  }
}
layer {
  name: "conv9_2_mbox_priorbox"
  type: "PriorBox"
  bottom: "conv9_2"
  bottom: "data"
  top: "conv9_2_mbox_priorbox"
  prior_box_param {
    min_size: 445.44
    max_size: 537.6
    aspect_ratio: 2
    flip: true
    clip: false
    variance: 0.1
    variance: 0.1
    variance: 0.2
    variance: 0.2
    step: 300
    offset: 0.5
  }
}
layer {
  name: "mbox_loc"
  type: "Concat"
  bottom: "conv4_3_norm_mbox_loc_flat"
  bottom: "fc7_mbox_loc_flat"
  bottom: "conv6_2_mbox_loc_flat"
  bottom: "conv7_2_mbox_loc_flat"
  bottom: "conv8_2_mbox_loc_flat"
  bottom: "conv9_2_mbox_loc_flat"
  top: "mbox_loc"
  concat_param {
    axis: 1
  }
}
layer {
  name: "mbox_conf"
  type: "Concat"
  bottom: "conv4_3_norm_mbox_conf_flat"
  bottom: "fc7_mbox_conf_flat"
  bottom: "conv6_2_mbox_conf_flat"
  bottom: "conv7_2_mbox_conf_flat"
  bottom: "conv8_2_mbox_conf_flat"
  bottom: "conv9_2_mbox_conf_flat"
  top: "mbox_conf"
  concat_param {
    axis: 1
  }
}
layer {
  name: "mbox_priorbox"
  type: "Concat"
  bottom: "conv4_3_norm_mbox_priorbox"
  bottom: "fc7_mbox_priorbox"
  bottom: "conv6_2_mbox_priorbox"
  bottom: "conv7_2_mbox_priorbox"
  bottom: "conv8_2_mbox_priorbox"
  bottom: "conv9_2_mbox_priorbox"
  top: "mbox_priorbox"
  concat_param {
    axis: 2
  }
}
layer {
  name: "mbox_clean"
  type: "Concat"
  bottom: "conv4_3_norm_mbox_clean_flat"
  bottom: "fc7_mbox_clean_flat"
  bottom: "conv6_2_mbox_clean_flat"
  bottom: "conv7_2_mbox_clean_flat"
  bottom: "conv8_2_mbox_clean_flat"
  bottom: "conv9_2_mbox_clean_flat"
  top: "mbox_clean"
  concat_param {
    axis: 1
  }
}
layer {
  name: "mbox_conf_reshape"
  type: "Reshape"
  bottom: "mbox_conf"
  top: "mbox_conf_reshape"
  reshape_param {
    shape {
      dim: 0
      dim: -1
      dim: 2
    }
  }
}
layer {
  name: "mbox_conf_softmax"
  type: "Softmax"
  bottom: "mbox_conf_reshape"
  top: "mbox_conf_softmax"
  softmax_param {
    axis: 2
  }
}
layer {
  name: "mbox_conf_flatten"
  type: "Flatten"
  bottom: "mbox_conf_softmax"
  top: "mbox_conf_flatten"
  flatten_param {
    axis: 1
  }
}
layer {
  name: "mbox_clean_sigmoid"
  type: "Sigmoid"
  bottom: "mbox_clean"
  top: "mbox_clean_sigmoid"
}
layer {
  name: "detection_out"
  type: "DetectionOutput"
  bottom: "mbox_loc"
  bottom: "mbox_conf_flatten"
  bottom: "mbox_priorbox"
  bottom: "mbox_clean_sigmoid"
  top: "detection_out"
  include {
    phase: TEST
  }
I0331 19:44:47.761848 18658 layer_factory.hpp:77] Creating layer data
I0331 19:44:47.765784 18658 net.cpp:100] Creating Layer data
I0331 19:44:47.765803 18658 net.cpp:408] data -> data
I0331 19:44:47.765818 18658 net.cpp:408] data -> label
I0331 19:44:47.779551 18727 db_lmdb.cpp:35] Opened lmdb /data/siyu/dataset/coco/lmdb/COCO_Val2014_person_lmdb
I0331 19:44:47.783561 18658 annotated_data_layer.cpp:62] output data size: 2,3,512,512
I0331 19:44:47.795302 18658 net.cpp:150] Setting up data
I0331 19:44:47.795348 18658 net.cpp:157] Top shape: 2 3 512 512 (1572864)
I0331 19:44:47.795359 18658 net.cpp:157] Top shape: 1 1 6 8 (48)
I0331 19:44:47.795366 18658 net.cpp:165] Memory required for data: 6291648
I0331 19:44:47.795375 18658 layer_factory.hpp:77] Creating layer data_data_0_split
I0331 19:44:47.795394 18658 net.cpp:100] Creating Layer data_data_0_split
I0331 19:44:47.795403 18658 net.cpp:434] data_data_0_split <- data
I0331 19:44:47.795413 18658 net.cpp:408] data_data_0_split -> data_data_0_split_0
I0331 19:44:47.795433 18658 net.cpp:408] data_data_0_split -> data_data_0_split_1
I0331 19:44:47.795444 18658 net.cpp:408] data_data_0_split -> data_data_0_split_2
I0331 19:44:47.795454 18658 net.cpp:408] data_data_0_split -> data_data_0_split_3
I0331 19:44:47.795464 18658 net.cpp:408] data_data_0_split -> data_data_0_split_4
I0331 19:44:47.795472 18658 net.cpp:408] data_data_0_split -> data_data_0_split_5
I0331 19:44:47.795480 18658 net.cpp:408] data_data_0_split -> data_data_0_split_6
I0331 19:44:47.795774 18658 net.cpp:150] Setting up data_data_0_split
I0331 19:44:47.795795 18658 net.cpp:157] Top shape: 2 3 512 512 (1572864)
I0331 19:44:47.795802 18658 net.cpp:157] Top shape: 2 3 512 512 (1572864)
I0331 19:44:47.795807 18658 net.cpp:157] Top shape: 2 3 512 512 (1572864)
I0331 19:44:47.795814 18658 net.cpp:157] Top shape: 2 3 512 512 (1572864)
I0331 19:44:47.795819 18658 net.cpp:157] Top shape: 2 3 512 512 (1572864)
I0331 19:44:47.795825 18658 net.cpp:157] Top shape: 2 3 512 512 (1572864)
I0331 19:44:47.795831 18658 net.cpp:157] Top shape: 2 3 512 512 (1572864)
I0331 19:44:47.795836 18658 net.cpp:165] Memory required for data: 50331840
I0331 19:44:47.795843 18658 layer_factory.hpp:77] Creating layer conv1_1
I0331 19:44:47.795861 18658 net.cpp:100] Creating Layer conv1_1
I0331 19:44:47.795869 18658 net.cpp:434] conv1_1 <- data_data_0_split_0
I0331 19:44:47.795881 18658 net.cpp:408] conv1_1 -> conv1_1
I0331 19:44:47.798424 18658 net.cpp:150] Setting up conv1_1
I0331 19:44:47.798444 18658 net.cpp:157] Top shape: 2 64 512 512 (33554432)
I0331 19:44:47.798449 18658 net.cpp:165] Memory required for data: 184549568
I0331 19:44:47.798465 18658 layer_factory.hpp:77] Creating layer relu1_1
I0331 19:44:47.798477 18658 net.cpp:100] Creating Layer relu1_1
I0331 19:44:47.798482 18658 net.cpp:434] relu1_1 <- conv1_1
I0331 19:44:47.798491 18658 net.cpp:395] relu1_1 -> conv1_1 (in-place)
I0331 19:44:47.798856 18658 net.cpp:150] Setting up relu1_1
I0331 19:44:47.798873 18658 net.cpp:157] Top shape: 2 64 512 512 (33554432)
I0331 19:44:47.798884 18658 net.cpp:165] Memory required for data: 318767296
I0331 19:44:47.798890 18658 layer_factory.hpp:77] Creating layer conv1_2
I0331 19:44:47.798910 18658 net.cpp:100] Creating Layer conv1_2
I0331 19:44:47.798916 18658 net.cpp:434] conv1_2 <- conv1_1
I0331 19:44:47.798926 18658 net.cpp:408] conv1_2 -> conv1_2
I0331 19:44:47.802098 18658 net.cpp:150] Setting up conv1_2
I0331 19:44:47.802120 18658 net.cpp:157] Top shape: 2 64 512 512 (33554432)
I0331 19:44:47.802130 18658 net.cpp:165] Memory required for data: 452985024
I0331 19:44:47.802145 18658 layer_factory.hpp:77] Creating layer relu1_2
I0331 19:44:47.802156 18658 net.cpp:100] Creating Layer relu1_2
I0331 19:44:47.802163 18658 net.cpp:434] relu1_2 <- conv1_2
I0331 19:44:47.802173 18658 net.cpp:395] relu1_2 -> conv1_2 (in-place)
I0331 19:44:47.802549 18658 net.cpp:150] Setting up relu1_2
I0331 19:44:47.802567 18658 net.cpp:157] Top shape: 2 64 512 512 (33554432)
I0331 19:44:47.802572 18658 net.cpp:165] Memory required for data: 587202752
I0331 19:44:47.802580 18658 layer_factory.hpp:77] Creating layer pool1
I0331 19:44:47.802592 18658 net.cpp:100] Creating Layer pool1
I0331 19:44:47.802597 18658 net.cpp:434] pool1 <- conv1_2
I0331 19:44:47.802605 18658 net.cpp:408] pool1 -> pool1
I0331 19:44:47.802673 18658 net.cpp:150] Setting up pool1
I0331 19:44:47.802685 18658 net.cpp:157] Top shape: 2 64 256 256 (8388608)
I0331 19:44:47.802690 18658 net.cpp:165] Memory required for data: 620757184
I0331 19:44:47.802695 18658 layer_factory.hpp:77] Creating layer conv2_1
I0331 19:44:47.802708 18658 net.cpp:100] Creating Layer conv2_1
I0331 19:44:47.802717 18658 net.cpp:434] conv2_1 <- pool1
I0331 19:44:47.802726 18658 net.cpp:408] conv2_1 -> conv2_1
I0331 19:44:47.805426 18658 net.cpp:150] Setting up conv2_1
I0331 19:44:47.805456 18658 net.cpp:157] Top shape: 2 128 256 256 (16777216)
I0331 19:44:47.805464 18658 net.cpp:165] Memory required for data: 687866048
I0331 19:44:47.805477 18658 layer_factory.hpp:77] Creating layer relu2_1
I0331 19:44:47.805490 18658 net.cpp:100] Creating Layer relu2_1
I0331 19:44:47.805496 18658 net.cpp:434] relu2_1 <- conv2_1
I0331 19:44:47.805505 18658 net.cpp:395] relu2_1 -> conv2_1 (in-place)
I0331 19:44:47.805730 18658 net.cpp:150] Setting up relu2_1
I0331 19:44:47.805744 18658 net.cpp:157] Top shape: 2 128 256 256 (16777216)
I0331 19:44:47.805750 18658 net.cpp:165] Memory required for data: 754974912
I0331 19:44:47.805757 18658 layer_factory.hpp:77] Creating layer conv2_2
I0331 19:44:47.805770 18658 net.cpp:100] Creating Layer conv2_2
I0331 19:44:47.805794 18658 net.cpp:434] conv2_2 <- conv2_1
I0331 19:44:47.805804 18658 net.cpp:408] conv2_2 -> conv2_2
I0331 19:44:47.809038 18658 net.cpp:150] Setting up conv2_2
I0331 19:44:47.809057 18658 net.cpp:157] Top shape: 2 128 256 256 (16777216)
I0331 19:44:47.809072 18658 net.cpp:165] Memory required for data: 822083776
I0331 19:44:47.809084 18658 layer_factory.hpp:77] Creating layer relu2_2
I0331 19:44:47.809095 18658 net.cpp:100] Creating Layer relu2_2
I0331 19:44:47.809101 18658 net.cpp:434] relu2_2 <- conv2_2
I0331 19:44:47.809110 18658 net.cpp:395] relu2_2 -> conv2_2 (in-place)
I0331 19:44:47.809484 18658 net.cpp:150] Setting up relu2_2
I0331 19:44:47.809500 18658 net.cpp:157] Top shape: 2 128 256 256 (16777216)
I0331 19:44:47.809505 18658 net.cpp:165] Memory required for data: 889192640
I0331 19:44:47.809511 18658 layer_factory.hpp:77] Creating layer pool2
I0331 19:44:47.809522 18658 net.cpp:100] Creating Layer pool2
I0331 19:44:47.809528 18658 net.cpp:434] pool2 <- conv2_2
I0331 19:44:47.809537 18658 net.cpp:408] pool2 -> pool2
I0331 19:44:47.809607 18658 net.cpp:150] Setting up pool2
I0331 19:44:47.809617 18658 net.cpp:157] Top shape: 2 128 128 128 (4194304)
I0331 19:44:47.809623 18658 net.cpp:165] Memory required for data: 905969856
I0331 19:44:47.809628 18658 layer_factory.hpp:77] Creating layer conv3_1
I0331 19:44:47.809641 18658 net.cpp:100] Creating Layer conv3_1
I0331 19:44:47.809649 18658 net.cpp:434] conv3_1 <- pool2
I0331 19:44:47.809659 18658 net.cpp:408] conv3_1 -> conv3_1
I0331 19:44:47.814191 18658 net.cpp:150] Setting up conv3_1
I0331 19:44:47.814226 18658 net.cpp:157] Top shape: 2 256 128 128 (8388608)
I0331 19:44:47.814234 18658 net.cpp:165] Memory required for data: 939524288
I0331 19:44:47.814254 18658 layer_factory.hpp:77] Creating layer relu3_1
I0331 19:44:47.814267 18658 net.cpp:100] Creating Layer relu3_1
I0331 19:44:47.814278 18658 net.cpp:434] relu3_1 <- conv3_1
I0331 19:44:47.814287 18658 net.cpp:395] relu3_1 -> conv3_1 (in-place)
I0331 19:44:47.814673 18658 net.cpp:150] Setting up relu3_1
I0331 19:44:47.814689 18658 net.cpp:157] Top shape: 2 256 128 128 (8388608)
I0331 19:44:47.814703 18658 net.cpp:165] Memory required for data: 973078720
I0331 19:44:47.814709 18658 layer_factory.hpp:77] Creating layer conv3_2
I0331 19:44:47.814728 18658 net.cpp:100] Creating Layer conv3_2
I0331 19:44:47.814733 18658 net.cpp:434] conv3_2 <- conv3_1
I0331 19:44:47.814743 18658 net.cpp:408] conv3_2 -> conv3_2
I0331 19:44:47.822098 18658 net.cpp:150] Setting up conv3_2
I0331 19:44:47.822118 18658 net.cpp:157] Top shape: 2 256 128 128 (8388608)
I0331 19:44:47.822129 18658 net.cpp:165] Memory required for data: 1006633152
I0331 19:44:47.822139 18658 layer_factory.hpp:77] Creating layer relu3_2
I0331 19:44:47.822150 18658 net.cpp:100] Creating Layer relu3_2
I0331 19:44:47.822157 18658 net.cpp:434] relu3_2 <- conv3_2
I0331 19:44:47.822165 18658 net.cpp:395] relu3_2 -> conv3_2 (in-place)
I0331 19:44:47.822397 18658 net.cpp:150] Setting up relu3_2
I0331 19:44:47.822412 18658 net.cpp:157] Top shape: 2 256 128 128 (8388608)
I0331 19:44:47.822417 18658 net.cpp:165] Memory required for data: 1040187584
I0331 19:44:47.822424 18658 layer_factory.hpp:77] Creating layer conv3_3
I0331 19:44:47.822443 18658 net.cpp:100] Creating Layer conv3_3
I0331 19:44:47.822451 18658 net.cpp:434] conv3_3 <- conv3_2
I0331 19:44:47.822463 18658 net.cpp:408] conv3_3 -> conv3_3
I0331 19:44:47.834796 18658 net.cpp:150] Setting up conv3_3
I0331 19:44:47.834830 18658 net.cpp:157] Top shape: 2 256 128 128 (8388608)
I0331 19:44:47.834836 18658 net.cpp:165] Memory required for data: 1073742016
I0331 19:44:47.834863 18658 layer_factory.hpp:77] Creating layer relu3_3
I0331 19:44:47.834887 18658 net.cpp:100] Creating Layer relu3_3
I0331 19:44:47.834913 18658 net.cpp:434] relu3_3 <- conv3_3
I0331 19:44:47.834923 18658 net.cpp:395] relu3_3 -> conv3_3 (in-place)
I0331 19:44:47.835301 18658 net.cpp:150] Setting up relu3_3
I0331 19:44:47.835317 18658 net.cpp:157] Top shape: 2 256 128 128 (8388608)
I0331 19:44:47.835350 18658 net.cpp:165] Memory required for data: 1107296448
I0331 19:44:47.835364 18658 layer_factory.hpp:77] Creating layer pool3
I0331 19:44:47.835383 18658 net.cpp:100] Creating Layer pool3
I0331 19:44:47.835391 18658 net.cpp:434] pool3 <- conv3_3
I0331 19:44:47.835408 18658 net.cpp:408] pool3 -> pool3
I0331 19:44:47.835491 18658 net.cpp:150] Setting up pool3
I0331 19:44:47.835502 18658 net.cpp:157] Top shape: 2 256 64 64 (2097152)
I0331 19:44:47.835508 18658 net.cpp:165] Memory required for data: 1115685056
I0331 19:44:47.835513 18658 layer_factory.hpp:77] Creating layer conv4_1
I0331 19:44:47.835557 18658 net.cpp:100] Creating Layer conv4_1
I0331 19:44:47.835568 18658 net.cpp:434] conv4_1 <- pool3
I0331 19:44:47.835609 18658 net.cpp:408] conv4_1 -> conv4_1
I0331 19:44:47.848269 18658 net.cpp:150] Setting up conv4_1
I0331 19:44:47.848291 18658 net.cpp:157] Top shape: 2 512 64 64 (4194304)
I0331 19:44:47.848302 18658 net.cpp:165] Memory required for data: 1132462272
I0331 19:44:47.848314 18658 layer_factory.hpp:77] Creating layer relu4_1
I0331 19:44:47.848343 18658 net.cpp:100] Creating Layer relu4_1
I0331 19:44:47.848351 18658 net.cpp:434] relu4_1 <- conv4_1
I0331 19:44:47.848364 18658 net.cpp:395] relu4_1 -> conv4_1 (in-place)
I0331 19:44:47.848729 18658 net.cpp:150] Setting up relu4_1
I0331 19:44:47.848745 18658 net.cpp:157] Top shape: 2 512 64 64 (4194304)
I0331 19:44:47.848752 18658 net.cpp:165] Memory required for data: 1149239488
I0331 19:44:47.848763 18658 layer_factory.hpp:77] Creating layer conv4_2
I0331 19:44:47.848784 18658 net.cpp:100] Creating Layer conv4_2
I0331 19:44:47.848790 18658 net.cpp:434] conv4_2 <- conv4_1
I0331 19:44:47.848800 18658 net.cpp:408] conv4_2 -> conv4_2
I0331 19:44:47.872834 18658 net.cpp:150] Setting up conv4_2
I0331 19:44:47.872879 18658 net.cpp:157] Top shape: 2 512 64 64 (4194304)
I0331 19:44:47.872885 18658 net.cpp:165] Memory required for data: 1166016704
I0331 19:44:47.872908 18658 layer_factory.hpp:77] Creating layer relu4_2
I0331 19:44:47.872931 18658 net.cpp:100] Creating Layer relu4_2
I0331 19:44:47.872941 18658 net.cpp:434] relu4_2 <- conv4_2
I0331 19:44:47.872956 18658 net.cpp:395] relu4_2 -> conv4_2 (in-place)
I0331 19:44:47.873188 18658 net.cpp:150] Setting up relu4_2
I0331 19:44:47.873201 18658 net.cpp:157] Top shape: 2 512 64 64 (4194304)
I0331 19:44:47.873208 18658 net.cpp:165] Memory required for data: 1182793920
I0331 19:44:47.873214 18658 layer_factory.hpp:77] Creating layer conv4_3
I0331 19:44:47.873263 18658 net.cpp:100] Creating Layer conv4_3
I0331 19:44:47.873272 18658 net.cpp:434] conv4_3 <- conv4_2
I0331 19:44:47.873281 18658 net.cpp:408] conv4_3 -> conv4_3
I0331 19:44:47.899155 18658 net.cpp:150] Setting up conv4_3
I0331 19:44:47.899200 18658 net.cpp:157] Top shape: 2 512 64 64 (4194304)
I0331 19:44:47.899207 18658 net.cpp:165] Memory required for data: 1199571136
I0331 19:44:47.899220 18658 layer_factory.hpp:77] Creating layer relu4_3
I0331 19:44:47.899271 18658 net.cpp:100] Creating Layer relu4_3
I0331 19:44:47.899282 18658 net.cpp:434] relu4_3 <- conv4_3
I0331 19:44:47.899294 18658 net.cpp:395] relu4_3 -> conv4_3 (in-place)
I0331 19:44:47.899721 18658 net.cpp:150] Setting up relu4_3
I0331 19:44:47.899739 18658 net.cpp:157] Top shape: 2 512 64 64 (4194304)
I0331 19:44:47.899744 18658 net.cpp:165] Memory required for data: 1216348352
I0331 19:44:47.899760 18658 layer_factory.hpp:77] Creating layer conv4_3_relu4_3_0_split
I0331 19:44:47.899768 18658 net.cpp:100] Creating Layer conv4_3_relu4_3_0_split
I0331 19:44:47.899775 18658 net.cpp:434] conv4_3_relu4_3_0_split <- conv4_3
I0331 19:44:47.899785 18658 net.cpp:408] conv4_3_relu4_3_0_split -> conv4_3_relu4_3_0_split_0
I0331 19:44:47.899796 18658 net.cpp:408] conv4_3_relu4_3_0_split -> conv4_3_relu4_3_0_split_1
I0331 19:44:47.899866 18658 net.cpp:150] Setting up conv4_3_relu4_3_0_split
I0331 19:44:47.899880 18658 net.cpp:157] Top shape: 2 512 64 64 (4194304)
I0331 19:44:47.899888 18658 net.cpp:157] Top shape: 2 512 64 64 (4194304)
I0331 19:44:47.899893 18658 net.cpp:165] Memory required for data: 1249902784
I0331 19:44:47.899914 18658 layer_factory.hpp:77] Creating layer pool4
I0331 19:44:47.899940 18658 net.cpp:100] Creating Layer pool4
I0331 19:44:47.899950 18658 net.cpp:434] pool4 <- conv4_3_relu4_3_0_split_0
I0331 19:44:47.899960 18658 net.cpp:408] pool4 -> pool4
I0331 19:44:47.900023 18658 net.cpp:150] Setting up pool4
I0331 19:44:47.900035 18658 net.cpp:157] Top shape: 2 512 32 32 (1048576)
I0331 19:44:47.900041 18658 net.cpp:165] Memory required for data: 1254097088
I0331 19:44:47.900046 18658 layer_factory.hpp:77] Creating layer conv5_1
I0331 19:44:47.900077 18658 net.cpp:100] Creating Layer conv5_1
I0331 19:44:47.900085 18658 net.cpp:434] conv5_1 <- pool4
I0331 19:44:47.900094 18658 net.cpp:408] conv5_1 -> conv5_1
I0331 19:44:47.924466 18658 net.cpp:150] Setting up conv5_1
I0331 19:44:47.924512 18658 net.cpp:157] Top shape: 2 512 32 32 (1048576)
I0331 19:44:47.924520 18658 net.cpp:165] Memory required for data: 1258291392
I0331 19:44:47.924545 18658 layer_factory.hpp:77] Creating layer relu5_1
I0331 19:44:47.924567 18658 net.cpp:100] Creating Layer relu5_1
I0331 19:44:47.924576 18658 net.cpp:434] relu5_1 <- conv5_1
I0331 19:44:47.924590 18658 net.cpp:395] relu5_1 -> conv5_1 (in-place)
I0331 19:44:47.924978 18658 net.cpp:150] Setting up relu5_1
I0331 19:44:47.924995 18658 net.cpp:157] Top shape: 2 512 32 32 (1048576)
I0331 19:44:47.925007 18658 net.cpp:165] Memory required for data: 1262485696
I0331 19:44:47.925014 18658 layer_factory.hpp:77] Creating layer conv5_2
I0331 19:44:47.925038 18658 net.cpp:100] Creating Layer conv5_2
I0331 19:44:47.925045 18658 net.cpp:434] conv5_2 <- conv5_1
I0331 19:44:47.925061 18658 net.cpp:408] conv5_2 -> conv5_2
I0331 19:44:47.951753 18658 net.cpp:150] Setting up conv5_2
I0331 19:44:47.951799 18658 net.cpp:157] Top shape: 2 512 32 32 (1048576)
I0331 19:44:47.951807 18658 net.cpp:165] Memory required for data: 1266680000
I0331 19:44:47.951822 18658 layer_factory.hpp:77] Creating layer relu5_2
I0331 19:44:47.951851 18658 net.cpp:100] Creating Layer relu5_2
I0331 19:44:47.951860 18658 net.cpp:434] relu5_2 <- conv5_2
I0331 19:44:47.951870 18658 net.cpp:395] relu5_2 -> conv5_2 (in-place)
I0331 19:44:47.955371 18658 net.cpp:150] Setting up relu5_2
I0331 19:44:47.955417 18658 net.cpp:157] Top shape: 2 512 32 32 (1048576)
I0331 19:44:47.955430 18658 net.cpp:165] Memory required for data: 1270874304
I0331 19:44:47.955440 18658 layer_factory.hpp:77] Creating layer conv5_3
I0331 19:44:47.955471 18658 net.cpp:100] Creating Layer conv5_3
I0331 19:44:47.955487 18658 net.cpp:434] conv5_3 <- conv5_2
I0331 19:44:47.955510 18658 net.cpp:408] conv5_3 -> conv5_3
I0331 19:44:47.995672 18658 net.cpp:150] Setting up conv5_3
I0331 19:44:47.995729 18658 net.cpp:157] Top shape: 2 512 32 32 (1048576)
I0331 19:44:47.995739 18658 net.cpp:165] Memory required for data: 1275068608
I0331 19:44:47.995771 18658 layer_factory.hpp:77] Creating layer relu5_3
I0331 19:44:47.995818 18658 net.cpp:100] Creating Layer relu5_3
I0331 19:44:47.995832 18658 net.cpp:434] relu5_3 <- conv5_3
I0331 19:44:47.995848 18658 net.cpp:395] relu5_3 -> conv5_3 (in-place)
I0331 19:44:47.996386 18658 net.cpp:150] Setting up relu5_3
I0331 19:44:47.996409 18658 net.cpp:157] Top shape: 2 512 32 32 (1048576)
I0331 19:44:47.996423 18658 net.cpp:165] Memory required for data: 1279262912
I0331 19:44:47.996433 18658 layer_factory.hpp:77] Creating layer pool5
I0331 19:44:47.996448 18658 net.cpp:100] Creating Layer pool5
I0331 19:44:47.996456 18658 net.cpp:434] pool5 <- conv5_3
I0331 19:44:47.996469 18658 net.cpp:408] pool5 -> pool5
I0331 19:44:47.996577 18658 net.cpp:150] Setting up pool5
I0331 19:44:47.996592 18658 net.cpp:157] Top shape: 2 512 32 32 (1048576)
I0331 19:44:47.996598 18658 net.cpp:165] Memory required for data: 1283457216
I0331 19:44:47.996605 18658 layer_factory.hpp:77] Creating layer fc6
I0331 19:44:47.996628 18658 net.cpp:100] Creating Layer fc6
I0331 19:44:47.996639 18658 net.cpp:434] fc6 <- pool5
I0331 19:44:47.996654 18658 net.cpp:408] fc6 -> fc6
I0331 19:44:48.056826 18658 net.cpp:150] Setting up fc6
I0331 19:44:48.056874 18658 net.cpp:157] Top shape: 2 1024 32 32 (2097152)
I0331 19:44:48.056906 18658 net.cpp:165] Memory required for data: 1291845824
I0331 19:44:48.056936 18658 layer_factory.hpp:77] Creating layer relu6
I0331 19:44:48.056959 18658 net.cpp:100] Creating Layer relu6
I0331 19:44:48.056970 18658 net.cpp:434] relu6 <- fc6
I0331 19:44:48.056982 18658 net.cpp:395] relu6 -> fc6 (in-place)
I0331 19:44:48.057317 18658 net.cpp:150] Setting up relu6
I0331 19:44:48.057337 18658 net.cpp:157] Top shape: 2 1024 32 32 (2097152)
I0331 19:44:48.057350 18658 net.cpp:165] Memory required for data: 1300234432
I0331 19:44:48.057363 18658 layer_factory.hpp:77] Creating layer fc7
I0331 19:44:48.057396 18658 net.cpp:100] Creating Layer fc7
I0331 19:44:48.057415 18658 net.cpp:434] fc7 <- fc6
I0331 19:44:48.057428 18658 net.cpp:408] fc7 -> fc7
I0331 19:44:48.071842 18658 net.cpp:150] Setting up fc7
I0331 19:44:48.071867 18658 net.cpp:157] Top shape: 2 1024 32 32 (2097152)
I0331 19:44:48.071879 18658 net.cpp:165] Memory required for data: 1308623040
I0331 19:44:48.071892 18658 layer_factory.hpp:77] Creating layer relu7
I0331 19:44:48.071915 18658 net.cpp:100] Creating Layer relu7
I0331 19:44:48.071933 18658 net.cpp:434] relu7 <- fc7
I0331 19:44:48.071944 18658 net.cpp:395] relu7 -> fc7 (in-place)
I0331 19:44:48.072198 18658 net.cpp:150] Setting up relu7
I0331 19:44:48.072214 18658 net.cpp:157] Top shape: 2 1024 32 32 (2097152)
I0331 19:44:48.072222 18658 net.cpp:165] Memory required for data: 1317011648
I0331 19:44:48.072229 18658 layer_factory.hpp:77] Creating layer fc7_relu7_0_split
I0331 19:44:48.072258 18658 net.cpp:100] Creating Layer fc7_relu7_0_split
I0331 19:44:48.072266 18658 net.cpp:434] fc7_relu7_0_split <- fc7
I0331 19:44:48.072276 18658 net.cpp:408] fc7_relu7_0_split -> fc7_relu7_0_split_0
…
I0331 19:44:48.098945 18658 net.cpp:150] Setting up conv7_2_conv7_2_relu_0_split
I0331 19:44:48.098958 18658 net.cpp:157] Top shape: 2 256 8 8 (32768)
I0331 19:44:48.098965 18658 net.cpp:157] Top shape: 2 256 8 8 (32768)
I0331 19:44:48.098971 18658 net.cpp:157] Top shape: 2 256 8 8 (32768)
I0331 19:44:48.098978 18658 net.cpp:157] Top shape: 2 256 8 8 (32768)
I0331 19:44:48.098984 18658 net.cpp:157] Top shape: 2 256 8 8 (32768)
I0331 19:44:48.098990 18658 net.cpp:165] Memory required for data: 1371930816
I0331 19:44:48.098997 18658 layer_factory.hpp:77] Creating layer conv8_1
I0331 19:44:48.099025 18658 net.cpp:100] Creating Layer conv8_1
I0331 19:44:48.099035 18658 net.cpp:434] conv8_1 <- conv7_2_conv7_2_relu_0_split_0
I0331 19:44:48.099045 18658 net.cpp:408] conv8_1 -> conv8_1
I0331 19:44:48.100724 18658 net.cpp:150] Setting up conv8_1
I0331 19:44:48.100742 18658 net.cpp:157] Top shape: 2 128 8 8 (16384)
I0331 19:44:48.100749 18658 net.cpp:165] Memory required for data: 1371996352
I0331 19:44:48.100757 18658 layer_factory.hpp:77] Creating layer conv8_1_relu
I0331 19:44:48.100769 18658 net.cpp:100] Creating Layer conv8_1_relu
I0331 19:44:48.100777 18658 net.cpp:434] conv8_1_relu <- conv8_1
I0331 19:44:48.100785 18658 net.cpp:395] conv8_1_relu -> conv8_1 (in-place)
I0331 19:44:48.101002 18658 net.cpp:150] Setting up conv8_1_relu
I0331 19:44:48.101017 18658 net.cpp:157] Top shape: 2 128 8 8 (16384)
I0331 19:44:48.101023 18658 net.cpp:165] Memory required for data: 1372061888
I0331 19:44:48.101037 18658 layer_factory.hpp:77] Creating layer conv8_2
I0331 19:44:48.101052 18658 net.cpp:100] Creating Layer conv8_2
I0331 19:44:48.101063 18658 net.cpp:434] conv8_2 <- conv8_1
I0331 19:44:48.101074 18658 net.cpp:408] conv8_2 -> conv8_2
I0331 19:44:48.105391 18658 net.cpp:150] Setting up conv8_2
I0331 19:44:48.105410 18658 net.cpp:157] Top shape: 2 256 6 6 (18432)
I0331 19:44:48.105417 18658 net.cpp:165] Memory required for data: 1372135616
I0331 19:44:48.105425 18658 layer_factory.hpp:77] Creating layer conv8_2_relu
I0331 19:44:48.105437 18658 net.cpp:100] Creating Layer conv8_2_relu
I0331 19:44:48.105444 18658 net.cpp:434] conv8_2_relu <- conv8_2
I0331 19:44:48.105453 18658 net.cpp:395] conv8_2_relu -> conv8_2 (in-place)
I0331 19:44:48.105687 18658 net.cpp:150] Setting up conv8_2_relu
I0331 19:44:48.105705 18658 net.cpp:157] Top shape: 2 256 6 6 (18432)
I0331 19:44:48.105712 18658 net.cpp:165] Memory required for data: 1372209344
I0331 19:44:48.105718 18658 layer_factory.hpp:77] Creating layer conv8_2_conv8_2_relu_0_split
I0331 19:44:48.105736 18658 net.cpp:100] Creating Layer conv8_2_conv8_2_relu_0_split
I0331 19:44:48.105748 18658 net.cpp:434] conv8_2_conv8_2_relu_0_split <- conv8_2
I0331 19:44:48.105759 18658 net.cpp:408] conv8_2_conv8_2_relu_0_split -> conv8_2_conv8_2_relu_0_split_0
I0331 19:44:48.105770 18658 net.cpp:408] conv8_2_conv8_2_relu_0_split -> conv8_2_conv8_2_relu_0_split_1
I0331 19:44:48.105783 18658 net.cpp:408] conv8_2_conv8_2_relu_0_split -> conv8_2_conv8_2_relu_0_split_2
I0331 19:44:48.105792 18658 net.cpp:408] conv8_2_conv8_2_relu_0_split -> conv8_2_conv8_2_relu_0_split_3
I0331 19:44:48.105803 18658 net.cpp:408] conv8_2_conv8_2_relu_0_split -> conv8_2_conv8_2_relu_0_split_4
I0331 19:44:48.105937 18658 net.cpp:150] Setting up conv8_2_conv8_2_relu_0_split
I0331 19:44:48.105950 18658 net.cpp:157] Top shape: 2 256 6 6 (18432)
I0331 19:44:48.105958 18658 net.cpp:157] Top shape: 2 256 6 6 (18432)
I0331 19:44:48.105964 18658 net.cpp:157] Top shape: 2 256 6 6 (18432)
I0331 19:44:48.105970 18658 net.cpp:157] Top shape: 2 256 6 6 (18432)
I0331 19:44:48.105978 18658 net.cpp:157] Top shape: 2 256 6 6 (18432)
I0331 19:44:48.105998 18658 net.cpp:165] Memory required for data: 1372577984
I0331 19:44:48.106005 18658 layer_factory.hpp:77] Creating layer conv9_1
I0331 19:44:48.106029 18658 net.cpp:100] Creating Layer conv9_1
I0331 19:44:48.106039 18658 net.cpp:434] conv9_1 <- conv8_2_conv8_2_relu_0_split_0
I0331 19:44:48.106048 18658 net.cpp:408] conv9_1 -> conv9_1
I0331 19:44:48.107730 18658 net.cpp:150] Setting up conv9_1
I0331 19:44:48.107748 18658 net.cpp:157] Top shape: 2 128 6 6 (9216)
I0331 19:44:48.107754 18658 net.cpp:165] Memory required for data: 1372614848
I0331 19:44:48.107772 18658 layer_factory.hpp:77] Creating layer conv9_1_relu
I0331 19:44:48.107781 18658 net.cpp:100] Creating Layer conv9_1_relu
I0331 19:44:48.107789 18658 net.cpp:434] conv9_1_relu <- conv9_1
I0331 19:44:48.107798 18658 net.cpp:395] conv9_1_relu -> conv9_1 (in-place)
I0331 19:44:48.108186 18658 net.cpp:150] Setting up conv9_1_relu
I0331 19:44:48.108203 18658 net.cpp:157] Top shape: 2 128 6 6 (9216)
I0331 19:44:48.108208 18658 net.cpp:165] Memory required for data: 1372651712
I0331 19:44:48.108213 18658 layer_factory.hpp:77] Creating layer conv9_2
I0331 19:44:48.108227 18658 net.cpp:100] Creating Layer conv9_2
I0331 19:44:48.108235 18658 net.cpp:434] conv9_2 <- conv9_1
I0331 19:44:48.108247 18658 net.cpp:408] conv9_2 -> conv9_2
I0331 19:44:48.112934 18658 net.cpp:150] Setting up conv9_2
I0331 19:44:48.112956 18658 net.cpp:157] Top shape: 2 256 4 4 (8192)
I0331 19:44:48.112962 18658 net.cpp:165] Memory required for data: 1372684480
I0331 19:44:48.112970 18658 layer_factory.hpp:77] Creating layer conv9_2_relu
I0331 19:44:48.112979 18658 net.cpp:100] Creating Layer conv9_2_relu
I0331 19:44:48.112985 18658 net.cpp:434] conv9_2_relu <- conv9_2
I0331 19:44:48.112993 18658 net.cpp:395] conv9_2_relu -> conv9_2 (in-place)
I0331 19:44:48.113206 18658 net.cpp:150] Setting up conv9_2_relu
I0331 19:44:48.113221 18658 net.cpp:157] Top shape: 2 256 4 4 (8192)
I0331 19:44:48.113227 18658 net.cpp:165] Memory required for data: 1372717248
I0331 19:44:48.113234 18658 layer_factory.hpp:77] Creating layer conv9_2_conv9_2_relu_0_split
I0331 19:44:48.113255 18658 net.cpp:100] Creating Layer conv9_2_conv9_2_relu_0_split
I0331 19:44:48.113260 18658 net.cpp:434] conv9_2_conv9_2_relu_0_split <- conv9_2
I0331 19:44:48.113268 18658 net.cpp:408] conv9_2_conv9_2_relu_0_split -> conv9_2_conv9_2_relu_0_split_0
I0331 19:44:48.113281 18658 net.cpp:408] conv9_2_conv9_2_relu_0_split -> conv9_2_conv9_2_relu_0_split_1
I0331 19:44:48.113291 18658 net.cpp:408] conv9_2_conv9_2_relu_0_split -> conv9_2_conv9_2_relu_0_split_2
I0331 19:44:48.113301 18658 net.cpp:408] conv9_2_conv9_2_relu_0_split -> conv9_2_conv9_2_relu_0_split_3
I0331 19:44:48.113418 18658 net.cpp:150] Setting up conv9_2_conv9_2_relu_0_split
I0331 19:44:48.113430 18658 net.cpp:157] Top shape: 2 256 4 4 (8192)
I0331 19:44:48.113435 18658 net.cpp:157] Top shape: 2 256 4 4 (8192)
I0331 19:44:48.113441 18658 net.cpp:157] Top shape: 2 256 4 4 (8192)
I0331 19:44:48.113446 18658 net.cpp:157] Top shape: 2 256 4 4 (8192)
I0331 19:44:48.113451 18658 net.cpp:165] Memory required for data: 1372848320
I0331 19:44:48.113457 18658 layer_factory.hpp:77] Creating layer conv4_3_norm
I0331 19:44:48.113476 18658 net.cpp:100] Creating Layer conv4_3_norm
I0331 19:44:48.113483 18658 net.cpp:434] conv4_3_norm <- conv4_3_relu4_3_0_split_1
I0331 19:44:48.113493 18658 net.cpp:408] conv4_3_norm -> conv4_3_norm
I0331 19:44:48.113749 18658 net.cpp:150] Setting up conv4_3_norm
I0331 19:44:48.113760 18658 net.cpp:157] Top shape: 2 512 64 64 (4194304)
I0331 19:44:48.113766 18658 net.cpp:165] Memory required for data: 1389625536
I0331 19:44:48.113775 18658 layer_factory.hpp:77] Creating layer conv4_3_norm_conv4_3_norm_0_split
I0331 19:44:48.113781 18658 net.cpp:100] Creating Layer conv4_3_norm_conv4_3_norm_0_split
I0331 19:44:48.113790 18658 net.cpp:434] conv4_3_norm_conv4_3_norm_0_split <- conv4_3_norm
I0331 19:44:48.113798 18658 net.cpp:408] conv4_3_norm_conv4_3_norm_0_split -> conv4_3_norm_conv4_3_norm_0_split_0
I0331 19:44:48.113827 18658 net.cpp:408] conv4_3_norm_conv4_3_norm_0_split -> conv4_3_norm_conv4_3_norm_0_split_1
I0331 19:44:48.113838 18658 net.cpp:408] conv4_3_norm_conv4_3_norm_0_split -> conv4_3_norm_conv4_3_norm_0_split_2
I0331 19:44:48.113847 18658 net.cpp:408] conv4_3_norm_conv4_3_norm_0_split -> conv4_3_norm_conv4_3_norm_0_split_3
I0331 19:44:48.113946 18658 net.cpp:150] Setting up conv4_3_norm_conv4_3_norm_0_split
I0331 19:44:48.113960 18658 net.cpp:157] Top shape: 2 512 64 64 (4194304)
I0331 19:44:48.113967 18658 net.cpp:157] Top shape: 2 512 64 64 (4194304)
I0331 19:44:48.113975 18658 net.cpp:157] Top shape: 2 512 64 64 (4194304)
I0331 19:44:48.113981 18658 net.cpp:157] Top shape: 2 512 64 64 (4194304)
I0331 19:44:48.113988 18658 net.cpp:165] Memory required for data: 1456734400
I0331 19:44:48.113994 18658 layer_factory.hpp:77] Creating layer conv4_3_norm_mbox_loc
I0331 19:44:48.114009 18658 net.cpp:100] Creating Layer conv4_3_norm_mbox_loc
I0331 19:44:48.114020 18658 net.cpp:434] conv4_3_norm_mbox_loc <- conv4_3_norm_conv4_3_norm_0_split_0
I0331 19:44:48.114033 18658 net.cpp:408] conv4_3_norm_mbox_loc -> conv4_3_norm_mbox_loc
I0331 19:44:48.116251 18658 net.cpp:150] Setting up conv4_3_norm_mbox_loc
I0331 19:44:48.116271 18658 net.cpp:157] Top shape: 2 16 64 64 (131072)
I0331 19:44:48.116282 18658 net.cpp:165] Memory required for data: 1457258688
I0331 19:44:48.116302 18658 layer_factory.hpp:77] Creating layer conv4_3_norm_mbox_loc_perm
I0331 19:44:48.116317 18658 net.cpp:100] Creating Layer conv4_3_norm_mbox_loc_perm
I0331 19:44:48.116329 18658 net.cpp:434] conv4_3_norm_mbox_loc_perm <- conv4_3_norm_mbox_loc
I0331 19:44:48.116339 18658 net.cpp:408] conv4_3_norm_mbox_loc_perm -> conv4_3_norm_mbox_loc_perm
I0331 19:44:48.116513 18658 net.cpp:150] Setting up conv4_3_norm_mbox_loc_perm
I0331 19:44:48.116526 18658 net.cpp:157] Top shape: 2 64 64 16 (131072)
I0331 19:44:48.116533 18658 net.cpp:165] Memory required for data: 1457782976
I0331 19:44:48.116539 18658 layer_factory.hpp:77] Creating layer conv4_3_norm_mbox_loc_flat
I0331 19:44:48.116550 18658 net.cpp:100] Creating Layer conv4_3_norm_mbox_loc_flat
I0331 19:44:48.116557 18658 net.cpp:434] conv4_3_norm_mbox_loc_flat <- conv4_3_norm_mbox_loc_perm
I0331 19:44:48.116566 18658 net.cpp:408] conv4_3_norm_mbox_loc_flat -> conv4_3_norm_mbox_loc_flat
I0331 19:44:48.116612 18658 net.cpp:150] Setting up conv4_3_norm_mbox_loc_flat
I0331 19:44:48.116624 18658 net.cpp:157] Top shape: 2 65536 (131072)
I0331 19:44:48.116629 18658 net.cpp:165] Memory required for data: 1458307264
I0331 19:44:48.116636 18658 layer_factory.hpp:77] Creating layer conv4_3_norm_mbox_conf
I0331 19:44:48.116658 18658 net.cpp:100] Creating Layer conv4_3_norm_mbox_conf
I0331 19:44:48.116667 18658 net.cpp:434] conv4_3_norm_mbox_conf <- conv4_3_norm_conv4_3_norm_0_split_1
I0331 19:44:48.116678 18658 net.cpp:408] conv4_3_norm_mbox_conf -> conv4_3_norm_mbox_conf
I0331 19:44:48.119130 18658 net.cpp:150] Setting up conv4_3_norm_mbox_conf
I0331 19:44:48.119150 18658 net.cpp:157] Top shape: 2 8 64 64 (65536)
I0331 19:44:48.119156 18658 net.cpp:165] Memory required for data: 1458569408
I0331 19:44:48.119168 18658 layer_factory.hpp:77] Creating layer conv4_3_norm_mbox_conf_perm
I0331 19:44:48.119189 18658 net.cpp:100] Creating Layer conv4_3_norm_mbox_conf_perm
I0331 19:44:48.119197 18658 net.cpp:434] conv4_3_norm_mbox_conf_perm <- conv4_3_norm_mbox_conf
I0331 19:44:48.119210 18658 net.cpp:408] conv4_3_norm_mbox_conf_perm -> conv4_3_norm_mbox_conf_perm
I0331 19:44:48.119393 18658 net.cpp:150] Setting up conv4_3_norm_mbox_conf_perm
I0331 19:44:48.119406 18658 net.cpp:157] Top shape: 2 64 64 8 (65536)
I0331 19:44:48.119412 18658 net.cpp:165] Memory required for data: 1458831552
I0331 19:44:48.119418 18658 layer_factory.hpp:77] Creating layer conv4_3_norm_mbox_conf_flat
I0331 19:44:48.119427 18658 net.cpp:100] Creating Layer conv4_3_norm_mbox_conf_flat
I0331 19:44:48.119436 18658 net.cpp:434] conv4_3_norm_mbox_conf_flat <- conv4_3_norm_mbox_conf_perm
I0331 19:44:48.119449 18658 net.cpp:408] conv4_3_norm_mbox_conf_flat -> conv4_3_norm_mbox_conf_flat
I0331 19:44:48.119508 18658 net.cpp:150] Setting up conv4_3_norm_mbox_conf_flat
I0331 19:44:48.119520 18658 net.cpp:157] Top shape: 2 32768 (65536)
I0331 19:44:48.119526 18658 net.cpp:165] Memory required for data: 1459093696
I0331 19:44:48.119534 18658 layer_factory.hpp:77] Creating layer conv4_3_norm_mbox_clean
I0331 19:44:48.119551 18658 net.cpp:100] Creating Layer conv4_3_norm_mbox_clean
I0331 19:44:48.119562 18658 net.cpp:434] conv4_3_norm_mbox_clean <- conv4_3_norm_conv4_3_norm_0_split_2
I0331 19:44:48.119571 18658 net.cpp:408] conv4_3_norm_mbox_clean -> conv4_3_norm_mbox_clean
I0331 19:44:48.121480 18658 net.cpp:150] Setting up conv4_3_norm_mbox_clean
I0331 19:44:48.121501 18658 net.cpp:157] Top shape: 2 4 64 64 (32768)
I0331 19:44:48.121508 18658 net.cpp:165] Memory required for data: 1459224768
I0331 19:44:48.121520 18658 layer_factory.hpp:77] Creating layer conv4_3_norm_mbox_clean_perm
I0331 19:44:48.121529 18658 net.cpp:100] Creating Layer conv4_3_norm_mbox_clean_perm
I0331 19:44:48.121539 18658 net.cpp:434] conv4_3_norm_mbox_clean_perm <- conv4_3_norm_mbox_clean
I0331 19:44:48.121551 18658 net.cpp:408] conv4_3_norm_mbox_clean_perm -> conv4_3_norm_mbox_clean_perm
I0331 19:44:48.121732 18658 net.cpp:150] Setting up conv4_3_norm_mbox_clean_perm
I0331 19:44:48.121744 18658 net.cpp:157] Top shape: 2 64 64 4 (32768)
I0331 19:44:48.121752 18658 net.cpp:165] Memory required for data: 1459355840
I0331 19:44:48.121767 18658 layer_factory.hpp:77] Creating layer conv4_3_norm_mbox_clean_flat
I0331 19:44:48.121783 18658 net.cpp:100] Creating Layer conv4_3_norm_mbox_clean_flat
I0331 19:44:48.121790 18658 net.cpp:434] conv4_3_norm_mbox_clean_flat <- conv4_3_norm_mbox_clean_perm
I0331 19:44:48.121798 18658 net.cpp:408] conv4_3_norm_mbox_clean_flat -> conv4_3_norm_mbox_clean_flat
I0331 19:44:48.121843 18658 net.cpp:150] Setting up conv4_3_norm_mbox_clean_flat
I0331 19:44:48.121855 18658 net.cpp:157] Top shape: 2 16384 (32768)
I0331 19:44:48.121862 18658 net.cpp:165] Memory required for data: 1459486912
I0331 19:44:48.121867 18658 layer_factory.hpp:77] Creating layer conv4_3_norm_mbox_priorbox
I0331 19:44:48.121881 18658 net.cpp:100] Creating Layer conv4_3_norm_mbox_priorbox
I0331 19:44:48.121886 18658 net.cpp:434] conv4_3_norm_mbox_priorbox <- conv4_3_norm_conv4_3_norm_0_split_3
I0331 19:44:48.121896 18658 net.cpp:434] conv4_3_norm_mbox_priorbox <- data_data_0_split_1
I0331 19:44:48.121907 18658 net.cpp:408] conv4_3_norm_mbox_priorbox -> conv4_3_norm_mbox_priorbox
I0331 19:44:48.121956 18658 net.cpp:150] Setting up conv4_3_norm_mbox_priorbox
I0331 19:44:48.121968 18658 net.cpp:157] Top shape: 1 2 65536 (131072)
I0331 19:44:48.121978 18658 net.cpp:165] Memory required for data: 1460011200
I0331 19:44:48.121984 18658 layer_factory.hpp:77] Creating layer fc7_mbox_loc
I0331 19:44:48.121996 18658 net.cpp:100] Creating Layer fc7_mbox_loc
I0331 19:44:48.122004 18658 net.cpp:434] fc7_mbox_loc <- fc7_relu7_0_split_1
I0331 19:44:48.122016 18658 net.cpp:408] fc7_mbox_loc -> fc7_mbox_loc
I0331 19:44:48.125844 18658 net.cpp:150] Setting up fc7_mbox_loc
I0331 19:44:48.125862 18658 net.cpp:157] Top shape: 2 24 32 32 (49152)
I0331 19:44:48.125870 18658 net.cpp:165] Memory required for data: 1460207808
I0331 19:44:48.125880 18658 layer_factory.hpp:77] Creating layer fc7_mbox_loc_perm
I0331 19:44:48.125891 18658 net.cpp:100] Creating Layer fc7_mbox_loc_perm
I0331 19:44:48.125897 18658 net.cpp:434] fc7_mbox_loc_perm <- fc7_mbox_loc
I0331 19:44:48.125907 18658 net.cpp:408] fc7_mbox_loc_perm -> fc7_mbox_loc_perm
I0331 19:44:48.126085 18658 net.cpp:150] Setting up fc7_mbox_loc_perm
I0331 19:44:48.126094 18658 net.cpp:157] Top shape: 2 32 32 24 (49152)
I0331 19:44:48.126101 18658 net.cpp:165] Memory required for data: 1460404416
I0331 19:44:48.126114 18658 layer_factory.hpp:77] Creating layer fc7_mbox_loc_flat
I0331 19:44:48.126127 18658 net.cpp:100] Creating Layer fc7_mbox_loc_flat
I0331 19:44:48.126133 18658 net.cpp:434] fc7_mbox_loc_flat <- fc7_mbox_loc_perm
I0331 19:44:48.126142 18658 net.cpp:408] fc7_mbox_loc_flat -> fc7_mbox_loc_flat
I0331 19:44:48.126205 18658 net.cpp:150] Setting up fc7_mbox_loc_flat
I0331 19:44:48.126217 18658 net.cpp:157] Top shape: 2 24576 (49152)
I0331 19:44:48.126224 18658 net.cpp:165] Memory required for data: 1460601024
I0331 19:44:48.126233 18658 layer_factory.hpp:77] Creating layer fc7_mbox_conf
I0331 19:44:48.126246 18658 net.cpp:100] Creating Layer fc7_mbox_conf
I0331 19:44:48.126257 18658 net.cpp:434] fc7_mbox_conf <- fc7_relu7_0_split_2
I0331 19:44:48.126269 18658 net.cpp:408] fc7_mbox_conf -> fc7_mbox_conf
I0331 19:44:48.129348 18658 net.cpp:150] Setting up fc7_mbox_conf
I0331 19:44:48.129369 18658 net.cpp:157] Top shape: 2 12 32 32 (24576)
I0331 19:44:48.129376 18658 net.cpp:165] Memory required for data: 1460699328
I0331 19:44:48.129386 18658 layer_factory.hpp:77] Creating layer fc7_mbox_conf_perm
I0331 19:44:48.129397 18658 net.cpp:100] Creating Layer fc7_mbox_conf_perm
I0331 19:44:48.129403 18658 net.cpp:434] fc7_mbox_conf_perm <- fc7_mbox_conf
I0331 19:44:48.129411 18658 net.cpp:408] fc7_mbox_conf_perm -> fc7_mbox_conf_perm
I0331 19:44:48.129596 18658 net.cpp:150] Setting up fc7_mbox_conf_perm
I0331 19:44:48.129608 18658 net.cpp:157] Top shape: 2 32 32 12 (24576)
I0331 19:44:48.129613 18658 net.cpp:165] Memory required for data: 1460797632
I0331 19:44:48.129627 18658 layer_factory.hpp:77] Creating layer fc7_mbox_conf_flat
I0331 19:44:48.129643 18658 net.cpp:100] Creating Layer fc7_mbox_conf_flat
I0331 19:44:48.129650 18658 net.cpp:434] fc7_mbox_conf_flat <- fc7_mbox_conf_perm
I0331 19:44:48.129659 18658 net.cpp:408] fc7_mbox_conf_flat -> fc7_mbox_conf_flat
I0331 19:44:48.129703 18658 net.cpp:150] Setting up fc7_mbox_conf_flat
I0331 19:44:48.129714 18658 net.cpp:157] Top shape: 2 12288 (24576)
I0331 19:44:48.129720 18658 net.cpp:165] Memory required for data: 1460895936
I0331 19:44:48.129726 18658 layer_factory.hpp:77] Creating layer fc7_mbox_clean
I0331 19:44:48.129748 18658 net.cpp:100] Creating Layer fc7_mbox_clean
I0331 19:44:48.129756 18658 net.cpp:434] fc7_mbox_clean <- fc7_relu7_0_split_3
I0331 19:44:48.129768 18658 net.cpp:408] fc7_mbox_clean -> fc7_mbox_clean
I0331 19:44:48.131850 18658 net.cpp:150] Setting up fc7_mbox_clean
I0331 19:44:48.131870 18658 net.cpp:157] Top shape: 2 6 32 32 (12288)
I0331 19:44:48.131876 18658 net.cpp:165] Memory required for data: 1460945088
I0331 19:44:48.131886 18658 layer_factory.hpp:77] Creating layer fc7_mbox_clean_perm
I0331 19:44:48.131916 18658 net.cpp:100] Creating Layer fc7_mbox_clean_perm
I0331 19:44:48.131925 18658 net.cpp:434] fc7_mbox_clean_perm <- fc7_mbox_clean
I0331 19:44:48.131934 18658 net.cpp:408] fc7_mbox_clean_perm -> fc7_mbox_clean_perm
I0331 19:44:48.132127 18658 net.cpp:150] Setting up fc7_mbox_clean_perm
I0331 19:44:48.132139 18658 net.cpp:157] Top shape: 2 32 32 6 (12288)
I0331 19:44:48.132145 18658 net.cpp:165] Memory required for data: 1460994240
I0331 19:44:48.132151 18658 layer_factory.hpp:77] Creating layer fc7_mbox_clean_flat
I0331 19:44:48.132169 18658 net.cpp:100] Creating Layer fc7_mbox_clean_flat
I0331 19:44:48.132176 18658 net.cpp:434] fc7_mbox_clean_flat <- fc7_mbox_clean_perm
I0331 19:44:48.132187 18658 net.cpp:408] fc7_mbox_clean_flat -> fc7_mbox_clean_flat
I0331 19:44:48.132233 18658 net.cpp:150] Setting up fc7_mbox_clean_flat
I0331 19:44:48.132247 18658 net.cpp:157] Top shape: 2 6144 (12288)
I0331 19:44:48.132253 18658 net.cpp:165] Memory required for data: 1461043392
I0331 19:44:48.132263 18658 layer_factory.hpp:77] Creating layer fc7_mbox_priorbox
I0331 19:44:48.132274 18658 net.cpp:100] Creating Layer fc7_mbox_priorbox
I0331 19:44:48.132283 18658 net.cpp:434] fc7_mbox_priorbox <- fc7_relu7_0_split_4
I0331 19:44:48.132292 18658 net.cpp:434] fc7_mbox_priorbox <- data_data_0_split_2
I0331 19:44:48.132302 18658 net.cpp:408] fc7_mbox_priorbox -> fc7_mbox_priorbox
I0331 19:44:48.132349 18658 net.cpp:150] Setting up fc7_mbox_priorbox
I0331 19:44:48.132364 18658 net.cpp:157] Top shape: 1 2 24576 (49152)
I0331 19:44:48.132369 18658 net.cpp:165] Memory required for data: 1461240000
I0331 19:44:48.132375 18658 layer_factory.hpp:77] Creating layer conv6_2_mbox_loc
I0331 19:44:48.132402 18658 net.cpp:100] Creating Layer conv6_2_mbox_loc
I0331 19:44:48.132414 18658 net.cpp:434] conv6_2_mbox_loc <- conv6_2_conv6_2_relu_0_split_1
I0331 19:44:48.132423 18658 net.cpp:408] conv6_2_mbox_loc -> conv6_2_mbox_loc
I0331 19:44:48.134922 18658 net.cpp:150] Setting up conv6_2_mbox_loc
I0331 19:44:48.134956 18658 net.cpp:157] Top shape: 2 24 16 16 (12288)
I0331 19:44:48.134966 18658 net.cpp:165] Memory required for data: 1461289152
I0331 19:44:48.134982 18658 layer_factory.hpp:77] Creating layer conv6_2_mbox_loc_perm
I0331 19:44:48.135020 18658 net.cpp:100] Creating Layer conv6_2_mbox_loc_perm
I0331 19:44:48.135045 18658 net.cpp:434] conv6_2_mbox_loc_perm <- conv6_2_mbox_loc
I0331 19:44:48.135071 18658 net.cpp:408] conv6_2_mbox_loc_perm -> conv6_2_mbox_loc_perm
I0331 19:44:48.135303 18658 net.cpp:150] Setting up conv6_2_mbox_loc_perm
I0331 19:44:48.135318 18658 net.cpp:157] Top shape: 2 16 16 24 (12288)
I0331 19:44:48.135326 18658 net.cpp:165] Memory required for data: 1461338304
I0331 19:44:48.135342 18658 layer_factory.hpp:77] Creating layer conv6_2_mbox_loc_flat
I0331 19:44:48.135354 18658 net.cpp:100] Creating Layer conv6_2_mbox_loc_flat
I0331 19:44:48.135361 18658 net.cpp:434] conv6_2_mbox_loc_flat <- conv6_2_mbox_loc_perm
I0331 19:44:48.135370 18658 net.cpp:408] conv6_2_mbox_loc_flat -> conv6_2_mbox_loc_flat
I0331 19:44:48.135419 18658 net.cpp:150] Setting up conv6_2_mbox_loc_flat
I0331 19:44:48.135432 18658 net.cpp:157] Top shape: 2 6144 (12288)
I0331 19:44:48.135438 18658 net.cpp:165] Memory required for data: 1461387456
I0331 19:44:48.135443 18658 layer_factory.hpp:77] Creating layer conv6_2_mbox_conf
I0331 19:44:48.135460 18658 net.cpp:100] Creating Layer conv6_2_mbox_conf
I0331 19:44:48.135473 18658 net.cpp:434] conv6_2_mbox_conf <- conv6_2_conv6_2_relu_0_split_2
I0331 19:44:48.135483 18658 net.cpp:408] conv6_2_mbox_conf -> conv6_2_mbox_conf
I0331 19:44:48.137665 18658 net.cpp:150] Setting up conv6_2_mbox_conf
I0331 19:44:48.137684 18658 net.cpp:157] Top shape: 2 12 16 16 (6144)
I0331 19:44:48.137694 18658 net.cpp:165] Memory required for data: 1461412032
I0331 19:44:48.137706 18658 layer_factory.hpp:77] Creating layer conv6_2_mbox_conf_perm
I0331 19:44:48.137715 18658 net.cpp:100] Creating Layer conv6_2_mbox_conf_perm
I0331 19:44:48.137722 18658 net.cpp:434] conv6_2_mbox_conf_perm <- conv6_2_mbox_conf
I0331 19:44:48.137733 18658 net.cpp:408] conv6_2_mbox_conf_perm -> conv6_2_mbox_conf_perm
I0331 19:44:48.137920 18658 net.cpp:150] Setting up conv6_2_mbox_conf_perm
I0331 19:44:48.137933 18658 net.cpp:157] Top shape: 2 16 16 12 (6144)
I0331 19:44:48.137939 18658 net.cpp:165] Memory required for data: 1461436608
I0331 19:44:48.137945 18658 layer_factory.hpp:77] Creating layer conv6_2_mbox_conf_flat
I0331 19:44:48.137969 18658 net.cpp:100] Creating Layer conv6_2_mbox_conf_flat
I0331 19:44:48.137974 18658 net.cpp:434] conv6_2_mbox_conf_flat <- conv6_2_mbox_conf_perm
I0331 19:44:48.137984 18658 net.cpp:408] conv6_2_mbox_conf_flat -> conv6_2_mbox_conf_flat
I0331 19:44:48.138031 18658 net.cpp:150] Setting up conv6_2_mbox_conf_flat
I0331 19:44:48.138042 18658 net.cpp:157] Top shape: 2 3072 (6144)
I0331 19:44:48.138048 18658 net.cpp:165] Memory required for data: 1461461184
I0331 19:44:48.138054 18658 layer_factory.hpp:77] Creating layer conv6_2_mbox_clean
I0331 19:44:48.138072 18658 net.cpp:100] Creating Layer conv6_2_mbox_clean
I0331 19:44:48.138080 18658 net.cpp:434] conv6_2_mbox_clean <- conv6_2_conv6_2_relu_0_split_3
I0331 19:44:48.138097 18658 net.cpp:408] conv6_2_mbox_clean -> conv6_2_mbox_clean
I0331 19:44:48.139850 18658 net.cpp:150] Setting up conv6_2_mbox_clean
I0331 19:44:48.139869 18658 net.cpp:157] Top shape: 2 6 16 16 (3072)
I0331 19:44:48.139881 18658 net.cpp:165] Memory required for data: 1461473472
I0331 19:44:48.139912 18658 layer_factory.hpp:77] Creating layer conv6_2_mbox_clean_perm
I0331 19:44:48.139925 18658 net.cpp:100] Creating Layer conv6_2_mbox_clean_perm
I0331 19:44:48.139932 18658 net.cpp:434] conv6_2_mbox_clean_perm <- conv6_2_mbox_clean
I0331 19:44:48.139961 18658 net.cpp:408] conv6_2_mbox_clean_perm -> conv6_2_mbox_clean_perm
I0331 19:44:48.140149 18658 net.cpp:150] Setting up conv6_2_mbox_clean_perm
I0331 19:44:48.140159 18658 net.cpp:157] Top shape: 2 16 16 6 (3072)
I0331 19:44:48.140166 18658 net.cpp:165] Memory required for data: 1461485760
I0331 19:44:48.140172 18658 layer_factory.hpp:77] Creating layer conv6_2_mbox_clean_flat
I0331 19:44:48.140183 18658 net.cpp:100] Creating Layer conv6_2_mbox_clean_flat
I0331 19:44:48.140192 18658 net.cpp:434] conv6_2_mbox_clean_flat <- conv6_2_mbox_clean_perm
I0331 19:44:48.140202 18658 net.cpp:408] conv6_2_mbox_clean_flat -> conv6_2_mbox_clean_flat
I0331 19:44:48.140247 18658 net.cpp:150] Setting up conv6_2_mbox_clean_flat
I0331 19:44:48.140259 18658 net.cpp:157] Top shape: 2 1536 (3072)
I0331 19:44:48.140265 18658 net.cpp:165] Memory required for data: 1461498048
I0331 19:44:48.140281 18658 layer_factory.hpp:77] Creating layer conv6_2_mbox_priorbox
I0331 19:44:48.140295 18658 net.cpp:100] Creating Layer conv6_2_mbox_priorbox
I0331 19:44:48.140300 18658 net.cpp:434] conv6_2_mbox_priorbox <- conv6_2_conv6_2_relu_0_split_4
I0331 19:44:48.140308 18658 net.cpp:434] conv6_2_mbox_priorbox <- data_data_0_split_3
I0331 19:44:48.140321 18658 net.cpp:408] conv6_2_mbox_priorbox -> conv6_2_mbox_priorbox
I0331 19:44:48.140372 18658 net.cpp:150] Setting up conv6_2_mbox_priorbox
I0331 19:44:48.140383 18658 net.cpp:157] Top shape: 1 2 6144 (12288)
I0331 19:44:48.140389 18658 net.cpp:165] Memory required for data: 1461547200
I0331 19:44:48.140395 18658 layer_factory.hpp:77] Creating layer conv7_2_mbox_loc
I0331 19:44:48.140410 18658 net.cpp:100] Creating Layer conv7_2_mbox_loc
I0331 19:44:48.140422 18658 net.cpp:434] conv7_2_mbox_loc <- conv7_2_conv7_2_relu_0_split_1
I0331 19:44:48.140430 18658 net.cpp:408] conv7_2_mbox_loc -> conv7_2_mbox_loc
I0331 19:44:48.142555 18658 net.cpp:150] Setting up conv7_2_mbox_loc
I0331 19:44:48.142575 18658 net.cpp:157] Top shape: 2 24 8 8 (3072)
I0331 19:44:48.142583 18658 net.cpp:165] Memory required for data: 1461559488
I0331 19:44:48.142592 18658 layer_factory.hpp:77] Creating layer conv7_2_mbox_loc_perm
I0331 19:44:48.142603 18658 net.cpp:100] Creating Layer conv7_2_mbox_loc_perm
I0331 19:44:48.142613 18658 net.cpp:434] conv7_2_mbox_loc_perm <- conv7_2_mbox_loc
I0331 19:44:48.142626 18658 net.cpp:408] conv7_2_mbox_loc_perm -> conv7_2_mbox_loc_perm
I0331 19:44:48.142817 18658 net.cpp:150] Setting up conv7_2_mbox_loc_perm
I0331 19:44:48.142827 18658 net.cpp:157] Top shape: 2 8 8 24 (3072)
I0331 19:44:48.142833 18658 net.cpp:165] Memory required for data: 1461571776
I0331 19:44:48.142839 18658 layer_factory.hpp:77] Creating layer conv7_2_mbox_loc_flat
I0331 19:44:48.142861 18658 net.cpp:100] Creating Layer conv7_2_mbox_loc_flat
I0331 19:44:48.142868 18658 net.cpp:434] conv7_2_mbox_loc_flat <- conv7_2_mbox_loc_perm
I0331 19:44:48.142877 18658 net.cpp:408] conv7_2_mbox_loc_flat -> conv7_2_mbox_loc_flat
I0331 19:44:48.142925 18658 net.cpp:150] Setting up conv7_2_mbox_loc_flat
I0331 19:44:48.142936 18658 net.cpp:157] Top shape: 2 1536 (3072)
I0331 19:44:48.142943 18658 net.cpp:165] Memory required for data: 1461584064
I0331 19:44:48.142949 18658 layer_factory.hpp:77] Creating layer conv7_2_mbox_conf
I0331 19:44:48.142964 18658 net.cpp:100] Creating Layer conv7_2_mbox_conf
I0331 19:44:48.142973 18658 net.cpp:434] conv7_2_mbox_conf <- conv7_2_conv7_2_relu_0_split_2
I0331 19:44:48.142982 18658 net.cpp:408] conv7_2_mbox_conf -> conv7_2_mbox_conf
I0331 19:44:48.144870 18658 net.cpp:150] Setting up conv7_2_mbox_conf
I0331 19:44:48.144891 18658 net.cpp:157] Top shape: 2 12 8 8 (1536)
I0331 19:44:48.144896 18658 net.cpp:165] Memory required for data: 1461590208
I0331 19:44:48.144908 18658 layer_factory.hpp:77] Creating layer conv7_2_mbox_conf_perm
I0331 19:44:48.144917 18658 net.cpp:100] Creating Layer conv7_2_mbox_conf_perm
I0331 19:44:48.144923 18658 net.cpp:434] conv7_2_mbox_conf_perm <- conv7_2_mbox_conf
I0331 19:44:48.144932 18658 net.cpp:408] conv7_2_mbox_conf_perm -> conv7_2_mbox_conf_perm
I0331 19:44:48.145136 18658 net.cpp:150] Setting up conv7_2_mbox_conf_perm
I0331 19:44:48.145150 18658 net.cpp:157] Top shape: 2 8 8 12 (1536)
I0331 19:44:48.145159 18658 net.cpp:165] Memory required for data: 1461596352
I0331 19:44:48.145164 18658 layer_factory.hpp:77] Creating layer conv7_2_mbox_conf_flat
I0331 19:44:48.145174 18658 net.cpp:100] Creating Layer conv7_2_mbox_conf_flat
I0331 19:44:48.145182 18658 net.cpp:434] conv7_2_mbox_conf_flat <- conv7_2_mbox_conf_perm
I0331 19:44:48.145195 18658 net.cpp:408] conv7_2_mbox_conf_flat -> conv7_2_mbox_conf_flat
I0331 19:44:48.145264 18658 net.cpp:150] Setting up conv7_2_mbox_conf_flat
I0331 19:44:48.145280 18658 net.cpp:157] Top shape: 2 768 (1536)
I0331 19:44:48.145287 18658 net.cpp:165] Memory required for data: 1461602496
I0331 19:44:48.145306 18658 layer_factory.hpp:77] Creating layer conv7_2_mbox_clean
I0331 19:44:48.145324 18658 net.cpp:100] Creating Layer conv7_2_mbox_clean
I0331 19:44:48.145335 18658 net.cpp:434] conv7_2_mbox_clean <- conv7_2_conv7_2_relu_0_split_3
I0331 19:44:48.145350 18658 net.cpp:408] conv7_2_mbox_clean -> conv7_2_mbox_clean
I0331 19:44:48.147148 18658 net.cpp:150] Setting up conv7_2_mbox_clean
I0331 19:44:48.147169 18658 net.cpp:157] Top shape: 2 6 8 8 (768)
I0331 19:44:48.147176 18658 net.cpp:165] Memory required for data: 1461605568
I0331 19:44:48.147189 18658 layer_factory.hpp:77] Creating layer conv7_2_mbox_clean_perm
I0331 19:44:48.147202 18658 net.cpp:100] Creating Layer conv7_2_mbox_clean_perm
I0331 19:44:48.147210 18658 net.cpp:434] conv7_2_mbox_clean_perm <- conv7_2_mbox_clean
I0331 19:44:48.147220 18658 net.cpp:408] conv7_2_mbox_clean_perm -> conv7_2_mbox_clean_perm
I0331 19:44:48.147414 18658 net.cpp:150] Setting up conv7_2_mbox_clean_perm
I0331 19:44:48.147428 18658 net.cpp:157] Top shape: 2 8 8 6 (768)
I0331 19:44:48.147433 18658 net.cpp:165] Memory required for data: 1461608640
I0331 19:44:48.147440 18658 layer_factory.hpp:77] Creating layer conv7_2_mbox_clean_flat
I0331 19:44:48.147449 18658 net.cpp:100] Creating Layer conv7_2_mbox_clean_flat
I0331 19:44:48.147457 18658 net.cpp:434] conv7_2_mbox_clean_flat <- conv7_2_mbox_clean_perm
I0331 19:44:48.147467 18658 net.cpp:408] conv7_2_mbox_clean_flat -> conv7_2_mbox_clean_flat
I0331 19:44:48.147513 18658 net.cpp:150] Setting up conv7_2_mbox_clean_flat
I0331 19:44:48.147524 18658 net.cpp:157] Top shape: 2 384 (768)
I0331 19:44:48.147531 18658 net.cpp:165] Memory required for data: 1461611712
I0331 19:44:48.147545 18658 layer_factory.hpp:77] Creating layer conv7_2_mbox_priorbox
I0331 19:44:48.147557 18658 net.cpp:100] Creating Layer conv7_2_mbox_priorbox
I0331 19:44:48.147563 18658 net.cpp:434] conv7_2_mbox_priorbox <- conv7_2_conv7_2_relu_0_split_4
I0331 19:44:48.147572 18658 net.cpp:434] conv7_2_mbox_priorbox <- data_data_0_split_4
I0331 19:44:48.147620 18658 net.cpp:408] conv7_2_mbox_priorbox -> conv7_2_mbox_priorbox
I0331 19:44:48.147671 18658 net.cpp:150] Setting up conv7_2_mbox_priorbox
I0331 19:44:48.147682 18658 net.cpp:157] Top shape: 1 2 1536 (3072)
I0331 19:44:48.147689 18658 net.cpp:165] Memory required for data: 1461624000
I0331 19:44:48.147696 18658 layer_factory.hpp:77] Creating layer conv8_2_mbox_loc
I0331 19:44:48.147711 18658 net.cpp:100] Creating Layer conv8_2_mbox_loc
I0331 19:44:48.147719 18658 net.cpp:434] conv8_2_mbox_loc <- conv8_2_conv8_2_relu_0_split_1
I0331 19:44:48.147730 18658 net.cpp:408] conv8_2_mbox_loc -> conv8_2_mbox_loc
I0331 19:44:48.150308 18658 net.cpp:150] Setting up conv8_2_mbox_loc
I0331 19:44:48.150329 18658 net.cpp:157] Top shape: 2 16 6 6 (1152)
I0331 19:44:48.150338 18658 net.cpp:165] Memory required for data: 1461628608
I0331 19:44:48.150349 18658 layer_factory.hpp:77] Creating layer conv8_2_mbox_loc_perm
I0331 19:44:48.150359 18658 net.cpp:100] Creating Layer conv8_2_mbox_loc_perm
I0331 19:44:48.150367 18658 net.cpp:434] conv8_2_mbox_loc_perm <- conv8_2_mbox_loc
I0331 19:44:48.150375 18658 net.cpp:408] conv8_2_mbox_loc_perm -> conv8_2_mbox_loc_perm
I0331 19:44:48.150571 18658 net.cpp:150] Setting up conv8_2_mbox_loc_perm
I0331 19:44:48.150596 18658 net.cpp:157] Top shape: 2 6 6 16 (1152)
I0331 19:44:48.150604 18658 net.cpp:165] Memory required for data: 1461633216
I0331 19:44:48.150610 18658 layer_factory.hpp:77] Creating layer conv8_2_mbox_loc_flat
I0331 19:44:48.150619 18658 net.cpp:100] Creating Layer conv8_2_mbox_loc_flat
I0331 19:44:48.150625 18658 net.cpp:434] conv8_2_mbox_loc_flat <- conv8_2_mbox_loc_perm
I0331 19:44:48.150635 18658 net.cpp:408] conv8_2_mbox_loc_flat -> conv8_2_mbox_loc_flat
I0331 19:44:48.150682 18658 net.cpp:150] Setting up conv8_2_mbox_loc_flat
I0331 19:44:48.150694 18658 net.cpp:157] Top shape: 2 576 (1152)
I0331 19:44:48.150701 18658 net.cpp:165] Memory required for data: 1461637824
I0331 19:44:48.150717 18658 layer_factory.hpp:77] Creating layer conv8_2_mbox_conf
I0331 19:44:48.150732 18658 net.cpp:100] Creating Layer conv8_2_mbox_conf
I0331 19:44:48.150739 18658 net.cpp:434] conv8_2_mbox_conf <- conv8_2_conv8_2_relu_0_split_2
I0331 19:44:48.150750 18658 net.cpp:408] conv8_2_mbox_conf -> conv8_2_mbox_conf
I0331 19:44:48.152582 18658 net.cpp:150] Setting up conv8_2_mbox_conf
I0331 19:44:48.152602 18658 net.cpp:157] Top shape: 2 8 6 6 (576)
I0331 19:44:48.152611 18658 net.cpp:165] Memory required for data: 1461640128
I0331 19:44:48.152622 18658 layer_factory.hpp:77] Creating layer conv8_2_mbox_conf_perm
I0331 19:44:48.152633 18658 net.cpp:100] Creating Layer conv8_2_mbox_conf_perm
I0331 19:44:48.152642 18658 net.cpp:434] conv8_2_mbox_conf_perm <- conv8_2_mbox_conf
I0331 19:44:48.152649 18658 net.cpp:408] conv8_2_mbox_conf_perm -> conv8_2_mbox_conf_perm
I0331 19:44:48.152847 18658 net.cpp:150] Setting up conv8_2_mbox_conf_perm
I0331 19:44:48.152860 18658 net.cpp:157] Top shape: 2 6 6 8 (576)
I0331 19:44:48.152868 18658 net.cpp:165] Memory required for data: 1461642432
I0331 19:44:48.152873 18658 layer_factory.hpp:77] Creating layer conv8_2_mbox_conf_flat
I0331 19:44:48.152881 18658 net.cpp:100] Creating Layer conv8_2_mbox_conf_flat
I0331 19:44:48.152889 18658 net.cpp:434] conv8_2_mbox_conf_flat <- conv8_2_mbox_conf_perm
I0331 19:44:48.152899 18658 net.cpp:408] conv8_2_mbox_conf_flat -> conv8_2_mbox_conf_flat
I0331 19:44:48.152946 18658 net.cpp:150] Setting up conv8_2_mbox_conf_flat
I0331 19:44:48.152959 18658 net.cpp:157] Top shape: 2 288 (576)
I0331 19:44:48.152966 18658 net.cpp:165] Memory required for data: 1461644736
I0331 19:44:48.152981 18658 layer_factory.hpp:77] Creating layer conv8_2_mbox_clean
I0331 19:44:48.152997 18658 net.cpp:100] Creating Layer conv8_2_mbox_clean
I0331 19:44:48.153007 18658 net.cpp:434] conv8_2_mbox_clean <- conv8_2_conv8_2_relu_0_split_3
I0331 19:44:48.153017 18658 net.cpp:408] conv8_2_mbox_clean -> conv8_2_mbox_clean
I0331 19:44:48.154748 18658 net.cpp:150] Setting up conv8_2_mbox_clean
I0331 19:44:48.154765 18658 net.cpp:157] Top shape: 2 4 6 6 (288)
I0331 19:44:48.154775 18658 net.cpp:165] Memory required for data: 1461645888
I0331 19:44:48.154785 18658 layer_factory.hpp:77] Creating layer conv8_2_mbox_clean_perm
I0331 19:44:48.154798 18658 net.cpp:100] Creating Layer conv8_2_mbox_clean_perm
I0331 19:44:48.154803 18658 net.cpp:434] conv8_2_mbox_clean_perm <- conv8_2_mbox_clean
I0331 19:44:48.154813 18658 net.cpp:408] conv8_2_mbox_clean_perm -> conv8_2_mbox_clean_perm
I0331 19:44:48.155011 18658 net.cpp:150] Setting up conv8_2_mbox_clean_perm
I0331 19:44:48.155024 18658 net.cpp:157] Top shape: 2 6 6 4 (288)
I0331 19:44:48.155028 18658 net.cpp:165] Memory required for data: 1461647040
I0331 19:44:48.155035 18658 layer_factory.hpp:77] Creating layer conv8_2_mbox_clean_flat
I0331 19:44:48.155042 18658 net.cpp:100] Creating Layer conv8_2_mbox_clean_flat
I0331 19:44:48.155051 18658 net.cpp:434] conv8_2_mbox_clean_flat <- conv8_2_mbox_clean_perm
I0331 19:44:48.155062 18658 net.cpp:408] conv8_2_mbox_clean_flat -> conv8_2_mbox_clean_flat
I0331 19:44:48.155108 18658 net.cpp:150] Setting up conv8_2_mbox_clean_flat
I0331 19:44:48.155120 18658 net.cpp:157] Top shape: 2 144 (288)
I0331 19:44:48.155125 18658 net.cpp:165] Memory required for data: 1461648192
I0331 19:44:48.155131 18658 layer_factory.hpp:77] Creating layer conv8_2_mbox_priorbox
I0331 19:44:48.155151 18658 net.cpp:100] Creating Layer conv8_2_mbox_priorbox
I0331 19:44:48.155160 18658 net.cpp:434] conv8_2_mbox_priorbox <- conv8_2_conv8_2_relu_0_split_4
I0331 19:44:48.155169 18658 net.cpp:434] conv8_2_mbox_priorbox <- data_data_0_split_5
I0331 19:44:48.155177 18658 net.cpp:408] conv8_2_mbox_priorbox -> conv8_2_mbox_priorbox
I0331 19:44:48.155228 18658 net.cpp:150] Setting up conv8_2_mbox_priorbox
I0331 19:44:48.155241 18658 net.cpp:157] Top shape: 1 2 576 (1152)
I0331 19:44:48.155246 18658 net.cpp:165] Memory required for data: 1461652800
I0331 19:44:48.155259 18658 layer_factory.hpp:77] Creating layer conv9_2_mbox_loc
I0331 19:44:48.155275 18658 net.cpp:100] Creating Layer conv9_2_mbox_loc
I0331 19:44:48.155283 18658 net.cpp:434] conv9_2_mbox_loc <- conv9_2_conv9_2_relu_0_split_0
I0331 19:44:48.155292 18658 net.cpp:408] conv9_2_mbox_loc -> conv9_2_mbox_loc
I0331 19:44:48.157241 18658 net.cpp:150] Setting up conv9_2_mbox_loc
I0331 19:44:48.157260 18658 net.cpp:157] Top shape: 2 16 4 4 (512)
I0331 19:44:48.157266 18658 net.cpp:165] Memory required for data: 1461654848
I0331 19:44:48.157276 18658 layer_factory.hpp:77] Creating layer conv9_2_mbox_loc_perm
I0331 19:44:48.157289 18658 net.cpp:100] Creating Layer conv9_2_mbox_loc_perm
I0331 19:44:48.157299 18658 net.cpp:434] conv9_2_mbox_loc_perm <- conv9_2_mbox_loc
I0331 19:44:48.157307 18658 net.cpp:408] conv9_2_mbox_loc_perm -> conv9_2_mbox_loc_perm
I0331 19:44:48.157507 18658 net.cpp:150] Setting up conv9_2_mbox_loc_perm
I0331 19:44:48.157519 18658 net.cpp:157] Top shape: 2 4 4 16 (512)
I0331 19:44:48.157524 18658 net.cpp:165] Memory required for data: 1461656896
I0331 19:44:48.157531 18658 layer_factory.hpp:77] Creating layer conv9_2_mbox_loc_flat
I0331 19:44:48.157541 18658 net.cpp:100] Creating Layer conv9_2_mbox_loc_flat
I0331 19:44:48.157547 18658 net.cpp:434] conv9_2_mbox_loc_flat <- conv9_2_mbox_loc_perm
I0331 19:44:48.157555 18658 net.cpp:408] conv9_2_mbox_loc_flat -> conv9_2_mbox_loc_flat
I0331 19:44:48.157603 18658 net.cpp:150] Setting up conv9_2_mbox_loc_flat
I0331 19:44:48.157613 18658 net.cpp:157] Top shape: 2 256 (512)
I0331 19:44:48.157618 18658 net.cpp:165] Memory required for data: 1461658944
I0331 19:44:48.157624 18658 layer_factory.hpp:77] Creating layer conv9_2_mbox_conf
I0331 19:44:48.157646 18658 net.cpp:100] Creating Layer conv9_2_mbox_conf
I0331 19:44:48.157655 18658 net.cpp:434] conv9_2_mbox_conf <- conv9_2_conv9_2_relu_0_split_1
I0331 19:44:48.157665 18658 net.cpp:408] conv9_2_mbox_conf -> conv9_2_mbox_conf
I0331 19:44:48.159548 18658 net.cpp:150] Setting up conv9_2_mbox_conf
I0331 19:44:48.159567 18658 net.cpp:157] Top shape: 2 8 4 4 (256)
I0331 19:44:48.159574 18658 net.cpp:165] Memory required for data: 1461659968
I0331 19:44:48.159613 18658 layer_factory.hpp:77] Creating layer conv9_2_mbox_conf_perm
I0331 19:44:48.159626 18658 net.cpp:100] Creating Layer conv9_2_mbox_conf_perm
I0331 19:44:48.159636 18658 net.cpp:434] conv9_2_mbox_conf_perm <- conv9_2_mbox_conf
I0331 19:44:48.159646 18658 net.cpp:408] conv9_2_mbox_conf_perm -> conv9_2_mbox_conf_perm
I0331 19:44:48.159857 18658 net.cpp:150] Setting up conv9_2_mbox_conf_perm
I0331 19:44:48.159868 18658 net.cpp:157] Top shape: 2 4 4 8 (256)
I0331 19:44:48.159873 18658 net.cpp:165] Memory required for data: 1461660992
I0331 19:44:48.159879 18658 layer_factory.hpp:77] Creating layer conv9_2_mbox_conf_flat
I0331 19:44:48.159891 18658 net.cpp:100] Creating Layer conv9_2_mbox_conf_flat
I0331 19:44:48.159899 18658 net.cpp:434] conv9_2_mbox_conf_flat <- conv9_2_mbox_conf_perm
I0331 19:44:48.159909 18658 net.cpp:408] conv9_2_mbox_conf_flat -> conv9_2_mbox_conf_flat
I0331 19:44:48.159958 18658 net.cpp:150] Setting up conv9_2_mbox_conf_flat
I0331 19:44:48.159968 18658 net.cpp:157] Top shape: 2 128 (256)
I0331 19:44:48.159974 18658 net.cpp:165] Memory required for data: 1461662016
I0331 19:44:48.159979 18658 layer_factory.hpp:77] Creating layer conv9_2_mbox_clean
I0331 19:44:48.159996 18658 net.cpp:100] Creating Layer conv9_2_mbox_clean
I0331 19:44:48.160017 18658 net.cpp:434] conv9_2_mbox_clean <- conv9_2_conv9_2_relu_0_split_2
I0331 19:44:48.160027 18658 net.cpp:408] conv9_2_mbox_clean -> conv9_2_mbox_clean
I0331 19:44:48.161756 18658 net.cpp:150] Setting up conv9_2_mbox_clean
I0331 19:44:48.161773 18658 net.cpp:157] Top shape: 2 4 4 4 (128)
I0331 19:44:48.161787 18658 net.cpp:165] Memory required for data: 1461662528
I0331 19:44:48.161806 18658 layer_factory.hpp:77] Creating layer conv9_2_mbox_clean_perm
I0331 19:44:48.161816 18658 net.cpp:100] Creating Layer conv9_2_mbox_clean_perm
I0331 19:44:48.161823 18658 net.cpp:434] conv9_2_mbox_clean_perm <- conv9_2_mbox_clean
I0331 19:44:48.161833 18658 net.cpp:408] conv9_2_mbox_clean_perm -> conv9_2_mbox_clean_perm
I0331 19:44:48.162040 18658 net.cpp:150] Setting up conv9_2_mbox_clean_perm
I0331 19:44:48.162052 18658 net.cpp:157] Top shape: 2 4 4 4 (128)
I0331 19:44:48.162057 18658 net.cpp:165] Memory required for data: 1461663040
I0331 19:44:48.162063 18658 layer_factory.hpp:77] Creating layer conv9_2_mbox_clean_flat
I0331 19:44:48.162070 18658 net.cpp:100] Creating Layer conv9_2_mbox_clean_flat
I0331 19:44:48.162078 18658 net.cpp:434] conv9_2_mbox_clean_flat <- conv9_2_mbox_clean_perm
I0331 19:44:48.162088 18658 net.cpp:408] conv9_2_mbox_clean_flat -> conv9_2_mbox_clean_flat
I0331 19:44:48.162135 18658 net.cpp:150] Setting up conv9_2_mbox_clean_flat
I0331 19:44:48.162145 18658 net.cpp:157] Top shape: 2 64 (128)
I0331 19:44:48.162151 18658 net.cpp:165] Memory required for data: 1461663552
I0331 19:44:48.162156 18658 layer_factory.hpp:77] Creating layer conv9_2_mbox_priorbox
I0331 19:44:48.162168 18658 net.cpp:100] Creating Layer conv9_2_mbox_priorbox
I0331 19:44:48.162175 18658 net.cpp:434] conv9_2_mbox_priorbox <- conv9_2_conv9_2_relu_0_split_3
I0331 19:44:48.162183 18658 net.cpp:434] conv9_2_mbox_priorbox <- data_data_0_split_6
I0331 19:44:48.162192 18658 net.cpp:408] conv9_2_mbox_priorbox -> conv9_2_mbox_priorbox
I0331 19:44:48.162240 18658 net.cpp:150] Setting up conv9_2_mbox_priorbox
I0331 19:44:48.162251 18658 net.cpp:157] Top shape: 1 2 256 (512)
I0331 19:44:48.162257 18658 net.cpp:165] Memory required for data: 1461665600
I0331 19:44:48.162262 18658 layer_factory.hpp:77] Creating layer mbox_loc
I0331 19:44:48.162276 18658 net.cpp:100] Creating Layer mbox_loc
I0331 19:44:48.162286 18658 net.cpp:434] mbox_loc <- conv4_3_norm_mbox_loc_flat
I0331 19:44:48.162293 18658 net.cpp:434] mbox_loc <- fc7_mbox_loc_flat
I0331 19:44:48.162300 18658 net.cpp:434] mbox_loc <- conv6_2_mbox_loc_flat
I0331 19:44:48.162309 18658 net.cpp:434] mbox_loc <- conv7_2_mbox_loc_flat
I0331 19:44:48.162315 18658 net.cpp:434] mbox_loc <- conv8_2_mbox_loc_flat
I0331 19:44:48.162322 18658 net.cpp:434] mbox_loc <- conv9_2_mbox_loc_flat
I0331 19:44:48.162330 18658 net.cpp:408] mbox_loc -> mbox_loc
I0331 19:44:48.162395 18658 net.cpp:150] Setting up mbox_loc
I0331 19:44:48.162405 18658 net.cpp:157] Top shape: 2 98624 (197248)
I0331 19:44:48.162411 18658 net.cpp:165] Memory required for data: 1462454592
I0331 19:44:48.162417 18658 layer_factory.hpp:77] Creating layer mbox_conf
I0331 19:44:48.162428 18658 net.cpp:100] Creating Layer mbox_conf
I0331 19:44:48.162434 18658 net.cpp:434] mbox_conf <- conv4_3_norm_mbox_conf_flat
I0331 19:44:48.162443 18658 net.cpp:434] mbox_conf <- fc7_mbox_conf_flat
I0331 19:44:48.162451 18658 net.cpp:434] mbox_conf <- conv6_2_mbox_conf_flat
I0331 19:44:48.162459 18658 net.cpp:434] mbox_conf <- conv7_2_mbox_conf_flat
I0331 19:44:48.162467 18658 net.cpp:434] mbox_conf <- conv8_2_mbox_conf_flat
I0331 19:44:48.162472 18658 net.cpp:434] mbox_conf <- conv9_2_mbox_conf_flat
I0331 19:44:48.162484 18658 net.cpp:408] mbox_conf -> mbox_conf
I0331 19:44:48.162533 18658 net.cpp:150] Setting up mbox_conf
I0331 19:44:48.162542 18658 net.cpp:157] Top shape: 2 49312 (98624)
I0331 19:44:48.162547 18658 net.cpp:165] Memory required for data: 1462849088
I0331 19:44:48.162554 18658 layer_factory.hpp:77] Creating layer mbox_priorbox
I0331 19:44:48.162562 18658 net.cpp:100] Creating Layer mbox_priorbox
I0331 19:44:48.162569 18658 net.cpp:434] mbox_priorbox <- conv4_3_norm_mbox_priorbox
I0331 19:44:48.162588 18658 net.cpp:434] mbox_priorbox <- fc7_mbox_priorbox
I0331 19:44:48.162595 18658 net.cpp:434] mbox_priorbox <- conv6_2_mbox_priorbox
I0331 19:44:48.162606 18658 net.cpp:434] mbox_priorbox <- conv7_2_mbox_priorbox
I0331 19:44:48.162612 18658 net.cpp:434] mbox_priorbox <- conv8_2_mbox_priorbox
I0331 19:44:48.162618 18658 net.cpp:434] mbox_priorbox <- conv9_2_mbox_priorbox
I0331 19:44:48.162624 18658 net.cpp:408] mbox_priorbox -> mbox_priorbox
I0331 19:44:48.162674 18658 net.cpp:150] Setting up mbox_priorbox
I0331 19:44:48.162684 18658 net.cpp:157] Top shape: 1 2 98624 (197248)
I0331 19:44:48.162689 18658 net.cpp:165] Memory required for data: 1463638080
I0331 19:44:48.162708 18658 layer_factory.hpp:77] Creating layer mbox_clean
I0331 19:44:48.162720 18658 net.cpp:100] Creating Layer mbox_clean
I0331 19:44:48.162726 18658 net.cpp:434] mbox_clean <- conv4_3_norm_mbox_clean_flat
I0331 19:44:48.162734 18658 net.cpp:434] mbox_clean <- fc7_mbox_clean_flat
I0331 19:44:48.162742 18658 net.cpp:434] mbox_clean <- conv6_2_mbox_clean_flat
I0331 19:44:48.162750 18658 net.cpp:434] mbox_clean <- conv7_2_mbox_clean_flat
I0331 19:44:48.162758 18658 net.cpp:434] mbox_clean <- conv8_2_mbox_clean_flat
I0331 19:44:48.162765 18658 net.cpp:434] mbox_clean <- conv9_2_mbox_clean_flat
I0331 19:44:48.162771 18658 net.cpp:408] mbox_clean -> mbox_clean
I0331 19:44:48.162818 18658 net.cpp:150] Setting up mbox_clean
I0331 19:44:48.162827 18658 net.cpp:157] Top shape: 2 24656 (49312)
I0331 19:44:48.162833 18658 net.cpp:165] Memory required for data: 1463835328
I0331 19:44:48.162838 18658 layer_factory.hpp:77] Creating layer mbox_conf_reshape
I0331 19:44:48.162849 18658 net.cpp:100] Creating Layer mbox_conf_reshape
I0331 19:44:48.162858 18658 net.cpp:434] mbox_conf_reshape <- mbox_conf
I0331 19:44:48.162865 18658 net.cpp:408] mbox_conf_reshape -> mbox_conf_reshape
I0331 19:44:48.162919 18658 net.cpp:150] Setting up mbox_conf_reshape
I0331 19:44:48.162930 18658 net.cpp:157] Top shape: 2 24656 2 (98624)
I0331 19:44:48.162935 18658 net.cpp:165] Memory required for data: 1464229824
I0331 19:44:48.162940 18658 layer_factory.hpp:77] Creating layer mbox_conf_softmax
I0331 19:44:48.162958 18658 net.cpp:100] Creating Layer mbox_conf_softmax
I0331 19:44:48.162969 18658 net.cpp:434] mbox_conf_softmax <- mbox_conf_reshape
I0331 19:44:48.162977 18658 net.cpp:408] mbox_conf_softmax -> mbox_conf_softmax
I0331 19:44:48.163344 18658 net.cpp:150] Setting up mbox_conf_softmax
I0331 19:44:48.163359 18658 net.cpp:157] Top shape: 2 24656 2 (98624)
I0331 19:44:48.163365 18658 net.cpp:165] Memory required for data: 1464624320
I0331 19:44:48.163372 18658 layer_factory.hpp:77] Creating layer mbox_conf_flatten
I0331 19:44:48.163379 18658 net.cpp:100] Creating Layer mbox_conf_flatten
I0331 19:44:48.163386 18658 net.cpp:434] mbox_conf_flatten <- mbox_conf_softmax
I0331 19:44:48.163394 18658 net.cpp:408] mbox_conf_flatten -> mbox_conf_flatten
I0331 19:44:48.163444 18658 net.cpp:150] Setting up mbox_conf_flatten
I0331 19:44:48.163455 18658 net.cpp:157] Top shape: 2 49312 (98624)
I0331 19:44:48.163460 18658 net.cpp:165] Memory required for data: 1465018816
I0331 19:44:48.163466 18658 layer_factory.hpp:77] Creating layer mbox_clean_sigmoid
I0331 19:44:48.163499 18658 net.cpp:100] Creating Layer mbox_clean_sigmoid
I0331 19:44:48.163507 18658 net.cpp:434] mbox_clean_sigmoid <- mbox_clean
I0331 19:44:48.163516 18658 net.cpp:408] mbox_clean_sigmoid -> mbox_clean_sigmoid
I0331 19:44:48.165500 18658 net.cpp:150] Setting up mbox_clean_sigmoid
I0331 19:44:48.165521 18658 net.cpp:157] Top shape: 2 24656 (49312)
I0331 19:44:48.165529 18658 net.cpp:165] Memory required for data: 1465216064
I0331 19:44:48.165536 18658 layer_factory.hpp:77] Creating layer detection_out
I0331 19:44:48.165572 18658 net.cpp:100] Creating Layer detection_out
I0331 19:44:48.165585 18658 net.cpp:434] detection_out <- mbox_loc
I0331 19:44:48.165594 18658 net.cpp:434] detection_out <- mbox_conf_flatten
I0331 19:44:48.165601 18658 net.cpp:434] detection_out <- mbox_priorbox
I0331 19:44:48.165621 18658 net.cpp:434] detection_out <- mbox_clean_sigmoid
I0331 19:44:48.165634 18658 net.cpp:408] detection_out -> detection_out
I0331 19:44:48.175945 18658 net.cpp:150] Setting up detection_out
I0331 19:44:48.175969 18658 net.cpp:157] Top shape: 1 1 1 8 (8)
I0331 19:44:48.175976 18658 net.cpp:165] Memory required for data: 1465216096
I0331 19:44:48.175986 18658 layer_factory.hpp:77] Creating layer detection_eval
I0331 19:44:48.175997 18658 net.cpp:100] Creating Layer detection_eval
I0331 19:44:48.176002 18658 net.cpp:434] detection_eval <- detection_out
I0331 19:44:48.176012 18658 net.cpp:434] detection_eval <- label
I0331 19:44:48.176020 18658 net.cpp:408] detection_eval -> detection_eval
I0331 19:44:48.183421 18658 net.cpp:150] Setting up detection_eval
I0331 19:44:48.183437 18658 net.cpp:157] Top shape: 1 1 2 5 (10)
I0331 19:44:48.183444 18658 net.cpp:165] Memory required for data: 1465216136
I0331 19:44:48.183449 18658 net.cpp:228] detection_eval does not need backward computation.
I0331 19:44:48.183456 18658 net.cpp:228] detection_out does not need backward computation.
I0331 19:44:48.183464 18658 net.cpp:228] mbox_clean_sigmoid does not need backward computation.
I0331 19:44:48.183468 18658 net.cpp:228] mbox_conf_flatten does not need backward computation.
…
