…
        max_scale: 1
        min_aspect_ratio: 0.5
        max_aspect_ratio: 2
      }
      sample_constraint {
        min_jaccard_overlap: 0.9
      }
      max_sample: 1
      max_trials: 50
    }
    batch_sampler {
      sampler {
        min_scale: 0.3
        max_scale: 1
        min_aspect_ratio: 0.5
        max_aspect_ratio: 2
      }
      sample_constraint {
        max_jaccard_overlap: 1
      }
      max_sample: 1
      max_trials: 50
    }
    label_map_file: "/data/siyu/dataset/coco/labelmap_coco-person.prototxt"
    part_sampler_prob: 0.8
  }
}
layer {
  name: "conv1_1"
  type: "Convolution"
  bottom: "data"
  top: "conv1_1"
  param {
    lr_mult: 1
    decay_mult: 1
  }
  param {
    lr_mult: 2
    decay_mult: 0
  }
  convolution_param {
    num_output: 64
    pad: 1
    kernel_size: 3
    weight_filler {
      type: "xavier"
    }
    bias_filler {
      type: "constant"
      value: 0
    }
  }
}
layer {
  name: "relu1_1"
  type: "ReLU"
  bottom: "conv1_1"
  top: "conv1_1"
}
layer {
  name: "conv1_2"
  type: "Convolution"
  bottom: "conv1_1"
  top: "conv1_2"
  param {
    lr_mult: 1
    decay_mult: 1
  }
  param {
    lr_mult: 2
    decay_mult: 0
  }
  convolution_param {
    num_output: 64
    pad: 1
    kernel_size: 3
    weight_filler {
      type: "xavier"
    }
    bias_filler {
      type: "constant"
      value: 0
    }
  }
}
layer {
  name: "relu1_2"
  type: "ReLU"
  bottom: "conv1_2"
  top: "conv1_2"
}
layer {
  name: "pool1"
  type: "Pooling"
  bottom: "conv1_2"
  top: "pool1"
  pooling_param {
    pool: MAX
    kernel_size: 2
    stride: 2
  }
}
layer {
  name: "conv2_1"
  type: "Convolution"
  bottom: "pool1"
  top: "conv2_1"
  param {
    lr_mult: 1
    decay_mult: 1
  }
  param {
    lr_mult: 2
    decay_mult: 0
  }
  convolution_param {
    num_output: 128
    pad: 1
    kernel_size: 3
    weight_filler {
      type: "xavier"
    }
    bias_filler {
      type: "constant"
      value: 0
    }
  }
}
layer {
  name: "relu2_1"
  type: "ReLU"
  bottom: "conv2_1"
  top: "conv2_1"
}
layer {
  name: "conv2_2"
  type: "Convolution"
  bottom: "conv2_1"
  top: "conv2_2"
  param {
    lr_mult: 1
    decay_mult: 1
  }
  param {
    lr_mult: 2
    decay_mult: 0
  }
  convolution_param {
    num_output: 128
    pad: 1
    kernel_size: 3
    weight_filler {
      type: "xavier"
    }
    bias_filler {
      type: "constant"
      value: 0
    }
  }
}
layer {
  name: "relu2_2"
  type: "ReLU"
  bottom: "conv2_2"
  top: "conv2_2"
}
layer {
  name: "pool2"
  type: "Pooling"
  bottom: "conv2_2"
  top: "pool2"
  pooling_param {
    pool: MAX
    kernel_size: 2
    stride: 2
  }
}
layer {
  name: "conv3_1"
  type: "Convolution"
  bottom: "pool2"
  top: "conv3_1"
  param {
    lr_mult: 1
    decay_mult: 1
  }
  param {
    lr_mult: 2
    decay_mult: 0
  }
  convolution_param {
    num_output: 256
    pad: 1
    kernel_size: 3
    weight_filler {
      type: "xavier"
    }
    bias_filler {
      type: "constant"
      value: 0
    }
  }
}
layer {
  name: "relu3_1"
  type: "ReLU"
  bottom: "conv3_1"
  top: "conv3_1"
}
layer {
  name: "conv3_2"
  type: "Convolution"
  bottom: "conv3_1"
  top: "conv3_2"
  param {
    lr_mult: 1
    decay_mult: 1
  }
  param {
    lr_mult: 2
    decay_mult: 0
  }
  convolution_param {
    num_output: 256
    pad: 1
    kernel_size: 3
    weight_filler {
      type: "xavier"
    }
    bias_filler {
      type: "constant"
      value: 0
    }
  }
}
layer {
  name: "relu3_2"
  type: "ReLU"
  bottom: "conv3_2"
  top: "conv3_2"
}
layer {
  name: "conv3_3"
  type: "Convolution"
  bottom: "conv3_2"
  top: "conv3_3"
  param {
    lr_mult: 1
    decay_mult: 1
  }
  param {
    lr_mult: 2
    decay_mult: 0
  }
  convolution_param {
    num_output: 256
    pad: 1
    kernel_size: 3
    weight_filler {
      type: "xavier"
    }
    bias_filler {
      type: "constant"
      value: 0
    }
  }
}
layer {
  name: "relu3_3"
  type: "ReLU"
  bottom: "conv3_3"
  top: "conv3_3"
}
layer {
  name: "pool3"
  type: "Pooling"
  bottom: "conv3_3"
  top: "pool3"
  pooling_param {
    pool: MAX
    kernel_size: 2
    stride: 2
  }
}
layer {
  name: "conv4_1"
  type: "Convolution"
  bottom: "pool3"
  top: "conv4_1"
  param {
    lr_mult: 1
    decay_mult: 1
  }
  param {
    lr_mult: 2
    decay_mult: 0
  }
  convolution_param {
    num_output: 512
    pad: 1
    kernel_size: 3
    weight_filler {
      type: "xavier"
    }
    bias_filler {
      type: "constant"
      value: 0
    }
  }
}
layer {
  name: "relu4_1"
  type: "ReLU"
  bottom: "conv4_1"
  top: "conv4_1"
}
layer {
  name: "conv4_2"
  type: "Convolution"
  bottom: "conv4_1"
  top: "conv4_2"
  param {
    lr_mult: 1
    decay_mult: 1
  }
  param {
    lr_mult: 2
    decay_mult: 0
  }
  convolution_param {
    num_output: 512
    pad: 1
    kernel_size: 3
    weight_filler {
      type: "xavier"
    }
    bias_filler {
      type: "constant"
      value: 0
    }
  }
}
layer {
  name: "relu4_2"
  type: "ReLU"
  bottom: "conv4_2"
  top: "conv4_2"
}
layer {
  name: "conv4_3"
  type: "Convolution"
  bottom: "conv4_2"
  top: "conv4_3"
  param {
    lr_mult: 1
    decay_mult: 1
  }
  param {
    lr_mult: 2
    decay_mult: 0
  }
  convolution_param {
    num_output: 512
    pad: 1
    kernel_size: 3
    weight_filler {
      type: "xavier"
    }
    bias_filler {
      type: "constant"
      value: 0
    }
  }
}
layer {
  name: "relu4_3"
  type: "ReLU"
  bottom: "conv4_3"
  top: "conv4_3"
}
layer {
  name: "pool4"
  type: "Pooling"
  bottom: "conv4_3"
  top: "pool4"
  pooling_param {
    pool: MAX
    kernel_size: 2
    stride: 2
  }
}
layer {
  name: "conv5_1"
  type: "Convolution"
  bottom: "pool4"
  top: "conv5_1"
  param {
    lr_mult: 1
    decay_mult: 1
  }
  param {
    lr_mult: 2
    decay_mult: 0
  }
  convolution_param {
    num_output: 512
    pad: 1
    kernel_size: 3
    weight_filler {
      type: "xavier"
    }
    bias_filler {
      type: "constant"
      value: 0
    }
    dilation: 1
  }
}
layer {
  name: "relu5_1"
  type: "ReLU"
  bottom: "conv5_1"
  top: "conv5_1"
}
layer {
  name: "conv5_2"
  type: "Convolution"
  bottom: "conv5_1"
  top: "conv5_2"
  param {
    lr_mult: 1
    decay_mult: 1
  }
  param {
    lr_mult: 2
    decay_mult: 0
  }
  convolution_param {
    num_output: 512
    pad: 1
    kernel_size: 3
    weight_filler {
      type: "xavier"
    }
    bias_filler {
      type: "constant"
      value: 0
    }
    dilation: 1
  }
}
layer {
  name: "relu5_2"
  type: "ReLU"
  bottom: "conv5_2"
  top: "conv5_2"
}
layer {
  name: "conv5_3"
  type: "Convolution"
  bottom: "conv5_2"
  top: "conv5_3"
  param {
    lr_mult: 1
    decay_mult: 1
  }
  param {
    lr_mult: 2
    decay_mult: 0
  }
  convolution_param {
    num_output: 512
    pad: 1
    kernel_size: 3
    weight_filler {
      type: "xavier"
    }
    bias_filler {
      type: "constant"
      value: 0
    }
    dilation: 1
  }
}
layer {
  name: "relu5_3"
  type: "ReLU"
  bottom: "conv5_3"
  top: "conv5_3"
}
layer {
  name: "pool5"
  type: "Pooling"
  bottom: "conv5_3"
  top: "pool5"
  pooling_param {
    pool: MAX
    kernel_size: 3
    stride: 1
    pad: 1
  }
}
layer {
  name: "fc6"
  type: "Convolution"
  bottom: "pool5"
  top: "fc6"
  param {
    lr_mult: 1
    decay_mult: 1
  }
  param {
    lr_mult: 2
    decay_mult: 0
  }
  convolution_param {
    num_output: 1024
    pad: 6
    kernel_size: 3
    weight_filler {
      type: "xavier"
    }
    bias_filler {
      type: "constant"
      value: 0
    }
    dilation: 6
  }
}
layer {
  name: "relu6"
  type: "ReLU"
  bottom: "fc6"
  top: "fc6"
}
layer {
  name: "fc7"
  type: "Convolution"
  bottom: "fc6"
  top: "fc7"
  param {
    lr_mult: 1
    decay_mult: 1
  }
  param {
    lr_mult: 2
    decay_mult: 0
  }
  convolution_param {
    num_output: 1024
    kernel_size: 1
    weight_filler {
      type: "xavier"
    }
    bias_filler {
      type: "constant"
      value: 0
    }
  }
}
layer {
  name: "relu7"
  type: "ReLU"
  bottom: "fc7"
  top: "fc7"
}
layer {
  name: "conv6_1"
  type: "Convolution"
  bottom: "fc7"
  top: "conv6_1"
  param {
    lr_mult: 1
    decay_mult: 1
  }
  param {
    lr_mult: 2
    decay_mult: 0
  }
  convolution_param {
    num_output: 256
    pad: 0
    kernel_size: 1
    stride: 1
    weight_filler {
      type: "xavier"
    }
    bias_filler {
      type: "constant"
      value: 0
    }
  }
}
layer {
  name: "conv6_1_relu"
  type: "ReLU"
  bottom: "conv6_1"
  top: "conv6_1"
}
layer {
  name: "conv6_2"
  type: "Convolution"
  bottom: "conv6_1"
  top: "conv6_2"
  param {
    lr_mult: 1
    decay_mult: 1
  }
  param {
    lr_mult: 2
    decay_mult: 0
  }
  convolution_param {
    num_output: 512
    pad: 1
    kernel_size: 3
    stride: 2
    weight_filler {
      type: "xavier"
    }
    bias_filler {
      type: "constant"
      value: 0
    }
  }
}
layer {
  name: "conv6_2_relu"
  type: "ReLU"
  bottom: "conv6_2"
  top: "conv6_2"
}
layer {
  name: "conv7_1"
  type: "Convolution"
  bottom: "conv6_2"
  top: "conv7_1"
  param {
    lr_mult: 1
    decay_mult: 1
  }
  param {
    lr_mult: 2
    decay_mult: 0
  }
  convolution_param {
    num_output: 128
    pad: 0
    kernel_size: 1
    stride: 1
    weight_filler {
      type: "xavier"
    }
    bias_filler {
      type: "constant"
      value: 0
    }
  }
}
layer {
  name: "conv7_1_relu"
  type: "ReLU"
  bottom: "conv7_1"
  top: "conv7_1"
}
layer {
  name: "conv7_2"
  type: "Convolution"
  bottom: "conv7_1"
  top: "conv7_2"
  param {
    lr_mult: 1
    decay_mult: 1
  }
  param {
    lr_mult: 2
    decay_mult: 0
  }
  convolution_param {
    num_output: 256
    pad: 1
    kernel_size: 3
    stride: 2
    weight_filler {
      type: "xavier"
    }
    bias_filler {
      type: "constant"
      value: 0
    }
  }
}
layer {
  name: "conv7_2_relu"
  type: "ReLU"
  bottom: "conv7_2"
  top: "conv7_2"
}
layer {
  name: "conv8_1"
  type: "Convolution"
  bottom: "conv7_2"
  top: "conv8_1"
  param {
    lr_mult: 1
    decay_mult: 1
  }
  param {
    lr_mult: 2
    decay_mult: 0
  }
  convolution_param {
    num_output: 128
    pad: 0
    kernel_size: 1
    stride: 1
    weight_filler {
      type: "xavier"
    }
    bias_filler {
      type: "constant"
      value: 0
    }
  }
}
layer {
  name: "conv8_1_relu"
  type: "ReLU"
  bottom: "conv8_1"
  top: "conv8_1"
}
layer {
  name: "conv8_2"
  type: "Convolution"
  bottom: "conv8_1"
  top: "conv8_2"
  param {
    lr_mult: 1
    decay_mult: 1
  }
  param {
    lr_mult: 2
    decay_mult: 0
  }
  convolution_param {
    num_output: 256
    pad: 0
    kernel_size: 3
    stride: 1
    weight_filler {
      type: "xavier"
    }
    bias_filler {
      type: "constant"
      value: 0
    }
  }
}
layer {
  name: "conv8_2_relu"
  type: "ReLU"
  bottom: "conv8_2"
  top: "conv8_2"
}
layer {
  name: "conv9_1"
  type: "Convolution"
  bottom: "conv8_2"
  top: "conv9_1"
  param {
    lr_mult: 1
    decay_mult: 1
  }
  param {
    lr_mult: 2
    decay_mult: 0
  }
  convolution_param {
    num_output: 128
    pad: 0
    kernel_size: 1
    stride: 1
    weight_filler {
      type: "xavier"
    }
    bias_filler {
      type: "constant"
      value: 0
    }
  }
}
layer {
  name: "conv9_1_relu"
  type: "ReLU"
  bottom: "conv9_1"
  top: "conv9_1"
}
layer {
  name: "conv9_2"
  type: "Convolution"
  bottom: "conv9_1"
  top: "conv9_2"
  param {
    lr_mult: 1
    decay_mult: 1
  }
  param {
    lr_mult: 2
    decay_mult: 0
  }
  convolution_param {
    num_output: 256
    pad: 0
    kernel_size: 3
    stride: 1
    weight_filler {
      type: "xavier"
    }
    bias_filler {
      type: "constant"
      value: 0
    }
  }
}
layer {
  name: "conv9_2_relu"
  type: "ReLU"
  bottom: "conv9_2"
  top: "conv9_2"
}
layer {
  name: "conv4_3_norm"
  type: "Normalize"
  bottom: "conv4_3"
  top: "conv4_3_norm"
  norm_param {
    across_spatial: false
    scale_filler {
      type: "constant"
      value: 20
    }
    channel_shared: false
  }
}
layer {
  name: "conv4_3_norm_mbox_loc"
  type: "Convolution"
  bottom: "conv4_3_norm"
  top: "conv4_3_norm_mbox_loc"
  param {
    lr_mult: 1
    decay_mult: 1
  }
  param {
    lr_mult: 2
    decay_mult: 0
  }
  convolution_param {
    num_output: 16
    pad: 1
    kernel_size: 3
    stride: 1
    weight_filler {
      type: "xavier"
    }
    bias_filler {
      type: "constant"
      value: 0
    }
  }
}
layer {
  name: "conv4_3_norm_mbox_loc_perm"
  type: "Permute"
  bottom: "conv4_3_norm_mbox_loc"
  top: "conv4_3_norm_mbox_loc_perm"
  permute_param {
    order: 0
    order: 2
    order: 3
    order: 1
  }
}
layer {
  name: "conv4_3_norm_mbox_loc_flat"
  type: "Flatten"
  bottom: "conv4_3_norm_mbox_loc_perm"
  top: "conv4_3_norm_mbox_loc_flat"
  flatten_param {
    axis: 1
  }
}
layer {
  name: "conv4_3_norm_mbox_conf"
  type: "Convolution"
  bottom: "conv4_3_norm"
  top: "conv4_3_norm_mbox_conf"
  param {
    lr_mult: 1
    decay_mult: 1
  }
  param {
    lr_mult: 2
    decay_mult: 0
  }
  convolution_param {
    num_output: 8
    pad: 1
    kernel_size: 3
    stride: 1
    weight_filler {
      type: "xavier"
    }
    bias_filler {
      type: "constant"
      value: 0
    }
  }
}
layer {
  name: "conv4_3_norm_mbox_conf_perm"
  type: "Permute"
  bottom: "conv4_3_norm_mbox_conf"
  top: "conv4_3_norm_mbox_conf_perm"
  permute_param {
    order: 0
    order: 2
    order: 3
    order: 1
  }
}
layer {
  name: "conv4_3_norm_mbox_conf_flat"
  type: "Flatten"
  bottom: "conv4_3_norm_mbox_conf_perm"
  top: "conv4_3_norm_mbox_conf_flat"
  flatten_param {
    axis: 1
  }
}
layer {
  name: "conv4_3_norm_mbox_clean"
  type: "Convolution"
  bottom: "conv4_3_norm"
  top: "conv4_3_norm_mbox_clean"
  param {
    lr_mult: 1
    decay_mult: 1
  }
  param {
    lr_mult: 2
    decay_mult: 0
  }
  convolution_param {
    num_output: 4
    pad: 1
    kernel_size: 3
    stride: 1
    weight_filler {
      type: "xavier"
    }
    bias_filler {
      type: "constant"
      value: 0
    }
  }
}
layer {
  name: "conv4_3_norm_mbox_clean_perm"
  type: "Permute"
  bottom: "conv4_3_norm_mbox_clean"
  top: "conv4_3_norm_mbox_clean_perm"
  permute_param {
    order: 0
    order: 2
    order: 3
    order: 1
  }
}
layer {
  name: "conv4_3_norm_mbox_clean_flat"
  type: "Flatten"
  bottom: "conv4_3_norm_mbox_clean_perm"
  top: "conv4_3_norm_mbox_clean_flat"
  flatten_param {
    axis: 1
  }
}
layer {
  name: "conv4_3_norm_mbox_priorbox"
  type: "PriorBox"
  bottom: "conv4_3_norm"
  bottom: "data"
  top: "conv4_3_norm_mbox_priorbox"
  prior_box_param {
    min_size: 35.84
    max_size: 76.8
    aspect_ratio: 2
    flip: true
    clip: false
    variance: 0.1
    variance: 0.1
    variance: 0.2
    variance: 0.2
    step: 8
    offset: 0.5
  }
}
layer {
  name: "fc7_mbox_loc"
  type: "Convolution"
  bottom: "fc7"
  top: "fc7_mbox_loc"
  param {
    lr_mult: 1
    decay_mult: 1
  }
  param {
    lr_mult: 2
    decay_mult: 0
  }
  convolution_param {
    num_output: 24
    pad: 1
    kernel_size: 3
    stride: 1
    weight_filler {
      type: "xavier"
    }
    bias_filler {
      type: "constant"
      value: 0
    }
  }
}
layer {
  name: "fc7_mbox_loc_perm"
  type: "Permute"
  bottom: "fc7_mbox_loc"
  top: "fc7_mbox_loc_perm"
  permute_param {
    order: 0
    order: 2
    order: 3
    order: 1
  }
}
layer {
  name: "fc7_mbox_loc_flat"
  type: "Flatten"
  bottom: "fc7_mbox_loc_perm"
  top: "fc7_mbox_loc_flat"
  flatten_param {
    axis: 1
  }
}
layer {
  name: "fc7_mbox_conf"
  type: "Convolution"
  bottom: "fc7"
  top: "fc7_mbox_conf"
  param {
    lr_mult: 1
    decay_mult: 1
  }
  param {
    lr_mult: 2
    decay_mult: 0
  }
  convolution_param {
    num_output: 12
    pad: 1
    kernel_size: 3
    stride: 1
    weight_filler {
      type: "xavier"
    }
    bias_filler {
      type: "constant"
      value: 0
    }
  }
}
layer {
  name: "fc7_mbox_conf_perm"
  type: "Permute"
  bottom: "fc7_mbox_conf"
  top: "fc7_mbox_conf_perm"
  permute_param {
    order: 0
    order: 2
    order: 3
    order: 1
  }
}
layer {
  name: "fc7_mbox_conf_flat"
  type: "Flatten"
  bottom: "fc7_mbox_conf_perm"
  top: "fc7_mbox_conf_flat"
  flatten_param {
    axis: 1
  }
}
layer {
  name: "fc7_mbox_clean"
  type: "Convolution"
  bottom: "fc7"
  top: "fc7_mbox_clean"
  param {
    lr_mult: 1
    decay_mult: 1
  }
  param {
    lr_mult: 2
    decay_mult: 0
  }
  convolution_param {
    num_output: 6
    pad: 1
    kernel_size: 3
    stride: 1
    weight_filler {
      type: "xavier"
    }
    bias_filler {
      type: "constant"
      value: 0
    }
  }
}
layer {
  name: "fc7_mbox_clean_perm"
  type: "Permute"
  bottom: "fc7_mbox_clean"
  top: "fc7_mbox_clean_perm"
  permute_param {
    order: 0
    order: 2
    order: 3
    order: 1
  }
}
layer {
  name: "fc7_mbox_clean_flat"
  type: "Flatten"
  bottom: "fc7_mbox_clean_perm"
  top: "fc7_mbox_clean_flat"
  flatten_param {
    axis: 1
  }
}
layer {
  name: "fc7_mbox_priorbox"
  type: "PriorBox"
  bottom: "fc7"
  bottom: "data"
  top: "fc7_mbox_priorbox"
  prior_box_param {
    min_size: 76.8
    max_size: 168.96
    aspect_ratio: 2
    aspect_ratio: 3
    flip: true
    clip: false
    variance: 0.1
    variance: 0.1
    variance: 0.2
    variance: 0.2
    step: 16
    offset: 0.5
  }
}
layer {
  name: "conv6_2_mbox_loc"
  type: "Convolution"
  bottom: "conv6_2"
  top: "conv6_2_mbox_loc"
  param {
    lr_mult: 1
    decay_mult: 1
  }
  param {
    lr_mult: 2
    decay_mult: 0
  }
  convolution_param {
    num_output: 24
    pad: 1
    kernel_size: 3
    stride: 1
    weight_filler {
      type: "xavier"
    }
    bias_filler {
      type: "constant"
      value: 0
    }
  }
}
layer {
  name: "conv6_2_mbox_loc_perm"
  type: "Permute"
  bottom: "conv6_2_mbox_loc"
  top: "conv6_2_mbox_loc_perm"
  permute_param {
    order: 0
    order: 2
    order: 3
    order: 1
  }
}
layer {
  name: "conv6_2_mbox_loc_flat"
  type: "Flatten"
  bottom: "conv6_2_mbox_loc_perm"
  top: "conv6_2_mbox_loc_flat"
  flatten_param {
    axis: 1
  }
}
layer {
  name: "conv6_2_mbox_conf"
  type: "Convolution"
  bottom: "conv6_2"
  top: "conv6_2_mbox_conf"
  param {
    lr_mult: 1
    decay_mult: 1
  }
  param {
    lr_mult: 2
    decay_mult: 0
  }
  convolution_param {
    num_output: 12
    pad: 1
    kernel_size: 3
    stride: 1
    weight_filler {
      type: "xavier"
    }
    bias_filler {
      type: "constant"
      value: 0
    }
  }
}
layer {
  name: "conv6_2_mbox_conf_perm"
  type: "Permute"
  bottom: "conv6_2_mbox_conf"
  top: "conv6_2_mbox_conf_perm"
  permute_param {
    order: 0
    order: 2
    order: 3
    order: 1
  }
}
layer {
  name: "conv6_2_mbox_conf_flat"
  type: "Flatten"
  bottom: "conv6_2_mbox_conf_perm"
  top: "conv6_2_mbox_conf_flat"
  flatten_param {
    axis: 1
  }
}
layer {
  name: "conv6_2_mbox_clean"
  type: "Convolution"
  bottom: "conv6_2"
  top: "conv6_2_mbox_clean"
  param {
    lr_mult: 1
    decay_mult: 1
  }
  param {
    lr_mult: 2
    decay_mult: 0
  }
  convolution_param {
    num_output: 6
    pad: 1
    kernel_size: 3
    stride: 1
    weight_filler {
      type: "xavier"
    }
    bias_filler {
      type: "constant"
      value: 0
    }
  }
}
layer {
  name: "conv6_2_mbox_clean_perm"
  type: "Permute"
  bottom: "conv6_2_mbox_clean"
  top: "conv6_2_mbox_clean_perm"
  permute_param {
    order: 0
    order: 2
    order: 3
    order: 1
  }
}
layer {
  name: "conv6_2_mbox_clean_flat"
  type: "Flatten"
  bottom: "conv6_2_mbox_clean_perm"
  top: "conv6_2_mbox_clean_flat"
  flatten_param {
    axis: 1
  }
}
layer {
  name: "conv6_2_mbox_priorbox"
  type: "PriorBox"
  bottom: "conv6_2"
  bottom: "data"
  top: "conv6_2_mbox_priorbox"
  prior_box_param {
    min_size: 168.96
    max_size: 261.12
    aspect_ratio: 2
    aspect_ratio: 3
    flip: true
    clip: false
    variance: 0.1
    variance: 0.1
    variance: 0.2
    variance: 0.2
    step: 32
    offset: 0.5
  }
}
layer {
  name: "conv7_2_mbox_loc"
  type: "Convolution"
  bottom: "conv7_2"
  top: "conv7_2_mbox_loc"
  param {
    lr_mult: 1
    decay_mult: 1
  }
  param {
    lr_mult: 2
    decay_mult: 0
  }
  convolution_param {
    num_output: 24
    pad: 1
    kernel_size: 3
    stride: 1
    weight_filler {
      type: "xavier"
    }
    bias_filler {
      type: "constant"
      value: 0
    }
  }
}
layer {
  name: "conv7_2_mbox_loc_perm"
  type: "Permute"
  bottom: "conv7_2_mbox_loc"
  top: "conv7_2_mbox_loc_perm"
  permute_param {
    order: 0
    order: 2
    order: 3
    order: 1
  }
}
layer {
  name: "conv7_2_mbox_loc_flat"
  type: "Flatten"
  bottom: "conv7_2_mbox_loc_perm"
  top: "conv7_2_mbox_loc_flat"
  flatten_param {
    axis: 1
  }
}
layer {
  name: "conv7_2_mbox_conf"
  type: "Convolution"
  bottom: "conv7_2"
  top: "conv7_2_mbox_conf"
  param {
    lr_mult: 1
    decay_mult: 1
  }
  param {
    lr_mult: 2
    decay_mult: 0
  }
  convolution_param {
    num_output: 12
    pad: 1
    kernel_size: 3
    stride: 1
    weight_filler {
      type: "xavier"
    }
    bias_filler {
      type: "constant"
      value: 0
    }
  }
}
layer {
  name: "conv7_2_mbox_conf_perm"
  type: "Permute"
  bottom: "conv7_2_mbox_conf"
  top: "conv7_2_mbox_conf_perm"
  permute_param {
    order: 0
    order: 2
    order: 3
    order: 1
  }
}
layer {
  name: "conv7_2_mbox_conf_flat"
  type: "Flatten"
  bottom: "conv7_2_mbox_conf_perm"
  top: "conv7_2_mbox_conf_flat"
  flatten_param {
    axis: 1
  }
}
layer {
  name: "conv7_2_mbox_clean"
  type: "Convolution"
  bottom: "conv7_2"
  top: "conv7_2_mbox_clean"
  param {
    lr_mult: 1
    decay_mult: 1
  }
  param {
    lr_mult: 2
    decay_mult: 0
  }
  convolution_param {
    num_output: 6
    pad: 1
    kernel_size: 3
    stride: 1
    weight_filler {
      type: "xavier"
    }
    bias_filler {
      type: "constant"
      value: 0
    }
  }
}
layer {
  name: "conv7_2_mbox_clean_perm"
  type: "Permute"
  bottom: "conv7_2_mbox_clean"
  top: "conv7_2_mbox_clean_perm"
  permute_param {
    order: 0
    order: 2
    order: 3
    order: 1
  }
}
layer {
  name: "conv7_2_mbox_clean_flat"
  type: "Flatten"
  bottom: "conv7_2_mbox_clean_perm"
  top: "conv7_2_mbox_clean_flat"
  flatten_param {
    axis: 1
  }
}
layer {
  name: "conv7_2_mbox_priorbox"
  type: "PriorBox"
  bottom: "conv7_2"
  bottom: "data"
  top: "conv7_2_mbox_priorbox"
  prior_box_param {
    min_size: 261.12
    max_size: 353.28
    aspect_ratio: 2
    aspect_ratio: 3
    flip: true
    clip: false
    variance: 0.1
    variance: 0.1
    variance: 0.2
    variance: 0.2
    step: 64
    offset: 0.5
  }
}
layer {
  name: "conv8_2_mbox_loc"
  type: "Convolution"
  bottom: "conv8_2"
  top: "conv8_2_mbox_loc"
  param {
    lr_mult: 1
    decay_mult: 1
  }
  param {
    lr_mult: 2
    decay_mult: 0
  }
  convolution_param {
    num_output: 16
    pad: 1
    kernel_size: 3
    stride: 1
    weight_filler {
      type: "xavier"
    }
    bias_filler {
      type: "constant"
      value: 0
    }
  }
}
layer {
  name: "conv8_2_mbox_loc_perm"
  type: "Permute"
  bottom: "conv8_2_mbox_loc"
  top: "conv8_2_mbox_loc_perm"
  permute_param {
    order: 0
    order: 2
    order: 3
    order: 1
  }
}
layer {
  name: "conv8_2_mbox_loc_flat"
  type: "Flatten"
  bottom: "conv8_2_mbox_loc_perm"
  top: "conv8_2_mbox_loc_flat"
  flatten_param {
    axis: 1
  }
}
layer {
  name: "conv8_2_mbox_conf"
  type: "Convolution"
  bottom: "conv8_2"
  top: "conv8_2_mbox_conf"
  param {
    lr_mult: 1
    decay_mult: 1
  }
  param {
    lr_mult: 2
    decay_mult: 0
  }
  convolution_param {
    num_output: 8
    pad: 1
    kernel_size: 3
    stride: 1
    weight_filler {
      type: "xavier"
    }
    bias_filler {
      type: "constant"
      value: 0
    }
  }
}
layer {
  name: "conv8_2_mbox_conf_perm"
  type: "Permute"
  bottom: "conv8_2_mbox_conf"
  top: "conv8_2_mbox_conf_perm"
  permute_param {
    order: 0
    order: 2
    order: 3
    order: 1
  }
}
layer {
  name: "conv8_2_mbox_conf_flat"
  type: "Flatten"
  bottom: "conv8_2_mbox_conf_perm"
  top: "conv8_2_mbox_conf_flat"
  flatten_param {
    axis: 1
  }
}
layer {
  name: "conv8_2_mbox_clean"
  type: "Convolution"
  bottom: "conv8_2"
  top: "conv8_2_mbox_clean"
  param {
    lr_mult: 1
    decay_mult: 1
  }
  param {
    lr_mult: 2
    decay_mult: 0
  }
  convolution_param {
    num_output: 4
    pad: 1
    kernel_size: 3
    stride: 1
    weight_filler {
      type: "xavier"
    }
    bias_filler {
      type: "constant"
      value: 0
    }
  }
}
layer {
  name: "conv8_2_mbox_clean_perm"
  type: "Permute"
  bottom: "conv8_2_mbox_clean"
  top: "conv8_2_mbox_clean_perm"
  permute_param {
    order: 0
    order: 2
    order: 3
    order: 1
  }
}
layer {
  name: "conv8_2_mbox_clean_flat"
  type: "Flatten"
  bottom: "conv8_2_mbox_clean_perm"
  top: "conv8_2_mbox_clean_flat"
  flatten_param {
    axis: 1
  }
}
layer {
  name: "conv8_2_mbox_priorbox"
  type: "PriorBox"
  bottom: "conv8_2"
  bottom: "data"
  top: "conv8_2_mbox_priorbox"
  prior_box_param {
    min_size: 353.28
    max_size: 445.44
    aspect_ratio: 2
    flip: true
    clip: false
    variance: 0.1
    variance: 0.1
    variance: 0.2
    variance: 0.2
    step: 100
    offset: 0.5
  }
}
layer {
  name: "conv9_2_mbox_loc"
  type: "Convolution"
  bottom: "conv9_2"
  top: "conv9_2_mbox_loc"
  param {
    lr_mult: 1
    decay_mult: 1
  }
  param {
    lr_mult: 2
    decay_mult: 0
  }
  convolution_param {
    num_output: 16
    pad: 1
    kernel_size: 3
    stride: 1
    weight_filler {
      type: "xavier"
    }
    bias_filler {
      type: "constant"
      value: 0
    }
  }
}
layer {
  name: "conv9_2_mbox_loc_perm"
  type: "Permute"
  bottom: "conv9_2_mbox_loc"
  top: "conv9_2_mbox_loc_perm"
  permute_param {
    order: 0
    order: 2
    order: 3
    order: 1
  }
}
layer {
  name: "conv9_2_mbox_loc_flat"
  type: "Flatten"
  bottom: "conv9_2_mbox_loc_perm"
  top: "conv9_2_mbox_loc_flat"
  flatten_param {
    axis: 1
  }
}
layer {
  name: "conv9_2_mbox_conf"
  type: "Convolution"
  bottom: "conv9_2"
  top: "conv9_2_mbox_conf"
  param {
    lr_mult: 1
    decay_mult: 1
  }
  param {
    lr_mult: 2
    decay_mult: 0
  }
  convolution_param {
    num_output: 8
    pad: 1
    kernel_size: 3
    stride: 1
    weight_filler {
      type: "xavier"
    }
    bias_filler {
      type: "constant"
      value: 0
    }
  }
}
layer {
  name: "conv9_2_mbox_conf_perm"
  type: "Permute"
  bottom: "conv9_2_mbox_conf"
  top: "conv9_2_mbox_conf_perm"
  permute_param {
    order: 0
    order: 2
    order: 3
    order: 1
  }
}
layer {
  name: "conv9_2_mbox_conf_flat"
  type: "Flatten"
  bottom: "conv9_2_mbox_conf_perm"
  top: "conv9_2_mbox_conf_flat"
  flatten_param {
    axis: 1
  }
}
layer {
  name: "conv9_2_mbox_clean"
  type: "Convolution"
  bottom: "conv9_2"
  top: "conv9_2_mbox_clean"
  param {
    lr_mult: 1
    decay_mult: 1
  }
  param {
    lr_mult: 2
    decay_mult: 0
  }
  convolution_param {
    num_output: 4
    pad: 1
    kernel_size: 3
    stride: 1
    weight_filler {
      type: "xavier"
    }
    bias_filler {
      type: "constant"
      value: 0
    }
  }
}
layer {
  name: "conv9_2_mbox_clean_perm"
  type: "Permute"
  bottom: "conv9_2_mbox_clean"
  top: "conv9_2_mbox_clean_perm"
  permute_param {
    order: 0
    order: 2
    order: 3
    order: 1
  }
}
layer {
  name: "conv9_2_mbox_clean_fl
I0403 23:53:09.777324 25856 layer_factory.hpp:77] Creating layer data
I0403 23:53:09.777863 25856 net.cpp:100] Creating Layer data
I0403 23:53:09.777890 25856 net.cpp:408] data -> data
I0403 23:53:09.777945 25856 net.cpp:408] data -> label
I0403 23:53:09.779217 25892 db_lmdb.cpp:35] Opened lmdb /data/siyu/dataset/coco/lmdb/COCO_Train2014_person_lmdb
I0403 23:53:09.830628 25856 annotated_data_layer.cpp:62] output data size: 8,3,512,512
I0403 23:53:09.875236 25856 net.cpp:150] Setting up data
I0403 23:53:09.875306 25856 net.cpp:157] Top shape: 8 3 512 512 (6291456)
I0403 23:53:09.875314 25856 net.cpp:157] Top shape: 1 1 1 8 (8)
I0403 23:53:09.875319 25856 net.cpp:165] Memory required for data: 25165856
I0403 23:53:09.875334 25856 layer_factory.hpp:77] Creating layer data_data_0_split
I0403 23:53:09.875356 25856 net.cpp:100] Creating Layer data_data_0_split
I0403 23:53:09.875366 25856 net.cpp:434] data_data_0_split <- data
I0403 23:53:09.875383 25856 net.cpp:408] data_data_0_split -> data_data_0_split_0
I0403 23:53:09.875398 25856 net.cpp:408] data_data_0_split -> data_data_0_split_1
I0403 23:53:09.875407 25856 net.cpp:408] data_data_0_split -> data_data_0_split_2
I0403 23:53:09.875416 25856 net.cpp:408] data_data_0_split -> data_data_0_split_3
I0403 23:53:09.875425 25856 net.cpp:408] data_data_0_split -> data_data_0_split_4
I0403 23:53:09.875433 25856 net.cpp:408] data_data_0_split -> data_data_0_split_5
I0403 23:53:09.875442 25856 net.cpp:408] data_data_0_split -> data_data_0_split_6
I0403 23:53:09.875561 25856 net.cpp:150] Setting up data_data_0_split
I0403 23:53:09.875571 25856 net.cpp:157] Top shape: 8 3 512 512 (6291456)
I0403 23:53:09.875589 25856 net.cpp:157] Top shape: 8 3 512 512 (6291456)
I0403 23:53:09.875596 25856 net.cpp:157] Top shape: 8 3 512 512 (6291456)
I0403 23:53:09.875623 25856 net.cpp:157] Top shape: 8 3 512 512 (6291456)
I0403 23:53:09.875638 25856 net.cpp:157] Top shape: 8 3 512 512 (6291456)
I0403 23:53:09.875643 25856 net.cpp:157] Top shape: 8 3 512 512 (6291456)
I0403 23:53:09.875650 25856 net.cpp:157] Top shape: 8 3 512 512 (6291456)
I0403 23:53:09.875655 25856 net.cpp:165] Memory required for data: 201326624
I0403 23:53:09.875660 25856 layer_factory.hpp:77] Creating layer conv1_1
I0403 23:53:09.875684 25856 net.cpp:100] Creating Layer conv1_1
I0403 23:53:09.875691 25856 net.cpp:434] conv1_1 <- data_data_0_split_0
I0403 23:53:09.875700 25856 net.cpp:408] conv1_1 -> conv1_1
I0403 23:53:09.952646 25893 blocking_queue.cpp:50] Waiting for data
I0403 23:53:10.083359 25856 net.cpp:150] Setting up conv1_1
I0403 23:53:10.083405 25856 net.cpp:157] Top shape: 8 64 512 512 (134217728)
I0403 23:53:10.083411 25856 net.cpp:165] Memory required for data: 738197536
I0403 23:53:10.083439 25856 layer_factory.hpp:77] Creating layer relu1_1
I0403 23:53:10.083456 25856 net.cpp:100] Creating Layer relu1_1
I0403 23:53:10.083467 25856 net.cpp:434] relu1_1 <- conv1_1
I0403 23:53:10.083474 25856 net.cpp:395] relu1_1 -> conv1_1 (in-place)
I0403 23:53:10.083808 25856 net.cpp:150] Setting up relu1_1
I0403 23:53:10.083837 25856 net.cpp:157] Top shape: 8 64 512 512 (134217728)
I0403 23:53:10.083842 25856 net.cpp:165] Memory required for data: 1275068448
I0403 23:53:10.083847 25856 layer_factory.hpp:77] Creating layer conv1_2
I0403 23:53:10.083864 25856 net.cpp:100] Creating Layer conv1_2
I0403 23:53:10.083870 25856 net.cpp:434] conv1_2 <- conv1_1
I0403 23:53:10.083878 25856 net.cpp:408] conv1_2 -> conv1_2
I0403 23:53:10.086354 25856 net.cpp:150] Setting up conv1_2
I0403 23:53:10.086372 25856 net.cpp:157] Top shape: 8 64 512 512 (134217728)
I0403 23:53:10.086388 25856 net.cpp:165] Memory required for data: 1811939360
I0403 23:53:10.086400 25856 layer_factory.hpp:77] Creating layer relu1_2
I0403 23:53:10.086411 25856 net.cpp:100] Creating Layer relu1_2
I0403 23:53:10.086416 25856 net.cpp:434] relu1_2 <- conv1_2
I0403 23:53:10.086422 25856 net.cpp:395] relu1_2 -> conv1_2 (in-place)
I0403 23:53:10.086587 25856 net.cpp:150] Setting up relu1_2
I0403 23:53:10.086599 25856 net.cpp:157] Top shape: 8 64 512 512 (134217728)
I0403 23:53:10.086604 25856 net.cpp:165] Memory required for data: 2348810272
I0403 23:53:10.086608 25856 layer_factory.hpp:77] Creating layer pool1
I0403 23:53:10.086619 25856 net.cpp:100] Creating Layer pool1
I0403 23:53:10.086625 25856 net.cpp:434] pool1 <- conv1_2
I0403 23:53:10.086634 25856 net.cpp:408] pool1 -> pool1
I0403 23:53:10.086694 25856 net.cpp:150] Setting up pool1
I0403 23:53:10.086704 25856 net.cpp:157] Top shape: 8 64 256 256 (33554432)
I0403 23:53:10.086707 25856 net.cpp:165] Memory required for data: 2483028000
I0403 23:53:10.086712 25856 layer_factory.hpp:77] Creating layer conv2_1
I0403 23:53:10.086725 25856 net.cpp:100] Creating Layer conv2_1
I0403 23:53:10.086731 25856 net.cpp:434] conv2_1 <- pool1
I0403 23:53:10.086738 25856 net.cpp:408] conv2_1 -> conv2_1
I0403 23:53:10.088821 25856 net.cpp:150] Setting up conv2_1
I0403 23:53:10.088837 25856 net.cpp:157] Top shape: 8 128 256 256 (67108864)
I0403 23:53:10.088855 25856 net.cpp:165] Memory required for data: 2751463456
I0403 23:53:10.088865 25856 layer_factory.hpp:77] Creating layer relu2_1
I0403 23:53:10.088876 25856 net.cpp:100] Creating Layer relu2_1
I0403 23:53:10.088881 25856 net.cpp:434] relu2_1 <- conv2_1
I0403 23:53:10.088887 25856 net.cpp:395] relu2_1 -> conv2_1 (in-place)
I0403 23:53:10.089051 25856 net.cpp:150] Setting up relu2_1
I0403 23:53:10.089061 25856 net.cpp:157] Top shape: 8 128 256 256 (67108864)
I0403 23:53:10.089066 25856 net.cpp:165] Memory required for data: 3019898912
I0403 23:53:10.089071 25856 layer_factory.hpp:77] Creating layer conv2_2
I0403 23:53:10.089083 25856 net.cpp:100] Creating Layer conv2_2
I0403 23:53:10.089092 25856 net.cpp:434] conv2_2 <- conv2_1
I0403 23:53:10.089099 25856 net.cpp:408] conv2_2 -> conv2_2
I0403 23:53:10.091050 25856 net.cpp:150] Setting up conv2_2
I0403 23:53:10.091081 25856 net.cpp:157] Top shape: 8 128 256 256 (67108864)
I0403 23:53:10.091099 25856 net.cpp:165] Memory required for data: 3288334368
I0403 23:53:10.091106 25856 layer_factory.hpp:77] Creating layer relu2_2
I0403 23:53:10.091115 25856 net.cpp:100] Creating Layer relu2_2
I0403 23:53:10.091120 25856 net.cpp:434] relu2_2 <- conv2_2
I0403 23:53:10.091126 25856 net.cpp:395] relu2_2 -> conv2_2 (in-place)
I0403 23:53:10.091413 25856 net.cpp:150] Setting up relu2_2
I0403 23:53:10.091436 25856 net.cpp:157] Top shape: 8 128 256 256 (67108864)
I0403 23:53:10.091452 25856 net.cpp:165] Memory required for data: 3556769824
I0403 23:53:10.091457 25856 layer_factory.hpp:77] Creating layer pool2
I0403 23:53:10.091467 25856 net.cpp:100] Creating Layer pool2
I0403 23:53:10.091471 25856 net.cpp:434] pool2 <- conv2_2
I0403 23:53:10.091478 25856 net.cpp:408] pool2 -> pool2
I0403 23:53:10.091521 25856 net.cpp:150] Setting up pool2
I0403 23:53:10.091529 25856 net.cpp:157] Top shape: 8 128 128 128 (16777216)
I0403 23:53:10.091534 25856 net.cpp:165] Memory required for data: 3623878688
I0403 23:53:10.091538 25856 layer_factory.hpp:77] Creating layer conv3_1
I0403 23:53:10.091550 25856 net.cpp:100] Creating Layer conv3_1
I0403 23:53:10.091557 25856 net.cpp:434] conv3_1 <- pool2
I0403 23:53:10.091565 25856 net.cpp:408] conv3_1 -> conv3_1
I0403 23:53:10.095728 25856 net.cpp:150] Setting up conv3_1
I0403 23:53:10.095782 25856 net.cpp:157] Top shape: 8 256 128 128 (33554432)
I0403 23:53:10.095788 25856 net.cpp:165] Memory required for data: 3758096416
I0403 23:53:10.095804 25856 layer_factory.hpp:77] Creating layer relu3_1
I0403 23:53:10.095818 25856 net.cpp:100] Creating Layer relu3_1
I0403 23:53:10.095824 25856 net.cpp:434] relu3_1 <- conv3_1
I0403 23:53:10.095834 25856 net.cpp:395] relu3_1 -> conv3_1 (in-place)
I0403 23:53:10.096016 25856 net.cpp:150] Setting up relu3_1
I0403 23:53:10.096027 25856 net.cpp:157] Top shape: 8 256 128 128 (33554432)
I0403 23:53:10.096032 25856 net.cpp:165] Memory required for data: 3892314144
I0403 23:53:10.096037 25856 layer_factory.hpp:77] Creating layer conv3_2
I0403 23:53:10.096050 25856 net.cpp:100] Creating Layer conv3_2
I0403 23:53:10.096057 25856 net.cpp:434] conv3_2 <- conv3_1
I0403 23:53:10.096066 25856 net.cpp:408] conv3_2 -> conv3_2
I0403 23:53:10.101821 25856 net.cpp:150] Setting up conv3_2
I0403 23:53:10.101851 25856 net.cpp:157] Top shape: 8 256 128 128 (33554432)
I0403 23:53:10.101856 25856 net.cpp:165] Memory required for data: 4026531872
I0403 23:53:10.101864 25856 layer_factory.hpp:77] Creating layer relu3_2
I0403 23:53:10.101872 25856 net.cpp:100] Creating Layer relu3_2
I0403 23:53:10.101877 25856 net.cpp:434] relu3_2 <- conv3_2
I0403 23:53:10.101883 25856 net.cpp:395] relu3_2 -> conv3_2 (in-place)
I0403 23:53:10.102051 25856 net.cpp:150] Setting up relu3_2
I0403 23:53:10.102061 25856 net.cpp:157] Top shape: 8 256 128 128 (33554432)
I0403 23:53:10.102066 25856 net.cpp:165] Memory required for data: 4160749600
I0403 23:53:10.102071 25856 layer_factory.hpp:77] Creating layer conv3_3
I0403 23:53:10.102087 25856 net.cpp:100] Creating Layer conv3_3
I0403 23:53:10.102093 25856 net.cpp:434] conv3_3 <- conv3_2
I0403 23:53:10.102102 25856 net.cpp:408] conv3_3 -> conv3_3
I0403 23:53:10.107856 25856 net.cpp:150] Setting up conv3_3
I0403 23:53:10.107884 25856 net.cpp:157] Top shape: 8 256 128 128 (33554432)
I0403 23:53:10.107889 25856 net.cpp:165] Memory required for data: 4294967328
I0403 23:53:10.107897 25856 layer_factory.hpp:77] Creating layer relu3_3
I0403 23:53:10.107908 25856 net.cpp:100] Creating Layer relu3_3
I0403 23:53:10.107913 25856 net.cpp:434] relu3_3 <- conv3_3
I0403 23:53:10.107920 25856 net.cpp:395] relu3_3 -> conv3_3 (in-place)
I0403 23:53:10.108203 25856 net.cpp:150] Setting up relu3_3
I0403 23:53:10.108228 25856 net.cpp:157] Top shape: 8 256 128 128 (33554432)
I0403 23:53:10.108232 25856 net.cpp:165] Memory required for data: 4429185056
I0403 23:53:10.108249 25856 layer_factory.hpp:77] Creating layer pool3
I0403 23:53:10.108260 25856 net.cpp:100] Creating Layer pool3
I0403 23:53:10.108284 25856 net.cpp:434] pool3 <- conv3_3
I0403 23:53:10.108292 25856 net.cpp:408] pool3 -> pool3
I0403 23:53:10.108338 25856 net.cpp:150] Setting up pool3
I0403 23:53:10.108347 25856 net.cpp:157] Top shape: 8 256 64 64 (8388608)
I0403 23:53:10.108351 25856 net.cpp:165] Memory required for data: 4462739488
I0403 23:53:10.108356 25856 layer_factory.hpp:77] Creating layer conv4_1
I0403 23:53:10.108367 25856 net.cpp:100] Creating Layer conv4_1
I0403 23:53:10.108373 25856 net.cpp:434] conv4_1 <- pool3
I0403 23:53:10.108382 25856 net.cpp:408] conv4_1 -> conv4_1
I0403 23:53:10.119215 25856 net.cpp:150] Setting up conv4_1
I0403 23:53:10.119244 25856 net.cpp:157] Top shape: 8 512 64 64 (16777216)
I0403 23:53:10.119249 25856 net.cpp:165] Memory required for data: 4529848352
I0403 23:53:10.119257 25856 layer_factory.hpp:77] Creating layer relu4_1
I0403 23:53:10.119267 25856 net.cpp:100] Creating Layer relu4_1
I0403 23:53:10.119272 25856 net.cpp:434] relu4_1 <- conv4_1
I0403 23:53:10.119278 25856 net.cpp:395] relu4_1 -> conv4_1 (in-place)
I0403 23:53:10.119442 25856 net.cpp:150] Setting up relu4_1
I0403 23:53:10.119454 25856 net.cpp:157] Top shape: 8 512 64 64 (16777216)
I0403 23:53:10.119458 25856 net.cpp:165] Memory required for data: 4596957216
I0403 23:53:10.119463 25856 layer_factory.hpp:77] Creating layer conv4_2
I0403 23:53:10.119474 25856 net.cpp:100] Creating Layer conv4_2
I0403 23:53:10.119482 25856 net.cpp:434] conv4_2 <- conv4_1
I0403 23:53:10.119490 25856 net.cpp:408] conv4_2 -> conv4_2
I0403 23:53:10.138176 25856 net.cpp:150] Setting up conv4_2
I0403 23:53:10.138216 25856 net.cpp:157] Top shape: 8 512 64 64 (16777216)
I0403 23:53:10.138221 25856 net.cpp:165] Memory required for data: 4664066080
I0403 23:53:10.138237 25856 layer_factory.hpp:77] Creating layer relu4_2
I0403 23:53:10.138247 25856 net.cpp:100] Creating Layer relu4_2
I0403 23:53:10.138252 25856 net.cpp:434] relu4_2 <- conv4_2
I0403 23:53:10.138259 25856 net.cpp:395] relu4_2 -> conv4_2 (in-place)
I0403 23:53:10.138432 25856 net.cpp:150] Setting up relu4_2
I0403 23:53:10.138444 25856 net.cpp:157] Top shape: 8 512 64 64 (16777216)
I0403 23:53:10.138448 25856 net.cpp:165] Memory required for data: 4731174944
I0403 23:53:10.138453 25856 layer_factory.hpp:77] Creating layer conv4_3
I0403 23:53:10.138466 25856 net.cpp:100] Creating Layer conv4_3
I0403 23:53:10.138473 25856 net.cpp:434] conv4_3 <- conv4_2
I0403 23:53:10.138481 25856 net.cpp:408] conv4_3 -> conv4_3
I0403 23:53:10.158031 25856 net.cpp:150] Setting up conv4_3
I0403 23:53:10.158099 25856 net.cpp:157] Top shape: 8 512 64 64 (16777216)
I0403 23:53:10.158105 25856 net.cpp:165] Memory required for data: 4798283808
I0403 23:53:10.158116 25856 layer_factory.hpp:77] Creating layer relu4_3
I0403 23:53:10.158133 25856 net.cpp:100] Creating Layer relu4_3
I0403 23:53:10.158139 25856 net.cpp:434] relu4_3 <- conv4_3
I0403 23:53:10.158149 25856 net.cpp:395] relu4_3 -> conv4_3 (in-place)
I0403 23:53:10.158438 25856 net.cpp:150] Setting up relu4_3
I0403 23:53:10.158452 25856 net.cpp:157] Top shape: 8 512 64 64 (16777216)
I0403 23:53:10.158468 25856 net.cpp:165] Memory required for data: 4865392672
I0403 23:53:10.158473 25856 layer_factory.hpp:77] Creating layer conv4_3_relu4_3_0_split
I0403 23:53:10.158496 25856 net.cpp:100] Creating Layer conv4_3_relu4_3_0_split
I0403 23:53:10.158501 25856 net.cpp:434] conv4_3_relu4_3_0_split <- conv4_3
I0403 23:53:10.158509 25856 net.cpp:408] conv4_3_relu4_3_0_split -> conv4_3_relu4_3_0_split_0
I0403 23:53:10.158516 25856 net.cpp:408] conv4_3_relu4_3_0_split -> conv4_3_relu4_3_0_split_1
I0403 23:53:10.158560 25856 net.cpp:150] Setting up conv4_3_relu4_3_0_split
I0403 23:53:10.158570 25856 net.cpp:157] Top shape: 8 512 64 64 (16777216)
I0403 23:53:10.158574 25856 net.cpp:157] Top shape: 8 512 64 64 (16777216)
I0403 23:53:10.158578 25856 net.cpp:165] Memory required for data: 4999610400
I0403 23:53:10.158583 25856 layer_factory.hpp:77] Creating layer pool4
I0403 23:53:10.158594 25856 net.cpp:100] Creating Layer pool4
I0403 23:53:10.158598 25856 net.cpp:434] pool4 <- conv4_3_relu4_3_0_split_0
I0403 23:53:10.158624 25856 net.cpp:408] pool4 -> pool4
I0403 23:53:10.158666 25856 net.cpp:150] Setting up pool4
I0403 23:53:10.158674 25856 net.cpp:157] Top shape: 8 512 32 32 (4194304)
I0403 23:53:10.158679 25856 net.cpp:165] Memory required for data: 5016387616
I0403 23:53:10.158684 25856 layer_factory.hpp:77] Creating layer conv5_1
I0403 23:53:10.158699 25856 net.cpp:100] Creating Layer conv5_1
I0403 23:53:10.158705 25856 net.cpp:434] conv5_1 <- pool4
I0403 23:53:10.158715 25856 net.cpp:408] conv5_1 -> conv5_1
I0403 23:53:10.177769 25856 net.cpp:150] Setting up conv5_1
I0403 23:53:10.177841 25856 net.cpp:157] Top shape: 8 512 32 32 (4194304)
I0403 23:53:10.177848 25856 net.cpp:165] Memory required for data: 5033164832
I0403 23:53:10.177860 25856 layer_factory.hpp:77] Creating layer relu5_1
I0403 23:53:10.177875 25856 net.cpp:100] Creating Layer relu5_1
I0403 23:53:10.177882 25856 net.cpp:434] relu5_1 <- conv5_1
I0403 23:53:10.177891 25856 net.cpp:395] relu5_1 -> conv5_1 (in-place)
I0403 23:53:10.178061 25856 net.cpp:150] Setting up relu5_1
I0403 23:53:10.178073 25856 net.cpp:157] Top shape: 8 512 32 32 (4194304)
I0403 23:53:10.178078 25856 net.cpp:165] Memory required for data: 5049942048
I0403 23:53:10.178082 25856 layer_factory.hpp:77] Creating layer conv5_2
I0403 23:53:10.178099 25856 net.cpp:100] Creating Layer conv5_2
I0403 23:53:10.178107 25856 net.cpp:434] conv5_2 <- conv5_1
I0403 23:53:10.178114 25856 net.cpp:408] conv5_2 -> conv5_2
I0403 23:53:10.199025 25856 net.cpp:150] Setting up conv5_2
I0403 23:53:10.199080 25856 net.cpp:157] Top shape: 8 512 32 32 (4194304)
I0403 23:53:10.199087 25856 net.cpp:165] Memory required for data: 5066719264
I0403 23:53:10.199098 25856 layer_factory.hpp:77] Creating layer relu5_2
I0403 23:53:10.199115 25856 net.cpp:100] Creating Layer relu5_2
I0403 23:53:10.199120 25856 net.cpp:434] relu5_2 <- conv5_2
I0403 23:53:10.199131 25856 net.cpp:395] relu5_2 -> conv5_2 (in-place)
I0403 23:53:10.201014 25856 net.cpp:150] Setting up relu5_2
I0403 23:53:10.201028 25856 net.cpp:157] Top shape: 8 512 32 32 (4194304)
I0403 23:53:10.201045 25856 net.cpp:165] Memory required for data: 5083496480
I0403 23:53:10.201050 25856 layer_factory.hpp:77] Creating layer conv5_3
I0403 23:53:10.201067 25856 net.cpp:100] Creating Layer conv5_3
I0403 23:53:10.201072 25856 net.cpp:434] conv5_3 <- conv5_2
I0403 23:53:10.201079 25856 net.cpp:408] conv5_3 -> conv5_3
I0403 23:53:10.219739 25856 net.cpp:150] Setting up conv5_3
I0403 23:53:10.219779 25856 net.cpp:157] Top shape: 8 512 32 32 (4194304)
I0403 23:53:10.219785 25856 net.cpp:165] Memory required for data: 5100273696
I0403 23:53:10.219795 25856 layer_factory.hpp:77] Creating layer relu5_3
I0403 23:53:10.219812 25856 net.cpp:100] Creating Layer relu5_3
I0403 23:53:10.219818 25856 net.cpp:434] relu5_3 <- conv5_3
I0403 23:53:10.219825 25856 net.cpp:395] relu5_3 -> conv5_3 (in-place)
I0403 23:53:10.220139 25856 net.cpp:150] Setting up relu5_3
I0403 23:53:10.220152 25856 net.cpp:157] Top shape: 8 512 32 32 (4194304)
I0403 23:53:10.220170 25856 net.cpp:165] Memory required for data: 5117050912
I0403 23:53:10.220175 25856 layer_factory.hpp:77] Creating layer pool5
I0403 23:53:10.220185 25856 net.cpp:100] Creating Layer pool5
I0403 23:53:10.220191 25856 net.cpp:434] pool5 <- conv5_3
I0403 23:53:10.220198 25856 net.cpp:408] pool5 -> pool5
I0403 23:53:10.220247 25856 net.cpp:150] Setting up pool5
I0403 23:53:10.220257 25856 net.cpp:157] Top shape: 8 512 32 32 (4194304)
I0403 23:53:10.220263 25856 net.cpp:165] Memory required for data: 5133828128
I0403 23:53:10.220266 25856 layer_factory.hpp:77] Creating layer fc6
I0403 23:53:10.220283 25856 net.cpp:100] Creating Layer fc6
I0403 23:53:10.220290 25856 net.cpp:434] fc6 <- pool5
I0403 23:53:10.220299 25856 net.cpp:408] fc6 -> fc6
I0403 23:53:10.257235 25856 net.cpp:150] Setting up fc6
I0403 23:53:10.257299 25856 net.cpp:157] Top shape: 8 1024 32 32 (8388608)
I0403 23:53:10.257305 25856 net.cpp:165] Memory required for data: 5167382560
I0403 23:53:10.257318 25856 layer_factory.hpp:77] Creating layer relu6
I0403 23:53:10.257360 25856 net.cpp:100] Creating Layer relu6
I0403 23:53:10.257369 25856 net.cpp:434] relu6 <- fc6
I0403 23:53:10.257377 25856 net.cpp:395] relu6 -> fc6 (in-place)
I0403 23:53:10.257630 25856 net.cpp:150] Setting up relu6
I0403 23:53:10.257644 25856 net.cpp:157] Top shape: 8 1024 32 32 (8388608)
I0403 23:53:10.257649 25856 net.cpp:165] Memory required for data: 5200936992
I0403 23:53:10.257654 25856 layer_factory.hpp:77] Creating layer fc7
I0403 23:53:10.257670 25856 net.cpp:100] Creating Layer fc7
I0403 23:53:10.257678 25856 net.cpp:434] fc7 <- fc6
I0403 23:53:10.257684 25856 net.cpp:408] fc7 -> fc7
I0403 23:53:10.266742 25856 net.cpp:150] Setting up fc7
I0403 23:53:10.266758 25856 net.cpp:157] Top shape: 8 1024 32 32 (8388608)
I0403 23:53:10.266775 25856 net.cpp:165] Memory required for data: 5234491424
I0403 23:53:10.266782 25856 layer_factory.hpp:77] Creating layer relu7
I0403 23:53:10.266794 25856 net.cpp:100] Creating Layer relu7
I0403 23:53:10.266799 25856 net.cpp:434] relu7 <- fc7
I0403 23:53:10.266806 25856 net.cpp:395] relu7 -> fc7 (in-place)
I0403 23:53:10.267097 25856 net.cpp:150] Setting up relu7
I0403 23:53:10.267135 25856 net.cpp:157] Top shape: 8 1024 32 32 (8388608)
I0403 23:53:10.267140 25856 net.cpp:165] Memory required for data: 5268045856
I0403 23:53:10.267145 25856 layer_factory.hpp:77] Creating layer fc7_relu7_0_split
I0403 23:53:10.267153 25856 net.cpp:100] Creating Layer fc7_relu7_0_split
I0403 23:53:10.267158 25856 net.cpp:434] fc7_relu7_0_split <- fc7
I0403 23:53:10.267164 25856 net.cpp:408] fc7_relu7_0_split -> fc7_relu7_0_split_0
I0403 23:53:10.267172 25856 net.cpp:408] fc7_relu7_0_split -> fc7_relu7_0_split_1
I0403 23:53:10.267191 25856 net.cpp:408] fc7_relu7_0_split -> fc7_relu7_0_split_2
I0403 23:53:10.267200 25856 net.cpp:408] fc7_relu7_0_split -> fc7_relu7_0_split_3
I0403 23:53:10.267206 25856 net.cpp:408] fc7_relu7_0_split -> fc7_relu7_0_split_4
I0403 23:53:10.267287 25856 net.cpp:150] Setting up fc7_relu7_0_split
I0403 23:53:10.267295 25856 net.cpp:157] Top shape: 8 1024 32 32 (8388608)
I0403 23:53:10.267302 25856 net.cpp:157] Top shape: 8 1024 32 32 (8388608)
I0403 23:53:10.267307 25856 net.cpp:157] Top shape: 8 1024 32 32 (8388608)
I0403 23:53:10.267312 25856 net.cpp:157] Top shape: 8 1024 32 32 (8388608)
I0403 23:53:10.267315 25856 net.cpp:157] Top shape: 8 1024 32 32 (8388608)
I0403 23:53:10.267319 25856 net.cpp:165] Memory required for data: 5435818016
I0403 23:53:10.267324 25856 layer_factory.hpp:77] Creating layer conv6_1
I0403 23:53:10.267335 25856 net.cpp:100] Creating Layer conv6_1
I0403 23:53:10.267343 25856 net.cpp:434] conv6_1 <- fc7_relu7_0_split_0
I0403 23:53:10.267352 25856 net.cpp:408] conv6_1 -> conv6_1
I0403 23:53:10.270373 25856 net.cpp:150] Setting up conv6_1
I0403 23:53:10.270402 25856 net.cpp:157] Top shape: 8 256 32 32 (2097152)
I0403 23:53:10.270408 25856 net.cpp:165] Memory required for data: 5444206624
I0403 23:53:10.270416 25856 layer_factory.hpp:77] Creating layer conv6_1_relu
I0403 23:53:10.270423 25856 net.cpp:100] Creating Layer conv6_1_relu
I0403 23:53:10.270428 25856 net.cpp:434] conv6_1_relu <- conv6_1
I0403 23:53:10.270439 25856 net.cpp:395] conv6_1_relu -> conv6_1 (in-place)
I0403 23:53:10.270726 25856 net.cpp:150] Setting up conv6_1_relu
I0403 23:53:10.270750 25856 net.cpp:157] Top shape: 8 256 32 32 (2097152)
I0403 23:53:10.270766 25856 net.cpp:165] Memory required for data: 5452595232
I0403 23:53:10.270771 25856 layer_factory.hpp:77] Creating layer conv6_2
I0403 23:53:10.270783 25856 net.cpp:100] Creating Layer conv6_2
I0403 23:53:10.270788 25856 net.cpp:434] conv6_2 <- conv6_1
I0403 23:53:10.270797 25856 net.cpp:408] conv6_2 -> conv6_2
I0403 23:53:10.280771 25856 net.cpp:150] Setting up conv6_2
I0403 23:53:10.280809 25856 net.cpp:157] Top shape: 8 512 16 16 (1048576)
I0403 23:53:10.280814 25856 net.cpp:165] Memory required for data: 5456789536
I0403 23:53:10.280834 25856 layer_factory.hpp:77] Creating layer conv6_2_relu
I0403 23:53:10.280843 25856 net.cpp:100] Creating Layer conv6_2_relu
I0403 23:53:10.280848 25856 net.cpp:434] conv6_2_relu <- conv6_2
I0403 23:53:10.280874 25856 net.cpp:395] conv6_2_relu -> conv6_2 (in-place)
I0403 23:53:10.281047 25856 net.cpp:150] Setting up conv6_2_relu
I0403 23:53:10.281061 25856 net.cpp:157] Top shape: 8 512 16 16 (1048576)
I0403 23:53:10.281066 25856 net.cpp:165] Memory required for data: 5460983840
I0403 23:53:10.281070 25856 layer_factory.hpp:77] Creating layer conv6_2_conv6_2_relu_0_split
I0403 23:53:10.281078 25856 net.cpp:100] Creating Layer conv6_2_conv6_2_relu_0_split
I0403 23:53:10.281083 25856 net.cpp:434] conv6_2_conv6_2_relu_0_split <- conv6_2
I0403 23:53:10.281090 25856 net.cpp:408] conv6_2_conv6_2_relu_0_split -> conv6_2_conv6_2_relu_0_split_0
I0403 23:53:10.281100 25856 net.cpp:408] conv6_2_conv6_2_relu_0_split -> conv6_2_conv6_2_relu_0_split_1
I0403 23:53:10.281108 25856 net.cpp:408] conv6_2_conv6_2_relu_0_split -> conv6_2_conv6_2_relu_0_split_2
I0403 23:53:10.281116 25856 net.cpp:408] conv6_2_conv6_2_relu_0_split -> conv6_2_conv6_2_relu_0_split_3
I0403 23:53:10.281121 25856 net.cpp:408] conv6_2_conv6_2_relu_0_split -> conv6_2_conv6_2_relu_0_split_4
I0403 23:53:10.281199 25856 net.cpp:150] Setting up conv6_2_conv6_2_relu_0_split
I0403 23:53:10.281208 25856 net.cpp:157] Top shape: 8 512 16 16 (1048576)
I0403 23:53:10.281213 25856 net.cpp:157] Top shape: 8 512 16 16 (1048576)
I0403 23:53:10.281219 25856 net.cpp:157] Top shape: 8 512 16 16 (1048576)
I0403 23:53:10.281224 25856 net.cpp:157] Top shape: 8 512 16 16 (1048576)
I0403 23:53:10.281227 25856 net.cpp:157] Top shape: 8 512 16 16 (1048576)
I0403 23:53:10.281232 25856 net.cpp:165] Memory required for data: 5481955360
I0403 23:53:10.281236 25856 layer_factory.hpp:77] Creating layer conv7_1
I0403 23:53:10.281250 25856 net.cpp:100] Creating Layer conv7_1
I0403 23:53:10.281256 25856 net.cpp:434] conv7_1 <- conv6_2_conv6_2_relu_0_split_0
I0403 23:53:10.281265 25856 net.cpp:408] conv7_1 -> conv7_1
I0403 23:53:10.282639 25856 net.cpp:150] Setting up conv7_1
I0403 23:53:10.282654 25856 net.cpp:157] Top shape: 8 128 16 16 (262144)
I0403 23:53:10.282670 25856 net.cpp:165] Memory required for data: 5483003936
I0403 23:53:10.282676 25856 layer_factory.hpp:77] Creating layer conv7_1_relu
I0403 23:53:10.282685 25856 net.cpp:100] Creating Layer conv7_1_relu
I0403 23:53:10.282691 25856 net.cpp:434] conv7_1_relu <- conv7_1
I0403 23:53:10.282696 25856 net.cpp:395] conv7_1_relu -> conv7_1 (in-place)
I0403 23:53:10.282982 25856 net.cpp:150] Setting up conv7_1_relu
I0403 23:53:10.283018 25856 net.cpp:157] Top shape: 8 128 16 16 (262144)
I0403 23:53:10.283023 25856 net.cpp:165] Memory required for data: 5484052512
I0403 23:53:10.283028 25856 layer_factory.hpp:77] Creating layer conv7_2
I0403 23:53:10.283040 25856 net.cpp:100] Creating Layer conv7_2
I0403 23:53:10.283046 25856 net.cpp:434] conv7_2 <- conv7_1
I0403 23:53:10.283051 25856 net.cpp:408] conv7_2 -> conv7_2
I0403 23:53:10.286223 25856 net.cpp:150] Setting up conv7_2
I0403 23:53:10.286238 25856 net.cpp:157] Top shape: 8 256 8 8 (131072)
I0403 23:53:10.286255 25856 net.cpp:165] Memory required for data: 5484576800
I0403 23:53:10.286262 25856 layer_factory.hpp:77] Creating layer conv7_2_relu
I0403 23:53:10.286270 25856 net.cpp:100] Creating Layer conv7_2_relu
I0403 23:53:10.286275 25856 net.cpp:434] conv7_2_relu <- conv7_2
I0403 23:53:10.286285 25856 net.cpp:395] conv7_2_relu -> conv7_2 (in-place)
I0403 23:53:10.286587 25856 net.cpp:150] Setting up conv7_2_relu
I0403 23:53:10.286600 25856 net.cpp:157] Top shape: 8 256 8 8 (131072)
I0403 23:53:10.286617 25856 net.cpp:165] Memory required for data: 5485101088
I0403 23:53:10.286622 25856 layer_factory.hpp:77] Creating layer conv7_2_conv7_2_relu_0_split
I0403 23:53:10.286628 25856 net.cpp:100] Creating Layer conv7_2_conv7_2_relu_0_split
I0403 23:53:10.286633 25856 net.cpp:434] conv7_2_conv7_2_relu_0_split <- conv7_2
I0403 23:53:10.286641 25856 net.cpp:408] conv7_2_conv7_2_relu_0_split -> conv7_2_conv7_2_relu_0_split_0
I0403 23:53:10.286649 25856 net.cpp:408] conv7_2_conv7_2_relu_0_split -> conv7_2_conv7_2_relu_0_split_1
I0403 23:53:10.286667 25856 net.cpp:408] conv7_2_conv7_2_relu_0_split -> conv7_2_conv7_2_relu_0_split_2
I0403 23:53:10.286674 25856 net.cpp:408] conv7_2_conv7_2_relu_0_split -> conv7_2_conv7_2_relu_0_split_3
I0403 23:53:10.286682 25856 net.cpp:408] conv7_2_conv7_2_relu_0_split -> conv7_2_conv7_2_relu_0_split_4
I0403 23:53:10.286761 25856 net.cpp:150] Setting up conv7_2_conv7_2_relu_0_split
I0403 23:53:10.286770 25856 net.cpp:157] Top shape: 8 256 8 8 (131072)
I0403 23:53:10.286777 25856 net.cpp:157] Top shape: 8 256 8 8 (131072)
I0403 23:53:10.286780 25856 net.cpp:157] Top shape: 8 256 8 8 (131072)
I0403 23:53:10.286785 25856 net.cpp:157] Top shape: 8 256 8 8 (131072)
I0403 23:53:10.286790 25856 net.cpp:157] Top shape: 8 256 8 8 (131072)
I0403 23:53:10.286794 25856 net.cpp:165] Memory required for data: 5487722528
I0403 23:53:10.286799 25856 layer_factory.hpp:77] Creating layer conv8_1
I0403 23:53:10.286810 25856 net.cpp:100] Creating Layer conv8_1
I0403 23:53:10.286818 25856 net.cpp:434] conv8_1 <- conv7_2_conv7_2_relu_0_split_0
I0403 23:53:10.286826 25856 net.cpp:408] conv8_1 -> conv8_1
I0403 23:53:10.288529 25856 net.cpp:150] Setting up conv8_1
I0403 23:53:10.288545 25856 net.cpp:157] Top shape: 8 128 8 8 (65536)
I0403 23:53:10.288561 25856 net.cpp:165] Memory required for data: 5487984672
I0403 23:53:10.288569 25856 layer_factory.hpp:77] Creating layer conv8_1_relu
I0403 23:53:10.288578 25856 net.cpp:100] Creating Layer conv8_1_relu
I0403 23:53:10.288583 25856 net.cpp:434] conv8_1_relu <- conv8_1
I0403 23:53:10.288589 25856 net.cpp:395] conv8_1_relu -> conv8_1 (in-place)
I0403 23:53:10.288751 25856 net.cpp:150] Setting up conv8_1_relu
I0403 23:53:10.288763 25856 net.cpp:157] Top shape: 8 128 8 8 (65536)
I0403 23:53:10.288767 25856 net.cpp:165] Memory required for data: 5488246816
I0403 23:53:10.288772 25856 layer_factory.hpp:77] Creating layer conv8_2
I0403 23:53:10.288785 25856 net.cpp:100] Creating Layer conv8_2
I0403 23:53:10.288792 25856 net.cpp:434] conv8_2 <- conv8_1
I0403 23:53:10.288801 25856 net.cpp:408] conv8_2 -> conv8_2
I0403 23:53:10.292107 25856 net.cpp:150] Setting up conv8_2
I0403 23:53:10.292124 25856 net.cpp:157] Top shape: 8 256 6 6 (73728)
I0403 23:53:10.292140 25856 net.cpp:165] Memory required for data: 5488541728
I0403 23:53:10.292148 25856 layer_factory.hpp:77] Creating layer conv8_2_relu
I0403 23:53:10.292155 25856 net.cpp:100] Creating Layer conv8_2_relu
I0403 23:53:10.292160 25856 net.cpp:434] conv8_2_relu <- conv8_2
I0403 23:53:10.292168 25856 net.cpp:395] conv8_2_relu -> conv8_2 (in-place)
I0403 23:53:10.292459 25856 net.cpp:150] Setting up conv8_2_relu
I0403 23:53:10.292482 25856 net.cpp:157] Top shape: 8 256 6 6 (73728)
I0403 23:53:10.292498 25856 net.cpp:165] Memory required for data: 5488836640
I0403 23:53:10.292503 25856 layer_factory.hpp:77] Creating layer conv8_2_conv8_2_relu_0_split
I0403 23:53:10.292511 25856 net.cpp:100] Creating Layer conv8_2_conv8_2_relu_0_split
I0403 23:53:10.292516 25856 net.cpp:434] conv8_2_conv8_2_relu_0_split <- conv8_2
I0403 23:53:10.292524 25856 net.cpp:408] conv8_2_conv8_2_relu_0_split -> conv8_2_conv8_2_relu_0_split_0
I0403 23:53:10.292532 25856 net.cpp:408] conv8_2_conv8_2_relu_0_split -> conv8_2_conv8_2_relu_0_split_1
I0403 23:53:10.292539 25856 net.cpp:408] conv8_2_conv8_2_relu_0_split -> conv8_2_conv8_2_relu_0_split_2
I0403 23:53:10.292551 25856 net.cpp:408] conv8_2_conv8_2_relu_0_split -> conv8_2_conv8_2_relu_0_split_3
I0403 23:53:10.292558 25856 net.cpp:408] conv8_2_conv8_2_relu_0_split -> conv8_2_conv8_2_relu_0_split_4
I0403 23:53:10.292641 25856 net.cpp:150] Setting up conv8_2_conv8_2_relu_0_split
I0403 23:53:10.292650 25856 net.cpp:157] Top shape: 8 256 6 6 (73728)
I0403 23:53:10.292656 25856 net.cpp:157] Top shape: 8 256 6 6 (73728)
I0403 23:53:10.292660 25856 net.cpp:157] Top shape: 8 256 6 6 (73728)
I0403 23:53:10.292665 25856 net.cpp:157] Top shape: 8 256 6 6 (73728)
I0403 23:53:10.292670 25856 net.cpp:157] Top shape: 8 256 6 6 (73728)
I0403 23:53:10.292675 25856 net.cpp:165] Memory required for data: 5490311200
I0403 23:53:10.292678 25856 layer_factory.hpp:77] Creating layer conv9_1
I0403 23:53:10.292701 25856 net.cpp:100] Creating Layer conv9_1
I0403 23:53:10.292708 25856 net.cpp:434] conv9_1 <- conv8_2_conv8_2_relu_0_split_0
I0403 23:53:10.292718 25856 net.cpp:408] conv9_1 -> conv9_1
I0403 23:53:10.293768 25856 net.cpp:150] Setting up conv9_1
I0403 23:53:10.293782 25856 net.cpp:157] Top shape: 8 128 6 6 (36864)
I0403 23:53:10.293798 25856 net.cpp:165] Memory required for data: 5490458656
I0403 23:53:10.293807 25856 layer_factory.hpp:77] Creating layer conv9_1_relu
I0403 23:53:10.293813 25856 net.cpp:100] Creating Layer conv9_1_relu
I0403 23:53:10.293819 25856 net.cpp:434] conv9_1_relu <- conv9_1
I0403 23:53:10.293826 25856 net.cpp:395] conv9_1_relu -> conv9_1 (in-place)
I0403 23:53:10.294128 25856 net.cpp:150] Setting up conv9_1_relu
I0403 23:53:10.294142 25856 net.cpp:157] Top shape: 8 128 6 6 (36864)
I0403 23:53:10.294157 25856 net.cpp:165] Memory required for data: 5490606112
I0403 23:53:10.294162 25856 layer_factory.hpp:77] Creating layer conv9_2
I0403 23:53:10.294174 25856 net.cpp:100] Creating Layer conv9_2
I0403 23:53:10.294180 25856 net.cpp:434] conv9_2 <- conv9_1
I0403 23:53:10.294189 25856 net.cpp:408] conv9_2 -> conv9_2
I0403 23:53:10.297518 25856 net.cpp:150] Setting up conv9_2
I0403 23:53:10.297545 25856 net.cpp:157] Top shape: 8 256 4 4 (32768)
I0403 23:53:10.297550 25856 net.cpp:165] Memory required for data: 5490737184
I0403 23:53:10.297557 25856 layer_factory.hpp:77] Creating layer conv9_2_relu
I0403 23:53:10.297564 25856 net.cpp:100] Creating Layer conv9_2_relu
I0403 23:53:10.297572 25856 net.cpp:434] conv9_2_relu <- conv9_2
I0403 23:53:10.297579 25856 net.cpp:395] conv9_2_relu -> conv9_2 (in-place)
I0403 23:53:10.297861 25856 net.cpp:150] Setting up conv9_2_relu
I0403 23:53:10.297884 25856 net.cpp:157] Top shape: 8 256 4 4 (32768)
I0403 23:53:10.297889 25856 net.cpp:165] Memory required for data: 5490868256
I0403 23:53:10.297905 25856 layer_factory.hpp:77] Creating layer conv9_2_conv9_2_relu_0_split
I0403 23:53:10.297915 25856 net.cpp:100] Creating Layer conv9_2_conv9_2_relu_0_split
I0403 23:53:10.297920 25856 net.cpp:434] conv9_2_conv9_2_relu_0_split <- conv9_2
I0403 23:53:10.297926 25856 net.cpp:408] conv9_2_conv9_2_relu_0_split -> conv9_2_conv9_2_relu_0_split_0
I0403 23:53:10.297935 25856 net.cpp:408] conv9_2_conv9_2_relu_0_split -> conv9_2_conv9_2_relu_0_split_1
I0403 23:53:10.297941 25856 net.cpp:408] conv9_2_conv9_2_relu_0_split -> conv9_2_conv9_2_relu_0_split_2
I0403 23:53:10.297950 25856 net.cpp:408] conv9_2_conv9_2_relu_0_split -> conv9_2_conv9_2_relu_0_split_3
I0403 23:53:10.298022 25856 net.cpp:150] Setting up conv9_2_conv9_2_relu_0_split
I0403 23:53:10.298029 25856 net.cpp:157] Top shape: 8 256 4 4 (32768)
I0403 23:53:10.298035 25856 net.cpp:157] Top shape: 8 256 4 4 (32768)
I0403 23:53:10.298040 25856 net.cpp:157] Top shape: 8 256 4 4 (32768)
I0403 23:53:10.298044 25856 net.cpp:157] Top shape: 8 256 4 4 (32768)
I0403 23:53:10.298048 25856 net.cpp:165] Memory required for data: 5491392544
I0403 23:53:10.298053 25856 layer_factory.hpp:77] Creating layer conv4_3_norm
I0403 23:53:10.298064 25856 net.cpp:100] Creating Layer conv4_3_norm
I0403 23:53:10.298070 25856 net.cpp:434] conv4_3_norm <- conv4_3_relu4_3_0_split_1
I0403 23:53:10.298077 25856 net.cpp:408] conv4_3_norm -> conv4_3_norm
I0403 23:53:10.298235 25856 net.cpp:150] Setting up conv4_3_norm
I0403 23:53:10.298244 25856 net.cpp:157] Top shape: 8 512 64 64 (16777216)
I0403 23:53:10.298249 25856 net.cpp:165] Memory required for data: 5558501408
I0403 23:53:10.298256 25856 layer_factory.hpp:77] Creating layer conv4_3_norm_conv4_3_norm_0_split
I0403 23:53:10.298265 25856 net.cpp:100] Creating Layer conv4_3_norm_conv4_3_norm_0_split
I0403 23:53:10.298270 25856 net.cpp:434] conv4_3_norm_conv4_3_norm_0_split <- conv4_3_norm
I0403 23:53:10.298279 25856 net.cpp:408] conv4_3_norm_conv4_3_norm_0_split -> conv4_3_norm_conv4_3_norm_0_split_0
I0403 23:53:10.298293 25856 net.cpp:408] conv4_3_norm_conv4_3_norm_0_split -> conv4_3_norm_conv4_3_norm_0_split_1
I0403 23:53:10.298300 25856 net.cpp:408] conv4_3_norm_conv4_3_norm_0_split -> conv4_3_norm_conv4_3_norm_0_split_2
I0403 23:53:10.298321 25856 net.cpp:408] conv4_3_norm_conv4_3_norm_0_split -> conv4_3_norm_conv4_3_norm_0_split_3
I0403 23:53:10.298380 25856 net.cpp:150] Setting up conv4_3_norm_conv4_3_norm_0_split
I0403 23:53:10.298390 25856 net.cpp:157] Top shape: 8 512 64 64 (16777216)
I0403 23:53:10.298395 25856 net.cpp:157] Top shape: 8 512 64 64 (16777216)
I0403 23:53:10.298400 25856 net.cpp:157] Top shape: 8 512 64 64 (16777216)
I0403 23:53:10.298404 25856 net.cpp:157] Top shape: 8 512 64 64 (16777216)
I0403 23:53:10.298409 25856 net.cpp:165] Memory required for data: 5826936864
I0403 23:53:10.298413 25856 layer_factory.hpp:77] Creating layer conv4_3_norm_mbox_loc
I0403 23:53:10.298425 25856 net.cpp:100] Creating Layer conv4_3_norm_mbox_loc
I0403 23:53:10.298432 25856 net.cpp:434] conv4_3_norm_mbox_loc <- conv4_3_norm_conv4_3_norm_0_split_0
I0403 23:53:10.298441 25856 net.cpp:408] conv4_3_norm_mbox_loc -> conv4_3_norm_mbox_loc
I0403 23:53:10.300513 25856 net.cpp:150] Setting up conv4_3_norm_mbox_loc
I0403 23:53:10.300544 25856 net.cpp:157] Top shape: 8 16 64 64 (524288)
I0403 23:53:10.300549 25856 net.cpp:165] Memory required for data: 5829034016
I0403 23:53:10.300556 25856 layer_factory.hpp:77] Creating layer conv4_3_norm_mbox_loc_perm
I0403 23:53:10.300565 25856 net.cpp:100] Creating Layer conv4_3_norm_mbox_loc_perm
I0403 23:53:10.300571 25856 net.cpp:434] conv4_3_norm_mbox_loc_perm <- conv4_3_norm_mbox_loc
I0403 23:53:10.300580 25856 net.cpp:408] conv4_3_norm_mbox_loc_perm -> conv4_3_norm_mbox_loc_perm
I0403 23:53:10.300701 25856 net.cpp:150] Setting up conv4_3_norm_mbox_loc_perm
I0403 23:53:10.300711 25856 net.cpp:157] Top shape: 8 64 64 16 (524288)
I0403 23:53:10.300716 25856 net.cpp:165] Memory required for data: 5831131168
I0403 23:53:10.300720 25856 layer_factory.hpp:77] Creating layer conv4_3_norm_mbox_loc_flat
I0403 23:53:10.300734 25856 net.cpp:100] Creating Layer conv4_3_norm_mbox_loc_flat
I0403 23:53:10.300741 25856 net.cpp:434] conv4_3_norm_mbox_loc_flat <- conv4_3_norm_mbox_loc_perm
I0403 23:53:10.300747 25856 net.cpp:408] conv4_3_norm_mbox_loc_flat -> conv4_3_norm_mbox_loc_flat
I0403 23:53:10.300781 25856 net.cpp:150] Setting up conv4_3_norm_mbox_loc_flat
I0403 23:53:10.300788 25856 net.cpp:157] Top shape: 8 65536 (524288)
I0403 23:53:10.300793 25856 net.cpp:165] Memory required for data: 5833228320
I0403 23:53:10.300798 25856 layer_factory.hpp:77] Creating layer conv4_3_norm_mbox_conf
I0403 23:53:10.300819 25856 net.cpp:100] Creating Layer conv4_3_norm_mbox_conf
I0403 23:53:10.300827 25856 net.cpp:434] conv4_3_norm_mbox_conf <- conv4_3_norm_conv4_3_norm_0_split_1
I0403 23:53:10.300835 25856 net.cpp:408] conv4_3_norm_mbox_conf -> conv4_3_norm_mbox_conf
I0403 23:53:10.302213 25856 net.cpp:150] Setting up conv4_3_norm_mbox_conf
I0403 23:53:10.302228 25856 net.cpp:157] Top shape: 8 8 64 64 (262144)
I0403 23:53:10.302233 25856 net.cpp:165] Memory required for data: 5834276896
I0403 23:53:10.302242 25856 layer_factory.hpp:77] Creating layer conv4_3_norm_mbox_conf_perm
I0403 23:53:10.302249 25856 net.cpp:100] Creating Layer conv4_3_norm_mbox_conf_perm
I0403 23:53:10.302258 25856 net.cpp:434] conv4_3_norm_mbox_conf_perm <- conv4_3_norm_mbox_conf
I0403 23:53:10.302268 25856 net.cpp:408] conv4_3_norm_mbox_conf_perm -> conv4_3_norm_mbox_conf_perm
I0403 23:53:10.302382 25856 net.cpp:150] Setting up conv4_3_norm_mbox_conf_perm
I0403 23:53:10.302392 25856 net.cpp:157] Top shape: 8 64 64 8 (262144)
I0403 23:53:10.302397 25856 net.cpp:165] Memory required for data: 5835325472
I0403 23:53:10.302402 25856 layer_factory.hpp:77] Creating layer conv4_3_norm_mbox_conf_flat
I0403 23:53:10.302408 25856 net.cpp:100] Creating Layer conv4_3_norm_mbox_conf_flat
I0403 23:53:10.302413 25856 net.cpp:434] conv4_3_norm_mbox_conf_flat <- conv4_3_norm_mbox_conf_perm
I0403 23:53:10.302422 25856 net.cpp:408] conv4_3_norm_mbox_conf_flat -> conv4_3_norm_mbox_conf_flat
I0403 23:53:10.302445 25856 net.cpp:150] Setting up conv4_3_norm_mbox_conf_flat
I0403 23:53:10.302453 25856 net.cpp:157] Top shape: 8 32768 (262144)
I0403 23:53:10.302479 25856 net.cpp:165] Memory required for data: 5836374048
I0403 23:53:10.302484 25856 layer_factory.hpp:77] Creating layer conv4_3_norm_mbox_clean
I0403 23:53:10.302497 25856 net.cpp:100] Creating Layer conv4_3_norm_mbox_clean
I0403 23:53:10.302505 25856 net.cpp:434] conv4_3_norm_mbox_clean <- conv4_3_norm_conv4_3_norm_0_split_2
I0403 23:53:10.302511 25856 net.cpp:408] conv4_3_norm_mbox_clean -> conv4_3_norm_mbox_clean
I0403 23:53:10.303773 25856 net.cpp:150] Setting up conv4_3_norm_mbox_clean
I0403 23:53:10.303791 25856 net.cpp:157] Top shape: 8 4 64 64 (131072)
I0403 23:53:10.303795 25856 net.cpp:165] Memory required for data: 5836898336
I0403 23:53:10.303802 25856 layer_factory.hpp:77] Creating layer conv4_3_norm_mbox_clean_perm
I0403 23:53:10.303814 25856 net.cpp:100] Creating Layer conv4_3_norm_mbox_clean_perm
I0403 23:53:10.303822 25856 net.cpp:434] conv4_3_norm_mbox_clean_perm <- conv4_3_norm_mbox_clean
I0403 23:53:10.303829 25856 net.cpp:408] conv4_3_norm_mbox_clean_perm -> conv4_3_norm_mbox_clean_perm
I0403 23:53:10.303941 25856 net.cpp:150] Setting up conv4_3_norm_mbox_clean_perm
I0403 23:53:10.303951 25856 net.cpp:157] Top shape: 8 64 64 4 (131072)
I0403 23:53:10.303956 25856 net.cpp:165] Memory required for data: 5837422624
I0403 23:53:10.303959 25856 layer_factory.hpp:77] Creating layer conv4_3_norm_mbox_clean_flat
I0403 23:53:10.303966 25856 net.cpp:100] Creating Layer conv4_3_norm_mbox_clean_flat
I0403 23:53:10.303970 25856 net.cpp:434] conv4_3_norm_mbox_clean_flat <- conv4_3_norm_mbox_clean_perm
I0403 23:53:10.303979 25856 net.cpp:408] conv4_3_norm_mbox_clean_flat -> conv4_3_norm_mbox_clean_flat
I0403 23:53:10.304003 25856 net.cpp:150] Setting up conv4_3_norm_mbox_clean_flat
I0403 23:53:10.304016 25856 net.cpp:157] Top shape: 8 16384 (131072)
I0403 23:53:10.304020 25856 net.cpp:165] Memory required for data: 5837946912
I0403 23:53:10.304024 25856 layer_factory.hpp:77] Creating layer conv4_3_norm_mbox_priorbox
I0403 23:53:10.304033 25856 net.cpp:100] Creating Layer conv4_3_norm_mbox_priorbox
I0403 23:53:10.304039 25856 net.cpp:434] conv4_3_norm_mbox_priorbox <- conv4_3_norm_conv4_3_norm_0_split_3
I0403 23:53:10.304044 25856 net.cpp:434] conv4_3_norm_mbox_priorbox <- data_data_0_split_1
I0403 23:53:10.304052 25856 net.cpp:408] conv4_3_norm_mbox_priorbox -> conv4_3_norm_mbox_priorbox
I0403 23:53:10.304085 25856 net.cpp:150] Setting up conv4_3_norm_mbox_priorbox
I0403 23:53:10.304097 25856 net.cpp:157] Top shape: 1 2 65536 (131072)
I0403 23:53:10.304101 25856 net.cpp:165] Memory required for data: 5838471200
I0403 23:53:10.304105 25856 layer_factory.hpp:77] Creating layer fc7_mbox_loc
I0403 23:53:10.304117 25856 net.cpp:100] Creating Layer fc7_mbox_loc
I0403 23:53:10.304124 25856 net.cpp:434] fc7_mbox_loc <- fc7_relu7_0_split_1
I0403 23:53:10.304131 25856 net.cpp:408] fc7_mbox_loc -> fc7_mbox_loc
I0403 23:53:10.306987 25856 net.cpp:150] Setting up fc7_mbox_loc
I0403 23:53:10.307000 25856 net.cpp:157] Top shape: 8 24 32 32 (196608)
I0403 23:53:10.307018 25856 net.cpp:165] Memory required for data: 5839257632
I0403 23:53:10.307026 25856 layer_factory.hpp:77] Creating layer fc7_mbox_loc_perm
I0403 23:53:10.307034 25856 net.cpp:100] Creating Layer fc7_mbox_loc_perm
I0403 23:53:10.307039 25856 net.cpp:434] fc7_mbox_loc_perm <- fc7_mbox_loc
I0403 23:53:10.307047 25856 net.cpp:408] fc7_mbox_loc_perm -> fc7_mbox_loc_perm
I0403 23:53:10.307154 25856 net.cpp:150] Setting up fc7_mbox_loc_perm
I0403 23:53:10.307165 25856 net.cpp:157] Top shape: 8 32 32 24 (196608)
I0403 23:53:10.307170 25856 net.cpp:165] Memory required for data: 5840044064
I0403 23:53:10.307174 25856 layer_factory.hpp:77] Creating layer fc7_mbox_loc_flat
I0403 23:53:10.307181 25856 net.cpp:100] Creating Layer fc7_mbox_loc_flat
I0403 23:53:10.307186 25856 net.cpp:434] fc7_mbox_loc_flat <- fc7_mbox_loc_perm
I0403 23:53:10.307193 25856 net.cpp:408] fc7_mbox_loc_flat -> fc7_mbox_loc_flat
I0403 23:53:10.307219 25856 net.cpp:150] Setting up fc7_mbox_loc_flat
I0403 23:53:10.307226 25856 net.cpp:157] Top shape: 8 24576 (196608)
I0403 23:53:10.307242 25856 net.cpp:165] Memory required for data: 5840830496
I0403 23:53:10.307247 25856 layer_factory.hpp:77] Creating layer fc7_mbox_conf
I0403 23:53:10.307258 25856 net.cpp:100] Creating Layer fc7_mbox_conf
I0403 23:53:10.307265 25856 net.cpp:434] fc7_mbox_conf <- fc7_relu7_0_split_2
I0403 23:53:10.307276 25856 net.cpp:408] fc7_mbox_conf -> fc7_mbox_conf
I0403 23:53:10.309057 25856 net.cpp:150] Setting up fc7_mbox_conf
I0403 23:53:10.309084 25856 net.cpp:157] Top shape: 8 12 32 32 (98304)
I0403 23:53:10.309089 25856 net.cpp:165] Memory required for data: 5841223712
I0403 23:53:10.309097 25856 layer_factory.hpp:77] Creating layer fc7_mbox_conf_perm
I0403 23:53:10.309105 25856 net.cpp:100] Creating Layer fc7_mbox_conf_perm
I0403 23:53:10.309111 25856 net.cpp:434] fc7_mbox_conf_perm <- fc7_mbox_conf
I0403 23:53:10.309118 25856 net.cpp:408] fc7_mbox_conf_perm -> fc7_mbox_conf_perm
I0403 23:53:10.309228 25856 net.cpp:150] Setting up fc7_mbox_conf_perm
I0403 23:53:10.309238 25856 net.cpp:157] Top shape: 8 32 32 12 (98304)
I0403 23:53:10.309242 25856 net.cpp:165] Memory required for data: 5841616928
I0403 23:53:10.309247 25856 layer_factory.hpp:77] Creating layer fc7_mbox_conf_flat
I0403 23:53:10.309255 25856 net.cpp:100] Creating Layer fc7_mbox_conf_flat
I0403 23:53:10.309260 25856 net.cpp:434] fc7_mbox_conf_flat <- fc7_mbox_conf_perm
I0403 23:53:10.309267 25856 net.cpp:408] fc7_mbox_conf_flat -> fc7_mbox_conf_flat
I0403 23:53:10.309293 25856 net.cpp:150] Setting up fc7_mbox_conf_flat
I0403 23:53:10.309300 25856 net.cpp:157] Top shape: 8 12288 (98304)
I0403 23:53:10.309305 25856 net.cpp:165] Memory required for data: 5842010144
I0403 23:53:10.309309 25856 layer_factory.hpp:77] Creating layer fc7_mbox_clean
I0403 23:53:10.309322 25856 net.cpp:100] Creating Layer fc7_mbox_clean
I0403 23:53:10.309329 25856 net.cpp:434] fc7_mbox_clean <- fc7_relu7_0_split_3
I0403 23:53:10.309339 25856 net.cpp:408] fc7_mbox_clean -> fc7_mbox_clean
I0403 23:53:10.310787 25856 net.cpp:150] Setting up fc7_mbox_clean
I0403 23:53:10.310801 25856 net.cpp:157] Top shape: 8 6 32 32 (49152)
I0403 23:53:10.310818 25856 net.cpp:165] Memory required for data: 5842206752
I0403 23:53:10.310827 25856 layer_factory.hpp:77] Creating layer fc7_mbox_clean_perm
I0403 23:53:10.310835 25856 net.cpp:100] Creating Layer fc7_mbox_clean_perm
I0403 23:53:10.310842 25856 net.cpp:434] fc7_mbox_clean_perm <- fc7_mbox_clean
I0403 23:53:10.310847 25856 net.cpp:408] fc7_mbox_clean_perm -> fc7_mbox_clean_perm
I0403 23:53:10.310961 25856 net.cpp:150] Setting up fc7_mbox_clean_perm
I0403 23:53:10.310969 25856 net.cpp:157] Top shape: 8 32 32 6 (49152)
I0403 23:53:10.310973 25856 net.cpp:165] Memory required for data: 5842403360
I0403 23:53:10.310978 25856 layer_factory.hpp:77] Creating layer fc7_mbox_clean_flat
I0403 23:53:10.310986 25856 net.cpp:100] Creating Layer fc7_mbox_clean_flat
I0403 23:53:10.310991 25856 net.cpp:434] fc7_mbox_clean_flat <- fc7_mbox_clean_perm
I0403 23:53:10.310998 25856 net.cpp:408] fc7_mbox_clean_flat -> fc7_mbox_clean_flat
I0403 23:53:10.311024 25856 net.cpp:150] Setting up fc7_mbox_clean_flat
I0403 23:53:10.311033 25856 net.cpp:157] Top shape: 8 6144 (49152)
I0403 23:53:10.311038 25856 net.cpp:165] Memory required for data: 5842599968
I0403 23:53:10.311043 25856 layer_factory.hpp:77] Creating layer fc7_mbox_priorbox
I0403 23:53:10.311049 25856 net.cpp:100] Creating Layer fc7_mbox_priorbox
I0403 23:53:10.311054 25856 net.cpp:434] fc7_mbox_priorbox <- fc7_relu7_0_split_4
I0403 23:53:10.311060 25856 net.cpp:434] fc7_mbox_priorbox <- data_data_0_split_2
I0403 23:53:10.311067 25856 net.cpp:408] fc7_mbox_priorbox -> fc7_mbox_priorbox
I0403 23:53:10.311098 25856 net.cpp:150] Setting up fc7_mbox_priorbox
I0403 23:53:10.311106 25856 net.cpp:157] Top shape: 1 2 24576 (49152)
I0403 23:53:10.311111 25856 net.cpp:165] Memory required for data: 5842796576
I0403 23:53:10.311115 25856 layer_factory.hpp:77] Creating layer conv6_2_mbox_loc
I0403 23:53:10.311126 25856 net.cpp:100] Creating Layer conv6_2_mbox_loc
I0403 23:53:10.311131 25856 net.cpp:434] conv6_2_mbox_loc <- conv6_2_conv6_2_relu_0_split_1
I0403 23:53:10.311153 25856 net.cpp:408] conv6_2_mbox_loc -> conv6_2_mbox_loc
I0403 23:53:10.313482 25856 net.cpp:150] Setting up conv6_2_mbox_loc
I0403 23:53:10.313509 25856 net.cpp:157] Top shape: 8 24 16 16 (49152)
I0403 23:53:10.313514 25856 net.cpp:165] Memory required for data: 5842993184
I0403 23:53:10.313522 25856 layer_factory.hpp:77] Creating layer conv6_2_mbox_loc_perm
I0403 23:53:10.313532 25856 net.cpp:100] Creating Layer conv6_2_mbox_loc_perm
I0403 23:53:10.313537 25856 net.cpp:434] conv6_2_mbox_loc_perm <- conv6_2_mbox_loc
I0403 23:53:10.313544 25856 net.cpp:408] conv6_2_mbox_loc_perm -> conv6_2_mbox_loc_perm
I0403 23:53:10.313652 25856 net.cpp:150] Setting up conv6_2_mbox_loc_perm
I0403 23:53:10.313663 25856 net.cpp:157] Top shape: 8 16 16 24 (49152)
I0403 23:53:10.313666 25856 net.cpp:165] Memory required for data: 5843189792
I0403 23:53:10.313671 25856 layer_factory.hpp:77] Creating layer conv6_2_mbox_loc_flat
I0403 23:53:10.313679 25856 net.cpp:100] Creating Layer conv6_2_mbox_loc_flat
I0403 23:53:10.313684 25856 net.cpp:434] conv6_2_mbox_loc_flat <- conv6_2_mbox_loc_perm
I0403 23:53:10.313693 25856 net.cpp:408] conv6_2_mbox_loc_flat -> conv6_2_mbox_loc_flat
I0403 23:53:10.313717 25856 net.cpp:150] Setting up conv6_2_mbox_loc_flat
I0403 23:53:10.313725 25856 net.cpp:157] Top shape: 8 6144 (49152)
I0403 23:53:10.313730 25856 net.cpp:165] Memory required for data: 5843386400
I0403 23:53:10.313735 25856 layer_factory.hpp:77] Creating layer conv6_2_mbox_conf
I0403 23:53:10.313750 25856 net.cpp:100] Creating Layer conv6_2_mbox_conf
I0403 23:53:10.313757 25856 net.cpp:434] conv6_2_mbox_conf <- conv6_2_conv6_2_relu_0_split_2
I0403 23:53:10.313765 25856 net.cpp:408] conv6_2_mbox_conf -> conv6_2_mbox_conf
I0403 23:53:10.315230 25856 net.cpp:150] Setting up conv6_2_mbox_conf
I0403 23:53:10.315244 25856 net.cpp:157] Top shape: 8 12 16 16 (24576)
I0403 23:53:10.315260 25856 net.cpp:165] Memory required for data: 5843484704
I0403 23:53:10.315268 25856 layer_factory.hpp:77] Creating layer conv6_2_mbox_conf_perm
I0403 23:53:10.315277 25856 net.cpp:100] Creating Layer conv6_2_mbox_conf_perm
I0403 23:53:10.315284 25856 net.cpp:434] conv6_2_mbox_conf_perm <- conv6_2_mbox_conf
I0403 23:53:10.315289 25856 net.cpp:408] conv6_2_mbox_conf_perm -> conv6_2_mbox_conf_perm
I0403 23:53:10.315397 25856 net.cpp:150] Setting up conv6_2_mbox_conf_perm
I0403 23:53:10.315407 25856 net.cpp:157] Top shape: 8 16 16 12 (24576)
I0403 23:53:10.315412 25856 net.cpp:165] Memory required for data: 5843583008
I0403 23:53:10.315417 25856 layer_factory.hpp:77] Creating layer conv6_2_mbox_conf_flat
I0403 23:53:10.315423 25856 net.cpp:100] Creating Layer conv6_2_mbox_conf_flat
I0403 23:53:10.315428 25856 net.cpp:434] conv6_2_mbox_conf_flat <- conv6_2_mbox_conf_perm
I0403 23:53:10.315433 25856 net.cpp:408] conv6_2_mbox_conf_flat -> conv6_2_mbox_conf_flat
I0403 23:53:10.315460 25856 net.cpp:150] Setting up conv6_2_mbox_conf_flat
I0403 23:53:10.315469 25856 net.cpp:157] Top shape: 8 3072 (24576)
I0403 23:53:10.315474 25856 net.cpp:165] Memory required for data: 5843681312
I0403 23:53:10.315479 25856 layer_factory.hpp:77] Creating layer conv6_2_mbox_clean
I0403 23:53:10.315490 25856 net.cpp:100] Creating Layer conv6_2_mbox_clean
I0403 23:53:10.315496 25856 net.cpp:434] conv6_2_mbox_clean <- conv6_2_conv6_2_relu_0_split_3
I0403 23:53:10.315503 25856 net.cpp:408] conv6_2_mbox_clean -> conv6_2_mbox_clean
I0403 23:53:10.316717 25856 net.cpp:150] Setting up conv6_2_mbox_clean
I0403 23:53:10.316733 25856 net.cpp:157] Top shape: 8 6 16 16 (12288)
I0403 23:53:10.316751 25856 net.cpp:165] Memory required for data: 5843730464
I0403 23:53:10.316772 25856 layer_factory.hpp:77] Creating layer conv6_2_mbox_clean_perm
I0403 23:53:10.316783 25856 net.cpp:100] Creating Layer conv6_2_mbox_clean_perm
I0403 23:53:10.316788 25856 net.cpp:434] conv6_2_mbox_clean_perm <- conv6_2_mbox_clean
I0403 23:53:10.316795 25856 net.cpp:408] conv6_2_mbox_clean_perm -> conv6_2_mbox_clean_perm
I0403 23:53:10.316906 25856 net.cpp:150] Setting up conv6_2_mbox_clean_perm
I0403 23:53:10.316926 25856 net.cpp:157] Top shape: 8 16 16 6 (12288)
I0403 23:53:10.316931 25856 net.cpp:165] Memory required for data: 5843779616
I0403 23:53:10.316936 25856 layer_factory.hpp:77] Creating layer conv6_2_mbox_clean_flat
I0403 23:53:10.316944 25856 net.cpp:100] Creating Layer conv6_2_mbox_clean_flat
I0403 23:53:10.316951 25856 net.cpp:434] conv6_2_mbox_clean_flat <- conv6_2_mbox_clean_perm
I0403 23:53:10.316957 25856 net.cpp:408] conv6_2_mbox_clean_flat -> conv6_2_mbox_clean_flat
I0403 23:53:10.316987 25856 net.cpp:150] Setting up conv6_2_mbox_clean_flat
I0403 23:53:10.316997 25856 net.cpp:157] Top shape: 8 1536 (12288)
I0403 23:53:10.317001 25856 net.cpp:165] Memory required for data: 5843828768
I0403 23:53:10.317005 25856 layer_factory.hpp:77] Creating layer conv6_2_mbox_priorbox
I0403 23:53:10.317013 25856 net.cpp:100] Creating Layer conv6_2_mbox_priorbox
I0403 23:53:10.317018 25856 net.cpp:434] conv6_2_mbox_priorbox <- conv6_2_conv6_2_relu_0_split_4
I0403 23:53:10.317028 25856 net.cpp:434] conv6_2_mbox_priorbox <- data_data_0_split_3
I0403 23:53:10.317035 25856 net.cpp:408] conv6_2_mbox_priorbox -> conv6_2_mbox_priorbox
I0403 23:53:10.317065 25856 net.cpp:150] Setting up conv6_2_mbox_priorbox
I0403 23:53:10.317073 25856 net.cpp:157] Top shape: 1 2 6144 (12288)
I0403 23:53:10.317078 25856 net.cpp:165] Memory required for data: 5843877920
I0403 23:53:10.317082 25856 layer_factory.hpp:77] Creating layer conv7_2_mbox_loc
I0403 23:53:10.317095 25856 net.cpp:100] Creating Layer conv7_2_mbox_loc
I0403 23:53:10.317101 25856 net.cpp:434] conv7_2_mbox_loc <- conv7_2_conv7_2_relu_0_split_1
I0403 23:53:10.317108 25856 net.cpp:408] conv7_2_mbox_loc -> conv7_2_mbox_loc
I0403 23:53:10.319082 25856 net.cpp:150] Setting up conv7_2_mbox_loc
I0403 23:53:10.319097 25856 net.cpp:157] Top shape: 8 24 8 8 (12288)
I0403 23:53:10.319113 25856 net.cpp:165] Memory required for data: 5843927072
I0403 23:53:10.319121 25856 layer_factory.hpp:77] Creating layer conv7_2_mbox_loc_perm
I0403 23:53:10.319131 25856 net.cpp:100] Creating Layer conv7_2_mbox_loc_perm
I0403 23:53:10.319136 25856 net.cpp:434] conv7_2_mbox_loc_perm <- conv7_2_mbox_loc
I0403 23:53:10.319144 25856 net.cpp:408] conv7_2_mbox_loc_perm -> conv7_2_mbox_loc_perm
I0403 23:53:10.319259 25856 net.cpp:150] Setting up conv7_2_mbox_loc_perm
I0403 23:53:10.319269 25856 net.cpp:157] Top shape: 8 8 8 24 (12288)
I0403 23:53:10.319273 25856 net.cpp:165] Memory required for data: 5843976224
I0403 23:53:10.319278 25856 layer_factory.hpp:77] Creating layer conv7_2_mbox_loc_flat
I0403 23:53:10.319284 25856 net.cpp:100] Creating Layer conv7_2_mbox_loc_flat
I0403 23:53:10.319293 25856 net.cpp:434] conv7_2_mbox_loc_flat <- conv7_2_mbox_loc_perm
I0403 23:53:10.319299 25856 net.cpp:408] conv7_2_mbox_loc_flat -> conv7_2_mbox_loc_flat
I0403 23:53:10.319326 25856 net.cpp:150] Setting up conv7_2_mbox_loc_flat
I0403 23:53:10.319334 25856 net.cpp:157] Top shape: 8 1536 (12288)
I0403 23:53:10.319339 25856 net.cpp:165] Memory required for data: 5844025376
I0403 23:53:10.319342 25856 layer_factory.hpp:77] Creating layer conv7_2_mbox_conf
I0403 23:53:10.319356 25856 net.cpp:100] Creating Layer conv7_2_mbox_conf
I0403 23:53:10.319363 25856 net.cpp:434] conv7_2_mbox_conf <- conv7_2_conv7_2_relu_0_split_2
I0403 23:53:10.319370 25856 net.cpp:408] conv7_2_mbox_conf -> conv7_2_mbox_conf
I0403 23:53:10.320777 25856 net.cpp:150] Setting up conv7_2_mbox_conf
I0403 23:53:10.320793 25856 net.cpp:157] Top shape: 8 12 8 8 (6144)
I0403 23:53:10.320809 25856 net.cpp:165] Memory required for data: 5844049952
I0403 23:53:10.320816 25856 layer_factory.hpp:77] Creating layer conv7_2_mbox_conf_perm
I0403 23:53:10.320827 25856 net.cpp:100] Creating Layer conv7_2_mbox_conf_perm
I0403 23:53:10.320832 25856 net.cpp:434] conv7_2_mbox_conf_perm <- conv7_2_mbox_conf
I0403 23:53:10.320838 25856 net.cpp:408] conv7_2_mbox_conf_perm -> conv7_2_mbox_conf_perm
I0403 23:53:10.320956 25856 net.cpp:150] Setting up conv7_2_mbox_conf_perm
I0403 23:53:10.320966 25856 net.cpp:157] Top shape: 8 8 8 12 (6144)
I0403 23:53:10.320981 25856 net.cpp:165] Memory required for data: 5844074528
I0403 23:53:10.320986 25856 layer_factory.hpp:77] Creating layer conv7_2_mbox_conf_flat
I0403 23:53:10.320993 25856 net.cpp:100] Creating Layer conv7_2_mbox_conf_flat
I0403 23:53:10.321000 25856 net.cpp:434] conv7_2_mbox_conf_flat <- conv7_2_mbox_conf_perm
I0403 23:53:10.321007 25856 net.cpp:408] conv7_2_mbox_conf_flat -> conv7_2_mbox_conf_flat
I0403 23:53:10.321035 25856 net.cpp:150] Setting up conv7_2_mbox_conf_flat
I0403 23:53:10.321044 25856 net.cpp:157] Top shape: 8 768 (6144)
I0403 23:53:10.321048 25856 net.cpp:165] Memory required for data: 5844099104
I0403 23:53:10.321053 25856 layer_factory.hpp:77] Creating layer conv7_2_mbox_clean
I0403 23:53:10.321066 25856 net.cpp:100] Creating Layer conv7_2_mbox_clean
I0403 23:53:10.321074 25856 net.cpp:434] conv7_2_mbox_clean <- conv7_2_conv7_2_relu_0_split_3
I0403 23:53:10.321080 25856 net.cpp:408] conv7_2_mbox_clean -> conv7_2_mbox_clean
I0403 23:53:10.322305 25856 net.cpp:150] Setting up conv7_2_mbox_clean
I0403 23:53:10.322319 25856 net.cpp:157] Top shape: 8 6 8 8 (3072)
I0403 23:53:10.322336 25856 net.cpp:165] Memory required for data: 5844111392
I0403 23:53:10.322343 25856 layer_factory.hpp:77] Creating layer conv7_2_mbox_clean_perm
I0403 23:53:10.322353 25856 net.cpp:100] Creating Layer conv7_2_mbox_clean_perm
I0403 23:53:10.322358 25856 net.cpp:434] conv7_2_mbox_clean_perm <- conv7_2_mbox_clean
I0403 23:53:10.322365 25856 net.cpp:408] conv7_2_mbox_clean_perm -> conv7_2_mbox_clean_perm
I0403 23:53:10.322486 25856 net.cpp:150] Setting up conv7_2_mbox_clean_perm
I0403 23:53:10.322496 25856 net.cpp:157] Top shape: 8 8 8 6 (3072)
I0403 23:53:10.322500 25856 net.cpp:165] Memory required for data: 5844123680
I0403 23:53:10.322504 25856 layer_factory.hpp:77] Creating layer conv7_2_mbox_clean_flat
I0403 23:53:10.322511 25856 net.cpp:100] Creating Layer conv7_2_mbox_clean_flat
I0403 23:53:10.322516 25856 net.cpp:434] conv7_2_mbox_clean_flat <- conv7_2_mbox_clean_perm
I0403 23:53:10.322525 25856 net.cpp:408] conv7_2_mbox_clean_flat -> conv7_2_mbox_clean_flat
I0403 23:53:10.322553 25856 net.cpp:150] Setting up conv7_2_mbox_clean_flat
I0403 23:53:10.322561 25856 net.cpp:157] Top shape: 8 384 (3072)
I0403 23:53:10.322566 25856 net.cpp:165] Memory required for data: 5844135968
I0403 23:53:10.322571 25856 layer_factory.hpp:77] Creating layer conv7_2_mbox_priorbox
I0403 23:53:10.322580 25856 net.cpp:100] Creating Layer conv7_2_mbox_priorbox
I0403 23:53:10.322587 25856 net.cpp:434] conv7_2_mbox_priorbox <- conv7_2_conv7_2_relu_0_split_4
I0403 23:53:10.322592 25856 net.cpp:434] conv7_2_mbox_priorbox <- data_data_0_split_4
I0403 23:53:10.322602 25856 net.cpp:408] conv7_2_mbox_priorbox -> conv7_2_mbox_priorbox
I0403 23:53:10.322629 25856 net.cpp:150] Setting up conv7_2_mbox_priorbox
I0403 23:53:10.322638 25856 net.cpp:157] Top shape: 1 2 1536 (3072)
I0403 23:53:10.322643 25856 net.cpp:165] Memory required for data: 5844148256
I0403 23:53:10.322648 25856 layer_factory.hpp:77] Creating layer conv8_2_mbox_loc
I0403 23:53:10.322662 25856 net.cpp:100] Creating Layer conv8_2_mbox_loc
I0403 23:53:10.322670 25856 net.cpp:434] conv8_2_mbox_loc <- conv8_2_conv8_2_relu_0_split_1
I0403 23:53:10.322679 25856 net.cpp:408] conv8_2_mbox_loc -> conv8_2_mbox_loc
I0403 23:53:10.324054 25856 net.cpp:150] Setting up conv8_2_mbox_loc
I0403 23:53:10.324069 25856 net.cpp:157] Top shape: 8 16 6 6 (4608)
I0403 23:53:10.324086 25856 net.cpp:165] Memory required for data: 5844166688
I0403 23:53:10.324093 25856 layer_factory.hpp:77] Creating layer conv8_2_mbox_loc_perm
I0403 23:53:10.324101 25856 net.cpp:100] Creating Layer conv8_2_mbox_loc_perm
I0403 23:53:10.324107 25856 net.cpp:434] conv8_2_mbox_loc_perm <- conv8_2_mbox_loc
I0403 23:53:10.324115 25856 net.cpp:408] conv8_2_mbox_loc_perm -> conv8_2_mbox_loc_perm
I0403 23:53:10.324235 25856 net.cpp:150] Setting up conv8_2_mbox_loc_perm
I0403 23:53:10.324245 25856 net.cpp:157] Top shape: 8 6 6 16 (4608)
I0403 23:53:10.324249 25856 net.cpp:165] Memory required for data: 5844185120
I0403 23:53:10.324265 25856 layer_factory.hpp:77] Creating layer conv8_2_mbox_loc_flat
I0403 23:53:10.324275 25856 net.cpp:100] Creating Layer conv8_2_mbox_loc_flat
I0403 23:53:10.324281 25856 net.cpp:434] conv8_2_mbox_loc_flat <- conv8_2_mbox_loc_perm
I0403 23:53:10.324288 25856 net.cpp:408] conv8_2_mbox_loc_flat -> conv8_2_mbox_loc_flat
I0403 23:53:10.324317 25856 net.cpp:150] Setting up conv8_2_mbox_loc_flat
I0403 23:53:10.324326 25856 net.cpp:157] Top shape: 8 576 (4608)
I0403 23:53:10.324331 25856 net.cpp:165] Memory required for data: 5844203552
I0403 23:53:10.324334 25856 layer_factory.hpp:77] Creating layer conv8_2_mbox_conf
I0403 23:53:10.324349 25856 net.cpp:100] Creating Layer conv8_2_mbox_conf
I0403 23:53:10.324357 25856 net.cpp:434] conv8_2_mbox_conf <- conv8_2_conv8_2_relu_0_split_2
I0403 23:53:10.324363 25856 net.cpp:408] conv8_2_mbox_conf -> conv8_2_mbox_conf
I0403 23:53:10.325533 25856 net.cpp:150] Setting up conv8_2_mbox_conf
I0403 23:53:10.325548 25856 net.cpp:157] Top shape: 8 8 6 6 (2304)
I0403 23:53:10.325553 25856 net.cpp:165] Memory required for data: 5844212768
I0403 23:53:10.325562 25856 layer_factory.hpp:77] Creating layer conv8_2_mbox_conf_perm
I0403 23:53:10.325570 25856 net.cpp:100] Creating Layer conv8_2_mbox_conf_perm
I0403 23:53:10.325577 25856 net.cpp:434] conv8_2_mbox_conf_perm <- conv8_2_mbox_conf
I0403 23:53:10.325587 25856 net.cpp:408] conv8_2_mbox_conf_perm -> conv8_2_mbox_conf_perm
I0403 23:53:10.325703 25856 net.cpp:150] Setting up conv8_2_mbox_conf_perm
I0403 23:53:10.325713 25856 net.cpp:157] Top shape: 8 6 6 8 (2304)
I0403 23:53:10.325717 25856 net.cpp:165] Memory required for data: 5844221984
I0403 23:53:10.325721 25856 layer_factory.hpp:77] Creating layer conv8_2_mbox_conf_flat
I0403 23:53:10.325731 25856 net.cpp:100] Creating Layer conv8_2_mbox_conf_flat
I0403 23:53:10.325737 25856 net.cpp:434] conv8_2_mbox_conf_flat <- conv8_2_mbox_conf_perm
I0403 23:53:10.325743 25856 net.cpp:408] conv8_2_mbox_conf_flat -> conv8_2_mbox_conf_flat
I0403 23:53:10.325773 25856 net.cpp:150] Setting up conv8_2_mbox_conf_flat
I0403 23:53:10.325780 25856 net.cpp:157] Top shape: 8 288 (2304)
I0403 23:53:10.325785 25856 net.cpp:165] Memory required for data: 5844231200
I0403 23:53:10.325789 25856 layer_factory.hpp:77] Creating layer conv8_2_mbox_clean
I0403 23:53:10.325803 25856 net.cpp:100] Creating Layer conv8_2_mbox_clean
I0403 23:53:10.325810 25856 net.cpp:434] conv8_2_mbox_clean <- conv8_2_conv8_2_relu_0_split_3
I0403 23:53:10.325820 25856 net.cpp:408] conv8_2_mbox_clean -> conv8_2_mbox_clean
I0403 23:53:10.327004 25856 net.cpp:150] Setting up conv8_2_mbox_clean
I0403 23:53:10.327018 25856 net.cpp:157] Top shape: 8 4 6 6 (1152)
I0403 23:53:10.327034 25856 net.cpp:165] Memory required for data: 5844235808
I0403 23:53:10.327041 25856 layer_factory.hpp:77] Creating layer conv8_2_mbox_clean_perm
I0403 23:53:10.327051 25856 net.cpp:100] Creating Layer conv8_2_mbox_clean_perm
I0403 23:53:10.327056 25856 net.cpp:434] conv8_2_mbox_clean_perm <- conv8_2_mbox_clean
I0403 23:53:10.327064 25856 net.cpp:408] conv8_2_mbox_clean_perm -> conv8_2_mbox_clean_perm
I0403 23:53:10.327183 25856 net.cpp:150] Setting up conv8_2_mbox_clean_perm
I0403 23:53:10.327193 25856 net.cpp:157] Top shape: 8 6 6 4 (1152)
I0403 23:53:10.327196 25856 net.cpp:165] Memory required for data: 5844240416
I0403 23:53:10.327200 25856 layer_factory.hpp:77] Creating layer conv8_2_mbox_clean_flat
I0403 23:53:10.327209 25856 net.cpp:100] Creating Layer conv8_2_mbox_clean_flat
I0403 23:53:10.327217 25856 net.cpp:434] conv8_2_mbox_clean_flat <- conv8_2_mbox_clean_perm
I0403 23:53:10.327224 25856 net.cpp:408] conv8_2_mbox_clean_flat -> conv8_2_mbox_clean_flat
I0403 23:53:10.327252 25856 net.cpp:150] Setting up conv8_2_mbox_clean_flat
I0403 23:53:10.327260 25856 net.cpp:157] Top shape: 8 144 (1152)
I0403 23:53:10.327265 25856 net.cpp:165] Memory required for data: 5844245024
I0403 23:53:10.327270 25856 layer_factory.hpp:77] Creating layer conv8_2_mbox_priorbox
I0403 23:53:10.327276 25856 net.cpp:100] Creating Layer conv8_2_mbox_priorbox
I0403 23:53:10.327291 25856 net.cpp:434] conv8_2_mbox_priorbox <- conv8_2_conv8_2_relu_0_split_4
I0403 23:53:10.327296 25856 net.cpp:434] conv8_2_mbox_priorbox <- data_data_0_split_5
I0403 23:53:10.327304 25856 net.cpp:408] conv8_2_mbox_priorbox -> conv8_2_mbox_priorbox
I0403 23:53:10.327335 25856 net.cpp:150] Setting up conv8_2_mbox_priorbox
I0403 23:53:10.327344 25856 net.cpp:157] Top shape: 1 2 576 (1152)
I0403 23:53:10.327349 25856 net.cpp:165] Memory required for data: 5844249632
I0403 23:53:10.327353 25856 layer_factory.hpp:77] Creating layer conv9_2_mbox_loc
I0403 23:53:10.327368 25856 net.cpp:100] Creating Layer conv9_2_mbox_loc
I0403 23:53:10.327374 25856 net.cpp:434] conv9_2_mbox_loc <- conv9_2_conv9_2_relu_0_split_0
I0403 23:53:10.327383 25856 net.cpp:408] conv9_2_mbox_loc -> conv9_2_mbox_loc
I0403 23:53:10.328757 25856 net.cpp:150] Setting up conv9_2_mbox_loc
I0403 23:53:10.328785 25856 net.cpp:157] Top shape: 8 16 4 4 (2048)
I0403 23:53:10.328790 25856 net.cpp:165] Memory required for data: 5844257824
I0403 23:53:10.328797 25856 layer_factory.hpp:77] Creating layer conv9_2_mbox_loc_perm
I0403 23:53:10.328805 25856 net.cpp:100] Creating Layer conv9_2_mbox_loc_perm
I0403 23:53:10.328811 25856 net.cpp:434] conv9_2_mbox_loc_perm <- conv9_2_mbox_loc
I0403 23:53:10.328819 25856 net.cpp:408] conv9_2_mbox_loc_perm -> conv9_2_mbox_loc_perm
I0403 23:53:10.328939 25856 net.cpp:150] Setting up conv9_2_mbox_loc_perm
I0403 23:53:10.328949 25856 net.cpp:157] Top shape: 8 4 4 16 (2048)
I0403 23:53:10.328953 25856 net.cpp:165] Memory required for data: 5844266016
I0403 23:53:10.328958 25856 layer_factory.hpp:77] Creating layer conv9_2_mbox_loc_flat
I0403 23:53:10.328966 25856 net.cpp:100] Creating Layer conv9_2_mbox_loc_flat
I0403 23:53:10.328971 25856 net.cpp:434] conv9_2_mbox_loc_flat <- conv9_2_mbox_loc_perm
I0403 23:53:10.328977 25856 net.cpp:408] conv9_2_mbox_loc_flat -> conv9_2_mbox_loc_flat
I0403 23:53:10.329006 25856 net.cpp:150] Setting up conv9_2_mbox_loc_flat
I0403 23:53:10.329015 25856 net.cpp:157] Top shape: 8 256 (2048)
I0403 23:53:10.329020 25856 net.cpp:165] Memory required for data: 5844274208
I0403 23:53:10.329023 25856 layer_factory.hpp:77] Creating layer conv9_2_mbox_conf
I0403 23:53:10.329035 25856 net.cpp:100] Creating Layer conv9_2_mbox_conf
I0403 23:53:10.329043 25856 net.cpp:434] conv9_2_mbox_conf <- conv9_2_conv9_2_relu_0_split_1
I0403 23:53:10.329051 25856 net.cpp:408] conv9_2_mbox_conf -> conv9_2_mbox_conf
I0403 23:53:10.330349 25856 net.cpp:150] Setting up conv9_2_mbox_conf
I0403 23:53:10.330363 25856 net.cpp:157] Top shape: 8 8 4 4 (1024)
I0403 23:53:10.330381 25856 net.cpp:165] Memory required for data: 5844278304
I0403 23:53:10.330389 25856 layer_factory.hpp:77] Creating layer conv9_2_mbox_conf_perm
I0403 23:53:10.330399 25856 net.cpp:100] Creating Layer conv9_2_mbox_conf_perm
I0403 23:53:10.330404 25856 net.cpp:434] conv9_2_mbox_conf_perm <- conv9_2_mbox_conf
I0403 23:53:10.330410 25856 net.cpp:408] conv9_2_mbox_conf_perm -> conv9_2_mbox_conf_perm
I0403 23:53:10.330534 25856 net.cpp:150] Setting up conv9_2_mbox_conf_perm
I0403 23:53:10.330544 25856 net.cpp:157] Top shape: 8 4 4 8 (1024)
I0403 23:53:10.330549 25856 net.cpp:165] Memory required for data: 5844282400
I0403 23:53:10.330554 25856 layer_factory.hpp:77] Creating layer conv9_2_mbox_conf_flat
I0403 23:53:10.330562 25856 net.cpp:100] Creating Layer conv9_2_mbox_conf_flat
I0403 23:53:10.330569 25856 net.cpp:434] conv9_2_mbox_conf_flat <- conv9_2_mbox_conf_perm
I0403 23:53:10.330575 25856 net.cpp:408] conv9_2_mbox_conf_flat -> conv9_2_mbox_conf_flat
I0403 23:53:10.330607 25856 net.cpp:150] Setting up conv9_2_mbox_conf_flat
I0403 23:53:10.330616 25856 net.cpp:157] Top shape: 8 128 (1024)
I0403 23:53:10.330621 25856 net.cpp:165] Memory required for data: 5844286496
I0403 23:53:10.330624 25856 layer_factory.hpp:77] Creating layer conv9_2_mbox_clean
I0403 23:53:10.330636 25856 net.cpp:100] Creating Layer conv9_2_mbox_clean
I0403 23:53:10.330641 25856 net.cpp:434] conv9_2_mbox_clean <- conv9_2_conv9_2_relu_0_split_2
I0403 23:53:10.330649 25856 net.cpp:408] conv9_2_mbox_clean -> conv9_2_mbox_clean
I0403 23:53:10.331889 25856 net.cpp:150] Setting up conv9_2_mbox_clean
I0403 23:53:10.331904 25856 net.cpp:157] Top shape: 8 4 4 4 (512)
I0403 23:53:10.331921 25856 net.cpp:165] Memory required for data: 5844288544
I0403 23:53:10.331930 25856 layer_factory.hpp:77] Creating layer conv9_2_mbox_clean_perm
I0403 23:53:10.331938 25856 net.cpp:100] Creating Layer conv9_2_mbox_clean_perm
I0403 23:53:10.331943 25856 net.cpp:434] conv9_2_mbox_clean_perm <- conv9_2_mbox_clean
I0403 23:53:10.331950 25856 net.cpp:408] conv9_2_mbox_clean_perm -> conv9_2_mbox_clean_perm
I0403 23:53:10.332072 25856 net.cpp:150] Setting up conv9_2_mbox_clean_perm
I0403 23:53:10.332080 25856 net.cpp:157] Top shape: 8 4 4 4 (512)
I0403 23:53:10.332085 25856 net.cpp:165] Memory required for data: 5844290592
I0403 23:53:10.332089 25856 layer_factory.hpp:77] Creating layer conv9_2_mbox_clean_flat
I0403 23:53:10.332096 25856 net.cpp:100] Creating Layer conv9_2_mbox_clean_flat
I0403 23:53:10.332101 25856 net.cpp:434] conv9_2_mbox_clean_flat <- conv9_2_mbox_clean_perm
I0403 23:53:10.332108 25856 net.cpp:408] conv9_2_mbox_clean_flat -> conv9_2_mbox_clean_flat
I0403 23:53:10.332139 25856 net.cpp:150] Setting up conv9_2_mbox_clean_flat
I0403 23:53:10.332146 25856 net.cpp:157] Top shape: 8 64 (512)
I0403 23:53:10.332151 25856 net.cpp:165] Memory required for data: 5844292640
I0403 23:53:10.332155 25856 layer_factory.hpp:77] Creating layer conv9_2_mbox_priorbox
I0403 23:53:10.332164 25856 net.cpp:100] Creating Layer conv9_2_mbox_priorbox
I0403 23:53:10.332168 25856 net.cpp:434] conv9_2_mbox_priorbox <- conv9_2_conv9_2_relu_0_split_3
I0403 23:53:10.332173 25856 net.cpp:434] conv9_2_mbox_priorbox <- data_data_0_split_6
I0403 23:53:10.332181 25856 net.cpp:408] conv9_2_mbox_priorbox -> conv9_2_mbox_priorbox
I0403 23:53:10.332214 25856 net.cpp:150] Setting up conv9_2_mbox_priorbox
I0403 23:53:10.332223 25856 net.cpp:157] Top shape: 1 2 256 (512)
I0403 23:53:10.332227 25856 net.cpp:165] Memory required for data: 5844294688
I0403 23:53:10.332232 25856 layer_factory.hpp:77] Creating layer mbox_loc
I0403 23:53:10.332240 25856 net.cpp:100] Creating Layer mbox_loc
I0403 23:53:10.332245 25856 net.cpp:434] mbox_loc <- conv4_3_norm_mbox_loc_flat
I0403 23:53:10.332252 25856 net.cpp:434] mbox_loc <- fc7_mbox_loc_flat
I0403 23:53:10.332257 25856 net.cpp:434] mbox_loc <- conv6_2_mbox_loc_flat
I0403 23:53:10.332262 25856 net.cpp:434] mbox_loc <- conv7_2_mbox_loc_flat
I0403 23:53:10.332267 25856 net.cpp:434] mbox_loc <- conv8_2_mbox_loc_flat
I0403 23:53:10.332273 25856 net.cpp:434] mbox_loc <- conv9_2_mbox_loc_flat
I0403 23:53:10.332278 25856 net.cpp:408] mbox_loc -> mbox_loc
I0403 23:53:10.332334 25856 net.cpp:150] Setting up mbox_loc
I0403 23:53:10.332345 25856 net.cpp:157] Top shape: 8 98624 (788992)
I0403 23:53:10.332348 25856 net.cpp:165] Memory required for data: 5847450656
I0403 23:53:10.332352 25856 layer_factory.hpp:77] Creating layer mbox_conf
I0403 23:53:10.332360 25856 net.cpp:100] Creating Layer mbox_conf
I0403 23:53:10.332367 25856 net.cpp:434] mbox_conf <- conv4_3_norm_mbox_conf_flat
I0403 23:53:10.332373 25856 net.cpp:434] mbox_conf <- fc7_mbox_conf_flat
I0403 23:53:10.332379 25856 net.cpp:434] mbox_conf <- conv6_2_mbox_conf_flat
I0403 23:53:10.332384 25856 net.cpp:434] mbox_conf <- conv7_2_mbox_conf_flat
I0403 23:53:10.332389 25856 net.cpp:434] mbox_conf <- conv8_2_mbox_conf_flat
I0403 23:53:10.332394 25856 net.cpp:434] mbox_conf <- conv9_2_mbox_conf_flat
I0403 23:53:10.332401 25856 net.cpp:408] mbox_conf -> mbox_conf
I0403 23:53:10.332430 25856 net.cpp:150] Setting up mbox_conf
I0403 23:53:10.332438 25856 net.cpp:157] Top shape: 8 49312 (394496)
I0403 23:53:10.332442 25856 net.cpp:165] Memory required for data: 5849028640
I0403 23:53:10.332448 25856 layer_factory.hpp:77] Creating layer mbox_priorbox
I0403 23:53:10.332454 25856 net.cpp:100] Creating Layer mbox_priorbox
I0403 23:53:10.332459 25856 net.cpp:434] mbox_priorbox <- conv4_3_norm_mbox_priorbox
I0403 23:53:10.332464 25856 net.cpp:434] mbox_priorbox <- fc7_mbox_priorbox
I0403 23:53:10.332480 25856 net.cpp:434] mbox_priorbox <- conv6_2_mbox_priorbox
I0403 23:53:10.332485 25856 net.cpp:434] mbox_priorbox <- conv7_2_mbox_priorbox
I0403 23:53:10.332490 25856 net.cpp:434] mbox_priorbox <- conv8_2_mbox_priorbox
I0403 23:53:10.332495 25856 net.cpp:434] mbox_priorbox <- conv9_2_mbox_priorbox
I0403 23:53:10.332502 25856 net.cpp:408] mbox_priorbox -> mbox_priorbox
I0403 23:53:10.332532 25856 net.cpp:150] Setting up mbox_priorbox
I0403 23:53:10.332541 25856 net.cpp:157] Top shape: 1 2 98624 (197248)
I0403 23:53:10.332545 25856 net.cpp:165] Memory required for data: 5849817632
I0403 23:53:10.332550 25856 layer_factory.hpp:77] Creating layer mbox_clean
I0403 23:53:10.332558 25856 net.cpp:100] Creating Layer mbox_clean
I0403 23:53:10.332564 25856 net.cpp:434] mbox_clean <- conv4_3_norm_mbox_clean_flat
I0403 23:53:10.332569 25856 net.cpp:434] mbox_clean <- fc7_mbox_clean_flat
I0403 23:53:10.332576 25856 net.cpp:434] mbox_clean <- conv6_2_mbox_clean_flat
I0403 23:53:10.332581 25856 net.cpp:434] mbox_clean <- conv7_2_mbox_clean_flat
I0403 23:53:10.332586 25856 net.cpp:434] mbox_clean <- conv8_2_mbox_clean_flat
I0403 23:53:10.332589 25856 net.cpp:434] mbox_clean <- conv9_2_mbox_clean_flat
I0403 23:53:10.332595 25856 net.cpp:408] mbox_clean -> mbox_clean
I0403 23:53:10.332624 25856 net.cpp:150] Setting up mbox_clean
I0403 23:53:10.332633 25856 net.cpp:157] Top shape: 8 24656 (197248)
I0403 23:53:10.332636 25856 net.cpp:165] Memory required for data: 5850606624
I0403 23:53:10.332640 25856 layer_factory.hpp:77] Creating layer mbox_loss
I0403 23:53:10.332656 25856 net.cpp:100] Creating Layer mbox_loss
I0403 23:53:10.332662 25856 net.cpp:434] mbox_loss <- mbox_loc
I0403 23:53:10.332669 25856 net.cpp:434] mbox_loss <- mbox_conf
I0403 23:53:10.332674 25856 net.cpp:434] mbox_loss <- mbox_priorbox
…
  top: "label"
  include {
    phase: TEST
  }
  transform_param {
    mean_value: 104
    mean_value: 117
    mean_value: 123
    force_color: true
    resize_param {
      prob: 1
      resize_mode: WARP
      height: 512
      width: 512
      interp_mode: LINEAR
    }
  }
  data_param {
    source: "/data/siyu/dataset/coco/lmdb/COCO_Val2014_person_lmdb"
    batch_size: 2
    backend: LMDB
  }
  annotated_data_param {
    batch_sampler {
    }
    label_map_file: "/data/siyu/dataset/coco/labelmap_coco-person.prototxt"
    part_sampler_prob: 0
  }
}
layer {
  name: "conv1_1"
  type: "Convolution"
  bottom: "data"
  top: "conv1_1"
  param {
    lr_mult: 1
    decay_mult: 1
  }
  param {
    lr_mult: 2
    decay_mult: 0
  }
  convolution_param {
    num_output: 64
    pad: 1
    kernel_size: 3
    weight_filler {
      type: "xavier"
    }
    bias_filler {
      type: "constant"
      value: 0
    }
  }
}
layer {
  name: "relu1_1"
  type: "ReLU"
  bottom: "conv1_1"
  top: "conv1_1"
}
layer {
  name: "conv1_2"
  type: "Convolution"
  bottom: "conv1_1"
  top: "conv1_2"
  param {
    lr_mult: 1
    decay_mult: 1
  }
  param {
    lr_mult: 2
    decay_mult: 0
  }
  convolution_param {
    num_output: 64
    pad: 1
    kernel_size: 3
    weight_filler {
      type: "xavier"
    }
    bias_filler {
      type: "constant"
      value: 0
    }
  }
}
layer {
  name: "relu1_2"
  type: "ReLU"
  bottom: "conv1_2"
  top: "conv1_2"
}
layer {
  name: "pool1"
  type: "Pooling"
  bottom: "conv1_2"
  top: "pool1"
  pooling_param {
    pool: MAX
    kernel_size: 2
    stride: 2
  }
}
layer {
  name: "conv2_1"
  type: "Convolution"
  bottom: "pool1"
  top: "conv2_1"
  param {
    lr_mult: 1
    decay_mult: 1
  }
  param {
    lr_mult: 2
    decay_mult: 0
  }
  convolution_param {
    num_output: 128
    pad: 1
    kernel_size: 3
    weight_filler {
      type: "xavier"
    }
    bias_filler {
      type: "constant"
      value: 0
    }
  }
}
layer {
  name: "relu2_1"
  type: "ReLU"
  bottom: "conv2_1"
  top: "conv2_1"
}
layer {
  name: "conv2_2"
  type: "Convolution"
  bottom: "conv2_1"
  top: "conv2_2"
  param {
    lr_mult: 1
    decay_mult: 1
  }
  param {
    lr_mult: 2
    decay_mult: 0
  }
  convolution_param {
    num_output: 128
    pad: 1
    kernel_size: 3
    weight_filler {
      type: "xavier"
    }
    bias_filler {
      type: "constant"
      value: 0
    }
  }
}
layer {
  name: "relu2_2"
  type: "ReLU"
  bottom: "conv2_2"
  top: "conv2_2"
}
layer {
  name: "pool2"
  type: "Pooling"
  bottom: "conv2_2"
  top: "pool2"
  pooling_param {
    pool: MAX
    kernel_size: 2
    stride: 2
  }
}
layer {
  name: "conv3_1"
  type: "Convolution"
  bottom: "pool2"
  top: "conv3_1"
  param {
    lr_mult: 1
    decay_mult: 1
  }
  param {
    lr_mult: 2
    decay_mult: 0
  }
  convolution_param {
    num_output: 256
    pad: 1
    kernel_size: 3
    weight_filler {
      type: "xavier"
    }
    bias_filler {
      type: "constant"
      value: 0
    }
  }
}
layer {
  name: "relu3_1"
  type: "ReLU"
  bottom: "conv3_1"
  top: "conv3_1"
}
layer {
  name: "conv3_2"
  type: "Convolution"
  bottom: "conv3_1"
  top: "conv3_2"
  param {
    lr_mult: 1
    decay_mult: 1
  }
  param {
    lr_mult: 2
    decay_mult: 0
  }
  convolution_param {
    num_output: 256
    pad: 1
    kernel_size: 3
    weight_filler {
      type: "xavier"
    }
    bias_filler {
      type: "constant"
      value: 0
    }
  }
}
layer {
  name: "relu3_2"
  type: "ReLU"
  bottom: "conv3_2"
  top: "conv3_2"
}
layer {
  name: "conv3_3"
  type: "Convolution"
  bottom: "conv3_2"
  top: "conv3_3"
  param {
    lr_mult: 1
    decay_mult: 1
  }
  param {
    lr_mult: 2
    decay_mult: 0
  }
  convolution_param {
    num_output: 256
    pad: 1
    kernel_size: 3
    weight_filler {
      type: "xavier"
    }
    bias_filler {
      type: "constant"
      value: 0
    }
  }
}
layer {
  name: "relu3_3"
  type: "ReLU"
  bottom: "conv3_3"
  top: "conv3_3"
}
layer {
  name: "pool3"
  type: "Pooling"
  bottom: "conv3_3"
  top: "pool3"
  pooling_param {
    pool: MAX
    kernel_size: 2
    stride: 2
  }
}
layer {
  name: "conv4_1"
  type: "Convolution"
  bottom: "pool3"
  top: "conv4_1"
  param {
    lr_mult: 1
    decay_mult: 1
  }
  param {
    lr_mult: 2
    decay_mult: 0
  }
  convolution_param {
    num_output: 512
    pad: 1
    kernel_size: 3
    weight_filler {
      type: "xavier"
    }
    bias_filler {
      type: "constant"
      value: 0
    }
  }
}
layer {
  name: "relu4_1"
  type: "ReLU"
  bottom: "conv4_1"
  top: "conv4_1"
}
layer {
  name: "conv4_2"
  type: "Convolution"
  bottom: "conv4_1"
  top: "conv4_2"
  param {
    lr_mult: 1
    decay_mult: 1
  }
  param {
    lr_mult: 2
    decay_mult: 0
  }
  convolution_param {
    num_output: 512
    pad: 1
    kernel_size: 3
    weight_filler {
      type: "xavier"
    }
    bias_filler {
      type: "constant"
      value: 0
    }
  }
}
layer {
  name: "relu4_2"
  type: "ReLU"
  bottom: "conv4_2"
  top: "conv4_2"
}
layer {
  name: "conv4_3"
  type: "Convolution"
  bottom: "conv4_2"
  top: "conv4_3"
  param {
    lr_mult: 1
    decay_mult: 1
  }
  param {
    lr_mult: 2
    decay_mult: 0
  }
  convolution_param {
    num_output: 512
    pad: 1
    kernel_size: 3
    weight_filler {
      type: "xavier"
    }
    bias_filler {
      type: "constant"
      value: 0
    }
  }
}
layer {
  name: "relu4_3"
  type: "ReLU"
  bottom: "conv4_3"
  top: "conv4_3"
}
layer {
  name: "pool4"
  type: "Pooling"
  bottom: "conv4_3"
  top: "pool4"
  pooling_param {
    pool: MAX
    kernel_size: 2
    stride: 2
  }
}
layer {
  name: "conv5_1"
  type: "Convolution"
  bottom: "pool4"
  top: "conv5_1"
  param {
    lr_mult: 1
    decay_mult: 1
  }
  param {
    lr_mult: 2
    decay_mult: 0
  }
  convolution_param {
    num_output: 512
    pad: 1
    kernel_size: 3
    weight_filler {
      type: "xavier"
    }
    bias_filler {
      type: "constant"
      value: 0
    }
    dilation: 1
  }
}
layer {
  name: "relu5_1"
  type: "ReLU"
  bottom: "conv5_1"
  top: "conv5_1"
}
layer {
  name: "conv5_2"
  type: "Convolution"
  bottom: "conv5_1"
  top: "conv5_2"
  param {
    lr_mult: 1
    decay_mult: 1
  }
  param {
    lr_mult: 2
    decay_mult: 0
  }
  convolution_param {
    num_output: 512
    pad: 1
    kernel_size: 3
    weight_filler {
      type: "xavier"
    }
    bias_filler {
      type: "constant"
      value: 0
    }
    dilation: 1
  }
}
layer {
  name: "relu5_2"
  type: "ReLU"
  bottom: "conv5_2"
  top: "conv5_2"
}
layer {
  name: "conv5_3"
  type: "Convolution"
  bottom: "conv5_2"
  top: "conv5_3"
  param {
    lr_mult: 1
    decay_mult: 1
  }
  param {
    lr_mult: 2
    decay_mult: 0
  }
  convolution_param {
    num_output: 512
    pad: 1
    kernel_size: 3
    weight_filler {
      type: "xavier"
    }
    bias_filler {
      type: "constant"
      value: 0
    }
    dilation: 1
  }
}
layer {
  name: "relu5_3"
  type: "ReLU"
  bottom: "conv5_3"
  top: "conv5_3"
}
layer {
  name: "pool5"
  type: "Pooling"
  bottom: "conv5_3"
  top: "pool5"
  pooling_param {
    pool: MAX
    kernel_size: 3
    stride: 1
    pad: 1
  }
}
layer {
  name: "fc6"
  type: "Convolution"
  bottom: "pool5"
  top: "fc6"
  param {
    lr_mult: 1
    decay_mult: 1
  }
  param {
    lr_mult: 2
    decay_mult: 0
  }
  convolution_param {
    num_output: 1024
    pad: 6
    kernel_size: 3
    weight_filler {
      type: "xavier"
    }
    bias_filler {
      type: "constant"
      value: 0
    }
    dilation: 6
  }
}
layer {
  name: "relu6"
  type: "ReLU"
  bottom: "fc6"
  top: "fc6"
}
layer {
  name: "fc7"
  type: "Convolution"
  bottom: "fc6"
  top: "fc7"
  param {
    lr_mult: 1
    decay_mult: 1
  }
  param {
    lr_mult: 2
    decay_mult: 0
  }
  convolution_param {
    num_output: 1024
    kernel_size: 1
    weight_filler {
      type: "xavier"
    }
    bias_filler {
      type: "constant"
      value: 0
    }
  }
}
layer {
  name: "relu7"
  type: "ReLU"
  bottom: "fc7"
  top: "fc7"
}
layer {
  name: "conv6_1"
  type: "Convolution"
  bottom: "fc7"
  top: "conv6_1"
  param {
    lr_mult: 1
    decay_mult: 1
  }
  param {
    lr_mult: 2
    decay_mult: 0
  }
  convolution_param {
    num_output: 256
    pad: 0
    kernel_size: 1
    stride: 1
    weight_filler {
      type: "xavier"
    }
    bias_filler {
      type: "constant"
      value: 0
    }
  }
}
layer {
  name: "conv6_1_relu"
  type: "ReLU"
  bottom: "conv6_1"
  top: "conv6_1"
}
layer {
  name: "conv6_2"
  type: "Convolution"
  bottom: "conv6_1"
  top: "conv6_2"
  param {
    lr_mult: 1
    decay_mult: 1
  }
  param {
    lr_mult: 2
    decay_mult: 0
  }
  convolution_param {
    num_output: 512
    pad: 1
    kernel_size: 3
    stride: 2
    weight_filler {
      type: "xavier"
    }
    bias_filler {
      type: "constant"
      value: 0
    }
  }
}
layer {
  name: "conv6_2_relu"
  type: "ReLU"
  bottom: "conv6_2"
  top: "conv6_2"
}
layer {
  name: "conv7_1"
  type: "Convolution"
  bottom: "conv6_2"
  top: "conv7_1"
  param {
    lr_mult: 1
    decay_mult: 1
  }
  param {
    lr_mult: 2
    decay_mult: 0
  }
  convolution_param {
    num_output: 128
    pad: 0
    kernel_size: 1
    stride: 1
    weight_filler {
      type: "xavier"
    }
    bias_filler {
      type: "constant"
      value: 0
    }
  }
}
layer {
  name: "conv7_1_relu"
  type: "ReLU"
  bottom: "conv7_1"
  top: "conv7_1"
}
layer {
  name: "conv7_2"
  type: "Convolution"
  bottom: "conv7_1"
  top: "conv7_2"
  param {
    lr_mult: 1
    decay_mult: 1
  }
  param {
    lr_mult: 2
    decay_mult: 0
  }
  convolution_param {
    num_output: 256
    pad: 1
    kernel_size: 3
    stride: 2
    weight_filler {
      type: "xavier"
    }
    bias_filler {
      type: "constant"
      value: 0
    }
  }
}
layer {
  name: "conv7_2_relu"
  type: "ReLU"
  bottom: "conv7_2"
  top: "conv7_2"
}
layer {
  name: "conv8_1"
  type: "Convolution"
  bottom: "conv7_2"
  top: "conv8_1"
  param {
    lr_mult: 1
    decay_mult: 1
  }
  param {
    lr_mult: 2
    decay_mult: 0
  }
  convolution_param {
    num_output: 128
    pad: 0
    kernel_size: 1
    stride: 1
    weight_filler {
      type: "xavier"
    }
    bias_filler {
      type: "constant"
      value: 0
    }
  }
}
layer {
  name: "conv8_1_relu"
  type: "ReLU"
  bottom: "conv8_1"
  top: "conv8_1"
}
layer {
  name: "conv8_2"
  type: "Convolution"
  bottom: "conv8_1"
  top: "conv8_2"
  param {
    lr_mult: 1
    decay_mult: 1
  }
  param {
    lr_mult: 2
    decay_mult: 0
  }
  convolution_param {
    num_output: 256
    pad: 0
    kernel_size: 3
    stride: 1
    weight_filler {
      type: "xavier"
    }
    bias_filler {
      type: "constant"
      value: 0
    }
  }
}
layer {
  name: "conv8_2_relu"
  type: "ReLU"
  bottom: "conv8_2"
  top: "conv8_2"
}
layer {
  name: "conv9_1"
  type: "Convolution"
  bottom: "conv8_2"
  top: "conv9_1"
  param {
    lr_mult: 1
    decay_mult: 1
  }
  param {
    lr_mult: 2
    decay_mult: 0
  }
  convolution_param {
    num_output: 128
    pad: 0
    kernel_size: 1
    stride: 1
    weight_filler {
      type: "xavier"
    }
    bias_filler {
      type: "constant"
      value: 0
    }
  }
}
layer {
  name: "conv9_1_relu"
  type: "ReLU"
  bottom: "conv9_1"
  top: "conv9_1"
}
layer {
  name: "conv9_2"
  type: "Convolution"
  bottom: "conv9_1"
  top: "conv9_2"
  param {
    lr_mult: 1
    decay_mult: 1
  }
  param {
    lr_mult: 2
    decay_mult: 0
  }
  convolution_param {
    num_output: 256
    pad: 0
    kernel_size: 3
    stride: 1
    weight_filler {
      type: "xavier"
    }
    bias_filler {
      type: "constant"
      value: 0
    }
  }
}
layer {
  name: "conv9_2_relu"
  type: "ReLU"
  bottom: "conv9_2"
  top: "conv9_2"
}
layer {
  name: "conv4_3_norm"
  type: "Normalize"
  bottom: "conv4_3"
  top: "conv4_3_norm"
  norm_param {
    across_spatial: false
    scale_filler {
      type: "constant"
      value: 20
    }
    channel_shared: false
  }
}
layer {
  name: "conv4_3_norm_mbox_loc"
  type: "Convolution"
  bottom: "conv4_3_norm"
  top: "conv4_3_norm_mbox_loc"
  param {
    lr_mult: 1
    decay_mult: 1
  }
  param {
    lr_mult: 2
    decay_mult: 0
  }
  convolution_param {
    num_output: 16
    pad: 1
    kernel_size: 3
    stride: 1
    weight_filler {
      type: "xavier"
    }
    bias_filler {
      type: "constant"
      value: 0
    }
  }
}
layer {
  name: "conv4_3_norm_mbox_loc_perm"
  type: "Permute"
  bottom: "conv4_3_norm_mbox_loc"
  top: "conv4_3_norm_mbox_loc_perm"
  permute_param {
    order: 0
    order: 2
    order: 3
    order: 1
  }
}
layer {
  name: "conv4_3_norm_mbox_loc_flat"
  type: "Flatten"
  bottom: "conv4_3_norm_mbox_loc_perm"
  top: "conv4_3_norm_mbox_loc_flat"
  flatten_param {
    axis: 1
  }
}
layer {
  name: "conv4_3_norm_mbox_conf"
  type: "Convolution"
  bottom: "conv4_3_norm"
  top: "conv4_3_norm_mbox_conf"
  param {
    lr_mult: 1
    decay_mult: 1
  }
  param {
    lr_mult: 2
    decay_mult: 0
  }
  convolution_param {
    num_output: 8
    pad: 1
    kernel_size: 3
    stride: 1
    weight_filler {
      type: "xavier"
    }
    bias_filler {
      type: "constant"
      value: 0
    }
  }
}
layer {
  name: "conv4_3_norm_mbox_conf_perm"
  type: "Permute"
  bottom: "conv4_3_norm_mbox_conf"
  top: "conv4_3_norm_mbox_conf_perm"
  permute_param {
    order: 0
    order: 2
    order: 3
    order: 1
  }
}
layer {
  name: "conv4_3_norm_mbox_conf_flat"
  type: "Flatten"
  bottom: "conv4_3_norm_mbox_conf_perm"
  top: "conv4_3_norm_mbox_conf_flat"
  flatten_param {
    axis: 1
  }
}
layer {
  name: "conv4_3_norm_mbox_clean"
  type: "Convolution"
  bottom: "conv4_3_norm"
  top: "conv4_3_norm_mbox_clean"
  param {
    lr_mult: 1
    decay_mult: 1
  }
  param {
    lr_mult: 2
    decay_mult: 0
  }
  convolution_param {
    num_output: 4
    pad: 1
    kernel_size: 3
    stride: 1
    weight_filler {
      type: "xavier"
    }
    bias_filler {
      type: "constant"
      value: 0
    }
  }
}
layer {
  name: "conv4_3_norm_mbox_clean_perm"
  type: "Permute"
  bottom: "conv4_3_norm_mbox_clean"
  top: "conv4_3_norm_mbox_clean_perm"
  permute_param {
    order: 0
    order: 2
    order: 3
    order: 1
  }
}
layer {
  name: "conv4_3_norm_mbox_clean_flat"
  type: "Flatten"
  bottom: "conv4_3_norm_mbox_clean_perm"
  top: "conv4_3_norm_mbox_clean_flat"
  flatten_param {
    axis: 1
  }
}
layer {
  name: "conv4_3_norm_mbox_priorbox"
  type: "PriorBox"
  bottom: "conv4_3_norm"
  bottom: "data"
  top: "conv4_3_norm_mbox_priorbox"
  prior_box_param {
    min_size: 35.84
    max_size: 76.8
    aspect_ratio: 2
    flip: true
    clip: false
    variance: 0.1
    variance: 0.1
    variance: 0.2
    variance: 0.2
    step: 8
    offset: 0.5
  }
}
layer {
  name: "fc7_mbox_loc"
  type: "Convolution"
  bottom: "fc7"
  top: "fc7_mbox_loc"
  param {
    lr_mult: 1
    decay_mult: 1
  }
  param {
    lr_mult: 2
    decay_mult: 0
  }
  convolution_param {
    num_output: 24
    pad: 1
    kernel_size: 3
    stride: 1
    weight_filler {
      type: "xavier"
    }
    bias_filler {
      type: "constant"
      value: 0
    }
  }
}
layer {
  name: "fc7_mbox_loc_perm"
  type: "Permute"
  bottom: "fc7_mbox_loc"
  top: "fc7_mbox_loc_perm"
  permute_param {
    order: 0
    order: 2
    order: 3
    order: 1
  }
}
layer {
  name: "fc7_mbox_loc_flat"
  type: "Flatten"
  bottom: "fc7_mbox_loc_perm"
  top: "fc7_mbox_loc_flat"
  flatten_param {
    axis: 1
  }
}
layer {
  name: "fc7_mbox_conf"
  type: "Convolution"
  bottom: "fc7"
  top: "fc7_mbox_conf"
  param {
    lr_mult: 1
    decay_mult: 1
  }
  param {
    lr_mult: 2
    decay_mult: 0
  }
  convolution_param {
    num_output: 12
    pad: 1
    kernel_size: 3
    stride: 1
    weight_filler {
      type: "xavier"
    }
    bias_filler {
      type: "constant"
      value: 0
    }
  }
}
layer {
  name: "fc7_mbox_conf_perm"
  type: "Permute"
  bottom: "fc7_mbox_conf"
  top: "fc7_mbox_conf_perm"
  permute_param {
    order: 0
    order: 2
    order: 3
    order: 1
  }
}
layer {
  name: "fc7_mbox_conf_flat"
  type: "Flatten"
  bottom: "fc7_mbox_conf_perm"
  top: "fc7_mbox_conf_flat"
  flatten_param {
    axis: 1
  }
}
layer {
  name: "fc7_mbox_clean"
  type: "Convolution"
  bottom: "fc7"
  top: "fc7_mbox_clean"
  param {
    lr_mult: 1
    decay_mult: 1
  }
  param {
    lr_mult: 2
    decay_mult: 0
  }
  convolution_param {
    num_output: 6
    pad: 1
    kernel_size: 3
    stride: 1
    weight_filler {
      type: "xavier"
    }
    bias_filler {
      type: "constant"
      value: 0
    }
  }
}
layer {
  name: "fc7_mbox_clean_perm"
  type: "Permute"
  bottom: "fc7_mbox_clean"
  top: "fc7_mbox_clean_perm"
  permute_param {
    order: 0
    order: 2
    order: 3
    order: 1
  }
}
layer {
  name: "fc7_mbox_clean_flat"
  type: "Flatten"
  bottom: "fc7_mbox_clean_perm"
  top: "fc7_mbox_clean_flat"
  flatten_param {
    axis: 1
  }
}
layer {
  name: "fc7_mbox_priorbox"
  type: "PriorBox"
  bottom: "fc7"
  bottom: "data"
  top: "fc7_mbox_priorbox"
  prior_box_param {
    min_size: 76.8
    max_size: 168.96
    aspect_ratio: 2
    aspect_ratio: 3
    flip: true
    clip: false
    variance: 0.1
    variance: 0.1
    variance: 0.2
    variance: 0.2
    step: 16
    offset: 0.5
  }
}
layer {
  name: "conv6_2_mbox_loc"
  type: "Convolution"
  bottom: "conv6_2"
  top: "conv6_2_mbox_loc"
  param {
    lr_mult: 1
    decay_mult: 1
  }
  param {
    lr_mult: 2
    decay_mult: 0
  }
  convolution_param {
    num_output: 24
    pad: 1
    kernel_size: 3
    stride: 1
    weight_filler {
      type: "xavier"
    }
    bias_filler {
      type: "constant"
      value: 0
    }
  }
}
layer {
  name: "conv6_2_mbox_loc_perm"
  type: "Permute"
  bottom: "conv6_2_mbox_loc"
  top: "conv6_2_mbox_loc_perm"
  permute_param {
    order: 0
    order: 2
    order: 3
    order: 1
  }
}
layer {
  name: "conv6_2_mbox_loc_flat"
  type: "Flatten"
  bottom: "conv6_2_mbox_loc_perm"
  top: "conv6_2_mbox_loc_flat"
  flatten_param {
    axis: 1
  }
}
layer {
  name: "conv6_2_mbox_conf"
  type: "Convolution"
  bottom: "conv6_2"
  top: "conv6_2_mbox_conf"
  param {
    lr_mult: 1
    decay_mult: 1
  }
  param {
    lr_mult: 2
    decay_mult: 0
  }
  convolution_param {
    num_output: 12
    pad: 1
    kernel_size: 3
    stride: 1
    weight_filler {
      type: "xavier"
    }
    bias_filler {
      type: "constant"
      value: 0
    }
  }
}
layer {
  name: "conv6_2_mbox_conf_perm"
  type: "Permute"
  bottom: "conv6_2_mbox_conf"
  top: "conv6_2_mbox_conf_perm"
  permute_param {
    order: 0
    order: 2
    order: 3
    order: 1
  }
}
layer {
  name: "conv6_2_mbox_conf_flat"
  type: "Flatten"
  bottom: "conv6_2_mbox_conf_perm"
  top: "conv6_2_mbox_conf_flat"
  flatten_param {
    axis: 1
  }
}
layer {
  name: "conv6_2_mbox_clean"
  type: "Convolution"
  bottom: "conv6_2"
  top: "conv6_2_mbox_clean"
  param {
    lr_mult: 1
    decay_mult: 1
  }
  param {
    lr_mult: 2
    decay_mult: 0
  }
  convolution_param {
    num_output: 6
    pad: 1
    kernel_size: 3
    stride: 1
    weight_filler {
      type: "xavier"
    }
    bias_filler {
      type: "constant"
      value: 0
    }
  }
}
layer {
  name: "conv6_2_mbox_clean_perm"
  type: "Permute"
  bottom: "conv6_2_mbox_clean"
  top: "conv6_2_mbox_clean_perm"
  permute_param {
    order: 0
    order: 2
    order: 3
    order: 1
  }
}
layer {
  name: "conv6_2_mbox_clean_flat"
  type: "Flatten"
  bottom: "conv6_2_mbox_clean_perm"
  top: "conv6_2_mbox_clean_flat"
  flatten_param {
    axis: 1
  }
}
layer {
  name: "conv6_2_mbox_priorbox"
  type: "PriorBox"
  bottom: "conv6_2"
  bottom: "data"
  top: "conv6_2_mbox_priorbox"
  prior_box_param {
    min_size: 168.96
    max_size: 261.12
    aspect_ratio: 2
    aspect_ratio: 3
    flip: true
    clip: false
    variance: 0.1
    variance: 0.1
    variance: 0.2
    variance: 0.2
    step: 32
    offset: 0.5
  }
}
layer {
  name: "conv7_2_mbox_loc"
  type: "Convolution"
  bottom: "conv7_2"
  top: "conv7_2_mbox_loc"
  param {
    lr_mult: 1
    decay_mult: 1
  }
  param {
    lr_mult: 2
    decay_mult: 0
  }
  convolution_param {
    num_output: 24
    pad: 1
    kernel_size: 3
    stride: 1
    weight_filler {
      type: "xavier"
    }
    bias_filler {
      type: "constant"
      value: 0
    }
  }
}
layer {
  name: "conv7_2_mbox_loc_perm"
  type: "Permute"
  bottom: "conv7_2_mbox_loc"
  top: "conv7_2_mbox_loc_perm"
  permute_param {
    order: 0
    order: 2
    order: 3
    order: 1
  }
}
layer {
  name: "conv7_2_mbox_loc_flat"
  type: "Flatten"
  bottom: "conv7_2_mbox_loc_perm"
  top: "conv7_2_mbox_loc_flat"
  flatten_param {
    axis: 1
  }
}
layer {
  name: "conv7_2_mbox_conf"
  type: "Convolution"
  bottom: "conv7_2"
  top: "conv7_2_mbox_conf"
  param {
    lr_mult: 1
    decay_mult: 1
  }
  param {
    lr_mult: 2
    decay_mult: 0
  }
  convolution_param {
    num_output: 12
    pad: 1
    kernel_size: 3
    stride: 1
    weight_filler {
      type: "xavier"
    }
    bias_filler {
      type: "constant"
      value: 0
    }
  }
}
layer {
  name: "conv7_2_mbox_conf_perm"
  type: "Permute"
  bottom: "conv7_2_mbox_conf"
  top: "conv7_2_mbox_conf_perm"
  permute_param {
    order: 0
    order: 2
    order: 3
    order: 1
  }
}
layer {
  name: "conv7_2_mbox_conf_flat"
  type: "Flatten"
  bottom: "conv7_2_mbox_conf_perm"
  top: "conv7_2_mbox_conf_flat"
  flatten_param {
    axis: 1
  }
}
layer {
  name: "conv7_2_mbox_clean"
  type: "Convolution"
  bottom: "conv7_2"
  top: "conv7_2_mbox_clean"
  param {
    lr_mult: 1
    decay_mult: 1
  }
  param {
    lr_mult: 2
    decay_mult: 0
  }
  convolution_param {
    num_output: 6
    pad: 1
    kernel_size: 3
    stride: 1
    weight_filler {
      type: "xavier"
    }
    bias_filler {
      type: "constant"
      value: 0
    }
  }
}
layer {
  name: "conv7_2_mbox_clean_perm"
  type: "Permute"
  bottom: "conv7_2_mbox_clean"
  top: "conv7_2_mbox_clean_perm"
  permute_param {
    order: 0
    order: 2
    order: 3
    order: 1
  }
}
layer {
  name: "conv7_2_mbox_clean_flat"
  type: "Flatten"
  bottom: "conv7_2_mbox_clean_perm"
  top: "conv7_2_mbox_clean_flat"
  flatten_param {
    axis: 1
  }
}
layer {
  name: "conv7_2_mbox_priorbox"
  type: "PriorBox"
  bottom: "conv7_2"
  bottom: "data"
  top: "conv7_2_mbox_priorbox"
  prior_box_param {
    min_size: 261.12
    max_size: 353.28
    aspect_ratio: 2
    aspect_ratio: 3
    flip: true
    clip: false
    variance: 0.1
    variance: 0.1
    variance: 0.2
    variance: 0.2
    step: 64
    offset: 0.5
  }
}
layer {
  name: "conv8_2_mbox_loc"
  type: "Convolution"
  bottom: "conv8_2"
  top: "conv8_2_mbox_loc"
  param {
    lr_mult: 1
    decay_mult: 1
  }
  param {
    lr_mult: 2
    decay_mult: 0
  }
  convolution_param {
    num_output: 16
    pad: 1
    kernel_size: 3
    stride: 1
    weight_filler {
      type: "xavier"
    }
    bias_filler {
      type: "constant"
      value: 0
    }
  }
}
layer {
  name: "conv8_2_mbox_loc_perm"
  type: "Permute"
  bottom: "conv8_2_mbox_loc"
  top: "conv8_2_mbox_loc_perm"
  permute_param {
    order: 0
    order: 2
    order: 3
    order: 1
  }
}
layer {
  name: "conv8_2_mbox_loc_flat"
  type: "Flatten"
  bottom: "conv8_2_mbox_loc_perm"
  top: "conv8_2_mbox_loc_flat"
  flatten_param {
    axis: 1
  }
}
layer {
  name: "conv8_2_mbox_conf"
  type: "Convolution"
  bottom: "conv8_2"
  top: "conv8_2_mbox_conf"
  param {
    lr_mult: 1
    decay_mult: 1
  }
  param {
    lr_mult: 2
    decay_mult: 0
  }
  convolution_param {
    num_output: 8
    pad: 1
    kernel_size: 3
    stride: 1
    weight_filler {
      type: "xavier"
    }
    bias_filler {
      type: "constant"
      value: 0
    }
  }
}
layer {
  name: "conv8_2_mbox_conf_perm"
  type: "Permute"
  bottom: "conv8_2_mbox_conf"
  top: "conv8_2_mbox_conf_perm"
  permute_param {
    order: 0
    order: 2
    order: 3
    order: 1
  }
}
layer {
  name: "conv8_2_mbox_conf_flat"
  type: "Flatten"
  bottom: "conv8_2_mbox_conf_perm"
  top: "conv8_2_mbox_conf_flat"
  flatten_param {
    axis: 1
  }
}
layer {
  name: "conv8_2_mbox_clean"
  type: "Convolution"
  bottom: "conv8_2"
  top: "conv8_2_mbox_clean"
  param {
    lr_mult: 1
    decay_mult: 1
  }
  param {
    lr_mult: 2
    decay_mult: 0
  }
  convolution_param {
    num_output: 4
    pad: 1
    kernel_size: 3
    stride: 1
    weight_filler {
      type: "xavier"
    }
    bias_filler {
      type: "constant"
      value: 0
    }
  }
}
layer {
  name: "conv8_2_mbox_clean_perm"
  type: "Permute"
  bottom: "conv8_2_mbox_clean"
  top: "conv8_2_mbox_clean_perm"
  permute_param {
    order: 0
    order: 2
    order: 3
    order: 1
  }
}
layer {
  name: "conv8_2_mbox_clean_flat"
  type: "Flatten"
  bottom: "conv8_2_mbox_clean_perm"
  top: "conv8_2_mbox_clean_flat"
  flatten_param {
    axis: 1
  }
}
layer {
  name: "conv8_2_mbox_priorbox"
  type: "PriorBox"
  bottom: "conv8_2"
  bottom: "data"
  top: "conv8_2_mbox_priorbox"
  prior_box_param {
    min_size: 353.28
    max_size: 445.44
    aspect_ratio: 2
    flip: true
    clip: false
    variance: 0.1
    variance: 0.1
    variance: 0.2
    variance: 0.2
    step: 100
    offset: 0.5
  }
}
layer {
  name: "conv9_2_mbox_loc"
  type: "Convolution"
  bottom: "conv9_2"
  top: "conv9_2_mbox_loc"
  param {
    lr_mult: 1
    decay_mult: 1
  }
  param {
    lr_mult: 2
    decay_mult: 0
  }
  convolution_param {
    num_output: 16
    pad: 1
    kernel_size: 3
    stride: 1
    weight_filler {
      type: "xavier"
    }
    bias_filler {
      type: "constant"
      value: 0
    }
  }
}
layer {
  name: "conv9_2_mbox_loc_perm"
  type: "Permute"
  bottom: "conv9_2_mbox_loc"
  top: "conv9_2_mbox_loc_perm"
  permute_param {
    order: 0
    order: 2
    order: 3
    order: 1
  }
}
layer {
  name: "conv9_2_mbox_loc_flat"
  type: "Flatten"
  bottom: "conv9_2_mbox_loc_perm"
  top: "conv9_2_mbox_loc_flat"
  flatten_param {
    axis: 1
  }
}
layer {
  name: "conv9_2_mbox_conf"
  type: "Convolution"
  bottom: "conv9_2"
  top: "conv9_2_mbox_conf"
  param {
    lr_mult: 1
    decay_mult: 1
  }
  param {
    lr_mult: 2
    decay_mult: 0
  }
  convolution_param {
    num_output: 8
    pad: 1
    kernel_size: 3
    stride: 1
    weight_filler {
      type: "xavier"
    }
    bias_filler {
      type: "constant"
      value: 0
    }
  }
}
layer {
  name: "conv9_2_mbox_conf_perm"
  type: "Permute"
  bottom: "conv9_2_mbox_conf"
  top: "conv9_2_mbox_conf_perm"
  permute_param {
    order: 0
    order: 2
    order: 3
    order: 1
  }
}
layer {
  name: "conv9_2_mbox_conf_flat"
  type: "Flatten"
  bottom: "conv9_2_mbox_conf_perm"
  top: "conv9_2_mbox_conf_flat"
  flatten_param {
    axis: 1
  }
}
layer {
  name: "conv9_2_mbox_clean"
  type: "Convolution"
  bottom: "conv9_2"
  top: "conv9_2_mbox_clean"
  param {
    lr_mult: 1
    decay_mult: 1
  }
  param {
    lr_mult: 2
    decay_mult: 0
  }
  convolution_param {
    num_output: 4
    pad: 1
    kernel_size: 3
    stride: 1
    weight_filler {
      type: "xavier"
    }
    bias_filler {
      type: "constant"
      value: 0
    }
  }
}
layer {
  name: "conv9_2_mbox_clean_perm"
  type: "Permute"
  bottom: "conv9_2_mbox_clean"
  top: "conv9_2_mbox_clean_perm"
  permute_param {
    order: 0
    order: 2
    order: 3
    order: 1
  }
}
layer {
  name: "conv9_2_mbox_clean_flat"
  type: "Flatten"
  bottom: "conv9_2_mbox_clean_perm"
  top: "conv9_2_mbox_clean_flat"
  flatten_param {
    axis: 1
  }
}
layer {
  name: "conv9_2_mbox_priorbox"
  type: "PriorBox"
  bottom: "conv9_2"
  bottom: "data"
  top: "conv9_2_mbox_priorbox"
  prior_box_param {
    min_size: 445.44
    max_size: 537.6
    aspect_ratio: 2
    flip: true
    clip: false
    variance: 0.1
    variance: 0.1
    variance: 0.2
    variance: 0.2
    step: 300
    offset: 0.5
  }
}
layer {
  name: "mbox_loc"
  type: "Concat"
  bottom: "conv4_3_norm_mbox_loc_flat"
  bottom: "fc7_mbox_loc_flat"
  bottom: "conv6_2_mbox_loc_flat"
  bottom: "conv7_2_mbox_loc_flat"
  bottom: "conv8_2_mbox_loc_flat"
  bottom: "conv9_2_mbox_loc_flat"
  top: "mbox_loc"
  concat_param {
    axis: 1
  }
}
layer {
  name: "mbox_conf"
  type: "Concat"
  bottom: "conv4_3_norm_mbox_conf_flat"
  bottom: "fc7_mbox_conf_flat"
  bottom: "conv6_2_mbox_conf_flat"
  bottom: "conv7_2_mbox_conf_flat"
  bottom: "conv8_2_mbox_conf_flat"
  bottom: "conv9_2_mbox_conf_flat"
  top: "mbox_conf"
  concat_param {
    axis: 1
  }
}
layer {
  name: "mbox_priorbox"
  type: "Concat"
  bottom: "conv4_3_norm_mbox_priorbox"
  bottom: "fc7_mbox_priorbox"
  bottom: "conv6_2_mbox_priorbox"
  bottom: "conv7_2_mbox_priorbox"
  bottom: "conv8_2_mbox_priorbox"
  bottom: "conv9_2_mbox_priorbox"
  top: "mbox_priorbox"
  concat_param {
    axis: 2
  }
}
layer {
  name: "mbox_clean"
  type: "Concat"
  bottom: "conv4_3_norm_mbox_clean_flat"
  bottom: "fc7_mbox_clean_flat"
  bottom: "conv6_2_mbox_clean_flat"
  bottom: "conv7_2_mbox_clean_flat"
  bottom: "conv8_2_mbox_clean_flat"
  bottom: "conv9_2_mbox_clean_flat"
  top: "mbox_clean"
  concat_param {
    axis: 1
  }
}
layer {
  name: "mbox_conf_reshape"
  type: "Reshape"
  bottom: "mbox_conf"
  top: "mbox_conf_reshape"
  reshape_param {
    shape {
      dim: 0
      dim: -1
      dim: 2
    }
  }
}
layer {
  name: "mbox_conf_softmax"
  type: "Softmax"
  bottom: "mbox_conf_reshape"
  top: "mbox_conf_softmax"
  softmax_param {
    axis: 2
  }
}
layer {
  name: "mbox_conf_flatten"
  type: "Flatten"
  bottom: "mbox_conf_softmax"
  top: "mbox_conf_flatten"
  flatten_param {
    axis: 1
  }
}
layer {
  name: "mbox_clean_sigmoid"
  type: "Sigmoid"
  bottom: "mbox_clean"
  top: "mbox_clean_sigmoid"
}
layer {
  name: "detection_out"
  type: "DetectionOutput"
  bottom: "mbox_loc"
  bottom: "mbox_conf_flatten"
  bottom: "mbox_priorbox"
  bottom: "mbox_clean_sigmoid"
  top: "detection_out"
  include {
    phase: TEST
  }
I0403 23:53:10.337733 25856 layer_factory.hpp:77] Creating layer data
I0403 23:53:10.337826 25856 net.cpp:100] Creating Layer data
I0403 23:53:10.337839 25856 net.cpp:408] data -> data
I0403 23:53:10.337851 25856 net.cpp:408] data -> label
I0403 23:53:10.339507 25926 db_lmdb.cpp:35] Opened lmdb /data/siyu/dataset/coco/lmdb/COCO_Val2014_person_lmdb
I0403 23:53:10.342972 25856 annotated_data_layer.cpp:62] output data size: 2,3,512,512
I0403 23:53:10.353803 25856 net.cpp:150] Setting up data
I0403 23:53:10.353850 25856 net.cpp:157] Top shape: 2 3 512 512 (1572864)
I0403 23:53:10.353858 25856 net.cpp:157] Top shape: 1 1 6 8 (48)
I0403 23:53:10.353863 25856 net.cpp:165] Memory required for data: 6291648
I0403 23:53:10.353874 25856 layer_factory.hpp:77] Creating layer data_data_0_split
I0403 23:53:10.353890 25856 net.cpp:100] Creating Layer data_data_0_split
I0403 23:53:10.353896 25856 net.cpp:434] data_data_0_split <- data
I0403 23:53:10.353905 25856 net.cpp:408] data_data_0_split -> data_data_0_split_0
I0403 23:53:10.353919 25856 net.cpp:408] data_data_0_split -> data_data_0_split_1
I0403 23:53:10.353927 25856 net.cpp:408] data_data_0_split -> data_data_0_split_2
I0403 23:53:10.353935 25856 net.cpp:408] data_data_0_split -> data_data_0_split_3
I0403 23:53:10.353941 25856 net.cpp:408] data_data_0_split -> data_data_0_split_4
I0403 23:53:10.353962 25856 net.cpp:408] data_data_0_split -> data_data_0_split_5
I0403 23:53:10.353971 25856 net.cpp:408] data_data_0_split -> data_data_0_split_6
I0403 23:53:10.354194 25856 net.cpp:150] Setting up data_data_0_split
I0403 23:53:10.354205 25856 net.cpp:157] Top shape: 2 3 512 512 (1572864)
I0403 23:53:10.354212 25856 net.cpp:157] Top shape: 2 3 512 512 (1572864)
I0403 23:53:10.354216 25856 net.cpp:157] Top shape: 2 3 512 512 (1572864)
I0403 23:53:10.354221 25856 net.cpp:157] Top shape: 2 3 512 512 (1572864)
I0403 23:53:10.354226 25856 net.cpp:157] Top shape: 2 3 512 512 (1572864)
I0403 23:53:10.354230 25856 net.cpp:157] Top shape: 2 3 512 512 (1572864)
I0403 23:53:10.354236 25856 net.cpp:157] Top shape: 2 3 512 512 (1572864)
I0403 23:53:10.354240 25856 net.cpp:165] Memory required for data: 50331840
I0403 23:53:10.354245 25856 layer_factory.hpp:77] Creating layer conv1_1
I0403 23:53:10.354260 25856 net.cpp:100] Creating Layer conv1_1
I0403 23:53:10.354266 25856 net.cpp:434] conv1_1 <- data_data_0_split_0
I0403 23:53:10.354274 25856 net.cpp:408] conv1_1 -> conv1_1
I0403 23:53:10.356287 25856 net.cpp:150] Setting up conv1_1
I0403 23:53:10.356302 25856 net.cpp:157] Top shape: 2 64 512 512 (33554432)
I0403 23:53:10.356318 25856 net.cpp:165] Memory required for data: 184549568
I0403 23:53:10.356330 25856 layer_factory.hpp:77] Creating layer relu1_1
I0403 23:53:10.356339 25856 net.cpp:100] Creating Layer relu1_1
I0403 23:53:10.356344 25856 net.cpp:434] relu1_1 <- conv1_1
I0403 23:53:10.356350 25856 net.cpp:395] relu1_1 -> conv1_1 (in-place)
I0403 23:53:10.356688 25856 net.cpp:150] Setting up relu1_1
I0403 23:53:10.356700 25856 net.cpp:157] Top shape: 2 64 512 512 (33554432)
I0403 23:53:10.356717 25856 net.cpp:165] Memory required for data: 318767296
I0403 23:53:10.356721 25856 layer_factory.hpp:77] Creating layer conv1_2
I0403 23:53:10.356734 25856 net.cpp:100] Creating Layer conv1_2
I0403 23:53:10.356739 25856 net.cpp:434] conv1_2 <- conv1_1
I0403 23:53:10.356746 25856 net.cpp:408] conv1_2 -> conv1_2
I0403 23:53:10.358747 25856 net.cpp:150] Setting up conv1_2
I0403 23:53:10.358762 25856 net.cpp:157] Top shape: 2 64 512 512 (33554432)
I0403 23:53:10.358777 25856 net.cpp:165] Memory required for data: 452985024
I0403 23:53:10.358788 25856 layer_factory.hpp:77] Creating layer relu1_2
I0403 23:53:10.358795 25856 net.cpp:100] Creating Layer relu1_2
I0403 23:53:10.358800 25856 net.cpp:434] relu1_2 <- conv1_2
I0403 23:53:10.358808 25856 net.cpp:395] relu1_2 -> conv1_2 (in-place)
I0403 23:53:10.359117 25856 net.cpp:150] Setting up relu1_2
I0403 23:53:10.359129 25856 net.cpp:157] Top shape: 2 64 512 512 (33554432)
I0403 23:53:10.359145 25856 net.cpp:165] Memory required for data: 587202752
I0403 23:53:10.359150 25856 layer_factory.hpp:77] Creating layer pool1
I0403 23:53:10.359159 25856 net.cpp:100] Creating Layer pool1
I0403 23:53:10.359163 25856 net.cpp:434] pool1 <- conv1_2
I0403 23:53:10.359170 25856 net.cpp:408] pool1 -> pool1
I0403 23:53:10.359225 25856 net.cpp:150] Setting up pool1
I0403 23:53:10.359235 25856 net.cpp:157] Top shape: 2 64 256 256 (8388608)
I0403 23:53:10.359239 25856 net.cpp:165] Memory required for data: 620757184
I0403 23:53:10.359243 25856 layer_factory.hpp:77] Creating layer conv2_1
I0403 23:53:10.359254 25856 net.cpp:100] Creating Layer conv2_1
I0403 23:53:10.359261 25856 net.cpp:434] conv2_1 <- pool1
I0403 23:53:10.359268 25856 net.cpp:408] conv2_1 -> conv2_1
I0403 23:53:10.361403 25856 net.cpp:150] Setting up conv2_1
I0403 23:53:10.361430 25856 net.cpp:157] Top shape: 2 128 256 256 (16777216)
I0403 23:53:10.361436 25856 net.cpp:165] Memory required for data: 687866048
I0403 23:53:10.361446 25856 layer_factory.hpp:77] Creating layer relu2_1
I0403 23:53:10.361456 25856 net.cpp:100] Creating Layer relu2_1
I0403 23:53:10.361461 25856 net.cpp:434] relu2_1 <- conv2_1
I0403 23:53:10.361467 25856 net.cpp:395] relu2_1 -> conv2_1 (in-place)
I0403 23:53:10.361646 25856 net.cpp:150] Setting up relu2_1
I0403 23:53:10.361659 25856 net.cpp:157] Top shape: 2 128 256 256 (16777216)
I0403 23:53:10.361662 25856 net.cpp:165] Memory required for data: 754974912
I0403 23:53:10.361680 25856 layer_factory.hpp:77] Creating layer conv2_2
I0403 23:53:10.361691 25856 net.cpp:100] Creating Layer conv2_2
I0403 23:53:10.361697 25856 net.cpp:434] conv2_2 <- conv2_1
I0403 23:53:10.361706 25856 net.cpp:408] conv2_2 -> conv2_2
I0403 23:53:10.364559 25856 net.cpp:150] Setting up conv2_2
I0403 23:53:10.364575 25856 net.cpp:157] Top shape: 2 128 256 256 (16777216)
I0403 23:53:10.364591 25856 net.cpp:165] Memory required for data: 822083776
I0403 23:53:10.364599 25856 layer_factory.hpp:77] Creating layer relu2_2
I0403 23:53:10.364608 25856 net.cpp:100] Creating Layer relu2_2
I0403 23:53:10.364612 25856 net.cpp:434] relu2_2 <- conv2_2
I0403 23:53:10.364619 25856 net.cpp:395] relu2_2 -> conv2_2 (in-place)
I0403 23:53:10.364939 25856 net.cpp:150] Setting up relu2_2
I0403 23:53:10.364953 25856 net.cpp:157] Top shape: 2 128 256 256 (16777216)
I0403 23:53:10.364969 25856 net.cpp:165] Memory required for data: 889192640
I0403 23:53:10.364974 25856 layer_factory.hpp:77] Creating layer pool2
I0403 23:53:10.364981 25856 net.cpp:100] Creating Layer pool2
I0403 23:53:10.364987 25856 net.cpp:434] pool2 <- conv2_2
I0403 23:53:10.364994 25856 net.cpp:408] pool2 -> pool2
I0403 23:53:10.365049 25856 net.cpp:150] Setting up pool2
I0403 23:53:10.365058 25856 net.cpp:157] Top shape: 2 128 128 128 (4194304)
I0403 23:53:10.365062 25856 net.cpp:165] Memory required for data: 905969856
I0403 23:53:10.365067 25856 layer_factory.hpp:77] Creating layer conv3_1
I0403 23:53:10.365078 25856 net.cpp:100] Creating Layer conv3_1
I0403 23:53:10.365084 25856 net.cpp:434] conv3_1 <- pool2
I0403 23:53:10.365092 25856 net.cpp:408] conv3_1 -> conv3_1
I0403 23:53:10.368445 25856 net.cpp:150] Setting up conv3_1
I0403 23:53:10.368463 25856 net.cpp:157] Top shape: 2 256 128 128 (8388608)
I0403 23:53:10.368479 25856 net.cpp:165] Memory required for data: 939524288
I0403 23:53:10.368489 25856 layer_factory.hpp:77] Creating layer relu3_1
I0403 23:53:10.368499 25856 net.cpp:100] Creating Layer relu3_1
I0403 23:53:10.368505 25856 net.cpp:434] relu3_1 <- conv3_1
I0403 23:53:10.368510 25856 net.cpp:395] relu3_1 -> conv3_1 (in-place)
I0403 23:53:10.368826 25856 net.cpp:150] Setting up relu3_1
I0403 23:53:10.368839 25856 net.cpp:157] Top shape: 2 256 128 128 (8388608)
I0403 23:53:10.368855 25856 net.cpp:165] Memory required for data: 973078720
I0403 23:53:10.368860 25856 layer_factory.hpp:77] Creating layer conv3_2
I0403 23:53:10.368872 25856 net.cpp:100] Creating Layer conv3_2
I0403 23:53:10.368877 25856 net.cpp:434] conv3_2 <- conv3_1
I0403 23:53:10.368885 25856 net.cpp:408] conv3_2 -> conv3_2
I0403 23:53:10.374534 25856 net.cpp:150] Setting up conv3_2
I0403 23:53:10.374564 25856 net.cpp:157] Top shape: 2 256 128 128 (8388608)
I0403 23:53:10.374570 25856 net.cpp:165] Memory required for data: 1006633152
I0403 23:53:10.374578 25856 layer_factory.hpp:77] Creating layer relu3_2
I0403 23:53:10.374585 25856 net.cpp:100] Creating Layer relu3_2
I0403 23:53:10.374591 25856 net.cpp:434] relu3_2 <- conv3_2
I0403 23:53:10.374596 25856 net.cpp:395] relu3_2 -> conv3_2 (in-place)
I0403 23:53:10.374788 25856 net.cpp:150] Setting up relu3_2
I0403 23:53:10.374799 25856 net.cpp:157] Top shape: 2 256 128 128 (8388608)
I0403 23:53:10.374804 25856 net.cpp:165] Memory required for data: 1040187584
I0403 23:53:10.374809 25856 layer_factory.hpp:77] Creating layer conv3_3
I0403 23:53:10.374825 25856 net.cpp:100] Creating Layer conv3_3
I0403 23:53:10.374831 25856 net.cpp:434] conv3_3 <- conv3_2
I0403 23:53:10.374838 25856 net.cpp:408] conv3_3 -> conv3_3
I0403 23:53:10.380641 25856 net.cpp:150] Setting up conv3_3
I0403 23:53:10.380683 25856 net.cpp:157] Top shape: 2 256 128 128 (8388608)
I0403 23:53:10.380688 25856 net.cpp:165] Memory required for data: 1073742016
I0403 23:53:10.380699 25856 layer_factory.hpp:77] Creating layer relu3_3
I0403 23:53:10.380710 25856 net.cpp:100] Creating Layer relu3_3
I0403 23:53:10.380715 25856 net.cpp:434] relu3_3 <- conv3_3
I0403 23:53:10.380723 25856 net.cpp:395] relu3_3 -> conv3_3 (in-place)
I0403 23:53:10.381069 25856 net.cpp:150] Setting up relu3_3
I0403 23:53:10.381083 25856 net.cpp:157] Top shape: 2 256 128 128 (8388608)
I0403 23:53:10.381098 25856 net.cpp:165] Memory required for data: 1107296448
I0403 23:53:10.381103 25856 layer_factory.hpp:77] Creating layer pool3
I0403 23:53:10.381114 25856 net.cpp:100] Creating Layer pool3
I0403 23:53:10.381119 25856 net.cpp:434] pool3 <- conv3_3
I0403 23:53:10.381126 25856 net.cpp:408] pool3 -> pool3
I0403 23:53:10.381186 25856 net.cpp:150] Setting up pool3
I0403 23:53:10.381194 25856 net.cpp:157] Top shape: 2 256 64 64 (2097152)
I0403 23:53:10.381199 25856 net.cpp:165] Memory required for data: 1115685056
I0403 23:53:10.381203 25856 layer_factory.hpp:77] Creating layer conv4_1
I0403 23:53:10.381216 25856 net.cpp:100] Creating Layer conv4_1
I0403 23:53:10.381222 25856 net.cpp:434] conv4_1 <- pool3
I0403 23:53:10.381230 25856 net.cpp:408] conv4_1 -> conv4_1
I0403 23:53:10.391611 25856 net.cpp:150] Setting up conv4_1
I0403 23:53:10.391667 25856 net.cpp:157] Top shape: 2 512 64 64 (4194304)
I0403 23:53:10.391674 25856 net.cpp:165] Memory required for data: 1132462272
I0403 23:53:10.391685 25856 layer_factory.hpp:77] Creating layer relu4_1
I0403 23:53:10.391700 25856 net.cpp:100] Creating Layer relu4_1
I0403 23:53:10.391706 25856 net.cpp:434] relu4_1 <- conv4_1
I0403 23:53:10.391716 25856 net.cpp:395] relu4_1 -> conv4_1 (in-place)
I0403 23:53:10.392041 25856 net.cpp:150] Setting up relu4_1
I0403 23:53:10.392055 25856 net.cpp:157] Top shape: 2 512 64 64 (4194304)
I0403 23:53:10.392071 25856 net.cpp:165] Memory required for data: 1149239488
I0403 23:53:10.392076 25856 layer_factory.hpp:77] Creating layer conv4_2
I0403 23:53:10.392092 25856 net.cpp:100] Creating Layer conv4_2
I0403 23:53:10.392097 25856 net.cpp:434] conv4_2 <- conv4_1
I0403 23:53:10.392104 25856 net.cpp:408] conv4_2 -> conv4_2
I0403 23:53:10.410981 25856 net.cpp:150] Setting up conv4_2
I0403 23:53:10.411012 25856 net.cpp:157] Top shape: 2 512 64 64 (4194304)
I0403 23:53:10.411018 25856 net.cpp:165] Memory required for data: 1166016704
I0403 23:53:10.411032 25856 layer_factory.hpp:77] Creating layer relu4_2
I0403 23:53:10.411042 25856 net.cpp:100] Creating Layer relu4_2
I0403 23:53:10.411048 25856 net.cpp:434] relu4_2 <- conv4_2
I0403 23:53:10.411054 25856 net.cpp:395] relu4_2 -> conv4_2 (in-place)
I0403 23:53:10.411255 25856 net.cpp:150] Setting up relu4_2
I0403 23:53:10.411268 25856 net.cpp:157] Top shape: 2 512 64 64 (4194304)
I0403 23:53:10.411273 25856 net.cpp:165] Memory required for data: 1182793920
I0403 23:53:10.411278 25856 layer_factory.hpp:77] Creating layer conv4_3
I0403 23:53:10.411290 25856 net.cpp:100] Creating Layer conv4_3
I0403 23:53:10.411298 25856 net.cpp:434] conv4_3 <- conv4_2
I0403 23:53:10.411308 25856 net.cpp:408] conv4_3 -> conv4_3
I0403 23:53:10.430085 25856 net.cpp:150] Setting up conv4_3
I0403 23:53:10.430124 25856 net.cpp:157] Top shape: 2 512 64 64 (4194304)
I0403 23:53:10.430130 25856 net.cpp:165] Memory required for data: 1199571136
I0403 23:53:10.430140 25856 layer_factory.hpp:77] Creating layer relu4_3
I0403 23:53:10.430151 25856 net.cpp:100] Creating Layer relu4_3
I0403 23:53:10.430157 25856 net.cpp:434] relu4_3 <- conv4_3
I0403 23:53:10.430164 25856 net.cpp:395] relu4_3 -> conv4_3 (in-place)
I0403 23:53:10.430500 25856 net.cpp:150] Setting up relu4_3
I0403 23:53:10.430526 25856 net.cpp:157] Top shape: 2 512 64 64 (4194304)
I0403 23:53:10.430531 25856 net.cpp:165] Memory required for data: 1216348352
I0403 23:53:10.430536 25856 layer_factory.hpp:77] Creating layer conv4_3_relu4_3_0_split
I0403 23:53:10.430543 25856 net.cpp:100] Creating Layer conv4_3_relu4_3_0_split
I0403 23:53:10.430548 25856 net.cpp:434] conv4_3_relu4_3_0_split <- conv4_3
I0403 23:53:10.430554 25856 net.cpp:408] conv4_3_relu4_3_0_split -> conv4_3_relu4_3_0_split_0
I0403 23:53:10.430562 25856 net.cpp:408] conv4_3_relu4_3_0_split -> conv4_3_relu4_3_0_split_1
I0403 23:53:10.430620 25856 net.cpp:150] Setting up conv4_3_relu4_3_0_split
I0403 23:53:10.430630 25856 net.cpp:157] Top shape: 2 512 64 64 (4194304)
I0403 23:53:10.430650 25856 net.cpp:157] Top shape: 2 512 64 64 (4194304)
I0403 23:53:10.430655 25856 net.cpp:165] Memory required for data: 1249902784
I0403 23:53:10.430660 25856 layer_factory.hpp:77] Creating layer pool4
I0403 23:53:10.430668 25856 net.cpp:100] Creating Layer pool4
I0403 23:53:10.430673 25856 net.cpp:434] pool4 <- conv4_3_relu4_3_0_split_0
I0403 23:53:10.430681 25856 net.cpp:408] pool4 -> pool4
I0403 23:53:10.430742 25856 net.cpp:150] Setting up pool4
I0403 23:53:10.430749 25856 net.cpp:157] Top shape: 2 512 32 32 (1048576)
I0403 23:53:10.430754 25856 net.cpp:165] Memory required for data: 1254097088
I0403 23:53:10.430758 25856 layer_factory.hpp:77] Creating layer conv5_1
I0403 23:53:10.430771 25856 net.cpp:100] Creating Layer conv5_1
I0403 23:53:10.430778 25856 net.cpp:434] conv5_1 <- pool4
I0403 23:53:10.430786 25856 net.cpp:408] conv5_1 -> conv5_1
I0403 23:53:10.449645 25856 net.cpp:150] Setting up conv5_1
I0403 23:53:10.449703 25856 net.cpp:157] Top shape: 2 512 32 32 (1048576)
I0403 23:53:10.449709 25856 net.cpp:165] Memory required for data: 1258291392
I0403 23:53:10.449722 25856 layer_factory.hpp:77] Creating layer relu5_1
I0403 23:53:10.449736 25856 net.cpp:100] Creating Layer relu5_1
I0403 23:53:10.449743 25856 net.cpp:434] relu5_1 <- conv5_1
I0403 23:53:10.449751 25856 net.cpp:395] relu5_1 -> conv5_1 (in-place)
I0403 23:53:10.450093 25856 net.cpp:150] Setting up relu5_1
I0403 23:53:10.450105 25856 net.cpp:157] Top shape: 2 512 32 32 (1048576)
I0403 23:53:10.450121 25856 net.cpp:165] Memory required for data: 1262485696
I0403 23:53:10.450126 25856 layer_factory.hpp:77] Creating layer conv5_2
I0403 23:53:10.450140 25856 net.cpp:100] Creating Layer conv5_2
I0403 23:53:10.450145 25856 net.cpp:434] conv5_2 <- conv5_1
I0403 23:53:10.450155 25856 net.cpp:408] conv5_2 -> conv5_2
I0403 23:53:10.469543 25856 net.cpp:150] Setting up conv5_2
I0403 23:53:10.469599 25856 net.cpp:157] Top shape: 2 512 32 32 (1048576)
I0403 23:53:10.469605 25856 net.cpp:165] Memory required for data: 1266680000
I0403 23:53:10.469616 25856 layer_factory.hpp:77] Creating layer relu5_2
I0403 23:53:10.469630 25856 net.cpp:100] Creating Layer relu5_2
I0403 23:53:10.469636 25856 net.cpp:434] relu5_2 <- conv5_2
I0403 23:53:10.469645 25856 net.cpp:395] relu5_2 -> conv5_2 (in-place)
I0403 23:53:10.469835 25856 net.cpp:150] Setting up relu5_2
I0403 23:53:10.469848 25856 net.cpp:157] Top shape: 2 512 32 32 (1048576)
I0403 23:53:10.469853 25856 net.cpp:165] Memory required for data: 1270874304
I0403 23:53:10.469858 25856 layer_factory.hpp:77] Creating layer conv5_3
I0403 23:53:10.469872 25856 net.cpp:100] Creating Layer conv5_3
I0403 23:53:10.469879 25856 net.cpp:434] conv5_3 <- conv5_2
I0403 23:53:10.469887 25856 net.cpp:408] conv5_3 -> conv5_3
I0403 23:53:10.488528 25856 net.cpp:150] Setting up conv5_3
I0403 23:53:10.488554 25856 net.cpp:157] Top shape: 2 512 32 32 (1048576)
I0403 23:53:10.488559 25856 net.cpp:165] Memory required for data: 1275068608
I0403 23:53:10.488566 25856 layer_factory.hpp:77] Creating layer relu5_3
I0403 23:53:10.488582 25856 net.cpp:100] Creating Layer relu5_3
I0403 23:53:10.488589 25856 net.cpp:434] relu5_3 <- conv5_3
I0403 23:53:10.488596 25856 net.cpp:395] relu5_3 -> conv5_3 (in-place)
I0403 23:53:10.488903 25856 net.cpp:150] Setting up relu5_3
I0403 23:53:10.488915 25856 net.cpp:157] Top shape: 2 512 32 32 (1048576)
I0403 23:53:10.488920 25856 net.cpp:165] Memory required for data: 1279262912
I0403 23:53:10.488924 25856 layer_factory.hpp:77] Creating layer pool5
I0403 23:53:10.488934 25856 net.cpp:100] Creating Layer pool5
I0403 23:53:10.488940 25856 net.cpp:434] pool5 <- conv5_3
I0403 23:53:10.488946 25856 net.cpp:408] pool5 -> pool5
I0403 23:53:10.489006 25856 net.cpp:150] Setting up pool5
I0403 23:53:10.489015 25856 net.cpp:157] Top shape: 2 512 32 32 (1048576)
I0403 23:53:10.489020 25856 net.cpp:165] Memory required for data: 1283457216
I0403 23:53:10.489024 25856 layer_factory.hpp:77] Creating layer fc6
I0403 23:53:10.489037 25856 net.cpp:100] Creating Layer fc6
I0403 23:53:10.489042 25856 net.cpp:434] fc6 <- pool5
I0403 23:53:10.489065 25856 net.cpp:408] fc6 -> fc6
I0403 23:53:10.525540 25856 net.cpp:150] Setting up fc6
I0403 23:53:10.525604 25856 net.cpp:157] Top shape: 2 1024 32 32 (2097152)
I0403 23:53:10.525609 25856 net.cpp:165] Memory required for data: 1291845824
I0403 23:53:10.525620 25856 layer_factory.hpp:77] Creating layer relu6
I0403 23:53:10.525634 25856 net.cpp:100] Creating Layer relu6
I0403 23:53:10.525640 25856 net.cpp:434] relu6 <- fc6
I0403 23:53:10.525650 25856 net.cpp:395] relu6 -> fc6 (in-place)
I0403 23:53:10.525924 25856 net.cpp:150] Setting up relu6
I0403 23:53:10.525938 25856 net.cpp:157] Top shape: 2 1024 32 32 (2097152)
I0403 23:53:10.525941 25856 net.cpp:165] Memory required for data: 1300234432
I0403 23:53:10.525946 25856 layer_factory.hpp:77] Creating layer fc7
I0403 23:53:10.525961 25856 net.cpp:100] Creating Layer fc7
I0403 23:53:10.525966 25856 net.cpp:434] fc7 <- fc6
I0403 23:53:10.525974 25856 net.cpp:408] fc7 -> fc7
I0403 23:53:10.535526 25856 net.cpp:150] Setting up fc7
I0403 23:53:10.535604 25856 net.cpp:157] Top shape: 2 1024 32 32 (2097152)
I0403 23:53:10.535614 25856 net.cpp:165] Memory required for data: 1308623040
I0403 23:53:10.535624 25856 layer_factory.hpp:77] Creating layer relu7
I0403 23:53:10.535637 25856 net.cpp:100] Creating Layer relu7
I0403 23:53:10.535645 25856 net.cpp:434] relu7 <- fc7
I0403 23:53:10.535655 25856 net.cpp:395] relu7 -> fc7 (in-place)
I0403 23:53:10.535853 25856 net.cpp:150] Setting up relu7
I0403 23:53:10.535866 25856 net.cpp:157] Top shape: 2 1024 32 32 (2097152)
I0403 23:53:10.535869 25856 net.cpp:165] Memory required for data: 1317011648
I0403 23:53:10.535874 25856 layer_factory.hpp:77] Creating layer fc7_relu7_0_split
I0403 23:53:10.535884 25856 net.cpp:100] Creating Layer fc7_relu7_0_split
I0403 23:53:10.535892 25856 net.cpp:434] fc7_relu7_0_split <- fc7
…
I0403 23:53:10.569208 25856 net.cpp:150] Setting up conv7_2_conv7_2_relu_0_split
I0403 23:53:10.569218 25856 net.cpp:157] Top shape: 2 256 8 8 (32768)
I0403 23:53:10.569224 25856 net.cpp:157] Top shape: 2 256 8 8 (32768)
I0403 23:53:10.569229 25856 net.cpp:157] Top shape: 2 256 8 8 (32768)
I0403 23:53:10.569234 25856 net.cpp:157] Top shape: 2 256 8 8 (32768)
I0403 23:53:10.569239 25856 net.cpp:157] Top shape: 2 256 8 8 (32768)
I0403 23:53:10.569243 25856 net.cpp:165] Memory required for data: 1371930816
I0403 23:53:10.569248 25856 layer_factory.hpp:77] Creating layer conv8_1
I0403 23:53:10.569260 25856 net.cpp:100] Creating Layer conv8_1
I0403 23:53:10.569267 25856 net.cpp:434] conv8_1 <- conv7_2_conv7_2_relu_0_split_0
I0403 23:53:10.569280 25856 net.cpp:408] conv8_1 -> conv8_1
I0403 23:53:10.573223 25856 net.cpp:150] Setting up conv8_1
I0403 23:53:10.573238 25856 net.cpp:157] Top shape: 2 128 8 8 (16384)
I0403 23:53:10.573254 25856 net.cpp:165] Memory required for data: 1371996352
I0403 23:53:10.573262 25856 layer_factory.hpp:77] Creating layer conv8_1_relu
I0403 23:53:10.573271 25856 net.cpp:100] Creating Layer conv8_1_relu
I0403 23:53:10.573276 25856 net.cpp:434] conv8_1_relu <- conv8_1
I0403 23:53:10.573282 25856 net.cpp:395] conv8_1_relu -> conv8_1 (in-place)
I0403 23:53:10.574239 25856 net.cpp:150] Setting up conv8_1_relu
I0403 23:53:10.574250 25856 net.cpp:157] Top shape: 2 128 8 8 (16384)
I0403 23:53:10.574267 25856 net.cpp:165] Memory required for data: 1372061888
I0403 23:53:10.574272 25856 layer_factory.hpp:77] Creating layer conv8_2
I0403 23:53:10.574285 25856 net.cpp:100] Creating Layer conv8_2
I0403 23:53:10.574290 25856 net.cpp:434] conv8_2 <- conv8_1
I0403 23:53:10.574300 25856 net.cpp:408] conv8_2 -> conv8_2
I0403 23:53:10.577766 25856 net.cpp:150] Setting up conv8_2
I0403 23:53:10.577782 25856 net.cpp:157] Top shape: 2 256 6 6 (18432)
I0403 23:53:10.577798 25856 net.cpp:165] Memory required for data: 1372135616
I0403 23:53:10.577805 25856 layer_factory.hpp:77] Creating layer conv8_2_relu
I0403 23:53:10.577813 25856 net.cpp:100] Creating Layer conv8_2_relu
I0403 23:53:10.577818 25856 net.cpp:434] conv8_2_relu <- conv8_2
I0403 23:53:10.577826 25856 net.cpp:395] conv8_2_relu -> conv8_2 (in-place)
I0403 23:53:10.578007 25856 net.cpp:150] Setting up conv8_2_relu
I0403 23:53:10.578022 25856 net.cpp:157] Top shape: 2 256 6 6 (18432)
I0403 23:53:10.578027 25856 net.cpp:165] Memory required for data: 1372209344
I0403 23:53:10.578032 25856 layer_factory.hpp:77] Creating layer conv8_2_conv8_2_relu_0_split
I0403 23:53:10.578038 25856 net.cpp:100] Creating Layer conv8_2_conv8_2_relu_0_split
I0403 23:53:10.578043 25856 net.cpp:434] conv8_2_conv8_2_relu_0_split <- conv8_2
I0403 23:53:10.578049 25856 net.cpp:408] conv8_2_conv8_2_relu_0_split -> conv8_2_conv8_2_relu_0_split_0
I0403 23:53:10.578059 25856 net.cpp:408] conv8_2_conv8_2_relu_0_split -> conv8_2_conv8_2_relu_0_split_1
I0403 23:53:10.578068 25856 net.cpp:408] conv8_2_conv8_2_relu_0_split -> conv8_2_conv8_2_relu_0_split_2
I0403 23:53:10.578075 25856 net.cpp:408] conv8_2_conv8_2_relu_0_split -> conv8_2_conv8_2_relu_0_split_3
I0403 23:53:10.578081 25856 net.cpp:408] conv8_2_conv8_2_relu_0_split -> conv8_2_conv8_2_relu_0_split_4
I0403 23:53:10.578192 25856 net.cpp:150] Setting up conv8_2_conv8_2_relu_0_split
I0403 23:53:10.578204 25856 net.cpp:157] Top shape: 2 256 6 6 (18432)
I0403 23:53:10.578209 25856 net.cpp:157] Top shape: 2 256 6 6 (18432)
I0403 23:53:10.578224 25856 net.cpp:157] Top shape: 2 256 6 6 (18432)
I0403 23:53:10.578230 25856 net.cpp:157] Top shape: 2 256 6 6 (18432)
I0403 23:53:10.578235 25856 net.cpp:157] Top shape: 2 256 6 6 (18432)
I0403 23:53:10.578239 25856 net.cpp:165] Memory required for data: 1372577984
I0403 23:53:10.578245 25856 layer_factory.hpp:77] Creating layer conv9_1
I0403 23:53:10.578256 25856 net.cpp:100] Creating Layer conv9_1
I0403 23:53:10.578263 25856 net.cpp:434] conv9_1 <- conv8_2_conv8_2_relu_0_split_0
I0403 23:53:10.578270 25856 net.cpp:408] conv9_1 -> conv9_1
I0403 23:53:10.579630 25856 net.cpp:150] Setting up conv9_1
I0403 23:53:10.579645 25856 net.cpp:157] Top shape: 2 128 6 6 (9216)
I0403 23:53:10.579661 25856 net.cpp:165] Memory required for data: 1372614848
I0403 23:53:10.579669 25856 layer_factory.hpp:77] Creating layer conv9_1_relu
I0403 23:53:10.579676 25856 net.cpp:100] Creating Layer conv9_1_relu
I0403 23:53:10.579682 25856 net.cpp:434] conv9_1_relu <- conv9_1
I0403 23:53:10.579690 25856 net.cpp:395] conv9_1_relu -> conv9_1 (in-place)
I0403 23:53:10.580031 25856 net.cpp:150] Setting up conv9_1_relu
I0403 23:53:10.580044 25856 net.cpp:157] Top shape: 2 128 6 6 (9216)
I0403 23:53:10.580061 25856 net.cpp:165] Memory required for data: 1372651712
I0403 23:53:10.580067 25856 layer_factory.hpp:77] Creating layer conv9_2
I0403 23:53:10.580080 25856 net.cpp:100] Creating Layer conv9_2
I0403 23:53:10.580085 25856 net.cpp:434] conv9_2 <- conv9_1
I0403 23:53:10.580093 25856 net.cpp:408] conv9_2 -> conv9_2
I0403 23:53:10.583640 25856 net.cpp:150] Setting up conv9_2
I0403 23:53:10.583657 25856 net.cpp:157] Top shape: 2 256 4 4 (8192)
I0403 23:53:10.583673 25856 net.cpp:165] Memory required for data: 1372684480
I0403 23:53:10.583681 25856 layer_factory.hpp:77] Creating layer conv9_2_relu
I0403 23:53:10.583688 25856 net.cpp:100] Creating Layer conv9_2_relu
I0403 23:53:10.583693 25856 net.cpp:434] conv9_2_relu <- conv9_2
I0403 23:53:10.583699 25856 net.cpp:395] conv9_2_relu -> conv9_2 (in-place)
I0403 23:53:10.583873 25856 net.cpp:150] Setting up conv9_2_relu
I0403 23:53:10.583884 25856 net.cpp:157] Top shape: 2 256 4 4 (8192)
I0403 23:53:10.583889 25856 net.cpp:165] Memory required for data: 1372717248
I0403 23:53:10.583894 25856 layer_factory.hpp:77] Creating layer conv9_2_conv9_2_relu_0_split
I0403 23:53:10.583901 25856 net.cpp:100] Creating Layer conv9_2_conv9_2_relu_0_split
I0403 23:53:10.583909 25856 net.cpp:434] conv9_2_conv9_2_relu_0_split <- conv9_2
I0403 23:53:10.583916 25856 net.cpp:408] conv9_2_conv9_2_relu_0_split -> conv9_2_conv9_2_relu_0_split_0
I0403 23:53:10.583923 25856 net.cpp:408] conv9_2_conv9_2_relu_0_split -> conv9_2_conv9_2_relu_0_split_1
I0403 23:53:10.583930 25856 net.cpp:408] conv9_2_conv9_2_relu_0_split -> conv9_2_conv9_2_relu_0_split_2
I0403 23:53:10.583940 25856 net.cpp:408] conv9_2_conv9_2_relu_0_split -> conv9_2_conv9_2_relu_0_split_3
I0403 23:53:10.584036 25856 net.cpp:150] Setting up conv9_2_conv9_2_relu_0_split
I0403 23:53:10.584045 25856 net.cpp:157] Top shape: 2 256 4 4 (8192)
I0403 23:53:10.584050 25856 net.cpp:157] Top shape: 2 256 4 4 (8192)
I0403 23:53:10.584055 25856 net.cpp:157] Top shape: 2 256 4 4 (8192)
I0403 23:53:10.584060 25856 net.cpp:157] Top shape: 2 256 4 4 (8192)
I0403 23:53:10.584064 25856 net.cpp:165] Memory required for data: 1372848320
I0403 23:53:10.584069 25856 layer_factory.hpp:77] Creating layer conv4_3_norm
I0403 23:53:10.584079 25856 net.cpp:100] Creating Layer conv4_3_norm
I0403 23:53:10.584084 25856 net.cpp:434] conv4_3_norm <- conv4_3_relu4_3_0_split_1
I0403 23:53:10.584090 25856 net.cpp:408] conv4_3_norm -> conv4_3_norm
I0403 23:53:10.584301 25856 net.cpp:150] Setting up conv4_3_norm
I0403 23:53:10.584312 25856 net.cpp:157] Top shape: 2 512 64 64 (4194304)
I0403 23:53:10.584316 25856 net.cpp:165] Memory required for data: 1389625536
I0403 23:53:10.584322 25856 layer_factory.hpp:77] Creating layer conv4_3_norm_conv4_3_norm_0_split
I0403 23:53:10.584331 25856 net.cpp:100] Creating Layer conv4_3_norm_conv4_3_norm_0_split
I0403 23:53:10.584336 25856 net.cpp:434] conv4_3_norm_conv4_3_norm_0_split <- conv4_3_norm
I0403 23:53:10.584352 25856 net.cpp:408] conv4_3_norm_conv4_3_norm_0_split -> conv4_3_norm_conv4_3_norm_0_split_0
I0403 23:53:10.584368 25856 net.cpp:408] conv4_3_norm_conv4_3_norm_0_split -> conv4_3_norm_conv4_3_norm_0_split_1
I0403 23:53:10.584378 25856 net.cpp:408] conv4_3_norm_conv4_3_norm_0_split -> conv4_3_norm_conv4_3_norm_0_split_2
I0403 23:53:10.584383 25856 net.cpp:408] conv4_3_norm_conv4_3_norm_0_split -> conv4_3_norm_conv4_3_norm_0_split_3
I0403 23:53:10.584470 25856 net.cpp:150] Setting up conv4_3_norm_conv4_3_norm_0_split
I0403 23:53:10.584478 25856 net.cpp:157] Top shape: 2 512 64 64 (4194304)
I0403 23:53:10.584484 25856 net.cpp:157] Top shape: 2 512 64 64 (4194304)
I0403 23:53:10.584488 25856 net.cpp:157] Top shape: 2 512 64 64 (4194304)
I0403 23:53:10.584493 25856 net.cpp:157] Top shape: 2 512 64 64 (4194304)
I0403 23:53:10.584497 25856 net.cpp:165] Memory required for data: 1456734400
I0403 23:53:10.584502 25856 layer_factory.hpp:77] Creating layer conv4_3_norm_mbox_loc
I0403 23:53:10.584516 25856 net.cpp:100] Creating Layer conv4_3_norm_mbox_loc
I0403 23:53:10.584522 25856 net.cpp:434] conv4_3_norm_mbox_loc <- conv4_3_norm_conv4_3_norm_0_split_0
I0403 23:53:10.584528 25856 net.cpp:408] conv4_3_norm_mbox_loc -> conv4_3_norm_mbox_loc
I0403 23:53:10.586256 25856 net.cpp:150] Setting up conv4_3_norm_mbox_loc
I0403 23:53:10.586282 25856 net.cpp:157] Top shape: 2 16 64 64 (131072)
I0403 23:53:10.586287 25856 net.cpp:165] Memory required for data: 1457258688
I0403 23:53:10.586294 25856 layer_factory.hpp:77] Creating layer conv4_3_norm_mbox_loc_perm
I0403 23:53:10.586303 25856 net.cpp:100] Creating Layer conv4_3_norm_mbox_loc_perm
I0403 23:53:10.586308 25856 net.cpp:434] conv4_3_norm_mbox_loc_perm <- conv4_3_norm_mbox_loc
I0403 23:53:10.586318 25856 net.cpp:408] conv4_3_norm_mbox_loc_perm -> conv4_3_norm_mbox_loc_perm
I0403 23:53:10.586469 25856 net.cpp:150] Setting up conv4_3_norm_mbox_loc_perm
I0403 23:53:10.586479 25856 net.cpp:157] Top shape: 2 64 64 16 (131072)
I0403 23:53:10.586484 25856 net.cpp:165] Memory required for data: 1457782976
I0403 23:53:10.586488 25856 layer_factory.hpp:77] Creating layer conv4_3_norm_mbox_loc_flat
I0403 23:53:10.586496 25856 net.cpp:100] Creating Layer conv4_3_norm_mbox_loc_flat
I0403 23:53:10.586504 25856 net.cpp:434] conv4_3_norm_mbox_loc_flat <- conv4_3_norm_mbox_loc_perm
I0403 23:53:10.586513 25856 net.cpp:408] conv4_3_norm_mbox_loc_flat -> conv4_3_norm_mbox_loc_flat
I0403 23:53:10.586547 25856 net.cpp:150] Setting up conv4_3_norm_mbox_loc_flat
I0403 23:53:10.586555 25856 net.cpp:157] Top shape: 2 65536 (131072)
I0403 23:53:10.586560 25856 net.cpp:165] Memory required for data: 1458307264
I0403 23:53:10.586565 25856 layer_factory.hpp:77] Creating layer conv4_3_norm_mbox_conf
I0403 23:53:10.586587 25856 net.cpp:100] Creating Layer conv4_3_norm_mbox_conf
I0403 23:53:10.586594 25856 net.cpp:434] conv4_3_norm_mbox_conf <- conv4_3_norm_conv4_3_norm_0_split_1
I0403 23:53:10.586602 25856 net.cpp:408] conv4_3_norm_mbox_conf -> conv4_3_norm_mbox_conf
I0403 23:53:10.588639 25856 net.cpp:150] Setting up conv4_3_norm_mbox_conf
I0403 23:53:10.588666 25856 net.cpp:157] Top shape: 2 8 64 64 (65536)
I0403 23:53:10.588671 25856 net.cpp:165] Memory required for data: 1458569408
I0403 23:53:10.588680 25856 layer_factory.hpp:77] Creating layer conv4_3_norm_mbox_conf_perm
I0403 23:53:10.588690 25856 net.cpp:100] Creating Layer conv4_3_norm_mbox_conf_perm
I0403 23:53:10.588696 25856 net.cpp:434] conv4_3_norm_mbox_conf_perm <- conv4_3_norm_mbox_conf
I0403 23:53:10.588701 25856 net.cpp:408] conv4_3_norm_mbox_conf_perm -> conv4_3_norm_mbox_conf_perm
I0403 23:53:10.588852 25856 net.cpp:150] Setting up conv4_3_norm_mbox_conf_perm
I0403 23:53:10.588862 25856 net.cpp:157] Top shape: 2 64 64 8 (65536)
I0403 23:53:10.588866 25856 net.cpp:165] Memory required for data: 1458831552
I0403 23:53:10.588871 25856 layer_factory.hpp:77] Creating layer conv4_3_norm_mbox_conf_flat
I0403 23:53:10.588878 25856 net.cpp:100] Creating Layer conv4_3_norm_mbox_conf_flat
I0403 23:53:10.588893 25856 net.cpp:434] conv4_3_norm_mbox_conf_flat <- conv4_3_norm_mbox_conf_perm
I0403 23:53:10.588901 25856 net.cpp:408] conv4_3_norm_mbox_conf_flat -> conv4_3_norm_mbox_conf_flat
I0403 23:53:10.588940 25856 net.cpp:150] Setting up conv4_3_norm_mbox_conf_flat
I0403 23:53:10.588949 25856 net.cpp:157] Top shape: 2 32768 (65536)
I0403 23:53:10.588955 25856 net.cpp:165] Memory required for data: 1459093696
I0403 23:53:10.588960 25856 layer_factory.hpp:77] Creating layer conv4_3_norm_mbox_clean
I0403 23:53:10.588973 25856 net.cpp:100] Creating Layer conv4_3_norm_mbox_clean
I0403 23:53:10.588979 25856 net.cpp:434] conv4_3_norm_mbox_clean <- conv4_3_norm_conv4_3_norm_0_split_2
I0403 23:53:10.588986 25856 net.cpp:408] conv4_3_norm_mbox_clean -> conv4_3_norm_mbox_clean
I0403 23:53:10.590497 25856 net.cpp:150] Setting up conv4_3_norm_mbox_clean
I0403 23:53:10.590510 25856 net.cpp:157] Top shape: 2 4 64 64 (32768)
I0403 23:53:10.590526 25856 net.cpp:165] Memory required for data: 1459224768
I0403 23:53:10.590534 25856 layer_factory.hpp:77] Creating layer conv4_3_norm_mbox_clean_perm
I0403 23:53:10.590544 25856 net.cpp:100] Creating Layer conv4_3_norm_mbox_clean_perm
I0403 23:53:10.590549 25856 net.cpp:434] conv4_3_norm_mbox_clean_perm <- conv4_3_norm_mbox_clean
I0403 23:53:10.590557 25856 net.cpp:408] conv4_3_norm_mbox_clean_perm -> conv4_3_norm_mbox_clean_perm
I0403 23:53:10.590706 25856 net.cpp:150] Setting up conv4_3_norm_mbox_clean_perm
I0403 23:53:10.590718 25856 net.cpp:157] Top shape: 2 64 64 4 (32768)
I0403 23:53:10.590723 25856 net.cpp:165] Memory required for data: 1459355840
I0403 23:53:10.590728 25856 layer_factory.hpp:77] Creating layer conv4_3_norm_mbox_clean_flat
I0403 23:53:10.590734 25856 net.cpp:100] Creating Layer conv4_3_norm_mbox_clean_flat
I0403 23:53:10.590742 25856 net.cpp:434] conv4_3_norm_mbox_clean_flat <- conv4_3_norm_mbox_clean_perm
I0403 23:53:10.590749 25856 net.cpp:408] conv4_3_norm_mbox_clean_flat -> conv4_3_norm_mbox_clean_flat
I0403 23:53:10.590783 25856 net.cpp:150] Setting up conv4_3_norm_mbox_clean_flat
I0403 23:53:10.590792 25856 net.cpp:157] Top shape: 2 16384 (32768)
I0403 23:53:10.590796 25856 net.cpp:165] Memory required for data: 1459486912
I0403 23:53:10.590801 25856 layer_factory.hpp:77] Creating layer conv4_3_norm_mbox_priorbox
I0403 23:53:10.590811 25856 net.cpp:100] Creating Layer conv4_3_norm_mbox_priorbox
I0403 23:53:10.590817 25856 net.cpp:434] conv4_3_norm_mbox_priorbox <- conv4_3_norm_conv4_3_norm_0_split_3
I0403 23:53:10.590823 25856 net.cpp:434] conv4_3_norm_mbox_priorbox <- data_data_0_split_1
I0403 23:53:10.590829 25856 net.cpp:408] conv4_3_norm_mbox_priorbox -> conv4_3_norm_mbox_priorbox
I0403 23:53:10.590872 25856 net.cpp:150] Setting up conv4_3_norm_mbox_priorbox
I0403 23:53:10.590880 25856 net.cpp:157] Top shape: 1 2 65536 (131072)
I0403 23:53:10.590884 25856 net.cpp:165] Memory required for data: 1460011200
I0403 23:53:10.590889 25856 layer_factory.hpp:77] Creating layer fc7_mbox_loc
I0403 23:53:10.590903 25856 net.cpp:100] Creating Layer fc7_mbox_loc
I0403 23:53:10.590909 25856 net.cpp:434] fc7_mbox_loc <- fc7_relu7_0_split_1
I0403 23:53:10.590919 25856 net.cpp:408] fc7_mbox_loc -> fc7_mbox_loc
I0403 23:53:10.593924 25856 net.cpp:150] Setting up fc7_mbox_loc
I0403 23:53:10.593940 25856 net.cpp:157] Top shape: 2 24 32 32 (49152)
I0403 23:53:10.593956 25856 net.cpp:165] Memory required for data: 1460207808
I0403 23:53:10.593964 25856 layer_factory.hpp:77] Creating layer fc7_mbox_loc_perm
I0403 23:53:10.593974 25856 net.cpp:100] Creating Layer fc7_mbox_loc_perm
I0403 23:53:10.593979 25856 net.cpp:434] fc7_mbox_loc_perm <- fc7_mbox_loc
I0403 23:53:10.593986 25856 net.cpp:408] fc7_mbox_loc_perm -> fc7_mbox_loc_perm
I0403 23:53:10.594135 25856 net.cpp:150] Setting up fc7_mbox_loc_perm
I0403 23:53:10.594146 25856 net.cpp:157] Top shape: 2 32 32 24 (49152)
I0403 23:53:10.594149 25856 net.cpp:165] Memory required for data: 1460404416
I0403 23:53:10.594154 25856 layer_factory.hpp:77] Creating layer fc7_mbox_loc_flat
I0403 23:53:10.594162 25856 net.cpp:100] Creating Layer fc7_mbox_loc_flat
I0403 23:53:10.594177 25856 net.cpp:434] fc7_mbox_loc_flat <- fc7_mbox_loc_perm
I0403 23:53:10.594183 25856 net.cpp:408] fc7_mbox_loc_flat -> fc7_mbox_loc_flat
I0403 23:53:10.594223 25856 net.cpp:150] Setting up fc7_mbox_loc_flat
I0403 23:53:10.594231 25856 net.cpp:157] Top shape: 2 24576 (49152)
I0403 23:53:10.594236 25856 net.cpp:165] Memory required for data: 1460601024
I0403 23:53:10.594240 25856 layer_factory.hpp:77] Creating layer fc7_mbox_conf
I0403 23:53:10.594251 25856 net.cpp:100] Creating Layer fc7_mbox_conf
I0403 23:53:10.594257 25856 net.cpp:434] fc7_mbox_conf <- fc7_relu7_0_split_2
I0403 23:53:10.594267 25856 net.cpp:408] fc7_mbox_conf -> fc7_mbox_conf
I0403 23:53:10.596747 25856 net.cpp:150] Setting up fc7_mbox_conf
I0403 23:53:10.596763 25856 net.cpp:157] Top shape: 2 12 32 32 (24576)
I0403 23:53:10.596781 25856 net.cpp:165] Memory required for data: 1460699328
I0403 23:53:10.596787 25856 layer_factory.hpp:77] Creating layer fc7_mbox_conf_perm
I0403 23:53:10.596797 25856 net.cpp:100] Creating Layer fc7_mbox_conf_perm
I0403 23:53:10.596803 25856 net.cpp:434] fc7_mbox_conf_perm <- fc7_mbox_conf
I0403 23:53:10.596809 25856 net.cpp:408] fc7_mbox_conf_perm -> fc7_mbox_conf_perm
I0403 23:53:10.596964 25856 net.cpp:150] Setting up fc7_mbox_conf_perm
I0403 23:53:10.596974 25856 net.cpp:157] Top shape: 2 32 32 12 (24576)
I0403 23:53:10.596978 25856 net.cpp:165] Memory required for data: 1460797632
I0403 23:53:10.596982 25856 layer_factory.hpp:77] Creating layer fc7_mbox_conf_flat
I0403 23:53:10.596992 25856 net.cpp:100] Creating Layer fc7_mbox_conf_flat
I0403 23:53:10.596997 25856 net.cpp:434] fc7_mbox_conf_flat <- fc7_mbox_conf_perm
I0403 23:53:10.597002 25856 net.cpp:408] fc7_mbox_conf_flat -> fc7_mbox_conf_flat
I0403 23:53:10.597038 25856 net.cpp:150] Setting up fc7_mbox_conf_flat
I0403 23:53:10.597046 25856 net.cpp:157] Top shape: 2 12288 (24576)
I0403 23:53:10.597051 25856 net.cpp:165] Memory required for data: 1460895936
I0403 23:53:10.597055 25856 layer_factory.hpp:77] Creating layer fc7_mbox_clean
I0403 23:53:10.597067 25856 net.cpp:100] Creating Layer fc7_mbox_clean
I0403 23:53:10.597074 25856 net.cpp:434] fc7_mbox_clean <- fc7_relu7_0_split_3
I0403 23:53:10.597084 25856 net.cpp:408] fc7_mbox_clean -> fc7_mbox_clean
I0403 23:53:10.598695 25856 net.cpp:150] Setting up fc7_mbox_clean
I0403 23:53:10.598709 25856 net.cpp:157] Top shape: 2 6 32 32 (12288)
I0403 23:53:10.598726 25856 net.cpp:165] Memory required for data: 1460945088
I0403 23:53:10.598733 25856 layer_factory.hpp:77] Creating layer fc7_mbox_clean_perm
I0403 23:53:10.598740 25856 net.cpp:100] Creating Layer fc7_mbox_clean_perm
I0403 23:53:10.598747 25856 net.cpp:434] fc7_mbox_clean_perm <- fc7_mbox_clean
I0403 23:53:10.598754 25856 net.cpp:408] fc7_mbox_clean_perm -> fc7_mbox_clean_perm
I0403 23:53:10.598909 25856 net.cpp:150] Setting up fc7_mbox_clean_perm
I0403 23:53:10.598919 25856 net.cpp:157] Top shape: 2 32 32 6 (12288)
I0403 23:53:10.598923 25856 net.cpp:165] Memory required for data: 1460994240
I0403 23:53:10.598927 25856 layer_factory.hpp:77] Creating layer fc7_mbox_clean_flat
I0403 23:53:10.598934 25856 net.cpp:100] Creating Layer fc7_mbox_clean_flat
I0403 23:53:10.598939 25856 net.cpp:434] fc7_mbox_clean_flat <- fc7_mbox_clean_perm
I0403 23:53:10.598948 25856 net.cpp:408] fc7_mbox_clean_flat -> fc7_mbox_clean_flat
I0403 23:53:10.598984 25856 net.cpp:150] Setting up fc7_mbox_clean_flat
I0403 23:53:10.598991 25856 net.cpp:157] Top shape: 2 6144 (12288)
I0403 23:53:10.598996 25856 net.cpp:165] Memory required for data: 1461043392
I0403 23:53:10.599000 25856 layer_factory.hpp:77] Creating layer fc7_mbox_priorbox
I0403 23:53:10.599009 25856 net.cpp:100] Creating Layer fc7_mbox_priorbox
I0403 23:53:10.599016 25856 net.cpp:434] fc7_mbox_priorbox <- fc7_relu7_0_split_4
I0403 23:53:10.599022 25856 net.cpp:434] fc7_mbox_priorbox <- data_data_0_split_2
I0403 23:53:10.599030 25856 net.cpp:408] fc7_mbox_priorbox -> fc7_mbox_priorbox
I0403 23:53:10.599066 25856 net.cpp:150] Setting up fc7_mbox_priorbox
I0403 23:53:10.599076 25856 net.cpp:157] Top shape: 1 2 24576 (49152)
I0403 23:53:10.599092 25856 net.cpp:165] Memory required for data: 1461240000
I0403 23:53:10.599097 25856 layer_factory.hpp:77] Creating layer conv6_2_mbox_loc
I0403 23:53:10.599110 25856 net.cpp:100] Creating Layer conv6_2_mbox_loc
I0403 23:53:10.599117 25856 net.cpp:434] conv6_2_mbox_loc <- conv6_2_conv6_2_relu_0_split_1
I0403 23:53:10.599124 25856 net.cpp:408] conv6_2_mbox_loc -> conv6_2_mbox_loc
I0403 23:53:10.601151 25856 net.cpp:150] Setting up conv6_2_mbox_loc
I0403 23:53:10.601169 25856 net.cpp:157] Top shape: 2 24 16 16 (12288)
I0403 23:53:10.601174 25856 net.cpp:165] Memory required for data: 1461289152
I0403 23:53:10.601181 25856 layer_factory.hpp:77] Creating layer conv6_2_mbox_loc_perm
I0403 23:53:10.601191 25856 net.cpp:100] Creating Layer conv6_2_mbox_loc_perm
I0403 23:53:10.601197 25856 net.cpp:434] conv6_2_mbox_loc_perm <- conv6_2_mbox_loc
I0403 23:53:10.601205 25856 net.cpp:408] conv6_2_mbox_loc_perm -> conv6_2_mbox_loc_perm
I0403 23:53:10.601356 25856 net.cpp:150] Setting up conv6_2_mbox_loc_perm
I0403 23:53:10.601366 25856 net.cpp:157] Top shape: 2 16 16 24 (12288)
I0403 23:53:10.601371 25856 net.cpp:165] Memory required for data: 1461338304
I0403 23:53:10.601375 25856 layer_factory.hpp:77] Creating layer conv6_2_mbox_loc_flat
I0403 23:53:10.601382 25856 net.cpp:100] Creating Layer conv6_2_mbox_loc_flat
I0403 23:53:10.601387 25856 net.cpp:434] conv6_2_mbox_loc_flat <- conv6_2_mbox_loc_perm
I0403 23:53:10.601394 25856 net.cpp:408] conv6_2_mbox_loc_flat -> conv6_2_mbox_loc_flat
I0403 23:53:10.601433 25856 net.cpp:150] Setting up conv6_2_mbox_loc_flat
I0403 23:53:10.601441 25856 net.cpp:157] Top shape: 2 6144 (12288)
I0403 23:53:10.601445 25856 net.cpp:165] Memory required for data: 1461387456
I0403 23:53:10.601449 25856 layer_factory.hpp:77] Creating layer conv6_2_mbox_conf
I0403 23:53:10.601462 25856 net.cpp:100] Creating Layer conv6_2_mbox_conf
I0403 23:53:10.601469 25856 net.cpp:434] conv6_2_mbox_conf <- conv6_2_conv6_2_relu_0_split_2
I0403 23:53:10.601478 25856 net.cpp:408] conv6_2_mbox_conf -> conv6_2_mbox_conf
I0403 23:53:10.603169 25856 net.cpp:150] Setting up conv6_2_mbox_conf
I0403 23:53:10.603184 25856 net.cpp:157] Top shape: 2 12 16 16 (6144)
I0403 23:53:10.603189 25856 net.cpp:165] Memory required for data: 1461412032
I0403 23:53:10.603201 25856 layer_factory.hpp:77] Creating layer conv6_2_mbox_conf_perm
I0403 23:53:10.603211 25856 net.cpp:100] Creating Layer conv6_2_mbox_conf_perm
I0403 23:53:10.603216 25856 net.cpp:434] conv6_2_mbox_conf_perm <- conv6_2_mbox_conf
I0403 23:53:10.603225 25856 net.cpp:408] conv6_2_mbox_conf_perm -> conv6_2_mbox_conf_perm
I0403 23:53:10.603374 25856 net.cpp:150] Setting up conv6_2_mbox_conf_perm
I0403 23:53:10.603384 25856 net.cpp:157] Top shape: 2 16 16 12 (6144)
I0403 23:53:10.603389 25856 net.cpp:165] Memory required for data: 1461436608
I0403 23:53:10.603394 25856 layer_factory.hpp:77] Creating layer conv6_2_mbox_conf_flat
I0403 23:53:10.603401 25856 net.cpp:100] Creating Layer conv6_2_mbox_conf_flat
I0403 23:53:10.603408 25856 net.cpp:434] conv6_2_mbox_conf_flat <- conv6_2_mbox_conf_perm
I0403 23:53:10.603415 25856 net.cpp:408] conv6_2_mbox_conf_flat -> conv6_2_mbox_conf_flat
I0403 23:53:10.603451 25856 net.cpp:150] Setting up conv6_2_mbox_conf_flat
I0403 23:53:10.603461 25856 net.cpp:157] Top shape: 2 3072 (6144)
I0403 23:53:10.603464 25856 net.cpp:165] Memory required for data: 1461461184
I0403 23:53:10.603469 25856 layer_factory.hpp:77] Creating layer conv6_2_mbox_clean
I0403 23:53:10.603480 25856 net.cpp:100] Creating Layer conv6_2_mbox_clean
I0403 23:53:10.603487 25856 net.cpp:434] conv6_2_mbox_clean <- conv6_2_conv6_2_relu_0_split_3
I0403 23:53:10.603497 25856 net.cpp:408] conv6_2_mbox_clean -> conv6_2_mbox_clean
I0403 23:53:10.604852 25856 net.cpp:150] Setting up conv6_2_mbox_clean
I0403 23:53:10.604869 25856 net.cpp:157] Top shape: 2 6 16 16 (3072)
I0403 23:53:10.604885 25856 net.cpp:165] Memory required for data: 1461473472
I0403 23:53:10.604907 25856 layer_factory.hpp:77] Creating layer conv6_2_mbox_clean_perm
I0403 23:53:10.604924 25856 net.cpp:100] Creating Layer conv6_2_mbox_clean_perm
I0403 23:53:10.604930 25856 net.cpp:434] conv6_2_mbox_clean_perm <- conv6_2_mbox_clean
I0403 23:53:10.604938 25856 net.cpp:408] conv6_2_mbox_clean_perm -> conv6_2_mbox_clean_perm
I0403 23:53:10.605093 25856 net.cpp:150] Setting up conv6_2_mbox_clean_perm
I0403 23:53:10.605103 25856 net.cpp:157] Top shape: 2 16 16 6 (3072)
I0403 23:53:10.605108 25856 net.cpp:165] Memory required for data: 1461485760
I0403 23:53:10.605111 25856 layer_factory.hpp:77] Creating layer conv6_2_mbox_clean_flat
I0403 23:53:10.605118 25856 net.cpp:100] Creating Layer conv6_2_mbox_clean_flat
I0403 23:53:10.605123 25856 net.cpp:434] conv6_2_mbox_clean_flat <- conv6_2_mbox_clean_perm
I0403 23:53:10.605131 25856 net.cpp:408] conv6_2_mbox_clean_flat -> conv6_2_mbox_clean_flat
I0403 23:53:10.605170 25856 net.cpp:150] Setting up conv6_2_mbox_clean_flat
I0403 23:53:10.605180 25856 net.cpp:157] Top shape: 2 1536 (3072)
I0403 23:53:10.605185 25856 net.cpp:165] Memory required for data: 1461498048
I0403 23:53:10.605188 25856 layer_factory.hpp:77] Creating layer conv6_2_mbox_priorbox
I0403 23:53:10.605195 25856 net.cpp:100] Creating Layer conv6_2_mbox_priorbox
I0403 23:53:10.605201 25856 net.cpp:434] conv6_2_mbox_priorbox <- conv6_2_conv6_2_relu_0_split_4
I0403 23:53:10.605206 25856 net.cpp:434] conv6_2_mbox_priorbox <- data_data_0_split_3
I0403 23:53:10.605216 25856 net.cpp:408] conv6_2_mbox_priorbox -> conv6_2_mbox_priorbox
I0403 23:53:10.605254 25856 net.cpp:150] Setting up conv6_2_mbox_priorbox
I0403 23:53:10.605265 25856 net.cpp:157] Top shape: 1 2 6144 (12288)
I0403 23:53:10.605269 25856 net.cpp:165] Memory required for data: 1461547200
I0403 23:53:10.605274 25856 layer_factory.hpp:77] Creating layer conv7_2_mbox_loc
I0403 23:53:10.605285 25856 net.cpp:100] Creating Layer conv7_2_mbox_loc
I0403 23:53:10.605293 25856 net.cpp:434] conv7_2_mbox_loc <- conv7_2_conv7_2_relu_0_split_1
I0403 23:53:10.605299 25856 net.cpp:408] conv7_2_mbox_loc -> conv7_2_mbox_loc
I0403 23:53:10.606932 25856 net.cpp:150] Setting up conv7_2_mbox_loc
I0403 23:53:10.606947 25856 net.cpp:157] Top shape: 2 24 8 8 (3072)
I0403 23:53:10.606963 25856 net.cpp:165] Memory required for data: 1461559488
I0403 23:53:10.606971 25856 layer_factory.hpp:77] Creating layer conv7_2_mbox_loc_perm
I0403 23:53:10.606979 25856 net.cpp:100] Creating Layer conv7_2_mbox_loc_perm
I0403 23:53:10.606986 25856 net.cpp:434] conv7_2_mbox_loc_perm <- conv7_2_mbox_loc
I0403 23:53:10.606992 25856 net.cpp:408] conv7_2_mbox_loc_perm -> conv7_2_mbox_loc_perm
I0403 23:53:10.607148 25856 net.cpp:150] Setting up conv7_2_mbox_loc_perm
I0403 23:53:10.607158 25856 net.cpp:157] Top shape: 2 8 8 24 (3072)
I0403 23:53:10.607163 25856 net.cpp:165] Memory required for data: 1461571776
I0403 23:53:10.607167 25856 layer_factory.hpp:77] Creating layer conv7_2_mbox_loc_flat
I0403 23:53:10.607174 25856 net.cpp:100] Creating Layer conv7_2_mbox_loc_flat
I0403 23:53:10.607179 25856 net.cpp:434] conv7_2_mbox_loc_flat <- conv7_2_mbox_loc_perm
I0403 23:53:10.607185 25856 net.cpp:408] conv7_2_mbox_loc_flat -> conv7_2_mbox_loc_flat
I0403 23:53:10.607223 25856 net.cpp:150] Setting up conv7_2_mbox_loc_flat
I0403 23:53:10.607231 25856 net.cpp:157] Top shape: 2 1536 (3072)
I0403 23:53:10.607235 25856 net.cpp:165] Memory required for data: 1461584064
I0403 23:53:10.607239 25856 layer_factory.hpp:77] Creating layer conv7_2_mbox_conf
I0403 23:53:10.607250 25856 net.cpp:100] Creating Layer conv7_2_mbox_conf
I0403 23:53:10.607257 25856 net.cpp:434] conv7_2_mbox_conf <- conv7_2_conv7_2_relu_0_split_2
I0403 23:53:10.607267 25856 net.cpp:408] conv7_2_mbox_conf -> conv7_2_mbox_conf
I0403 23:53:10.608819 25856 net.cpp:150] Setting up conv7_2_mbox_conf
I0403 23:53:10.608834 25856 net.cpp:157] Top shape: 2 12 8 8 (1536)
I0403 23:53:10.608839 25856 net.cpp:165] Memory required for data: 1461590208
I0403 23:53:10.608847 25856 layer_factory.hpp:77] Creating layer conv7_2_mbox_conf_perm
I0403 23:53:10.608857 25856 net.cpp:100] Creating Layer conv7_2_mbox_conf_perm
I0403 23:53:10.608872 25856 net.cpp:434] conv7_2_mbox_conf_perm <- conv7_2_mbox_conf
I0403 23:53:10.608882 25856 net.cpp:408] conv7_2_mbox_conf_perm -> conv7_2_mbox_conf_perm
I0403 23:53:10.609041 25856 net.cpp:150] Setting up conv7_2_mbox_conf_perm
I0403 23:53:10.609051 25856 net.cpp:157] Top shape: 2 8 8 12 (1536)
I0403 23:53:10.609056 25856 net.cpp:165] Memory required for data: 1461596352
I0403 23:53:10.609061 25856 layer_factory.hpp:77] Creating layer conv7_2_mbox_conf_flat
I0403 23:53:10.609069 25856 net.cpp:100] Creating Layer conv7_2_mbox_conf_flat
I0403 23:53:10.609076 25856 net.cpp:434] conv7_2_mbox_conf_flat <- conv7_2_mbox_conf_perm
I0403 23:53:10.609082 25856 net.cpp:408] conv7_2_mbox_conf_flat -> conv7_2_mbox_conf_flat
I0403 23:53:10.609117 25856 net.cpp:150] Setting up conv7_2_mbox_conf_flat
I0403 23:53:10.609128 25856 net.cpp:157] Top shape: 2 768 (1536)
I0403 23:53:10.609133 25856 net.cpp:165] Memory required for data: 1461602496
I0403 23:53:10.609138 25856 layer_factory.hpp:77] Creating layer conv7_2_mbox_clean
I0403 23:53:10.609149 25856 net.cpp:100] Creating Layer conv7_2_mbox_clean
I0403 23:53:10.609156 25856 net.cpp:434] conv7_2_mbox_clean <- conv7_2_conv7_2_relu_0_split_3
I0403 23:53:10.609164 25856 net.cpp:408] conv7_2_mbox_clean -> conv7_2_mbox_clean
I0403 23:53:10.610575 25856 net.cpp:150] Setting up conv7_2_mbox_clean
I0403 23:53:10.610610 25856 net.cpp:157] Top shape: 2 6 8 8 (768)
I0403 23:53:10.610615 25856 net.cpp:165] Memory required for data: 1461605568
I0403 23:53:10.610622 25856 layer_factory.hpp:77] Creating layer conv7_2_mbox_clean_perm
I0403 23:53:10.610632 25856 net.cpp:100] Creating Layer conv7_2_mbox_clean_perm
I0403 23:53:10.610638 25856 net.cpp:434] conv7_2_mbox_clean_perm <- conv7_2_mbox_clean
I0403 23:53:10.610644 25856 net.cpp:408] conv7_2_mbox_clean_perm -> conv7_2_mbox_clean_perm
I0403 23:53:10.610802 25856 net.cpp:150] Setting up conv7_2_mbox_clean_perm
I0403 23:53:10.610812 25856 net.cpp:157] Top shape: 2 8 8 6 (768)
I0403 23:53:10.610816 25856 net.cpp:165] Memory required for data: 1461608640
I0403 23:53:10.610821 25856 layer_factory.hpp:77] Creating layer conv7_2_mbox_clean_flat
I0403 23:53:10.610828 25856 net.cpp:100] Creating Layer conv7_2_mbox_clean_flat
I0403 23:53:10.610833 25856 net.cpp:434] conv7_2_mbox_clean_flat <- conv7_2_mbox_clean_perm
I0403 23:53:10.610841 25856 net.cpp:408] conv7_2_mbox_clean_flat -> conv7_2_mbox_clean_flat
I0403 23:53:10.610877 25856 net.cpp:150] Setting up conv7_2_mbox_clean_flat
I0403 23:53:10.610885 25856 net.cpp:157] Top shape: 2 384 (768)
I0403 23:53:10.610890 25856 net.cpp:165] Memory required for data: 1461611712
I0403 23:53:10.610894 25856 layer_factory.hpp:77] Creating layer conv7_2_mbox_priorbox
I0403 23:53:10.610904 25856 net.cpp:100] Creating Layer conv7_2_mbox_priorbox
I0403 23:53:10.610910 25856 net.cpp:434] conv7_2_mbox_priorbox <- conv7_2_conv7_2_relu_0_split_4
I0403 23:53:10.610916 25856 net.cpp:434] conv7_2_mbox_priorbox <- data_data_0_split_4
I0403 23:53:10.610924 25856 net.cpp:408] conv7_2_mbox_priorbox -> conv7_2_mbox_priorbox
I0403 23:53:10.610962 25856 net.cpp:150] Setting up conv7_2_mbox_priorbox
I0403 23:53:10.610970 25856 net.cpp:157] Top shape: 1 2 1536 (3072)
I0403 23:53:10.610975 25856 net.cpp:165] Memory required for data: 1461624000
I0403 23:53:10.610980 25856 layer_factory.hpp:77] Creating layer conv8_2_mbox_loc
I0403 23:53:10.610993 25856 net.cpp:100] Creating Layer conv8_2_mbox_loc
I0403 23:53:10.611001 25856 net.cpp:434] conv8_2_mbox_loc <- conv8_2_conv8_2_relu_0_split_1
I0403 23:53:10.611008 25856 net.cpp:408] conv8_2_mbox_loc -> conv8_2_mbox_loc
I0403 23:53:10.613183 25856 net.cpp:150] Setting up conv8_2_mbox_loc
I0403 23:53:10.613198 25856 net.cpp:157] Top shape: 2 16 6 6 (1152)
I0403 23:53:10.613204 25856 net.cpp:165] Memory required for data: 1461628608
I0403 23:53:10.613211 25856 layer_factory.hpp:77] Creating layer conv8_2_mbox_loc_perm
I0403 23:53:10.613224 25856 net.cpp:100] Creating Layer conv8_2_mbox_loc_perm
I0403 23:53:10.613229 25856 net.cpp:434] conv8_2_mbox_loc_perm <- conv8_2_mbox_loc
I0403 23:53:10.613245 25856 net.cpp:408] conv8_2_mbox_loc_perm -> conv8_2_mbox_loc_perm
I0403 23:53:10.613409 25856 net.cpp:150] Setting up conv8_2_mbox_loc_perm
I0403 23:53:10.613420 25856 net.cpp:157] Top shape: 2 6 6 16 (1152)
I0403 23:53:10.613423 25856 net.cpp:165] Memory required for data: 1461633216
I0403 23:53:10.613428 25856 layer_factory.hpp:77] Creating layer conv8_2_mbox_loc_flat
I0403 23:53:10.613436 25856 net.cpp:100] Creating Layer conv8_2_mbox_loc_flat
I0403 23:53:10.613443 25856 net.cpp:434] conv8_2_mbox_loc_flat <- conv8_2_mbox_loc_perm
I0403 23:53:10.613451 25856 net.cpp:408] conv8_2_mbox_loc_flat -> conv8_2_mbox_loc_flat
I0403 23:53:10.613488 25856 net.cpp:150] Setting up conv8_2_mbox_loc_flat
I0403 23:53:10.613497 25856 net.cpp:157] Top shape: 2 576 (1152)
I0403 23:53:10.613502 25856 net.cpp:165] Memory required for data: 1461637824
I0403 23:53:10.613507 25856 layer_factory.hpp:77] Creating layer conv8_2_mbox_conf
I0403 23:53:10.613517 25856 net.cpp:100] Creating Layer conv8_2_mbox_conf
I0403 23:53:10.613525 25856 net.cpp:434] conv8_2_mbox_conf <- conv8_2_conv8_2_relu_0_split_2
I0403 23:53:10.613533 25856 net.cpp:408] conv8_2_mbox_conf -> conv8_2_mbox_conf
I0403 23:53:10.614975 25856 net.cpp:150] Setting up conv8_2_mbox_conf
I0403 23:53:10.614990 25856 net.cpp:157] Top shape: 2 8 6 6 (576)
I0403 23:53:10.615006 25856 net.cpp:165] Memory required for data: 1461640128
I0403 23:53:10.615015 25856 layer_factory.hpp:77] Creating layer conv8_2_mbox_conf_perm
I0403 23:53:10.615023 25856 net.cpp:100] Creating Layer conv8_2_mbox_conf_perm
I0403 23:53:10.615030 25856 net.cpp:434] conv8_2_mbox_conf_perm <- conv8_2_mbox_conf
I0403 23:53:10.615036 25856 net.cpp:408] conv8_2_mbox_conf_perm -> conv8_2_mbox_conf_perm
I0403 23:53:10.615200 25856 net.cpp:150] Setting up conv8_2_mbox_conf_perm
I0403 23:53:10.615211 25856 net.cpp:157] Top shape: 2 6 6 8 (576)
I0403 23:53:10.615216 25856 net.cpp:165] Memory required for data: 1461642432
I0403 23:53:10.615219 25856 layer_factory.hpp:77] Creating layer conv8_2_mbox_conf_flat
I0403 23:53:10.615226 25856 net.cpp:100] Creating Layer conv8_2_mbox_conf_flat
I0403 23:53:10.615231 25856 net.cpp:434] conv8_2_mbox_conf_flat <- conv8_2_mbox_conf_perm
I0403 23:53:10.615239 25856 net.cpp:408] conv8_2_mbox_conf_flat -> conv8_2_mbox_conf_flat
I0403 23:53:10.615278 25856 net.cpp:150] Setting up conv8_2_mbox_conf_flat
I0403 23:53:10.615286 25856 net.cpp:157] Top shape: 2 288 (576)
I0403 23:53:10.615290 25856 net.cpp:165] Memory required for data: 1461644736
I0403 23:53:10.615295 25856 layer_factory.hpp:77] Creating layer conv8_2_mbox_clean
I0403 23:53:10.615309 25856 net.cpp:100] Creating Layer conv8_2_mbox_clean
I0403 23:53:10.615316 25856 net.cpp:434] conv8_2_mbox_clean <- conv8_2_conv8_2_relu_0_split_3
I0403 23:53:10.615324 25856 net.cpp:408] conv8_2_mbox_clean -> conv8_2_mbox_clean
I0403 23:53:10.616715 25856 net.cpp:150] Setting up conv8_2_mbox_clean
I0403 23:53:10.616730 25856 net.cpp:157] Top shape: 2 4 6 6 (288)
I0403 23:53:10.616746 25856 net.cpp:165] Memory required for data: 1461645888
I0403 23:53:10.616755 25856 layer_factory.hpp:77] Creating layer conv8_2_mbox_clean_perm
I0403 23:53:10.616761 25856 net.cpp:100] Creating Layer conv8_2_mbox_clean_perm
I0403 23:53:10.616767 25856 net.cpp:434] conv8_2_mbox_clean_perm <- conv8_2_mbox_clean
I0403 23:53:10.616776 25856 net.cpp:408] conv8_2_mbox_clean_perm -> conv8_2_mbox_clean_perm
I0403 23:53:10.616940 25856 net.cpp:150] Setting up conv8_2_mbox_clean_perm
I0403 23:53:10.616950 25856 net.cpp:157] Top shape: 2 6 6 4 (288)
I0403 23:53:10.616955 25856 net.cpp:165] Memory required for data: 1461647040
I0403 23:53:10.616958 25856 layer_factory.hpp:77] Creating layer conv8_2_mbox_clean_flat
I0403 23:53:10.616966 25856 net.cpp:100] Creating Layer conv8_2_mbox_clean_flat
I0403 23:53:10.616971 25856 net.cpp:434] conv8_2_mbox_clean_flat <- conv8_2_mbox_clean_perm
I0403 23:53:10.616978 25856 net.cpp:408] conv8_2_mbox_clean_flat -> conv8_2_mbox_clean_flat
I0403 23:53:10.617015 25856 net.cpp:150] Setting up conv8_2_mbox_clean_flat
I0403 23:53:10.617024 25856 net.cpp:157] Top shape: 2 144 (288)
I0403 23:53:10.617039 25856 net.cpp:165] Memory required for data: 1461648192
I0403 23:53:10.617044 25856 layer_factory.hpp:77] Creating layer conv8_2_mbox_priorbox
I0403 23:53:10.617058 25856 net.cpp:100] Creating Layer conv8_2_mbox_priorbox
I0403 23:53:10.617064 25856 net.cpp:434] conv8_2_mbox_priorbox <- conv8_2_conv8_2_relu_0_split_4
I0403 23:53:10.617070 25856 net.cpp:434] conv8_2_mbox_priorbox <- data_data_0_split_5
I0403 23:53:10.617079 25856 net.cpp:408] conv8_2_mbox_priorbox -> conv8_2_mbox_priorbox
I0403 23:53:10.617118 25856 net.cpp:150] Setting up conv8_2_mbox_priorbox
I0403 23:53:10.617128 25856 net.cpp:157] Top shape: 1 2 576 (1152)
I0403 23:53:10.617132 25856 net.cpp:165] Memory required for data: 1461652800
I0403 23:53:10.617137 25856 layer_factory.hpp:77] Creating layer conv9_2_mbox_loc
I0403 23:53:10.617151 25856 net.cpp:100] Creating Layer conv9_2_mbox_loc
I0403 23:53:10.617158 25856 net.cpp:434] conv9_2_mbox_loc <- conv9_2_conv9_2_relu_0_split_0
I0403 23:53:10.617166 25856 net.cpp:408] conv9_2_mbox_loc -> conv9_2_mbox_loc
I0403 23:53:10.618755 25856 net.cpp:150] Setting up conv9_2_mbox_loc
I0403 23:53:10.618770 25856 net.cpp:157] Top shape: 2 16 4 4 (512)
I0403 23:53:10.618775 25856 net.cpp:165] Memory required for data: 1461654848
I0403 23:53:10.618783 25856 layer_factory.hpp:77] Creating layer conv9_2_mbox_loc_perm
I0403 23:53:10.618793 25856 net.cpp:100] Creating Layer conv9_2_mbox_loc_perm
I0403 23:53:10.618800 25856 net.cpp:434] conv9_2_mbox_loc_perm <- conv9_2_mbox_loc
I0403 23:53:10.618806 25856 net.cpp:408] conv9_2_mbox_loc_perm -> conv9_2_mbox_loc_perm
I0403 23:53:10.618968 25856 net.cpp:150] Setting up conv9_2_mbox_loc_perm
I0403 23:53:10.618978 25856 net.cpp:157] Top shape: 2 4 4 16 (512)
I0403 23:53:10.618983 25856 net.cpp:165] Memory required for data: 1461656896
I0403 23:53:10.618988 25856 layer_factory.hpp:77] Creating layer conv9_2_mbox_loc_flat
I0403 23:53:10.618994 25856 net.cpp:100] Creating Layer conv9_2_mbox_loc_flat
I0403 23:53:10.619001 25856 net.cpp:434] conv9_2_mbox_loc_flat <- conv9_2_mbox_loc_perm
I0403 23:53:10.619010 25856 net.cpp:408] conv9_2_mbox_loc_flat -> conv9_2_mbox_loc_flat
I0403 23:53:10.619048 25856 net.cpp:150] Setting up conv9_2_mbox_loc_flat
I0403 23:53:10.619056 25856 net.cpp:157] Top shape: 2 256 (512)
I0403 23:53:10.619061 25856 net.cpp:165] Memory required for data: 1461658944
I0403 23:53:10.619065 25856 layer_factory.hpp:77] Creating layer conv9_2_mbox_conf
I0403 23:53:10.619077 25856 net.cpp:100] Creating Layer conv9_2_mbox_conf
I0403 23:53:10.619084 25856 net.cpp:434] conv9_2_mbox_conf <- conv9_2_conv9_2_relu_0_split_1
I0403 23:53:10.619093 25856 net.cpp:408] conv9_2_mbox_conf -> conv9_2_mbox_conf
I0403 23:53:10.620584 25856 net.cpp:150] Setting up conv9_2_mbox_conf
I0403 23:53:10.620599 25856 net.cpp:157] Top shape: 2 8 4 4 (256)
I0403 23:53:10.620604 25856 net.cpp:165] Memory required for data: 1461659968
I0403 23:53:10.620611 25856 layer_factory.hpp:77] Creating layer conv9_2_mbox_conf_perm
I0403 23:53:10.620623 25856 net.cpp:100] Creating Layer conv9_2_mbox_conf_perm
I0403 23:53:10.620630 25856 net.cpp:434] conv9_2_mbox_conf_perm <- conv9_2_mbox_conf
I0403 23:53:10.620637 25856 net.cpp:408] conv9_2_mbox_conf_perm -> conv9_2_mbox_conf_perm
I0403 23:53:10.620800 25856 net.cpp:150] Setting up conv9_2_mbox_conf_perm
I0403 23:53:10.620810 25856 net.cpp:157] Top shape: 2 4 4 8 (256)
I0403 23:53:10.620815 25856 net.cpp:165] Memory required for data: 1461660992
I0403 23:53:10.620820 25856 layer_factory.hpp:77] Creating layer conv9_2_mbox_conf_flat
I0403 23:53:10.620826 25856 net.cpp:100] Creating Layer conv9_2_mbox_conf_flat
I0403 23:53:10.620831 25856 net.cpp:434] conv9_2_mbox_conf_flat <- conv9_2_mbox_conf_perm
I0403 23:53:10.620839 25856 net.cpp:408] conv9_2_mbox_conf_flat -> conv9_2_mbox_conf_flat
I0403 23:53:10.620878 25856 net.cpp:150] Setting up conv9_2_mbox_conf_flat
I0403 23:53:10.620889 25856 net.cpp:157] Top shape: 2 128 (256)
I0403 23:53:10.620893 25856 net.cpp:165] Memory required for data: 1461662016
I0403 23:53:10.620908 25856 layer_factory.hpp:77] Creating layer conv9_2_mbox_clean
I0403 23:53:10.620921 25856 net.cpp:100] Creating Layer conv9_2_mbox_clean
I0403 23:53:10.620929 25856 net.cpp:434] conv9_2_mbox_clean <- conv9_2_conv9_2_relu_0_split_2
I0403 23:53:10.620936 25856 net.cpp:408] conv9_2_mbox_clean -> conv9_2_mbox_clean
I0403 23:53:10.622344 25856 net.cpp:150] Setting up conv9_2_mbox_clean
I0403 23:53:10.622359 25856 net.cpp:157] Top shape: 2 4 4 4 (128)
I0403 23:53:10.622375 25856 net.cpp:165] Memory required for data: 1461662528
I0403 23:53:10.622382 25856 layer_factory.hpp:77] Creating layer conv9_2_mbox_clean_perm
I0403 23:53:10.622390 25856 net.cpp:100] Creating Layer conv9_2_mbox_clean_perm
I0403 23:53:10.622397 25856 net.cpp:434] conv9_2_mbox_clean_perm <- conv9_2_mbox_clean
I0403 23:53:10.622403 25856 net.cpp:408] conv9_2_mbox_clean_perm -> conv9_2_mbox_clean_perm
I0403 23:53:10.622570 25856 net.cpp:150] Setting up conv9_2_mbox_clean_perm
I0403 23:53:10.622581 25856 net.cpp:157] Top shape: 2 4 4 4 (128)
I0403 23:53:10.622584 25856 net.cpp:165] Memory required for data: 1461663040
I0403 23:53:10.622589 25856 layer_factory.hpp:77] Creating layer conv9_2_mbox_clean_flat
I0403 23:53:10.622596 25856 net.cpp:100] Creating Layer conv9_2_mbox_clean_flat
I0403 23:53:10.622601 25856 net.cpp:434] conv9_2_mbox_clean_flat <- conv9_2_mbox_clean_perm
I0403 23:53:10.622607 25856 net.cpp:408] conv9_2_mbox_clean_flat -> conv9_2_mbox_clean_flat
I0403 23:53:10.622648 25856 net.cpp:150] Setting up conv9_2_mbox_clean_flat
I0403 23:53:10.622658 25856 net.cpp:157] Top shape: 2 64 (128)
I0403 23:53:10.622663 25856 net.cpp:165] Memory required for data: 1461663552
I0403 23:53:10.622668 25856 layer_factory.hpp:77] Creating layer conv9_2_mbox_priorbox
I0403 23:53:10.622676 25856 net.cpp:100] Creating Layer conv9_2_mbox_priorbox
I0403 23:53:10.622684 25856 net.cpp:434] conv9_2_mbox_priorbox <- conv9_2_conv9_2_relu_0_split_3
I0403 23:53:10.622689 25856 net.cpp:434] conv9_2_mbox_priorbox <- data_data_0_split_6
I0403 23:53:10.622695 25856 net.cpp:408] conv9_2_mbox_priorbox -> conv9_2_mbox_priorbox
I0403 23:53:10.622737 25856 net.cpp:150] Setting up conv9_2_mbox_priorbox
I0403 23:53:10.622746 25856 net.cpp:157] Top shape: 1 2 256 (512)
I0403 23:53:10.622750 25856 net.cpp:165] Memory required for data: 1461665600
I0403 23:53:10.622756 25856 layer_factory.hpp:77] Creating layer mbox_loc
I0403 23:53:10.622764 25856 net.cpp:100] Creating Layer mbox_loc
I0403 23:53:10.622771 25856 net.cpp:434] mbox_loc <- conv4_3_norm_mbox_loc_flat
I0403 23:53:10.622777 25856 net.cpp:434] mbox_loc <- fc7_mbox_loc_flat
I0403 23:53:10.622783 25856 net.cpp:434] mbox_loc <- conv6_2_mbox_loc_flat
I0403 23:53:10.622788 25856 net.cpp:434] mbox_loc <- conv7_2_mbox_loc_flat
I0403 23:53:10.622793 25856 net.cpp:434] mbox_loc <- conv8_2_mbox_loc_flat
I0403 23:53:10.622798 25856 net.cpp:434] mbox_loc <- conv9_2_mbox_loc_flat
I0403 23:53:10.622804 25856 net.cpp:408] mbox_loc -> mbox_loc
I0403 23:53:10.622856 25856 net.cpp:150] Setting up mbox_loc
I0403 23:53:10.622869 25856 net.cpp:157] Top shape: 2 98624 (197248)
I0403 23:53:10.622874 25856 net.cpp:165] Memory required for data: 1462454592
I0403 23:53:10.622879 25856 layer_factory.hpp:77] Creating layer mbox_conf
I0403 23:53:10.622885 25856 net.cpp:100] Creating Layer mbox_conf
I0403 23:53:10.622890 25856 net.cpp:434] mbox_conf <- conv4_3_norm_mbox_conf_flat
I0403 23:53:10.622896 25856 net.cpp:434] mbox_conf <- fc7_mbox_conf_flat
I0403 23:53:10.622902 25856 net.cpp:434] mbox_conf <- conv6_2_mbox_conf_flat
I0403 23:53:10.622907 25856 net.cpp:434] mbox_conf <- conv7_2_mbox_conf_flat
I0403 23:53:10.622913 25856 net.cpp:434] mbox_conf <- conv8_2_mbox_conf_flat
I0403 23:53:10.622918 25856 net.cpp:434] mbox_conf <- conv9_2_mbox_conf_flat
I0403 23:53:10.622923 25856 net.cpp:408] mbox_conf -> mbox_conf
I0403 23:53:10.622961 25856 net.cpp:150] Setting up mbox_conf
I0403 23:53:10.622970 25856 net.cpp:157] Top shape: 2 49312 (98624)
I0403 23:53:10.622974 25856 net.cpp:165] Memory required for data: 1462849088
I0403 23:53:10.622978 25856 layer_factory.hpp:77] Creating layer mbox_priorbox
I0403 23:53:10.622997 25856 net.cpp:100] Creating Layer mbox_priorbox
I0403 23:53:10.623004 25856 net.cpp:434] mbox_priorbox <- conv4_3_norm_mbox_priorbox
I0403 23:53:10.623010 25856 net.cpp:434] mbox_priorbox <- fc7_mbox_priorbox
I0403 23:53:10.623016 25856 net.cpp:434] mbox_priorbox <- conv6_2_mbox_priorbox
I0403 23:53:10.623021 25856 net.cpp:434] mbox_priorbox <- conv7_2_mbox_priorbox
I0403 23:53:10.623026 25856 net.cpp:434] mbox_priorbox <- conv8_2_mbox_priorbox
I0403 23:53:10.623031 25856 net.cpp:434] mbox_priorbox <- conv9_2_mbox_priorbox
I0403 23:53:10.623036 25856 net.cpp:408] mbox_priorbox -> mbox_priorbox
I0403 23:53:10.623077 25856 net.cpp:150] Setting up mbox_priorbox
I0403 23:53:10.623086 25856 net.cpp:157] Top shape: 1 2 98624 (197248)
I0403 23:53:10.623090 25856 net.cpp:165] Memory required for data: 1463638080
I0403 23:53:10.623095 25856 layer_factory.hpp:77] Creating layer mbox_clean
I0403 23:53:10.623101 25856 net.cpp:100] Creating Layer mbox_clean
I0403 23:53:10.623106 25856 net.cpp:434] mbox_clean <- conv4_3_norm_mbox_clean_flat
I0403 23:53:10.623112 25856 net.cpp:434] mbox_clean <- fc7_mbox_clean_flat
I0403 23:53:10.623117 25856 net.cpp:434] mbox_clean <- conv6_2_mbox_clean_flat
I0403 23:53:10.623122 25856 net.cpp:434] mbox_clean <- conv7_2_mbox_clean_flat
I0403 23:53:10.623127 25856 net.cpp:434] mbox_clean <- conv8_2_mbox_clean_flat
I0403 23:53:10.623132 25856 net.cpp:434] mbox_clean <- conv9_2_mbox_clean_flat
I0403 23:53:10.623139 25856 net.cpp:408] mbox_clean -> mbox_clean
I0403 23:53:10.623178 25856 net.cpp:150] Setting up mbox_clean
I0403 23:53:10.623186 25856 net.cpp:157] Top shape: 2 24656 (49312)
I0403 23:53:10.623190 25856 net.cpp:165] Memory required for data: 1463835328
I0403 23:53:10.623195 25856 layer_factory.hpp:77] Creating layer mbox_conf_reshape
I0403 23:53:10.623203 25856 net.cpp:100] Creating Layer mbox_conf_reshape
I0403 23:53:10.623210 25856 net.cpp:434] mbox_conf_reshape <- mbox_conf
I0403 23:53:10.623219 25856 net.cpp:408] mbox_conf_reshape -> mbox_conf_reshape
I0403 23:53:10.623265 25856 net.cpp:150] Setting up mbox_conf_reshape
I0403 23:53:10.623273 25856 net.cpp:157] Top shape: 2 24656 2 (98624)
I0403 23:53:10.623278 25856 net.cpp:165] Memory required for data: 1464229824
I0403 23:53:10.623282 25856 layer_factory.hpp:77] Creating layer mbox_conf_softmax
I0403 23:53:10.623291 25856 net.cpp:100] Creating Layer mbox_conf_softmax
I0403 23:53:10.623297 25856 net.cpp:434] mbox_conf_softmax <- mbox_conf_reshape
I0403 23:53:10.623303 25856 net.cpp:408] mbox_conf_softmax -> mbox_conf_softmax
I0403 23:53:10.623602 25856 net.cpp:150] Setting up mbox_conf_softmax
I0403 23:53:10.623615 25856 net.cpp:157] Top shape: 2 24656 2 (98624)
I0403 23:53:10.623620 25856 net.cpp:165] Memory required for data: 1464624320
I0403 23:53:10.623625 25856 layer_factory.hpp:77] Creating layer mbox_conf_flatten
I0403 23:53:10.623634 25856 net.cpp:100] Creating Layer mbox_conf_flatten
I0403 23:53:10.623639 25856 net.cpp:434] mbox_conf_flatten <- mbox_conf_softmax
I0403 23:53:10.623646 25856 net.cpp:408] mbox_conf_flatten -> mbox_conf_flatten
I0403 23:53:10.623689 25856 net.cpp:150] Setting up mbox_conf_flatten
I0403 23:53:10.623698 25856 net.cpp:157] Top shape: 2 49312 (98624)
I0403 23:53:10.623703 25856 net.cpp:165] Memory required for data: 1465018816
I0403 23:53:10.623708 25856 layer_factory.hpp:77] Creating layer mbox_clean_sigmoid
I0403 23:53:10.623728 25856 net.cpp:100] Creating Layer mbox_clean_sigmoid
I0403 23:53:10.623734 25856 net.cpp:434] mbox_clean_sigmoid <- mbox_clean
I0403 23:53:10.623740 25856 net.cpp:408] mbox_clean_sigmoid -> mbox_clean_sigmoid
I0403 23:53:10.624115 25856 net.cpp:150] Setting up mbox_clean_sigmoid
I0403 23:53:10.624130 25856 net.cpp:157] Top shape: 2 24656 (49312)
I0403 23:53:10.624135 25856 net.cpp:165] Memory required for data: 1465216064
I0403 23:53:10.624140 25856 layer_factory.hpp:77] Creating layer detection_out
I0403 23:53:10.624158 25856 net.cpp:100] Creating Layer detection_out
I0403 23:53:10.624163 25856 net.cpp:434] detection_out <- mbox_loc
I0403 23:53:10.624181 25856 net.cpp:434] detection_out <- mbox_conf_flatten
I0403 23:53:10.624186 25856 net.cpp:434] detection_out <- mbox_priorbox
I0403 23:53:10.624191 25856 net.cpp:434] detection_out <- mbox_clean_sigmoid
I0403 23:53:10.624198 25856 net.cpp:408] detection_out -> detection_out
I0403 23:53:10.632717 25856 net.cpp:150] Setting up detection_out
I0403 23:53:10.632735 25856 net.cpp:157] Top shape: 1 1 1 8 (8)
I0403 23:53:10.632740 25856 net.cpp:165] Memory required for data: 1465216096
I0403 23:53:10.632745 25856 layer_factory.hpp:77] Creating layer detection_eval
I0403 23:53:10.632755 25856 net.cpp:100] Creating Layer detection_eval
I0403 23:53:10.632762 25856 net.cpp:434] detection_eval <- detection_out
I0403 23:53:10.632768 25856 net.cpp:434] detection_eval <- label
I0403 23:53:10.632776 25856 net.cpp:408] detection_eval -> detection_eval
I0403 23:53:10.637094 25856 net.cpp:150] Setting up detection_eval
I0403 23:53:10.637107 25856 net.cpp:157] Top shape: 1 1 2 5 (10)
I0403 23:53:10.637123 25856 net.cpp:165] Memory required for data: 1465216136
I0403 23:53:10.637128 25856 net.cpp:228] detection_eval does not need backward computation.
I0403 23:53:10.637133 25856 net.cpp:228] detection_out does not need backward computation.
I0403 23:53:10.637140 25856 net.cpp:228] mbox_clean_sigmoid does not need backward computation.
I0403 23:53:10.637145 25856 net.cpp:228] mbox_conf_flatten does not need backward computation.
…
