…
        max_scale: 1
        min_aspect_ratio: 0.5
        max_aspect_ratio: 2
      }
      sample_constraint {
        min_jaccard_overlap: 0.9
      }
      max_sample: 1
      max_trials: 50
    }
    batch_sampler {
      sampler {
        min_scale: 0.3
        max_scale: 1
        min_aspect_ratio: 0.5
        max_aspect_ratio: 2
      }
      sample_constraint {
        max_jaccard_overlap: 1
      }
      max_sample: 1
      max_trials: 50
    }
    label_map_file: "/data/siyu/dataset/coco/labelmap_coco-person.prototxt"
    part_sampler_prob: 0.8
  }
}
layer {
  name: "conv1_1"
  type: "Convolution"
  bottom: "data"
  top: "conv1_1"
  param {
    lr_mult: 1
    decay_mult: 1
  }
  param {
    lr_mult: 2
    decay_mult: 0
  }
  convolution_param {
    num_output: 64
    pad: 1
    kernel_size: 3
    weight_filler {
      type: "xavier"
    }
    bias_filler {
      type: "constant"
      value: 0
    }
  }
}
layer {
  name: "relu1_1"
  type: "ReLU"
  bottom: "conv1_1"
  top: "conv1_1"
}
layer {
  name: "conv1_2"
  type: "Convolution"
  bottom: "conv1_1"
  top: "conv1_2"
  param {
    lr_mult: 1
    decay_mult: 1
  }
  param {
    lr_mult: 2
    decay_mult: 0
  }
  convolution_param {
    num_output: 64
    pad: 1
    kernel_size: 3
    weight_filler {
      type: "xavier"
    }
    bias_filler {
      type: "constant"
      value: 0
    }
  }
}
layer {
  name: "relu1_2"
  type: "ReLU"
  bottom: "conv1_2"
  top: "conv1_2"
}
layer {
  name: "pool1"
  type: "Pooling"
  bottom: "conv1_2"
  top: "pool1"
  pooling_param {
    pool: MAX
    kernel_size: 2
    stride: 2
  }
}
layer {
  name: "conv2_1"
  type: "Convolution"
  bottom: "pool1"
  top: "conv2_1"
  param {
    lr_mult: 1
    decay_mult: 1
  }
  param {
    lr_mult: 2
    decay_mult: 0
  }
  convolution_param {
    num_output: 128
    pad: 1
    kernel_size: 3
    weight_filler {
      type: "xavier"
    }
    bias_filler {
      type: "constant"
      value: 0
    }
  }
}
layer {
  name: "relu2_1"
  type: "ReLU"
  bottom: "conv2_1"
  top: "conv2_1"
}
layer {
  name: "conv2_2"
  type: "Convolution"
  bottom: "conv2_1"
  top: "conv2_2"
  param {
    lr_mult: 1
    decay_mult: 1
  }
  param {
    lr_mult: 2
    decay_mult: 0
  }
  convolution_param {
    num_output: 128
    pad: 1
    kernel_size: 3
    weight_filler {
      type: "xavier"
    }
    bias_filler {
      type: "constant"
      value: 0
    }
  }
}
layer {
  name: "relu2_2"
  type: "ReLU"
  bottom: "conv2_2"
  top: "conv2_2"
}
layer {
  name: "pool2"
  type: "Pooling"
  bottom: "conv2_2"
  top: "pool2"
  pooling_param {
    pool: MAX
    kernel_size: 2
    stride: 2
  }
}
layer {
  name: "conv3_1"
  type: "Convolution"
  bottom: "pool2"
  top: "conv3_1"
  param {
    lr_mult: 1
    decay_mult: 1
  }
  param {
    lr_mult: 2
    decay_mult: 0
  }
  convolution_param {
    num_output: 256
    pad: 1
    kernel_size: 3
    weight_filler {
      type: "xavier"
    }
    bias_filler {
      type: "constant"
      value: 0
    }
  }
}
layer {
  name: "relu3_1"
  type: "ReLU"
  bottom: "conv3_1"
  top: "conv3_1"
}
layer {
  name: "conv3_2"
  type: "Convolution"
  bottom: "conv3_1"
  top: "conv3_2"
  param {
    lr_mult: 1
    decay_mult: 1
  }
  param {
    lr_mult: 2
    decay_mult: 0
  }
  convolution_param {
    num_output: 256
    pad: 1
    kernel_size: 3
    weight_filler {
      type: "xavier"
    }
    bias_filler {
      type: "constant"
      value: 0
    }
  }
}
layer {
  name: "relu3_2"
  type: "ReLU"
  bottom: "conv3_2"
  top: "conv3_2"
}
layer {
  name: "conv3_3"
  type: "Convolution"
  bottom: "conv3_2"
  top: "conv3_3"
  param {
    lr_mult: 1
    decay_mult: 1
  }
  param {
    lr_mult: 2
    decay_mult: 0
  }
  convolution_param {
    num_output: 256
    pad: 1
    kernel_size: 3
    weight_filler {
      type: "xavier"
    }
    bias_filler {
      type: "constant"
      value: 0
    }
  }
}
layer {
  name: "relu3_3"
  type: "ReLU"
  bottom: "conv3_3"
  top: "conv3_3"
}
layer {
  name: "pool3"
  type: "Pooling"
  bottom: "conv3_3"
  top: "pool3"
  pooling_param {
    pool: MAX
    kernel_size: 2
    stride: 2
  }
}
layer {
  name: "conv4_1"
  type: "Convolution"
  bottom: "pool3"
  top: "conv4_1"
  param {
    lr_mult: 1
    decay_mult: 1
  }
  param {
    lr_mult: 2
    decay_mult: 0
  }
  convolution_param {
    num_output: 512
    pad: 1
    kernel_size: 3
    weight_filler {
      type: "xavier"
    }
    bias_filler {
      type: "constant"
      value: 0
    }
  }
}
layer {
  name: "relu4_1"
  type: "ReLU"
  bottom: "conv4_1"
  top: "conv4_1"
}
layer {
  name: "conv4_2"
  type: "Convolution"
  bottom: "conv4_1"
  top: "conv4_2"
  param {
    lr_mult: 1
    decay_mult: 1
  }
  param {
    lr_mult: 2
    decay_mult: 0
  }
  convolution_param {
    num_output: 512
    pad: 1
    kernel_size: 3
    weight_filler {
      type: "xavier"
    }
    bias_filler {
      type: "constant"
      value: 0
    }
  }
}
layer {
  name: "relu4_2"
  type: "ReLU"
  bottom: "conv4_2"
  top: "conv4_2"
}
layer {
  name: "conv4_3"
  type: "Convolution"
  bottom: "conv4_2"
  top: "conv4_3"
  param {
    lr_mult: 1
    decay_mult: 1
  }
  param {
    lr_mult: 2
    decay_mult: 0
  }
  convolution_param {
    num_output: 512
    pad: 1
    kernel_size: 3
    weight_filler {
      type: "xavier"
    }
    bias_filler {
      type: "constant"
      value: 0
    }
  }
}
layer {
  name: "relu4_3"
  type: "ReLU"
  bottom: "conv4_3"
  top: "conv4_3"
}
layer {
  name: "pool4"
  type: "Pooling"
  bottom: "conv4_3"
  top: "pool4"
  pooling_param {
    pool: MAX
    kernel_size: 2
    stride: 2
  }
}
layer {
  name: "conv5_1"
  type: "Convolution"
  bottom: "pool4"
  top: "conv5_1"
  param {
    lr_mult: 1
    decay_mult: 1
  }
  param {
    lr_mult: 2
    decay_mult: 0
  }
  convolution_param {
    num_output: 512
    pad: 1
    kernel_size: 3
    weight_filler {
      type: "xavier"
    }
    bias_filler {
      type: "constant"
      value: 0
    }
    dilation: 1
  }
}
layer {
  name: "relu5_1"
  type: "ReLU"
  bottom: "conv5_1"
  top: "conv5_1"
}
layer {
  name: "conv5_2"
  type: "Convolution"
  bottom: "conv5_1"
  top: "conv5_2"
  param {
    lr_mult: 1
    decay_mult: 1
  }
  param {
    lr_mult: 2
    decay_mult: 0
  }
  convolution_param {
    num_output: 512
    pad: 1
    kernel_size: 3
    weight_filler {
      type: "xavier"
    }
    bias_filler {
      type: "constant"
      value: 0
    }
    dilation: 1
  }
}
layer {
  name: "relu5_2"
  type: "ReLU"
  bottom: "conv5_2"
  top: "conv5_2"
}
layer {
  name: "conv5_3"
  type: "Convolution"
  bottom: "conv5_2"
  top: "conv5_3"
  param {
    lr_mult: 1
    decay_mult: 1
  }
  param {
    lr_mult: 2
    decay_mult: 0
  }
  convolution_param {
    num_output: 512
    pad: 1
    kernel_size: 3
    weight_filler {
      type: "xavier"
    }
    bias_filler {
      type: "constant"
      value: 0
    }
    dilation: 1
  }
}
layer {
  name: "relu5_3"
  type: "ReLU"
  bottom: "conv5_3"
  top: "conv5_3"
}
layer {
  name: "pool5"
  type: "Pooling"
  bottom: "conv5_3"
  top: "pool5"
  pooling_param {
    pool: MAX
    kernel_size: 3
    stride: 1
    pad: 1
  }
}
layer {
  name: "fc6"
  type: "Convolution"
  bottom: "pool5"
  top: "fc6"
  param {
    lr_mult: 1
    decay_mult: 1
  }
  param {
    lr_mult: 2
    decay_mult: 0
  }
  convolution_param {
    num_output: 1024
    pad: 6
    kernel_size: 3
    weight_filler {
      type: "xavier"
    }
    bias_filler {
      type: "constant"
      value: 0
    }
    dilation: 6
  }
}
layer {
  name: "relu6"
  type: "ReLU"
  bottom: "fc6"
  top: "fc6"
}
layer {
  name: "fc7"
  type: "Convolution"
  bottom: "fc6"
  top: "fc7"
  param {
    lr_mult: 1
    decay_mult: 1
  }
  param {
    lr_mult: 2
    decay_mult: 0
  }
  convolution_param {
    num_output: 1024
    kernel_size: 1
    weight_filler {
      type: "xavier"
    }
    bias_filler {
      type: "constant"
      value: 0
    }
  }
}
layer {
  name: "relu7"
  type: "ReLU"
  bottom: "fc7"
  top: "fc7"
}
layer {
  name: "conv6_1"
  type: "Convolution"
  bottom: "fc7"
  top: "conv6_1"
  param {
    lr_mult: 1
    decay_mult: 1
  }
  param {
    lr_mult: 2
    decay_mult: 0
  }
  convolution_param {
    num_output: 256
    pad: 0
    kernel_size: 1
    stride: 1
    weight_filler {
      type: "xavier"
    }
    bias_filler {
      type: "constant"
      value: 0
    }
  }
}
layer {
  name: "conv6_1_relu"
  type: "ReLU"
  bottom: "conv6_1"
  top: "conv6_1"
}
layer {
  name: "conv6_2"
  type: "Convolution"
  bottom: "conv6_1"
  top: "conv6_2"
  param {
    lr_mult: 1
    decay_mult: 1
  }
  param {
    lr_mult: 2
    decay_mult: 0
  }
  convolution_param {
    num_output: 512
    pad: 1
    kernel_size: 3
    stride: 2
    weight_filler {
      type: "xavier"
    }
    bias_filler {
      type: "constant"
      value: 0
    }
  }
}
layer {
  name: "conv6_2_relu"
  type: "ReLU"
  bottom: "conv6_2"
  top: "conv6_2"
}
layer {
  name: "conv7_1"
  type: "Convolution"
  bottom: "conv6_2"
  top: "conv7_1"
  param {
    lr_mult: 1
    decay_mult: 1
  }
  param {
    lr_mult: 2
    decay_mult: 0
  }
  convolution_param {
    num_output: 128
    pad: 0
    kernel_size: 1
    stride: 1
    weight_filler {
      type: "xavier"
    }
    bias_filler {
      type: "constant"
      value: 0
    }
  }
}
layer {
  name: "conv7_1_relu"
  type: "ReLU"
  bottom: "conv7_1"
  top: "conv7_1"
}
layer {
  name: "conv7_2"
  type: "Convolution"
  bottom: "conv7_1"
  top: "conv7_2"
  param {
    lr_mult: 1
    decay_mult: 1
  }
  param {
    lr_mult: 2
    decay_mult: 0
  }
  convolution_param {
    num_output: 256
    pad: 1
    kernel_size: 3
    stride: 2
    weight_filler {
      type: "xavier"
    }
    bias_filler {
      type: "constant"
      value: 0
    }
  }
}
layer {
  name: "conv7_2_relu"
  type: "ReLU"
  bottom: "conv7_2"
  top: "conv7_2"
}
layer {
  name: "conv8_1"
  type: "Convolution"
  bottom: "conv7_2"
  top: "conv8_1"
  param {
    lr_mult: 1
    decay_mult: 1
  }
  param {
    lr_mult: 2
    decay_mult: 0
  }
  convolution_param {
    num_output: 128
    pad: 0
    kernel_size: 1
    stride: 1
    weight_filler {
      type: "xavier"
    }
    bias_filler {
      type: "constant"
      value: 0
    }
  }
}
layer {
  name: "conv8_1_relu"
  type: "ReLU"
  bottom: "conv8_1"
  top: "conv8_1"
}
layer {
  name: "conv8_2"
  type: "Convolution"
  bottom: "conv8_1"
  top: "conv8_2"
  param {
    lr_mult: 1
    decay_mult: 1
  }
  param {
    lr_mult: 2
    decay_mult: 0
  }
  convolution_param {
    num_output: 256
    pad: 0
    kernel_size: 3
    stride: 1
    weight_filler {
      type: "xavier"
    }
    bias_filler {
      type: "constant"
      value: 0
    }
  }
}
layer {
  name: "conv8_2_relu"
  type: "ReLU"
  bottom: "conv8_2"
  top: "conv8_2"
}
layer {
  name: "conv9_1"
  type: "Convolution"
  bottom: "conv8_2"
  top: "conv9_1"
  param {
    lr_mult: 1
    decay_mult: 1
  }
  param {
    lr_mult: 2
    decay_mult: 0
  }
  convolution_param {
    num_output: 128
    pad: 0
    kernel_size: 1
    stride: 1
    weight_filler {
      type: "xavier"
    }
    bias_filler {
      type: "constant"
      value: 0
    }
  }
}
layer {
  name: "conv9_1_relu"
  type: "ReLU"
  bottom: "conv9_1"
  top: "conv9_1"
}
layer {
  name: "conv9_2"
  type: "Convolution"
  bottom: "conv9_1"
  top: "conv9_2"
  param {
    lr_mult: 1
    decay_mult: 1
  }
  param {
    lr_mult: 2
    decay_mult: 0
  }
  convolution_param {
    num_output: 256
    pad: 0
    kernel_size: 3
    stride: 1
    weight_filler {
      type: "xavier"
    }
    bias_filler {
      type: "constant"
      value: 0
    }
  }
}
layer {
  name: "conv9_2_relu"
  type: "ReLU"
  bottom: "conv9_2"
  top: "conv9_2"
}
layer {
  name: "conv4_3_norm"
  type: "Normalize"
  bottom: "conv4_3"
  top: "conv4_3_norm"
  norm_param {
    across_spatial: false
    scale_filler {
      type: "constant"
      value: 20
    }
    channel_shared: false
  }
}
layer {
  name: "conv4_3_norm_mbox_loc"
  type: "Convolution"
  bottom: "conv4_3_norm"
  top: "conv4_3_norm_mbox_loc"
  param {
    lr_mult: 1
    decay_mult: 1
  }
  param {
    lr_mult: 2
    decay_mult: 0
  }
  convolution_param {
    num_output: 16
    pad: 1
    kernel_size: 3
    stride: 1
    weight_filler {
      type: "xavier"
    }
    bias_filler {
      type: "constant"
      value: 0
    }
  }
}
layer {
  name: "conv4_3_norm_mbox_loc_perm"
  type: "Permute"
  bottom: "conv4_3_norm_mbox_loc"
  top: "conv4_3_norm_mbox_loc_perm"
  permute_param {
    order: 0
    order: 2
    order: 3
    order: 1
  }
}
layer {
  name: "conv4_3_norm_mbox_loc_flat"
  type: "Flatten"
  bottom: "conv4_3_norm_mbox_loc_perm"
  top: "conv4_3_norm_mbox_loc_flat"
  flatten_param {
    axis: 1
  }
}
layer {
  name: "conv4_3_norm_mbox_conf"
  type: "Convolution"
  bottom: "conv4_3_norm"
  top: "conv4_3_norm_mbox_conf"
  param {
    lr_mult: 1
    decay_mult: 1
  }
  param {
    lr_mult: 2
    decay_mult: 0
  }
  convolution_param {
    num_output: 8
    pad: 1
    kernel_size: 3
    stride: 1
    weight_filler {
      type: "xavier"
    }
    bias_filler {
      type: "constant"
      value: 0
    }
  }
}
layer {
  name: "conv4_3_norm_mbox_conf_perm"
  type: "Permute"
  bottom: "conv4_3_norm_mbox_conf"
  top: "conv4_3_norm_mbox_conf_perm"
  permute_param {
    order: 0
    order: 2
    order: 3
    order: 1
  }
}
layer {
  name: "conv4_3_norm_mbox_conf_flat"
  type: "Flatten"
  bottom: "conv4_3_norm_mbox_conf_perm"
  top: "conv4_3_norm_mbox_conf_flat"
  flatten_param {
    axis: 1
  }
}
layer {
  name: "conv4_3_norm_mbox_clean"
  type: "Convolution"
  bottom: "conv4_3_norm"
  top: "conv4_3_norm_mbox_clean"
  param {
    lr_mult: 1
    decay_mult: 1
  }
  param {
    lr_mult: 2
    decay_mult: 0
  }
  convolution_param {
    num_output: 4
    pad: 1
    kernel_size: 3
    stride: 1
    weight_filler {
      type: "xavier"
    }
    bias_filler {
      type: "constant"
      value: 0
    }
  }
}
layer {
  name: "conv4_3_norm_mbox_clean_perm"
  type: "Permute"
  bottom: "conv4_3_norm_mbox_clean"
  top: "conv4_3_norm_mbox_clean_perm"
  permute_param {
    order: 0
    order: 2
    order: 3
    order: 1
  }
}
layer {
  name: "conv4_3_norm_mbox_clean_flat"
  type: "Flatten"
  bottom: "conv4_3_norm_mbox_clean_perm"
  top: "conv4_3_norm_mbox_clean_flat"
  flatten_param {
    axis: 1
  }
}
layer {
  name: "conv4_3_norm_mbox_priorbox"
  type: "PriorBox"
  bottom: "conv4_3_norm"
  bottom: "data"
  top: "conv4_3_norm_mbox_priorbox"
  prior_box_param {
    min_size: 35.84
    max_size: 76.8
    aspect_ratio: 2
    flip: true
    clip: false
    variance: 0.1
    variance: 0.1
    variance: 0.2
    variance: 0.2
    step: 8
    offset: 0.5
  }
}
layer {
  name: "fc7_mbox_loc"
  type: "Convolution"
  bottom: "fc7"
  top: "fc7_mbox_loc"
  param {
    lr_mult: 1
    decay_mult: 1
  }
  param {
    lr_mult: 2
    decay_mult: 0
  }
  convolution_param {
    num_output: 24
    pad: 1
    kernel_size: 3
    stride: 1
    weight_filler {
      type: "xavier"
    }
    bias_filler {
      type: "constant"
      value: 0
    }
  }
}
layer {
  name: "fc7_mbox_loc_perm"
  type: "Permute"
  bottom: "fc7_mbox_loc"
  top: "fc7_mbox_loc_perm"
  permute_param {
    order: 0
    order: 2
    order: 3
    order: 1
  }
}
layer {
  name: "fc7_mbox_loc_flat"
  type: "Flatten"
  bottom: "fc7_mbox_loc_perm"
  top: "fc7_mbox_loc_flat"
  flatten_param {
    axis: 1
  }
}
layer {
  name: "fc7_mbox_conf"
  type: "Convolution"
  bottom: "fc7"
  top: "fc7_mbox_conf"
  param {
    lr_mult: 1
    decay_mult: 1
  }
  param {
    lr_mult: 2
    decay_mult: 0
  }
  convolution_param {
    num_output: 12
    pad: 1
    kernel_size: 3
    stride: 1
    weight_filler {
      type: "xavier"
    }
    bias_filler {
      type: "constant"
      value: 0
    }
  }
}
layer {
  name: "fc7_mbox_conf_perm"
  type: "Permute"
  bottom: "fc7_mbox_conf"
  top: "fc7_mbox_conf_perm"
  permute_param {
    order: 0
    order: 2
    order: 3
    order: 1
  }
}
layer {
  name: "fc7_mbox_conf_flat"
  type: "Flatten"
  bottom: "fc7_mbox_conf_perm"
  top: "fc7_mbox_conf_flat"
  flatten_param {
    axis: 1
  }
}
layer {
  name: "fc7_mbox_clean"
  type: "Convolution"
  bottom: "fc7"
  top: "fc7_mbox_clean"
  param {
    lr_mult: 1
    decay_mult: 1
  }
  param {
    lr_mult: 2
    decay_mult: 0
  }
  convolution_param {
    num_output: 6
    pad: 1
    kernel_size: 3
    stride: 1
    weight_filler {
      type: "xavier"
    }
    bias_filler {
      type: "constant"
      value: 0
    }
  }
}
layer {
  name: "fc7_mbox_clean_perm"
  type: "Permute"
  bottom: "fc7_mbox_clean"
  top: "fc7_mbox_clean_perm"
  permute_param {
    order: 0
    order: 2
    order: 3
    order: 1
  }
}
layer {
  name: "fc7_mbox_clean_flat"
  type: "Flatten"
  bottom: "fc7_mbox_clean_perm"
  top: "fc7_mbox_clean_flat"
  flatten_param {
    axis: 1
  }
}
layer {
  name: "fc7_mbox_priorbox"
  type: "PriorBox"
  bottom: "fc7"
  bottom: "data"
  top: "fc7_mbox_priorbox"
  prior_box_param {
    min_size: 76.8
    max_size: 168.96
    aspect_ratio: 2
    aspect_ratio: 3
    flip: true
    clip: false
    variance: 0.1
    variance: 0.1
    variance: 0.2
    variance: 0.2
    step: 16
    offset: 0.5
  }
}
layer {
  name: "conv6_2_mbox_loc"
  type: "Convolution"
  bottom: "conv6_2"
  top: "conv6_2_mbox_loc"
  param {
    lr_mult: 1
    decay_mult: 1
  }
  param {
    lr_mult: 2
    decay_mult: 0
  }
  convolution_param {
    num_output: 24
    pad: 1
    kernel_size: 3
    stride: 1
    weight_filler {
      type: "xavier"
    }
    bias_filler {
      type: "constant"
      value: 0
    }
  }
}
layer {
  name: "conv6_2_mbox_loc_perm"
  type: "Permute"
  bottom: "conv6_2_mbox_loc"
  top: "conv6_2_mbox_loc_perm"
  permute_param {
    order: 0
    order: 2
    order: 3
    order: 1
  }
}
layer {
  name: "conv6_2_mbox_loc_flat"
  type: "Flatten"
  bottom: "conv6_2_mbox_loc_perm"
  top: "conv6_2_mbox_loc_flat"
  flatten_param {
    axis: 1
  }
}
layer {
  name: "conv6_2_mbox_conf"
  type: "Convolution"
  bottom: "conv6_2"
  top: "conv6_2_mbox_conf"
  param {
    lr_mult: 1
    decay_mult: 1
  }
  param {
    lr_mult: 2
    decay_mult: 0
  }
  convolution_param {
    num_output: 12
    pad: 1
    kernel_size: 3
    stride: 1
    weight_filler {
      type: "xavier"
    }
    bias_filler {
      type: "constant"
      value: 0
    }
  }
}
layer {
  name: "conv6_2_mbox_conf_perm"
  type: "Permute"
  bottom: "conv6_2_mbox_conf"
  top: "conv6_2_mbox_conf_perm"
  permute_param {
    order: 0
    order: 2
    order: 3
    order: 1
  }
}
layer {
  name: "conv6_2_mbox_conf_flat"
  type: "Flatten"
  bottom: "conv6_2_mbox_conf_perm"
  top: "conv6_2_mbox_conf_flat"
  flatten_param {
    axis: 1
  }
}
layer {
  name: "conv6_2_mbox_clean"
  type: "Convolution"
  bottom: "conv6_2"
  top: "conv6_2_mbox_clean"
  param {
    lr_mult: 1
    decay_mult: 1
  }
  param {
    lr_mult: 2
    decay_mult: 0
  }
  convolution_param {
    num_output: 6
    pad: 1
    kernel_size: 3
    stride: 1
    weight_filler {
      type: "xavier"
    }
    bias_filler {
      type: "constant"
      value: 0
    }
  }
}
layer {
  name: "conv6_2_mbox_clean_perm"
  type: "Permute"
  bottom: "conv6_2_mbox_clean"
  top: "conv6_2_mbox_clean_perm"
  permute_param {
    order: 0
    order: 2
    order: 3
    order: 1
  }
}
layer {
  name: "conv6_2_mbox_clean_flat"
  type: "Flatten"
  bottom: "conv6_2_mbox_clean_perm"
  top: "conv6_2_mbox_clean_flat"
  flatten_param {
    axis: 1
  }
}
layer {
  name: "conv6_2_mbox_priorbox"
  type: "PriorBox"
  bottom: "conv6_2"
  bottom: "data"
  top: "conv6_2_mbox_priorbox"
  prior_box_param {
    min_size: 168.96
    max_size: 261.12
    aspect_ratio: 2
    aspect_ratio: 3
    flip: true
    clip: false
    variance: 0.1
    variance: 0.1
    variance: 0.2
    variance: 0.2
    step: 32
    offset: 0.5
  }
}
layer {
  name: "conv7_2_mbox_loc"
  type: "Convolution"
  bottom: "conv7_2"
  top: "conv7_2_mbox_loc"
  param {
    lr_mult: 1
    decay_mult: 1
  }
  param {
    lr_mult: 2
    decay_mult: 0
  }
  convolution_param {
    num_output: 24
    pad: 1
    kernel_size: 3
    stride: 1
    weight_filler {
      type: "xavier"
    }
    bias_filler {
      type: "constant"
      value: 0
    }
  }
}
layer {
  name: "conv7_2_mbox_loc_perm"
  type: "Permute"
  bottom: "conv7_2_mbox_loc"
  top: "conv7_2_mbox_loc_perm"
  permute_param {
    order: 0
    order: 2
    order: 3
    order: 1
  }
}
layer {
  name: "conv7_2_mbox_loc_flat"
  type: "Flatten"
  bottom: "conv7_2_mbox_loc_perm"
  top: "conv7_2_mbox_loc_flat"
  flatten_param {
    axis: 1
  }
}
layer {
  name: "conv7_2_mbox_conf"
  type: "Convolution"
  bottom: "conv7_2"
  top: "conv7_2_mbox_conf"
  param {
    lr_mult: 1
    decay_mult: 1
  }
  param {
    lr_mult: 2
    decay_mult: 0
  }
  convolution_param {
    num_output: 12
    pad: 1
    kernel_size: 3
    stride: 1
    weight_filler {
      type: "xavier"
    }
    bias_filler {
      type: "constant"
      value: 0
    }
  }
}
layer {
  name: "conv7_2_mbox_conf_perm"
  type: "Permute"
  bottom: "conv7_2_mbox_conf"
  top: "conv7_2_mbox_conf_perm"
  permute_param {
    order: 0
    order: 2
    order: 3
    order: 1
  }
}
layer {
  name: "conv7_2_mbox_conf_flat"
  type: "Flatten"
  bottom: "conv7_2_mbox_conf_perm"
  top: "conv7_2_mbox_conf_flat"
  flatten_param {
    axis: 1
  }
}
layer {
  name: "conv7_2_mbox_clean"
  type: "Convolution"
  bottom: "conv7_2"
  top: "conv7_2_mbox_clean"
  param {
    lr_mult: 1
    decay_mult: 1
  }
  param {
    lr_mult: 2
    decay_mult: 0
  }
  convolution_param {
    num_output: 6
    pad: 1
    kernel_size: 3
    stride: 1
    weight_filler {
      type: "xavier"
    }
    bias_filler {
      type: "constant"
      value: 0
    }
  }
}
layer {
  name: "conv7_2_mbox_clean_perm"
  type: "Permute"
  bottom: "conv7_2_mbox_clean"
  top: "conv7_2_mbox_clean_perm"
  permute_param {
    order: 0
    order: 2
    order: 3
    order: 1
  }
}
layer {
  name: "conv7_2_mbox_clean_flat"
  type: "Flatten"
  bottom: "conv7_2_mbox_clean_perm"
  top: "conv7_2_mbox_clean_flat"
  flatten_param {
    axis: 1
  }
}
layer {
  name: "conv7_2_mbox_priorbox"
  type: "PriorBox"
  bottom: "conv7_2"
  bottom: "data"
  top: "conv7_2_mbox_priorbox"
  prior_box_param {
    min_size: 261.12
    max_size: 353.28
    aspect_ratio: 2
    aspect_ratio: 3
    flip: true
    clip: false
    variance: 0.1
    variance: 0.1
    variance: 0.2
    variance: 0.2
    step: 64
    offset: 0.5
  }
}
layer {
  name: "conv8_2_mbox_loc"
  type: "Convolution"
  bottom: "conv8_2"
  top: "conv8_2_mbox_loc"
  param {
    lr_mult: 1
    decay_mult: 1
  }
  param {
    lr_mult: 2
    decay_mult: 0
  }
  convolution_param {
    num_output: 16
    pad: 1
    kernel_size: 3
    stride: 1
    weight_filler {
      type: "xavier"
    }
    bias_filler {
      type: "constant"
      value: 0
    }
  }
}
layer {
  name: "conv8_2_mbox_loc_perm"
  type: "Permute"
  bottom: "conv8_2_mbox_loc"
  top: "conv8_2_mbox_loc_perm"
  permute_param {
    order: 0
    order: 2
    order: 3
    order: 1
  }
}
layer {
  name: "conv8_2_mbox_loc_flat"
  type: "Flatten"
  bottom: "conv8_2_mbox_loc_perm"
  top: "conv8_2_mbox_loc_flat"
  flatten_param {
    axis: 1
  }
}
layer {
  name: "conv8_2_mbox_conf"
  type: "Convolution"
  bottom: "conv8_2"
  top: "conv8_2_mbox_conf"
  param {
    lr_mult: 1
    decay_mult: 1
  }
  param {
    lr_mult: 2
    decay_mult: 0
  }
  convolution_param {
    num_output: 8
    pad: 1
    kernel_size: 3
    stride: 1
    weight_filler {
      type: "xavier"
    }
    bias_filler {
      type: "constant"
      value: 0
    }
  }
}
layer {
  name: "conv8_2_mbox_conf_perm"
  type: "Permute"
  bottom: "conv8_2_mbox_conf"
  top: "conv8_2_mbox_conf_perm"
  permute_param {
    order: 0
    order: 2
    order: 3
    order: 1
  }
}
layer {
  name: "conv8_2_mbox_conf_flat"
  type: "Flatten"
  bottom: "conv8_2_mbox_conf_perm"
  top: "conv8_2_mbox_conf_flat"
  flatten_param {
    axis: 1
  }
}
layer {
  name: "conv8_2_mbox_clean"
  type: "Convolution"
  bottom: "conv8_2"
  top: "conv8_2_mbox_clean"
  param {
    lr_mult: 1
    decay_mult: 1
  }
  param {
    lr_mult: 2
    decay_mult: 0
  }
  convolution_param {
    num_output: 4
    pad: 1
    kernel_size: 3
    stride: 1
    weight_filler {
      type: "xavier"
    }
    bias_filler {
      type: "constant"
      value: 0
    }
  }
}
layer {
  name: "conv8_2_mbox_clean_perm"
  type: "Permute"
  bottom: "conv8_2_mbox_clean"
  top: "conv8_2_mbox_clean_perm"
  permute_param {
    order: 0
    order: 2
    order: 3
    order: 1
  }
}
layer {
  name: "conv8_2_mbox_clean_flat"
  type: "Flatten"
  bottom: "conv8_2_mbox_clean_perm"
  top: "conv8_2_mbox_clean_flat"
  flatten_param {
    axis: 1
  }
}
layer {
  name: "conv8_2_mbox_priorbox"
  type: "PriorBox"
  bottom: "conv8_2"
  bottom: "data"
  top: "conv8_2_mbox_priorbox"
  prior_box_param {
    min_size: 353.28
    max_size: 445.44
    aspect_ratio: 2
    flip: true
    clip: false
    variance: 0.1
    variance: 0.1
    variance: 0.2
    variance: 0.2
    step: 100
    offset: 0.5
  }
}
layer {
  name: "conv9_2_mbox_loc"
  type: "Convolution"
  bottom: "conv9_2"
  top: "conv9_2_mbox_loc"
  param {
    lr_mult: 1
    decay_mult: 1
  }
  param {
    lr_mult: 2
    decay_mult: 0
  }
  convolution_param {
    num_output: 16
    pad: 1
    kernel_size: 3
    stride: 1
    weight_filler {
      type: "xavier"
    }
    bias_filler {
      type: "constant"
      value: 0
    }
  }
}
layer {
  name: "conv9_2_mbox_loc_perm"
  type: "Permute"
  bottom: "conv9_2_mbox_loc"
  top: "conv9_2_mbox_loc_perm"
  permute_param {
    order: 0
    order: 2
    order: 3
    order: 1
  }
}
layer {
  name: "conv9_2_mbox_loc_flat"
  type: "Flatten"
  bottom: "conv9_2_mbox_loc_perm"
  top: "conv9_2_mbox_loc_flat"
  flatten_param {
    axis: 1
  }
}
layer {
  name: "conv9_2_mbox_conf"
  type: "Convolution"
  bottom: "conv9_2"
  top: "conv9_2_mbox_conf"
  param {
    lr_mult: 1
    decay_mult: 1
  }
  param {
    lr_mult: 2
    decay_mult: 0
  }
  convolution_param {
    num_output: 8
    pad: 1
    kernel_size: 3
    stride: 1
    weight_filler {
      type: "xavier"
    }
    bias_filler {
      type: "constant"
      value: 0
    }
  }
}
layer {
  name: "conv9_2_mbox_conf_perm"
  type: "Permute"
  bottom: "conv9_2_mbox_conf"
  top: "conv9_2_mbox_conf_perm"
  permute_param {
    order: 0
    order: 2
    order: 3
    order: 1
  }
}
layer {
  name: "conv9_2_mbox_conf_flat"
  type: "Flatten"
  bottom: "conv9_2_mbox_conf_perm"
  top: "conv9_2_mbox_conf_flat"
  flatten_param {
    axis: 1
  }
}
layer {
  name: "conv9_2_mbox_clean"
  type: "Convolution"
  bottom: "conv9_2"
  top: "conv9_2_mbox_clean"
  param {
    lr_mult: 1
    decay_mult: 1
  }
  param {
    lr_mult: 2
    decay_mult: 0
  }
  convolution_param {
    num_output: 4
    pad: 1
    kernel_size: 3
    stride: 1
    weight_filler {
      type: "xavier"
    }
    bias_filler {
      type: "constant"
      value: 0
    }
  }
}
layer {
  name: "conv9_2_mbox_clean_perm"
  type: "Permute"
  bottom: "conv9_2_mbox_clean"
  top: "conv9_2_mbox_clean_perm"
  permute_param {
    order: 0
    order: 2
    order: 3
    order: 1
  }
}
layer {
  name: "conv9_2_mbox_clean_fl
I0406 19:56:53.349598 20371 layer_factory.hpp:77] Creating layer data
I0406 19:56:53.350165 20371 net.cpp:100] Creating Layer data
I0406 19:56:53.350189 20371 net.cpp:408] data -> data
I0406 19:56:53.350252 20371 net.cpp:408] data -> label
I0406 19:56:53.351485 20412 db_lmdb.cpp:35] Opened lmdb /data/siyu/dataset/coco/lmdb/COCO_Train2014_person_lmdb
I0406 19:56:53.374258 20371 annotated_data_layer.cpp:62] output data size: 8,3,512,512
I0406 19:56:53.428351 20371 net.cpp:150] Setting up data
I0406 19:56:53.428412 20371 net.cpp:157] Top shape: 8 3 512 512 (6291456)
I0406 19:56:53.428422 20371 net.cpp:157] Top shape: 1 1 1 8 (8)
I0406 19:56:53.428428 20371 net.cpp:165] Memory required for data: 25165856
I0406 19:56:53.428444 20371 layer_factory.hpp:77] Creating layer data_data_0_split
I0406 19:56:53.428467 20371 net.cpp:100] Creating Layer data_data_0_split
I0406 19:56:53.428478 20371 net.cpp:434] data_data_0_split <- data
I0406 19:56:53.428508 20371 net.cpp:408] data_data_0_split -> data_data_0_split_0
I0406 19:56:53.428529 20371 net.cpp:408] data_data_0_split -> data_data_0_split_1
I0406 19:56:53.428539 20371 net.cpp:408] data_data_0_split -> data_data_0_split_2
I0406 19:56:53.428551 20371 net.cpp:408] data_data_0_split -> data_data_0_split_3
I0406 19:56:53.428560 20371 net.cpp:408] data_data_0_split -> data_data_0_split_4
I0406 19:56:53.428568 20371 net.cpp:408] data_data_0_split -> data_data_0_split_5
I0406 19:56:53.428578 20371 net.cpp:408] data_data_0_split -> data_data_0_split_6
I0406 19:56:53.428694 20371 net.cpp:150] Setting up data_data_0_split
I0406 19:56:53.428706 20371 net.cpp:157] Top shape: 8 3 512 512 (6291456)
I0406 19:56:53.428712 20371 net.cpp:157] Top shape: 8 3 512 512 (6291456)
I0406 19:56:53.428719 20371 net.cpp:157] Top shape: 8 3 512 512 (6291456)
I0406 19:56:53.428743 20371 net.cpp:157] Top shape: 8 3 512 512 (6291456)
I0406 19:56:53.428753 20371 net.cpp:157] Top shape: 8 3 512 512 (6291456)
I0406 19:56:53.428759 20371 net.cpp:157] Top shape: 8 3 512 512 (6291456)
I0406 19:56:53.428766 20371 net.cpp:157] Top shape: 8 3 512 512 (6291456)
I0406 19:56:53.428771 20371 net.cpp:165] Memory required for data: 201326624
I0406 19:56:53.428777 20371 layer_factory.hpp:77] Creating layer conv1_1
I0406 19:56:53.428804 20371 net.cpp:100] Creating Layer conv1_1
I0406 19:56:53.428812 20371 net.cpp:434] conv1_1 <- data_data_0_split_0
I0406 19:56:53.428823 20371 net.cpp:408] conv1_1 -> conv1_1
I0406 19:56:53.593284 20413 blocking_queue.cpp:50] Waiting for data
I0406 19:56:53.673385 20371 net.cpp:150] Setting up conv1_1
I0406 19:56:53.673422 20371 net.cpp:157] Top shape: 8 64 512 512 (134217728)
I0406 19:56:53.673429 20371 net.cpp:165] Memory required for data: 738197536
I0406 19:56:53.673450 20371 layer_factory.hpp:77] Creating layer relu1_1
I0406 19:56:53.673465 20371 net.cpp:100] Creating Layer relu1_1
I0406 19:56:53.673471 20371 net.cpp:434] relu1_1 <- conv1_1
I0406 19:56:53.673480 20371 net.cpp:395] relu1_1 -> conv1_1 (in-place)
I0406 19:56:53.673765 20371 net.cpp:150] Setting up relu1_1
I0406 19:56:53.673780 20371 net.cpp:157] Top shape: 8 64 512 512 (134217728)
I0406 19:56:53.673785 20371 net.cpp:165] Memory required for data: 1275068448
I0406 19:56:53.673790 20371 layer_factory.hpp:77] Creating layer conv1_2
I0406 19:56:53.673809 20371 net.cpp:100] Creating Layer conv1_2
I0406 19:56:53.673813 20371 net.cpp:434] conv1_2 <- conv1_1
I0406 19:56:53.673821 20371 net.cpp:408] conv1_2 -> conv1_2
I0406 19:56:53.676224 20371 net.cpp:150] Setting up conv1_2
I0406 19:56:53.676241 20371 net.cpp:157] Top shape: 8 64 512 512 (134217728)
I0406 19:56:53.676246 20371 net.cpp:165] Memory required for data: 1811939360
I0406 19:56:53.676256 20371 layer_factory.hpp:77] Creating layer relu1_2
I0406 19:56:53.676265 20371 net.cpp:100] Creating Layer relu1_2
I0406 19:56:53.676270 20371 net.cpp:434] relu1_2 <- conv1_2
I0406 19:56:53.676277 20371 net.cpp:395] relu1_2 -> conv1_2 (in-place)
I0406 19:56:53.676429 20371 net.cpp:150] Setting up relu1_2
I0406 19:56:53.676441 20371 net.cpp:157] Top shape: 8 64 512 512 (134217728)
I0406 19:56:53.676446 20371 net.cpp:165] Memory required for data: 2348810272
I0406 19:56:53.676451 20371 layer_factory.hpp:77] Creating layer pool1
I0406 19:56:53.676461 20371 net.cpp:100] Creating Layer pool1
I0406 19:56:53.676466 20371 net.cpp:434] pool1 <- conv1_2
I0406 19:56:53.676473 20371 net.cpp:408] pool1 -> pool1
I0406 19:56:53.676525 20371 net.cpp:150] Setting up pool1
I0406 19:56:53.676534 20371 net.cpp:157] Top shape: 8 64 256 256 (33554432)
I0406 19:56:53.676539 20371 net.cpp:165] Memory required for data: 2483028000
I0406 19:56:53.676544 20371 layer_factory.hpp:77] Creating layer conv2_1
I0406 19:56:53.676554 20371 net.cpp:100] Creating Layer conv2_1
I0406 19:56:53.676560 20371 net.cpp:434] conv2_1 <- pool1
I0406 19:56:53.676568 20371 net.cpp:408] conv2_1 -> conv2_1
I0406 19:56:53.678522 20371 net.cpp:150] Setting up conv2_1
I0406 19:56:53.678539 20371 net.cpp:157] Top shape: 8 128 256 256 (67108864)
I0406 19:56:53.678544 20371 net.cpp:165] Memory required for data: 2751463456
I0406 19:56:53.678553 20371 layer_factory.hpp:77] Creating layer relu2_1
I0406 19:56:53.678562 20371 net.cpp:100] Creating Layer relu2_1
I0406 19:56:53.678567 20371 net.cpp:434] relu2_1 <- conv2_1
I0406 19:56:53.678575 20371 net.cpp:395] relu2_1 -> conv2_1 (in-place)
I0406 19:56:53.678725 20371 net.cpp:150] Setting up relu2_1
I0406 19:56:53.678737 20371 net.cpp:157] Top shape: 8 128 256 256 (67108864)
I0406 19:56:53.678742 20371 net.cpp:165] Memory required for data: 3019898912
I0406 19:56:53.678747 20371 layer_factory.hpp:77] Creating layer conv2_2
I0406 19:56:53.678757 20371 net.cpp:100] Creating Layer conv2_2
I0406 19:56:53.678763 20371 net.cpp:434] conv2_2 <- conv2_1
I0406 19:56:53.678771 20371 net.cpp:408] conv2_2 -> conv2_2
I0406 19:56:53.680668 20371 net.cpp:150] Setting up conv2_2
I0406 19:56:53.680704 20371 net.cpp:157] Top shape: 8 128 256 256 (67108864)
I0406 19:56:53.680711 20371 net.cpp:165] Memory required for data: 3288334368
I0406 19:56:53.680718 20371 layer_factory.hpp:77] Creating layer relu2_2
I0406 19:56:53.680726 20371 net.cpp:100] Creating Layer relu2_2
I0406 19:56:53.680730 20371 net.cpp:434] relu2_2 <- conv2_2
I0406 19:56:53.680737 20371 net.cpp:395] relu2_2 -> conv2_2 (in-place)
I0406 19:56:53.680984 20371 net.cpp:150] Setting up relu2_2
I0406 19:56:53.680999 20371 net.cpp:157] Top shape: 8 128 256 256 (67108864)
I0406 19:56:53.681004 20371 net.cpp:165] Memory required for data: 3556769824
I0406 19:56:53.681008 20371 layer_factory.hpp:77] Creating layer pool2
I0406 19:56:53.681016 20371 net.cpp:100] Creating Layer pool2
I0406 19:56:53.681021 20371 net.cpp:434] pool2 <- conv2_2
I0406 19:56:53.681027 20371 net.cpp:408] pool2 -> pool2
I0406 19:56:53.681064 20371 net.cpp:150] Setting up pool2
I0406 19:56:53.681073 20371 net.cpp:157] Top shape: 8 128 128 128 (16777216)
I0406 19:56:53.681077 20371 net.cpp:165] Memory required for data: 3623878688
I0406 19:56:53.681082 20371 layer_factory.hpp:77] Creating layer conv3_1
I0406 19:56:53.681092 20371 net.cpp:100] Creating Layer conv3_1
I0406 19:56:53.681097 20371 net.cpp:434] conv3_1 <- pool2
I0406 19:56:53.681103 20371 net.cpp:408] conv3_1 -> conv3_1
I0406 19:56:53.684916 20371 net.cpp:150] Setting up conv3_1
I0406 19:56:53.684931 20371 net.cpp:157] Top shape: 8 256 128 128 (33554432)
I0406 19:56:53.684937 20371 net.cpp:165] Memory required for data: 3758096416
I0406 19:56:53.684947 20371 layer_factory.hpp:77] Creating layer relu3_1
I0406 19:56:53.684954 20371 net.cpp:100] Creating Layer relu3_1
I0406 19:56:53.684959 20371 net.cpp:434] relu3_1 <- conv3_1
I0406 19:56:53.684965 20371 net.cpp:395] relu3_1 -> conv3_1 (in-place)
I0406 19:56:53.685111 20371 net.cpp:150] Setting up relu3_1
I0406 19:56:53.685122 20371 net.cpp:157] Top shape: 8 256 128 128 (33554432)
I0406 19:56:53.685127 20371 net.cpp:165] Memory required for data: 3892314144
I0406 19:56:53.685132 20371 layer_factory.hpp:77] Creating layer conv3_2
I0406 19:56:53.685142 20371 net.cpp:100] Creating Layer conv3_2
I0406 19:56:53.685148 20371 net.cpp:434] conv3_2 <- conv3_1
I0406 19:56:53.685154 20371 net.cpp:408] conv3_2 -> conv3_2
I0406 19:56:53.690711 20371 net.cpp:150] Setting up conv3_2
I0406 19:56:53.690726 20371 net.cpp:157] Top shape: 8 256 128 128 (33554432)
I0406 19:56:53.690732 20371 net.cpp:165] Memory required for data: 4026531872
I0406 19:56:53.690738 20371 layer_factory.hpp:77] Creating layer relu3_2
I0406 19:56:53.690747 20371 net.cpp:100] Creating Layer relu3_2
I0406 19:56:53.690752 20371 net.cpp:434] relu3_2 <- conv3_2
I0406 19:56:53.690757 20371 net.cpp:395] relu3_2 -> conv3_2 (in-place)
I0406 19:56:53.690907 20371 net.cpp:150] Setting up relu3_2
I0406 19:56:53.690919 20371 net.cpp:157] Top shape: 8 256 128 128 (33554432)
I0406 19:56:53.690923 20371 net.cpp:165] Memory required for data: 4160749600
I0406 19:56:53.690928 20371 layer_factory.hpp:77] Creating layer conv3_3
I0406 19:56:53.690942 20371 net.cpp:100] Creating Layer conv3_3
I0406 19:56:53.690950 20371 net.cpp:434] conv3_3 <- conv3_2
I0406 19:56:53.690956 20371 net.cpp:408] conv3_3 -> conv3_3
I0406 19:56:53.696393 20371 net.cpp:150] Setting up conv3_3
I0406 19:56:53.696409 20371 net.cpp:157] Top shape: 8 256 128 128 (33554432)
I0406 19:56:53.696413 20371 net.cpp:165] Memory required for data: 4294967328
I0406 19:56:53.696421 20371 layer_factory.hpp:77] Creating layer relu3_3
I0406 19:56:53.696429 20371 net.cpp:100] Creating Layer relu3_3
I0406 19:56:53.696434 20371 net.cpp:434] relu3_3 <- conv3_3
I0406 19:56:53.696439 20371 net.cpp:395] relu3_3 -> conv3_3 (in-place)
I0406 19:56:53.696686 20371 net.cpp:150] Setting up relu3_3
I0406 19:56:53.696701 20371 net.cpp:157] Top shape: 8 256 128 128 (33554432)
I0406 19:56:53.696705 20371 net.cpp:165] Memory required for data: 4429185056
I0406 19:56:53.696709 20371 layer_factory.hpp:77] Creating layer pool3
I0406 19:56:53.696717 20371 net.cpp:100] Creating Layer pool3
I0406 19:56:53.696732 20371 net.cpp:434] pool3 <- conv3_3
I0406 19:56:53.696739 20371 net.cpp:408] pool3 -> pool3
I0406 19:56:53.696779 20371 net.cpp:150] Setting up pool3
I0406 19:56:53.696789 20371 net.cpp:157] Top shape: 8 256 64 64 (8388608)
I0406 19:56:53.696792 20371 net.cpp:165] Memory required for data: 4462739488
I0406 19:56:53.696796 20371 layer_factory.hpp:77] Creating layer conv4_1
I0406 19:56:53.696806 20371 net.cpp:100] Creating Layer conv4_1
I0406 19:56:53.696812 20371 net.cpp:434] conv4_1 <- pool3
I0406 19:56:53.696818 20371 net.cpp:408] conv4_1 -> conv4_1
I0406 19:56:53.707278 20371 net.cpp:150] Setting up conv4_1
I0406 19:56:53.707294 20371 net.cpp:157] Top shape: 8 512 64 64 (16777216)
I0406 19:56:53.707299 20371 net.cpp:165] Memory required for data: 4529848352
I0406 19:56:53.707306 20371 layer_factory.hpp:77] Creating layer relu4_1
I0406 19:56:53.707314 20371 net.cpp:100] Creating Layer relu4_1
I0406 19:56:53.707319 20371 net.cpp:434] relu4_1 <- conv4_1
I0406 19:56:53.707324 20371 net.cpp:395] relu4_1 -> conv4_1 (in-place)
I0406 19:56:53.707471 20371 net.cpp:150] Setting up relu4_1
I0406 19:56:53.707482 20371 net.cpp:157] Top shape: 8 512 64 64 (16777216)
I0406 19:56:53.707486 20371 net.cpp:165] Memory required for data: 4596957216
I0406 19:56:53.707491 20371 layer_factory.hpp:77] Creating layer conv4_2
I0406 19:56:53.707501 20371 net.cpp:100] Creating Layer conv4_2
I0406 19:56:53.707509 20371 net.cpp:434] conv4_2 <- conv4_1
I0406 19:56:53.707515 20371 net.cpp:408] conv4_2 -> conv4_2
I0406 19:56:53.726241 20371 net.cpp:150] Setting up conv4_2
I0406 19:56:53.726259 20371 net.cpp:157] Top shape: 8 512 64 64 (16777216)
I0406 19:56:53.726264 20371 net.cpp:165] Memory required for data: 4664066080
I0406 19:56:53.726277 20371 layer_factory.hpp:77] Creating layer relu4_2
I0406 19:56:53.726284 20371 net.cpp:100] Creating Layer relu4_2
I0406 19:56:53.726290 20371 net.cpp:434] relu4_2 <- conv4_2
I0406 19:56:53.726296 20371 net.cpp:395] relu4_2 -> conv4_2 (in-place)
I0406 19:56:53.726449 20371 net.cpp:150] Setting up relu4_2
I0406 19:56:53.726461 20371 net.cpp:157] Top shape: 8 512 64 64 (16777216)
I0406 19:56:53.726465 20371 net.cpp:165] Memory required for data: 4731174944
I0406 19:56:53.726469 20371 layer_factory.hpp:77] Creating layer conv4_3
I0406 19:56:53.726481 20371 net.cpp:100] Creating Layer conv4_3
I0406 19:56:53.726487 20371 net.cpp:434] conv4_3 <- conv4_2
I0406 19:56:53.726495 20371 net.cpp:408] conv4_3 -> conv4_3
I0406 19:56:53.745196 20371 net.cpp:150] Setting up conv4_3
I0406 19:56:53.745215 20371 net.cpp:157] Top shape: 8 512 64 64 (16777216)
I0406 19:56:53.745220 20371 net.cpp:165] Memory required for data: 4798283808
I0406 19:56:53.745227 20371 layer_factory.hpp:77] Creating layer relu4_3
I0406 19:56:53.745236 20371 net.cpp:100] Creating Layer relu4_3
I0406 19:56:53.745241 20371 net.cpp:434] relu4_3 <- conv4_3
I0406 19:56:53.745247 20371 net.cpp:395] relu4_3 -> conv4_3 (in-place)
I0406 19:56:53.745503 20371 net.cpp:150] Setting up relu4_3
I0406 19:56:53.745517 20371 net.cpp:157] Top shape: 8 512 64 64 (16777216)
I0406 19:56:53.745522 20371 net.cpp:165] Memory required for data: 4865392672
I0406 19:56:53.745527 20371 layer_factory.hpp:77] Creating layer conv4_3_relu4_3_0_split
I0406 19:56:53.745534 20371 net.cpp:100] Creating Layer conv4_3_relu4_3_0_split
I0406 19:56:53.745542 20371 net.cpp:434] conv4_3_relu4_3_0_split <- conv4_3
I0406 19:56:53.745548 20371 net.cpp:408] conv4_3_relu4_3_0_split -> conv4_3_relu4_3_0_split_0
I0406 19:56:53.745556 20371 net.cpp:408] conv4_3_relu4_3_0_split -> conv4_3_relu4_3_0_split_1
I0406 19:56:53.745596 20371 net.cpp:150] Setting up conv4_3_relu4_3_0_split
I0406 19:56:53.745605 20371 net.cpp:157] Top shape: 8 512 64 64 (16777216)
I0406 19:56:53.745610 20371 net.cpp:157] Top shape: 8 512 64 64 (16777216)
I0406 19:56:53.745615 20371 net.cpp:165] Memory required for data: 4999610400
I0406 19:56:53.745618 20371 layer_factory.hpp:77] Creating layer pool4
I0406 19:56:53.745627 20371 net.cpp:100] Creating Layer pool4
I0406 19:56:53.745632 20371 net.cpp:434] pool4 <- conv4_3_relu4_3_0_split_0
I0406 19:56:53.745656 20371 net.cpp:408] pool4 -> pool4
I0406 19:56:53.745694 20371 net.cpp:150] Setting up pool4
I0406 19:56:53.745702 20371 net.cpp:157] Top shape: 8 512 32 32 (4194304)
I0406 19:56:53.745707 20371 net.cpp:165] Memory required for data: 5016387616
I0406 19:56:53.745710 20371 layer_factory.hpp:77] Creating layer conv5_1
I0406 19:56:53.745721 20371 net.cpp:100] Creating Layer conv5_1
I0406 19:56:53.745728 20371 net.cpp:434] conv5_1 <- pool4
I0406 19:56:53.745734 20371 net.cpp:408] conv5_1 -> conv5_1
I0406 19:56:53.764372 20371 net.cpp:150] Setting up conv5_1
I0406 19:56:53.764391 20371 net.cpp:157] Top shape: 8 512 32 32 (4194304)
I0406 19:56:53.764395 20371 net.cpp:165] Memory required for data: 5033164832
I0406 19:56:53.764403 20371 layer_factory.hpp:77] Creating layer relu5_1
I0406 19:56:53.764411 20371 net.cpp:100] Creating Layer relu5_1
I0406 19:56:53.764416 20371 net.cpp:434] relu5_1 <- conv5_1
I0406 19:56:53.764423 20371 net.cpp:395] relu5_1 -> conv5_1 (in-place)
I0406 19:56:53.764570 20371 net.cpp:150] Setting up relu5_1
I0406 19:56:53.764581 20371 net.cpp:157] Top shape: 8 512 32 32 (4194304)
I0406 19:56:53.764585 20371 net.cpp:165] Memory required for data: 5049942048
I0406 19:56:53.764590 20371 layer_factory.hpp:77] Creating layer conv5_2
I0406 19:56:53.764601 20371 net.cpp:100] Creating Layer conv5_2
I0406 19:56:53.764607 20371 net.cpp:434] conv5_2 <- conv5_1
I0406 19:56:53.764616 20371 net.cpp:408] conv5_2 -> conv5_2
I0406 19:56:53.783218 20371 net.cpp:150] Setting up conv5_2
I0406 19:56:53.783236 20371 net.cpp:157] Top shape: 8 512 32 32 (4194304)
I0406 19:56:53.783241 20371 net.cpp:165] Memory required for data: 5066719264
I0406 19:56:53.783249 20371 layer_factory.hpp:77] Creating layer relu5_2
I0406 19:56:53.783257 20371 net.cpp:100] Creating Layer relu5_2
I0406 19:56:53.783262 20371 net.cpp:434] relu5_2 <- conv5_2
I0406 19:56:53.783269 20371 net.cpp:395] relu5_2 -> conv5_2 (in-place)
I0406 19:56:53.783418 20371 net.cpp:150] Setting up relu5_2
I0406 19:56:53.783429 20371 net.cpp:157] Top shape: 8 512 32 32 (4194304)
I0406 19:56:53.783433 20371 net.cpp:165] Memory required for data: 5083496480
I0406 19:56:53.783438 20371 layer_factory.hpp:77] Creating layer conv5_3
I0406 19:56:53.783450 20371 net.cpp:100] Creating Layer conv5_3
I0406 19:56:53.783457 20371 net.cpp:434] conv5_3 <- conv5_2
I0406 19:56:53.783464 20371 net.cpp:408] conv5_3 -> conv5_3
I0406 19:56:53.802069 20371 net.cpp:150] Setting up conv5_3
I0406 19:56:53.802088 20371 net.cpp:157] Top shape: 8 512 32 32 (4194304)
I0406 19:56:53.802093 20371 net.cpp:165] Memory required for data: 5100273696
I0406 19:56:53.802099 20371 layer_factory.hpp:77] Creating layer relu5_3
I0406 19:56:53.802114 20371 net.cpp:100] Creating Layer relu5_3
I0406 19:56:53.802119 20371 net.cpp:434] relu5_3 <- conv5_3
I0406 19:56:53.802125 20371 net.cpp:395] relu5_3 -> conv5_3 (in-place)
I0406 19:56:53.802387 20371 net.cpp:150] Setting up relu5_3
I0406 19:56:53.802402 20371 net.cpp:157] Top shape: 8 512 32 32 (4194304)
I0406 19:56:53.802407 20371 net.cpp:165] Memory required for data: 5117050912
I0406 19:56:53.802410 20371 layer_factory.hpp:77] Creating layer pool5
I0406 19:56:53.802420 20371 net.cpp:100] Creating Layer pool5
I0406 19:56:53.802428 20371 net.cpp:434] pool5 <- conv5_3
I0406 19:56:53.802435 20371 net.cpp:408] pool5 -> pool5
I0406 19:56:53.802479 20371 net.cpp:150] Setting up pool5
I0406 19:56:53.802489 20371 net.cpp:157] Top shape: 8 512 32 32 (4194304)
I0406 19:56:53.802492 20371 net.cpp:165] Memory required for data: 5133828128
I0406 19:56:53.802497 20371 layer_factory.hpp:77] Creating layer fc6
I0406 19:56:53.802508 20371 net.cpp:100] Creating Layer fc6
I0406 19:56:53.802515 20371 net.cpp:434] fc6 <- pool5
I0406 19:56:53.802522 20371 net.cpp:408] fc6 -> fc6
I0406 19:56:53.838963 20371 net.cpp:150] Setting up fc6
I0406 19:56:53.838997 20371 net.cpp:157] Top shape: 8 1024 32 32 (8388608)
I0406 19:56:53.839004 20371 net.cpp:165] Memory required for data: 5167382560
I0406 19:56:53.839012 20371 layer_factory.hpp:77] Creating layer relu6
I0406 19:56:53.839045 20371 net.cpp:100] Creating Layer relu6
I0406 19:56:53.839051 20371 net.cpp:434] relu6 <- fc6
I0406 19:56:53.839059 20371 net.cpp:395] relu6 -> fc6 (in-place)
I0406 19:56:53.839275 20371 net.cpp:150] Setting up relu6
I0406 19:56:53.839287 20371 net.cpp:157] Top shape: 8 1024 32 32 (8388608)
I0406 19:56:53.839293 20371 net.cpp:165] Memory required for data: 5200936992
I0406 19:56:53.839296 20371 layer_factory.hpp:77] Creating layer fc7
I0406 19:56:53.839310 20371 net.cpp:100] Creating Layer fc7
I0406 19:56:53.839318 20371 net.cpp:434] fc7 <- fc6
I0406 19:56:53.839326 20371 net.cpp:408] fc7 -> fc7
I0406 19:56:53.848325 20371 net.cpp:150] Setting up fc7
I0406 19:56:53.848340 20371 net.cpp:157] Top shape: 8 1024 32 32 (8388608)
I0406 19:56:53.848345 20371 net.cpp:165] Memory required for data: 5234491424
I0406 19:56:53.848352 20371 layer_factory.hpp:77] Creating layer relu7
I0406 19:56:53.848361 20371 net.cpp:100] Creating Layer relu7
I0406 19:56:53.848366 20371 net.cpp:434] relu7 <- fc7
I0406 19:56:53.848372 20371 net.cpp:395] relu7 -> fc7 (in-place)
I0406 19:56:53.848641 20371 net.cpp:150] Setting up relu7
I0406 19:56:53.848655 20371 net.cpp:157] Top shape: 8 1024 32 32 (8388608)
I0406 19:56:53.848659 20371 net.cpp:165] Memory required for data: 5268045856
I0406 19:56:53.848664 20371 layer_factory.hpp:77] Creating layer fc7_relu7_0_split
I0406 19:56:53.848672 20371 net.cpp:100] Creating Layer fc7_relu7_0_split
I0406 19:56:53.848676 20371 net.cpp:434] fc7_relu7_0_split <- fc7
I0406 19:56:53.848685 20371 net.cpp:408] fc7_relu7_0_split -> fc7_relu7_0_split_0
I0406 19:56:53.848695 20371 net.cpp:408] fc7_relu7_0_split -> fc7_relu7_0_split_1
I0406 19:56:53.848706 20371 net.cpp:408] fc7_relu7_0_split -> fc7_relu7_0_split_2
I0406 19:56:53.848714 20371 net.cpp:408] fc7_relu7_0_split -> fc7_relu7_0_split_3
I0406 19:56:53.848723 20371 net.cpp:408] fc7_relu7_0_split -> fc7_relu7_0_split_4
I0406 19:56:53.848796 20371 net.cpp:150] Setting up fc7_relu7_0_split
I0406 19:56:53.848805 20371 net.cpp:157] Top shape: 8 1024 32 32 (8388608)
I0406 19:56:53.848810 20371 net.cpp:157] Top shape: 8 1024 32 32 (8388608)
I0406 19:56:53.848816 20371 net.cpp:157] Top shape: 8 1024 32 32 (8388608)
I0406 19:56:53.848820 20371 net.cpp:157] Top shape: 8 1024 32 32 (8388608)
I0406 19:56:53.848824 20371 net.cpp:157] Top shape: 8 1024 32 32 (8388608)
I0406 19:56:53.848829 20371 net.cpp:165] Memory required for data: 5435818016
I0406 19:56:53.848832 20371 layer_factory.hpp:77] Creating layer conv6_1
I0406 19:56:53.848845 20371 net.cpp:100] Creating Layer conv6_1
I0406 19:56:53.848850 20371 net.cpp:434] conv6_1 <- fc7_relu7_0_split_0
I0406 19:56:53.848863 20371 net.cpp:408] conv6_1 -> conv6_1
I0406 19:56:53.851867 20371 net.cpp:150] Setting up conv6_1
I0406 19:56:53.851882 20371 net.cpp:157] Top shape: 8 256 32 32 (2097152)
I0406 19:56:53.851886 20371 net.cpp:165] Memory required for data: 5444206624
I0406 19:56:53.851893 20371 layer_factory.hpp:77] Creating layer conv6_1_relu
I0406 19:56:53.851902 20371 net.cpp:100] Creating Layer conv6_1_relu
I0406 19:56:53.851907 20371 net.cpp:434] conv6_1_relu <- conv6_1
I0406 19:56:53.851913 20371 net.cpp:395] conv6_1_relu -> conv6_1 (in-place)
I0406 19:56:53.852180 20371 net.cpp:150] Setting up conv6_1_relu
I0406 19:56:53.852193 20371 net.cpp:157] Top shape: 8 256 32 32 (2097152)
I0406 19:56:53.852197 20371 net.cpp:165] Memory required for data: 5452595232
I0406 19:56:53.852202 20371 layer_factory.hpp:77] Creating layer conv6_2
I0406 19:56:53.852216 20371 net.cpp:100] Creating Layer conv6_2
I0406 19:56:53.852223 20371 net.cpp:434] conv6_2 <- conv6_1
I0406 19:56:53.852229 20371 net.cpp:408] conv6_2 -> conv6_2
I0406 19:56:53.862248 20371 net.cpp:150] Setting up conv6_2
I0406 19:56:53.862264 20371 net.cpp:157] Top shape: 8 512 16 16 (1048576)
I0406 19:56:53.862268 20371 net.cpp:165] Memory required for data: 5456789536
I0406 19:56:53.862285 20371 layer_factory.hpp:77] Creating layer conv6_2_relu
I0406 19:56:53.862295 20371 net.cpp:100] Creating Layer conv6_2_relu
I0406 19:56:53.862310 20371 net.cpp:434] conv6_2_relu <- conv6_2
I0406 19:56:53.862316 20371 net.cpp:395] conv6_2_relu -> conv6_2 (in-place)
I0406 19:56:53.862480 20371 net.cpp:150] Setting up conv6_2_relu
I0406 19:56:53.862493 20371 net.cpp:157] Top shape: 8 512 16 16 (1048576)
I0406 19:56:53.862496 20371 net.cpp:165] Memory required for data: 5460983840
I0406 19:56:53.862501 20371 layer_factory.hpp:77] Creating layer conv6_2_conv6_2_relu_0_split
I0406 19:56:53.862507 20371 net.cpp:100] Creating Layer conv6_2_conv6_2_relu_0_split
I0406 19:56:53.862512 20371 net.cpp:434] conv6_2_conv6_2_relu_0_split <- conv6_2
I0406 19:56:53.862520 20371 net.cpp:408] conv6_2_conv6_2_relu_0_split -> conv6_2_conv6_2_relu_0_split_0
I0406 19:56:53.862527 20371 net.cpp:408] conv6_2_conv6_2_relu_0_split -> conv6_2_conv6_2_relu_0_split_1
I0406 19:56:53.862536 20371 net.cpp:408] conv6_2_conv6_2_relu_0_split -> conv6_2_conv6_2_relu_0_split_2
I0406 19:56:53.862542 20371 net.cpp:408] conv6_2_conv6_2_relu_0_split -> conv6_2_conv6_2_relu_0_split_3
I0406 19:56:53.862547 20371 net.cpp:408] conv6_2_conv6_2_relu_0_split -> conv6_2_conv6_2_relu_0_split_4
I0406 19:56:53.862620 20371 net.cpp:150] Setting up conv6_2_conv6_2_relu_0_split
I0406 19:56:53.862629 20371 net.cpp:157] Top shape: 8 512 16 16 (1048576)
I0406 19:56:53.862634 20371 net.cpp:157] Top shape: 8 512 16 16 (1048576)
I0406 19:56:53.862638 20371 net.cpp:157] Top shape: 8 512 16 16 (1048576)
I0406 19:56:53.862643 20371 net.cpp:157] Top shape: 8 512 16 16 (1048576)
I0406 19:56:53.862648 20371 net.cpp:157] Top shape: 8 512 16 16 (1048576)
I0406 19:56:53.862651 20371 net.cpp:165] Memory required for data: 5481955360
I0406 19:56:53.862655 20371 layer_factory.hpp:77] Creating layer conv7_1
I0406 19:56:53.862668 20371 net.cpp:100] Creating Layer conv7_1
I0406 19:56:53.862673 20371 net.cpp:434] conv7_1 <- conv6_2_conv6_2_relu_0_split_0
I0406 19:56:53.862682 20371 net.cpp:408] conv7_1 -> conv7_1
I0406 19:56:53.864033 20371 net.cpp:150] Setting up conv7_1
I0406 19:56:53.864049 20371 net.cpp:157] Top shape: 8 128 16 16 (262144)
I0406 19:56:53.864054 20371 net.cpp:165] Memory required for data: 5483003936
I0406 19:56:53.864061 20371 layer_factory.hpp:77] Creating layer conv7_1_relu
I0406 19:56:53.864068 20371 net.cpp:100] Creating Layer conv7_1_relu
I0406 19:56:53.864073 20371 net.cpp:434] conv7_1_relu <- conv7_1
I0406 19:56:53.864078 20371 net.cpp:395] conv7_1_relu -> conv7_1 (in-place)
I0406 19:56:53.864346 20371 net.cpp:150] Setting up conv7_1_relu
I0406 19:56:53.864361 20371 net.cpp:157] Top shape: 8 128 16 16 (262144)
I0406 19:56:53.864365 20371 net.cpp:165] Memory required for data: 5484052512
I0406 19:56:53.864369 20371 layer_factory.hpp:77] Creating layer conv7_2
I0406 19:56:53.864382 20371 net.cpp:100] Creating Layer conv7_2
I0406 19:56:53.864388 20371 net.cpp:434] conv7_2 <- conv7_1
I0406 19:56:53.864397 20371 net.cpp:408] conv7_2 -> conv7_2
I0406 19:56:53.867518 20371 net.cpp:150] Setting up conv7_2
I0406 19:56:53.867533 20371 net.cpp:157] Top shape: 8 256 8 8 (131072)
I0406 19:56:53.867538 20371 net.cpp:165] Memory required for data: 5484576800
I0406 19:56:53.867544 20371 layer_factory.hpp:77] Creating layer conv7_2_relu
I0406 19:56:53.867552 20371 net.cpp:100] Creating Layer conv7_2_relu
I0406 19:56:53.867557 20371 net.cpp:434] conv7_2_relu <- conv7_2
I0406 19:56:53.867563 20371 net.cpp:395] conv7_2_relu -> conv7_2 (in-place)
I0406 19:56:53.867864 20371 net.cpp:150] Setting up conv7_2_relu
I0406 19:56:53.867879 20371 net.cpp:157] Top shape: 8 256 8 8 (131072)
I0406 19:56:53.867884 20371 net.cpp:165] Memory required for data: 5485101088
I0406 19:56:53.867889 20371 layer_factory.hpp:77] Creating layer conv7_2_conv7_2_relu_0_split
I0406 19:56:53.867898 20371 net.cpp:100] Creating Layer conv7_2_conv7_2_relu_0_split
I0406 19:56:53.867907 20371 net.cpp:434] conv7_2_conv7_2_relu_0_split <- conv7_2
I0406 19:56:53.867913 20371 net.cpp:408] conv7_2_conv7_2_relu_0_split -> conv7_2_conv7_2_relu_0_split_0
I0406 19:56:53.867920 20371 net.cpp:408] conv7_2_conv7_2_relu_0_split -> conv7_2_conv7_2_relu_0_split_1
I0406 19:56:53.867939 20371 net.cpp:408] conv7_2_conv7_2_relu_0_split -> conv7_2_conv7_2_relu_0_split_2
I0406 19:56:53.867949 20371 net.cpp:408] conv7_2_conv7_2_relu_0_split -> conv7_2_conv7_2_relu_0_split_3
I0406 19:56:53.867955 20371 net.cpp:408] conv7_2_conv7_2_relu_0_split -> conv7_2_conv7_2_relu_0_split_4
I0406 19:56:53.868046 20371 net.cpp:150] Setting up conv7_2_conv7_2_relu_0_split
I0406 19:56:53.868053 20371 net.cpp:157] Top shape: 8 256 8 8 (131072)
I0406 19:56:53.868058 20371 net.cpp:157] Top shape: 8 256 8 8 (131072)
I0406 19:56:53.868062 20371 net.cpp:157] Top shape: 8 256 8 8 (131072)
I0406 19:56:53.868067 20371 net.cpp:157] Top shape: 8 256 8 8 (131072)
I0406 19:56:53.868072 20371 net.cpp:157] Top shape: 8 256 8 8 (131072)
I0406 19:56:53.868075 20371 net.cpp:165] Memory required for data: 5487722528
I0406 19:56:53.868079 20371 layer_factory.hpp:77] Creating layer conv8_1
I0406 19:56:53.868091 20371 net.cpp:100] Creating Layer conv8_1
I0406 19:56:53.868098 20371 net.cpp:434] conv8_1 <- conv7_2_conv7_2_relu_0_split_0
I0406 19:56:53.868106 20371 net.cpp:408] conv8_1 -> conv8_1
I0406 19:56:53.869746 20371 net.cpp:150] Setting up conv8_1
I0406 19:56:53.869761 20371 net.cpp:157] Top shape: 8 128 8 8 (65536)
I0406 19:56:53.869767 20371 net.cpp:165] Memory required for data: 5487984672
I0406 19:56:53.869774 20371 layer_factory.hpp:77] Creating layer conv8_1_relu
I0406 19:56:53.869781 20371 net.cpp:100] Creating Layer conv8_1_relu
I0406 19:56:53.869786 20371 net.cpp:434] conv8_1_relu <- conv8_1
I0406 19:56:53.869791 20371 net.cpp:395] conv8_1_relu -> conv8_1 (in-place)
I0406 19:56:53.869948 20371 net.cpp:150] Setting up conv8_1_relu
I0406 19:56:53.869958 20371 net.cpp:157] Top shape: 8 128 8 8 (65536)
I0406 19:56:53.869963 20371 net.cpp:165] Memory required for data: 5488246816
I0406 19:56:53.869967 20371 layer_factory.hpp:77] Creating layer conv8_2
I0406 19:56:53.869978 20371 net.cpp:100] Creating Layer conv8_2
I0406 19:56:53.869984 20371 net.cpp:434] conv8_2 <- conv8_1
I0406 19:56:53.869993 20371 net.cpp:408] conv8_2 -> conv8_2
I0406 19:56:53.873248 20371 net.cpp:150] Setting up conv8_2
I0406 19:56:53.873265 20371 net.cpp:157] Top shape: 8 256 6 6 (73728)
I0406 19:56:53.873268 20371 net.cpp:165] Memory required for data: 5488541728
I0406 19:56:53.873275 20371 layer_factory.hpp:77] Creating layer conv8_2_relu
I0406 19:56:53.873282 20371 net.cpp:100] Creating Layer conv8_2_relu
I0406 19:56:53.873287 20371 net.cpp:434] conv8_2_relu <- conv8_2
I0406 19:56:53.873296 20371 net.cpp:395] conv8_2_relu -> conv8_2 (in-place)
I0406 19:56:53.873563 20371 net.cpp:150] Setting up conv8_2_relu
I0406 19:56:53.873575 20371 net.cpp:157] Top shape: 8 256 6 6 (73728)
I0406 19:56:53.873580 20371 net.cpp:165] Memory required for data: 5488836640
I0406 19:56:53.873584 20371 layer_factory.hpp:77] Creating layer conv8_2_conv8_2_relu_0_split
I0406 19:56:53.873594 20371 net.cpp:100] Creating Layer conv8_2_conv8_2_relu_0_split
I0406 19:56:53.873600 20371 net.cpp:434] conv8_2_conv8_2_relu_0_split <- conv8_2
I0406 19:56:53.873605 20371 net.cpp:408] conv8_2_conv8_2_relu_0_split -> conv8_2_conv8_2_relu_0_split_0
I0406 19:56:53.873613 20371 net.cpp:408] conv8_2_conv8_2_relu_0_split -> conv8_2_conv8_2_relu_0_split_1
I0406 19:56:53.873621 20371 net.cpp:408] conv8_2_conv8_2_relu_0_split -> conv8_2_conv8_2_relu_0_split_2
I0406 19:56:53.873630 20371 net.cpp:408] conv8_2_conv8_2_relu_0_split -> conv8_2_conv8_2_relu_0_split_3
I0406 19:56:53.873636 20371 net.cpp:408] conv8_2_conv8_2_relu_0_split -> conv8_2_conv8_2_relu_0_split_4
I0406 19:56:53.873713 20371 net.cpp:150] Setting up conv8_2_conv8_2_relu_0_split
I0406 19:56:53.873723 20371 net.cpp:157] Top shape: 8 256 6 6 (73728)
I0406 19:56:53.873728 20371 net.cpp:157] Top shape: 8 256 6 6 (73728)
I0406 19:56:53.873731 20371 net.cpp:157] Top shape: 8 256 6 6 (73728)
I0406 19:56:53.873735 20371 net.cpp:157] Top shape: 8 256 6 6 (73728)
I0406 19:56:53.873740 20371 net.cpp:157] Top shape: 8 256 6 6 (73728)
I0406 19:56:53.873744 20371 net.cpp:165] Memory required for data: 5490311200
I0406 19:56:53.873749 20371 layer_factory.hpp:77] Creating layer conv9_1
I0406 19:56:53.873769 20371 net.cpp:100] Creating Layer conv9_1
I0406 19:56:53.873775 20371 net.cpp:434] conv9_1 <- conv8_2_conv8_2_relu_0_split_0
I0406 19:56:53.873783 20371 net.cpp:408] conv9_1 -> conv9_1
I0406 19:56:53.874796 20371 net.cpp:150] Setting up conv9_1
I0406 19:56:53.874810 20371 net.cpp:157] Top shape: 8 128 6 6 (36864)
I0406 19:56:53.874815 20371 net.cpp:165] Memory required for data: 5490458656
I0406 19:56:53.874822 20371 layer_factory.hpp:77] Creating layer conv9_1_relu
I0406 19:56:53.874828 20371 net.cpp:100] Creating Layer conv9_1_relu
I0406 19:56:53.874833 20371 net.cpp:434] conv9_1_relu <- conv9_1
I0406 19:56:53.874841 20371 net.cpp:395] conv9_1_relu -> conv9_1 (in-place)
I0406 19:56:53.875116 20371 net.cpp:150] Setting up conv9_1_relu
I0406 19:56:53.875129 20371 net.cpp:157] Top shape: 8 128 6 6 (36864)
I0406 19:56:53.875133 20371 net.cpp:165] Memory required for data: 5490606112
I0406 19:56:53.875138 20371 layer_factory.hpp:77] Creating layer conv9_2
I0406 19:56:53.875152 20371 net.cpp:100] Creating Layer conv9_2
I0406 19:56:53.875157 20371 net.cpp:434] conv9_2 <- conv9_1
I0406 19:56:53.875164 20371 net.cpp:408] conv9_2 -> conv9_2
I0406 19:56:53.878432 20371 net.cpp:150] Setting up conv9_2
I0406 19:56:53.878446 20371 net.cpp:157] Top shape: 8 256 4 4 (32768)
I0406 19:56:53.878450 20371 net.cpp:165] Memory required for data: 5490737184
I0406 19:56:53.878458 20371 layer_factory.hpp:77] Creating layer conv9_2_relu
I0406 19:56:53.878466 20371 net.cpp:100] Creating Layer conv9_2_relu
I0406 19:56:53.878471 20371 net.cpp:434] conv9_2_relu <- conv9_2
I0406 19:56:53.878476 20371 net.cpp:395] conv9_2_relu -> conv9_2 (in-place)
I0406 19:56:53.878739 20371 net.cpp:150] Setting up conv9_2_relu
I0406 19:56:53.878754 20371 net.cpp:157] Top shape: 8 256 4 4 (32768)
I0406 19:56:53.878759 20371 net.cpp:165] Memory required for data: 5490868256
I0406 19:56:53.878764 20371 layer_factory.hpp:77] Creating layer conv9_2_conv9_2_relu_0_split
I0406 19:56:53.878772 20371 net.cpp:100] Creating Layer conv9_2_conv9_2_relu_0_split
I0406 19:56:53.878777 20371 net.cpp:434] conv9_2_conv9_2_relu_0_split <- conv9_2
I0406 19:56:53.878782 20371 net.cpp:408] conv9_2_conv9_2_relu_0_split -> conv9_2_conv9_2_relu_0_split_0
I0406 19:56:53.878789 20371 net.cpp:408] conv9_2_conv9_2_relu_0_split -> conv9_2_conv9_2_relu_0_split_1
I0406 19:56:53.878798 20371 net.cpp:408] conv9_2_conv9_2_relu_0_split -> conv9_2_conv9_2_relu_0_split_2
I0406 19:56:53.878805 20371 net.cpp:408] conv9_2_conv9_2_relu_0_split -> conv9_2_conv9_2_relu_0_split_3
I0406 19:56:53.878877 20371 net.cpp:150] Setting up conv9_2_conv9_2_relu_0_split
I0406 19:56:53.878885 20371 net.cpp:157] Top shape: 8 256 4 4 (32768)
I0406 19:56:53.878890 20371 net.cpp:157] Top shape: 8 256 4 4 (32768)
I0406 19:56:53.878895 20371 net.cpp:157] Top shape: 8 256 4 4 (32768)
I0406 19:56:53.878900 20371 net.cpp:157] Top shape: 8 256 4 4 (32768)
I0406 19:56:53.878903 20371 net.cpp:165] Memory required for data: 5491392544
I0406 19:56:53.878907 20371 layer_factory.hpp:77] Creating layer conv4_3_norm
I0406 19:56:53.878921 20371 net.cpp:100] Creating Layer conv4_3_norm
I0406 19:56:53.878927 20371 net.cpp:434] conv4_3_norm <- conv4_3_relu4_3_0_split_1
I0406 19:56:53.878935 20371 net.cpp:408] conv4_3_norm -> conv4_3_norm
I0406 19:56:53.879086 20371 net.cpp:150] Setting up conv4_3_norm
I0406 19:56:53.879094 20371 net.cpp:157] Top shape: 8 512 64 64 (16777216)
I0406 19:56:53.879098 20371 net.cpp:165] Memory required for data: 5558501408
I0406 19:56:53.879104 20371 layer_factory.hpp:77] Creating layer conv4_3_norm_conv4_3_norm_0_split
I0406 19:56:53.879111 20371 net.cpp:100] Creating Layer conv4_3_norm_conv4_3_norm_0_split
I0406 19:56:53.879117 20371 net.cpp:434] conv4_3_norm_conv4_3_norm_0_split <- conv4_3_norm
I0406 19:56:53.879124 20371 net.cpp:408] conv4_3_norm_conv4_3_norm_0_split -> conv4_3_norm_conv4_3_norm_0_split_0
I0406 19:56:53.879137 20371 net.cpp:408] conv4_3_norm_conv4_3_norm_0_split -> conv4_3_norm_conv4_3_norm_0_split_1
I0406 19:56:53.879143 20371 net.cpp:408] conv4_3_norm_conv4_3_norm_0_split -> conv4_3_norm_conv4_3_norm_0_split_2
I0406 19:56:53.879160 20371 net.cpp:408] conv4_3_norm_conv4_3_norm_0_split -> conv4_3_norm_conv4_3_norm_0_split_3
I0406 19:56:53.879220 20371 net.cpp:150] Setting up conv4_3_norm_conv4_3_norm_0_split
I0406 19:56:53.879230 20371 net.cpp:157] Top shape: 8 512 64 64 (16777216)
I0406 19:56:53.879235 20371 net.cpp:157] Top shape: 8 512 64 64 (16777216)
I0406 19:56:53.879238 20371 net.cpp:157] Top shape: 8 512 64 64 (16777216)
I0406 19:56:53.879242 20371 net.cpp:157] Top shape: 8 512 64 64 (16777216)
I0406 19:56:53.879246 20371 net.cpp:165] Memory required for data: 5826936864
I0406 19:56:53.879251 20371 layer_factory.hpp:77] Creating layer conv4_3_norm_mbox_loc
I0406 19:56:53.879261 20371 net.cpp:100] Creating Layer conv4_3_norm_mbox_loc
I0406 19:56:53.879268 20371 net.cpp:434] conv4_3_norm_mbox_loc <- conv4_3_norm_conv4_3_norm_0_split_0
I0406 19:56:53.879276 20371 net.cpp:408] conv4_3_norm_mbox_loc -> conv4_3_norm_mbox_loc
I0406 19:56:53.881290 20371 net.cpp:150] Setting up conv4_3_norm_mbox_loc
I0406 19:56:53.881306 20371 net.cpp:157] Top shape: 8 16 64 64 (524288)
I0406 19:56:53.881310 20371 net.cpp:165] Memory required for data: 5829034016
I0406 19:56:53.881317 20371 layer_factory.hpp:77] Creating layer conv4_3_norm_mbox_loc_perm
I0406 19:56:53.881335 20371 net.cpp:100] Creating Layer conv4_3_norm_mbox_loc_perm
I0406 19:56:53.881340 20371 net.cpp:434] conv4_3_norm_mbox_loc_perm <- conv4_3_norm_mbox_loc
I0406 19:56:53.881348 20371 net.cpp:408] conv4_3_norm_mbox_loc_perm -> conv4_3_norm_mbox_loc_perm
I0406 19:56:53.881459 20371 net.cpp:150] Setting up conv4_3_norm_mbox_loc_perm
I0406 19:56:53.881469 20371 net.cpp:157] Top shape: 8 64 64 16 (524288)
I0406 19:56:53.881474 20371 net.cpp:165] Memory required for data: 5831131168
I0406 19:56:53.881477 20371 layer_factory.hpp:77] Creating layer conv4_3_norm_mbox_loc_flat
I0406 19:56:53.881491 20371 net.cpp:100] Creating Layer conv4_3_norm_mbox_loc_flat
I0406 19:56:53.881498 20371 net.cpp:434] conv4_3_norm_mbox_loc_flat <- conv4_3_norm_mbox_loc_perm
I0406 19:56:53.881505 20371 net.cpp:408] conv4_3_norm_mbox_loc_flat -> conv4_3_norm_mbox_loc_flat
I0406 19:56:53.881538 20371 net.cpp:150] Setting up conv4_3_norm_mbox_loc_flat
I0406 19:56:53.881546 20371 net.cpp:157] Top shape: 8 65536 (524288)
I0406 19:56:53.881551 20371 net.cpp:165] Memory required for data: 5833228320
I0406 19:56:53.881556 20371 layer_factory.hpp:77] Creating layer conv4_3_norm_mbox_conf
I0406 19:56:53.881575 20371 net.cpp:100] Creating Layer conv4_3_norm_mbox_conf
I0406 19:56:53.881582 20371 net.cpp:434] conv4_3_norm_mbox_conf <- conv4_3_norm_conv4_3_norm_0_split_1
I0406 19:56:53.881592 20371 net.cpp:408] conv4_3_norm_mbox_conf -> conv4_3_norm_mbox_conf
I0406 19:56:53.882854 20371 net.cpp:150] Setting up conv4_3_norm_mbox_conf
I0406 19:56:53.882869 20371 net.cpp:157] Top shape: 8 8 64 64 (262144)
I0406 19:56:53.882874 20371 net.cpp:165] Memory required for data: 5834276896
I0406 19:56:53.882881 20371 layer_factory.hpp:77] Creating layer conv4_3_norm_mbox_conf_perm
I0406 19:56:53.882890 20371 net.cpp:100] Creating Layer conv4_3_norm_mbox_conf_perm
I0406 19:56:53.882897 20371 net.cpp:434] conv4_3_norm_mbox_conf_perm <- conv4_3_norm_mbox_conf
I0406 19:56:53.882903 20371 net.cpp:408] conv4_3_norm_mbox_conf_perm -> conv4_3_norm_mbox_conf_perm
I0406 19:56:53.883011 20371 net.cpp:150] Setting up conv4_3_norm_mbox_conf_perm
I0406 19:56:53.883020 20371 net.cpp:157] Top shape: 8 64 64 8 (262144)
I0406 19:56:53.883024 20371 net.cpp:165] Memory required for data: 5835325472
I0406 19:56:53.883028 20371 layer_factory.hpp:77] Creating layer conv4_3_norm_mbox_conf_flat
I0406 19:56:53.883035 20371 net.cpp:100] Creating Layer conv4_3_norm_mbox_conf_flat
I0406 19:56:53.883039 20371 net.cpp:434] conv4_3_norm_mbox_conf_flat <- conv4_3_norm_mbox_conf_perm
I0406 19:56:53.883047 20371 net.cpp:408] conv4_3_norm_mbox_conf_flat -> conv4_3_norm_mbox_conf_flat
I0406 19:56:53.883072 20371 net.cpp:150] Setting up conv4_3_norm_mbox_conf_flat
I0406 19:56:53.883080 20371 net.cpp:157] Top shape: 8 32768 (262144)
I0406 19:56:53.883095 20371 net.cpp:165] Memory required for data: 5836374048
I0406 19:56:53.883100 20371 layer_factory.hpp:77] Creating layer conv4_3_norm_mbox_clean
I0406 19:56:53.883113 20371 net.cpp:100] Creating Layer conv4_3_norm_mbox_clean
I0406 19:56:53.883121 20371 net.cpp:434] conv4_3_norm_mbox_clean <- conv4_3_norm_conv4_3_norm_0_split_2
I0406 19:56:53.883126 20371 net.cpp:408] conv4_3_norm_mbox_clean -> conv4_3_norm_mbox_clean
I0406 19:56:53.884294 20371 net.cpp:150] Setting up conv4_3_norm_mbox_clean
I0406 19:56:53.884307 20371 net.cpp:157] Top shape: 8 4 64 64 (131072)
I0406 19:56:53.884312 20371 net.cpp:165] Memory required for data: 5836898336
I0406 19:56:53.884321 20371 layer_factory.hpp:77] Creating layer conv4_3_norm_mbox_clean_perm
I0406 19:56:53.884330 20371 net.cpp:100] Creating Layer conv4_3_norm_mbox_clean_perm
I0406 19:56:53.884335 20371 net.cpp:434] conv4_3_norm_mbox_clean_perm <- conv4_3_norm_mbox_clean
I0406 19:56:53.884341 20371 net.cpp:408] conv4_3_norm_mbox_clean_perm -> conv4_3_norm_mbox_clean_perm
I0406 19:56:53.884448 20371 net.cpp:150] Setting up conv4_3_norm_mbox_clean_perm
I0406 19:56:53.884457 20371 net.cpp:157] Top shape: 8 64 64 4 (131072)
I0406 19:56:53.884461 20371 net.cpp:165] Memory required for data: 5837422624
I0406 19:56:53.884465 20371 layer_factory.hpp:77] Creating layer conv4_3_norm_mbox_clean_flat
I0406 19:56:53.884471 20371 net.cpp:100] Creating Layer conv4_3_norm_mbox_clean_flat
I0406 19:56:53.884476 20371 net.cpp:434] conv4_3_norm_mbox_clean_flat <- conv4_3_norm_mbox_clean_perm
I0406 19:56:53.884485 20371 net.cpp:408] conv4_3_norm_mbox_clean_flat -> conv4_3_norm_mbox_clean_flat
I0406 19:56:53.884510 20371 net.cpp:150] Setting up conv4_3_norm_mbox_clean_flat
I0406 19:56:53.884518 20371 net.cpp:157] Top shape: 8 16384 (131072)
I0406 19:56:53.884523 20371 net.cpp:165] Memory required for data: 5837946912
I0406 19:56:53.884527 20371 layer_factory.hpp:77] Creating layer conv4_3_norm_mbox_priorbox
I0406 19:56:53.884536 20371 net.cpp:100] Creating Layer conv4_3_norm_mbox_priorbox
I0406 19:56:53.884541 20371 net.cpp:434] conv4_3_norm_mbox_priorbox <- conv4_3_norm_conv4_3_norm_0_split_3
I0406 19:56:53.884546 20371 net.cpp:434] conv4_3_norm_mbox_priorbox <- data_data_0_split_1
I0406 19:56:53.884554 20371 net.cpp:408] conv4_3_norm_mbox_priorbox -> conv4_3_norm_mbox_priorbox
I0406 19:56:53.884594 20371 net.cpp:150] Setting up conv4_3_norm_mbox_priorbox
I0406 19:56:53.884603 20371 net.cpp:157] Top shape: 1 2 65536 (131072)
I0406 19:56:53.884608 20371 net.cpp:165] Memory required for data: 5838471200
I0406 19:56:53.884611 20371 layer_factory.hpp:77] Creating layer fc7_mbox_loc
I0406 19:56:53.884623 20371 net.cpp:100] Creating Layer fc7_mbox_loc
I0406 19:56:53.884629 20371 net.cpp:434] fc7_mbox_loc <- fc7_relu7_0_split_1
I0406 19:56:53.884636 20371 net.cpp:408] fc7_mbox_loc -> fc7_mbox_loc
I0406 19:56:53.887426 20371 net.cpp:150] Setting up fc7_mbox_loc
I0406 19:56:53.887440 20371 net.cpp:157] Top shape: 8 24 32 32 (196608)
I0406 19:56:53.887445 20371 net.cpp:165] Memory required for data: 5839257632
I0406 19:56:53.887452 20371 layer_factory.hpp:77] Creating layer fc7_mbox_loc_perm
I0406 19:56:53.887462 20371 net.cpp:100] Creating Layer fc7_mbox_loc_perm
I0406 19:56:53.887467 20371 net.cpp:434] fc7_mbox_loc_perm <- fc7_mbox_loc
I0406 19:56:53.887475 20371 net.cpp:408] fc7_mbox_loc_perm -> fc7_mbox_loc_perm
I0406 19:56:53.887614 20371 net.cpp:150] Setting up fc7_mbox_loc_perm
I0406 19:56:53.887625 20371 net.cpp:157] Top shape: 8 32 32 24 (196608)
I0406 19:56:53.887629 20371 net.cpp:165] Memory required for data: 5840044064
I0406 19:56:53.887634 20371 layer_factory.hpp:77] Creating layer fc7_mbox_loc_flat
I0406 19:56:53.887640 20371 net.cpp:100] Creating Layer fc7_mbox_loc_flat
I0406 19:56:53.887645 20371 net.cpp:434] fc7_mbox_loc_flat <- fc7_mbox_loc_perm
I0406 19:56:53.887652 20371 net.cpp:408] fc7_mbox_loc_flat -> fc7_mbox_loc_flat
I0406 19:56:53.887691 20371 net.cpp:150] Setting up fc7_mbox_loc_flat
I0406 19:56:53.887702 20371 net.cpp:157] Top shape: 8 24576 (196608)
I0406 19:56:53.887717 20371 net.cpp:165] Memory required for data: 5840830496
I0406 19:56:53.887722 20371 layer_factory.hpp:77] Creating layer fc7_mbox_conf
I0406 19:56:53.887734 20371 net.cpp:100] Creating Layer fc7_mbox_conf
I0406 19:56:53.887742 20371 net.cpp:434] fc7_mbox_conf <- fc7_relu7_0_split_2
I0406 19:56:53.887748 20371 net.cpp:408] fc7_mbox_conf -> fc7_mbox_conf
I0406 19:56:53.889468 20371 net.cpp:150] Setting up fc7_mbox_conf
I0406 19:56:53.889483 20371 net.cpp:157] Top shape: 8 12 32 32 (98304)
I0406 19:56:53.889487 20371 net.cpp:165] Memory required for data: 5841223712
I0406 19:56:53.889495 20371 layer_factory.hpp:77] Creating layer fc7_mbox_conf_perm
I0406 19:56:53.889504 20371 net.cpp:100] Creating Layer fc7_mbox_conf_perm
I0406 19:56:53.889509 20371 net.cpp:434] fc7_mbox_conf_perm <- fc7_mbox_conf
I0406 19:56:53.889518 20371 net.cpp:408] fc7_mbox_conf_perm -> fc7_mbox_conf_perm
I0406 19:56:53.889622 20371 net.cpp:150] Setting up fc7_mbox_conf_perm
I0406 19:56:53.889631 20371 net.cpp:157] Top shape: 8 32 32 12 (98304)
I0406 19:56:53.889636 20371 net.cpp:165] Memory required for data: 5841616928
I0406 19:56:53.889639 20371 layer_factory.hpp:77] Creating layer fc7_mbox_conf_flat
I0406 19:56:53.889648 20371 net.cpp:100] Creating Layer fc7_mbox_conf_flat
I0406 19:56:53.889654 20371 net.cpp:434] fc7_mbox_conf_flat <- fc7_mbox_conf_perm
I0406 19:56:53.889660 20371 net.cpp:408] fc7_mbox_conf_flat -> fc7_mbox_conf_flat
I0406 19:56:53.889686 20371 net.cpp:150] Setting up fc7_mbox_conf_flat
I0406 19:56:53.889694 20371 net.cpp:157] Top shape: 8 12288 (98304)
I0406 19:56:53.889699 20371 net.cpp:165] Memory required for data: 5842010144
I0406 19:56:53.889703 20371 layer_factory.hpp:77] Creating layer fc7_mbox_clean
I0406 19:56:53.889714 20371 net.cpp:100] Creating Layer fc7_mbox_clean
I0406 19:56:53.889720 20371 net.cpp:434] fc7_mbox_clean <- fc7_relu7_0_split_3
I0406 19:56:53.889729 20371 net.cpp:408] fc7_mbox_clean -> fc7_mbox_clean
I0406 19:56:53.891110 20371 net.cpp:150] Setting up fc7_mbox_clean
I0406 19:56:53.891126 20371 net.cpp:157] Top shape: 8 6 32 32 (49152)
I0406 19:56:53.891131 20371 net.cpp:165] Memory required for data: 5842206752
I0406 19:56:53.891139 20371 layer_factory.hpp:77] Creating layer fc7_mbox_clean_perm
I0406 19:56:53.891146 20371 net.cpp:100] Creating Layer fc7_mbox_clean_perm
I0406 19:56:53.891151 20371 net.cpp:434] fc7_mbox_clean_perm <- fc7_mbox_clean
I0406 19:56:53.891160 20371 net.cpp:408] fc7_mbox_clean_perm -> fc7_mbox_clean_perm
I0406 19:56:53.891271 20371 net.cpp:150] Setting up fc7_mbox_clean_perm
I0406 19:56:53.891280 20371 net.cpp:157] Top shape: 8 32 32 6 (49152)
I0406 19:56:53.891284 20371 net.cpp:165] Memory required for data: 5842403360
I0406 19:56:53.891288 20371 layer_factory.hpp:77] Creating layer fc7_mbox_clean_flat
I0406 19:56:53.891297 20371 net.cpp:100] Creating Layer fc7_mbox_clean_flat
I0406 19:56:53.891304 20371 net.cpp:434] fc7_mbox_clean_flat <- fc7_mbox_clean_perm
I0406 19:56:53.891309 20371 net.cpp:408] fc7_mbox_clean_flat -> fc7_mbox_clean_flat
I0406 19:56:53.891336 20371 net.cpp:150] Setting up fc7_mbox_clean_flat
I0406 19:56:53.891345 20371 net.cpp:157] Top shape: 8 6144 (49152)
I0406 19:56:53.891348 20371 net.cpp:165] Memory required for data: 5842599968
I0406 19:56:53.891353 20371 layer_factory.hpp:77] Creating layer fc7_mbox_priorbox
I0406 19:56:53.891361 20371 net.cpp:100] Creating Layer fc7_mbox_priorbox
I0406 19:56:53.891366 20371 net.cpp:434] fc7_mbox_priorbox <- fc7_relu7_0_split_4
I0406 19:56:53.891371 20371 net.cpp:434] fc7_mbox_priorbox <- data_data_0_split_2
I0406 19:56:53.891377 20371 net.cpp:408] fc7_mbox_priorbox -> fc7_mbox_priorbox
I0406 19:56:53.891405 20371 net.cpp:150] Setting up fc7_mbox_priorbox
I0406 19:56:53.891414 20371 net.cpp:157] Top shape: 1 2 24576 (49152)
I0406 19:56:53.891418 20371 net.cpp:165] Memory required for data: 5842796576
I0406 19:56:53.891422 20371 layer_factory.hpp:77] Creating layer conv6_2_mbox_loc
I0406 19:56:53.891434 20371 net.cpp:100] Creating Layer conv6_2_mbox_loc
I0406 19:56:53.891450 20371 net.cpp:434] conv6_2_mbox_loc <- conv6_2_conv6_2_relu_0_split_1
I0406 19:56:53.891459 20371 net.cpp:408] conv6_2_mbox_loc -> conv6_2_mbox_loc
I0406 19:56:53.893712 20371 net.cpp:150] Setting up conv6_2_mbox_loc
I0406 19:56:53.893726 20371 net.cpp:157] Top shape: 8 24 16 16 (49152)
I0406 19:56:53.893731 20371 net.cpp:165] Memory required for data: 5842993184
I0406 19:56:53.893738 20371 layer_factory.hpp:77] Creating layer conv6_2_mbox_loc_perm
I0406 19:56:53.893748 20371 net.cpp:100] Creating Layer conv6_2_mbox_loc_perm
I0406 19:56:53.893754 20371 net.cpp:434] conv6_2_mbox_loc_perm <- conv6_2_mbox_loc
I0406 19:56:53.893759 20371 net.cpp:408] conv6_2_mbox_loc_perm -> conv6_2_mbox_loc_perm
I0406 19:56:53.893865 20371 net.cpp:150] Setting up conv6_2_mbox_loc_perm
I0406 19:56:53.893874 20371 net.cpp:157] Top shape: 8 16 16 24 (49152)
I0406 19:56:53.893878 20371 net.cpp:165] Memory required for data: 5843189792
I0406 19:56:53.893882 20371 layer_factory.hpp:77] Creating layer conv6_2_mbox_loc_flat
I0406 19:56:53.893888 20371 net.cpp:100] Creating Layer conv6_2_mbox_loc_flat
I0406 19:56:53.893893 20371 net.cpp:434] conv6_2_mbox_loc_flat <- conv6_2_mbox_loc_perm
I0406 19:56:53.893900 20371 net.cpp:408] conv6_2_mbox_loc_flat -> conv6_2_mbox_loc_flat
I0406 19:56:53.893925 20371 net.cpp:150] Setting up conv6_2_mbox_loc_flat
I0406 19:56:53.893934 20371 net.cpp:157] Top shape: 8 6144 (49152)
I0406 19:56:53.893939 20371 net.cpp:165] Memory required for data: 5843386400
I0406 19:56:53.893942 20371 layer_factory.hpp:77] Creating layer conv6_2_mbox_conf
I0406 19:56:53.893955 20371 net.cpp:100] Creating Layer conv6_2_mbox_conf
I0406 19:56:53.893962 20371 net.cpp:434] conv6_2_mbox_conf <- conv6_2_conv6_2_relu_0_split_2
I0406 19:56:53.893970 20371 net.cpp:408] conv6_2_mbox_conf -> conv6_2_mbox_conf
I0406 19:56:53.895359 20371 net.cpp:150] Setting up conv6_2_mbox_conf
I0406 19:56:53.895375 20371 net.cpp:157] Top shape: 8 12 16 16 (24576)
I0406 19:56:53.895378 20371 net.cpp:165] Memory required for data: 5843484704
I0406 19:56:53.895387 20371 layer_factory.hpp:77] Creating layer conv6_2_mbox_conf_perm
I0406 19:56:53.895395 20371 net.cpp:100] Creating Layer conv6_2_mbox_conf_perm
I0406 19:56:53.895401 20371 net.cpp:434] conv6_2_mbox_conf_perm <- conv6_2_mbox_conf
I0406 19:56:53.895406 20371 net.cpp:408] conv6_2_mbox_conf_perm -> conv6_2_mbox_conf_perm
I0406 19:56:53.895516 20371 net.cpp:150] Setting up conv6_2_mbox_conf_perm
I0406 19:56:53.895525 20371 net.cpp:157] Top shape: 8 16 16 12 (24576)
I0406 19:56:53.895529 20371 net.cpp:165] Memory required for data: 5843583008
I0406 19:56:53.895534 20371 layer_factory.hpp:77] Creating layer conv6_2_mbox_conf_flat
I0406 19:56:53.895539 20371 net.cpp:100] Creating Layer conv6_2_mbox_conf_flat
I0406 19:56:53.895545 20371 net.cpp:434] conv6_2_mbox_conf_flat <- conv6_2_mbox_conf_perm
I0406 19:56:53.895552 20371 net.cpp:408] conv6_2_mbox_conf_flat -> conv6_2_mbox_conf_flat
I0406 19:56:53.895586 20371 net.cpp:150] Setting up conv6_2_mbox_conf_flat
I0406 19:56:53.895596 20371 net.cpp:157] Top shape: 8 3072 (24576)
I0406 19:56:53.895601 20371 net.cpp:165] Memory required for data: 5843681312
I0406 19:56:53.895604 20371 layer_factory.hpp:77] Creating layer conv6_2_mbox_clean
I0406 19:56:53.895615 20371 net.cpp:100] Creating Layer conv6_2_mbox_clean
I0406 19:56:53.895622 20371 net.cpp:434] conv6_2_mbox_clean <- conv6_2_conv6_2_relu_0_split_3
I0406 19:56:53.895630 20371 net.cpp:408] conv6_2_mbox_clean -> conv6_2_mbox_clean
I0406 19:56:53.896785 20371 net.cpp:150] Setting up conv6_2_mbox_clean
I0406 19:56:53.896800 20371 net.cpp:157] Top shape: 8 6 16 16 (12288)
I0406 19:56:53.896803 20371 net.cpp:165] Memory required for data: 5843730464
I0406 19:56:53.896821 20371 layer_factory.hpp:77] Creating layer conv6_2_mbox_clean_perm
I0406 19:56:53.896833 20371 net.cpp:100] Creating Layer conv6_2_mbox_clean_perm
I0406 19:56:53.896841 20371 net.cpp:434] conv6_2_mbox_clean_perm <- conv6_2_mbox_clean
I0406 19:56:53.896847 20371 net.cpp:408] conv6_2_mbox_clean_perm -> conv6_2_mbox_clean_perm
I0406 19:56:53.896952 20371 net.cpp:150] Setting up conv6_2_mbox_clean_perm
I0406 19:56:53.896970 20371 net.cpp:157] Top shape: 8 16 16 6 (12288)
I0406 19:56:53.896975 20371 net.cpp:165] Memory required for data: 5843779616
I0406 19:56:53.896980 20371 layer_factory.hpp:77] Creating layer conv6_2_mbox_clean_flat
I0406 19:56:53.896987 20371 net.cpp:100] Creating Layer conv6_2_mbox_clean_flat
I0406 19:56:53.896993 20371 net.cpp:434] conv6_2_mbox_clean_flat <- conv6_2_mbox_clean_perm
I0406 19:56:53.896999 20371 net.cpp:408] conv6_2_mbox_clean_flat -> conv6_2_mbox_clean_flat
I0406 19:56:53.897028 20371 net.cpp:150] Setting up conv6_2_mbox_clean_flat
I0406 19:56:53.897037 20371 net.cpp:157] Top shape: 8 1536 (12288)
I0406 19:56:53.897042 20371 net.cpp:165] Memory required for data: 5843828768
I0406 19:56:53.897045 20371 layer_factory.hpp:77] Creating layer conv6_2_mbox_priorbox
I0406 19:56:53.897054 20371 net.cpp:100] Creating Layer conv6_2_mbox_priorbox
I0406 19:56:53.897059 20371 net.cpp:434] conv6_2_mbox_priorbox <- conv6_2_conv6_2_relu_0_split_4
I0406 19:56:53.897064 20371 net.cpp:434] conv6_2_mbox_priorbox <- data_data_0_split_3
I0406 19:56:53.897070 20371 net.cpp:408] conv6_2_mbox_priorbox -> conv6_2_mbox_priorbox
I0406 19:56:53.897099 20371 net.cpp:150] Setting up conv6_2_mbox_priorbox
I0406 19:56:53.897107 20371 net.cpp:157] Top shape: 1 2 6144 (12288)
I0406 19:56:53.897112 20371 net.cpp:165] Memory required for data: 5843877920
I0406 19:56:53.897116 20371 layer_factory.hpp:77] Creating layer conv7_2_mbox_loc
I0406 19:56:53.897127 20371 net.cpp:100] Creating Layer conv7_2_mbox_loc
I0406 19:56:53.897133 20371 net.cpp:434] conv7_2_mbox_loc <- conv7_2_conv7_2_relu_0_split_1
I0406 19:56:53.897140 20371 net.cpp:408] conv7_2_mbox_loc -> conv7_2_mbox_loc
I0406 19:56:53.899066 20371 net.cpp:150] Setting up conv7_2_mbox_loc
I0406 19:56:53.899081 20371 net.cpp:157] Top shape: 8 24 8 8 (12288)
I0406 19:56:53.899086 20371 net.cpp:165] Memory required for data: 5843927072
I0406 19:56:53.899093 20371 layer_factory.hpp:77] Creating layer conv7_2_mbox_loc_perm
I0406 19:56:53.899102 20371 net.cpp:100] Creating Layer conv7_2_mbox_loc_perm
I0406 19:56:53.899108 20371 net.cpp:434] conv7_2_mbox_loc_perm <- conv7_2_mbox_loc
I0406 19:56:53.899114 20371 net.cpp:408] conv7_2_mbox_loc_perm -> conv7_2_mbox_loc_perm
I0406 19:56:53.899227 20371 net.cpp:150] Setting up conv7_2_mbox_loc_perm
I0406 19:56:53.899236 20371 net.cpp:157] Top shape: 8 8 8 24 (12288)
I0406 19:56:53.899240 20371 net.cpp:165] Memory required for data: 5843976224
I0406 19:56:53.899245 20371 layer_factory.hpp:77] Creating layer conv7_2_mbox_loc_flat
I0406 19:56:53.899252 20371 net.cpp:100] Creating Layer conv7_2_mbox_loc_flat
I0406 19:56:53.899260 20371 net.cpp:434] conv7_2_mbox_loc_flat <- conv7_2_mbox_loc_perm
I0406 19:56:53.899266 20371 net.cpp:408] conv7_2_mbox_loc_flat -> conv7_2_mbox_loc_flat
I0406 19:56:53.899293 20371 net.cpp:150] Setting up conv7_2_mbox_loc_flat
I0406 19:56:53.899302 20371 net.cpp:157] Top shape: 8 1536 (12288)
I0406 19:56:53.899305 20371 net.cpp:165] Memory required for data: 5844025376
I0406 19:56:53.899309 20371 layer_factory.hpp:77] Creating layer conv7_2_mbox_conf
I0406 19:56:53.899320 20371 net.cpp:100] Creating Layer conv7_2_mbox_conf
I0406 19:56:53.899327 20371 net.cpp:434] conv7_2_mbox_conf <- conv7_2_conv7_2_relu_0_split_2
I0406 19:56:53.899335 20371 net.cpp:408] conv7_2_mbox_conf -> conv7_2_mbox_conf
I0406 19:56:53.900677 20371 net.cpp:150] Setting up conv7_2_mbox_conf
I0406 19:56:53.900692 20371 net.cpp:157] Top shape: 8 12 8 8 (6144)
I0406 19:56:53.900697 20371 net.cpp:165] Memory required for data: 5844049952
I0406 19:56:53.900704 20371 layer_factory.hpp:77] Creating layer conv7_2_mbox_conf_perm
I0406 19:56:53.900713 20371 net.cpp:100] Creating Layer conv7_2_mbox_conf_perm
I0406 19:56:53.900719 20371 net.cpp:434] conv7_2_mbox_conf_perm <- conv7_2_mbox_conf
I0406 19:56:53.900725 20371 net.cpp:408] conv7_2_mbox_conf_perm -> conv7_2_mbox_conf_perm
I0406 19:56:53.900838 20371 net.cpp:150] Setting up conv7_2_mbox_conf_perm
I0406 19:56:53.900847 20371 net.cpp:157] Top shape: 8 8 8 12 (6144)
I0406 19:56:53.900862 20371 net.cpp:165] Memory required for data: 5844074528
I0406 19:56:53.900867 20371 layer_factory.hpp:77] Creating layer conv7_2_mbox_conf_flat
I0406 19:56:53.900876 20371 net.cpp:100] Creating Layer conv7_2_mbox_conf_flat
I0406 19:56:53.900882 20371 net.cpp:434] conv7_2_mbox_conf_flat <- conv7_2_mbox_conf_perm
I0406 19:56:53.900887 20371 net.cpp:408] conv7_2_mbox_conf_flat -> conv7_2_mbox_conf_flat
I0406 19:56:53.900918 20371 net.cpp:150] Setting up conv7_2_mbox_conf_flat
I0406 19:56:53.900925 20371 net.cpp:157] Top shape: 8 768 (6144)
I0406 19:56:53.900929 20371 net.cpp:165] Memory required for data: 5844099104
I0406 19:56:53.900933 20371 layer_factory.hpp:77] Creating layer conv7_2_mbox_clean
I0406 19:56:53.900945 20371 net.cpp:100] Creating Layer conv7_2_mbox_clean
I0406 19:56:53.900952 20371 net.cpp:434] conv7_2_mbox_clean <- conv7_2_conv7_2_relu_0_split_3
I0406 19:56:53.900960 20371 net.cpp:408] conv7_2_mbox_clean -> conv7_2_mbox_clean
I0406 19:56:53.902133 20371 net.cpp:150] Setting up conv7_2_mbox_clean
I0406 19:56:53.902148 20371 net.cpp:157] Top shape: 8 6 8 8 (3072)
I0406 19:56:53.902153 20371 net.cpp:165] Memory required for data: 5844111392
I0406 19:56:53.902159 20371 layer_factory.hpp:77] Creating layer conv7_2_mbox_clean_perm
I0406 19:56:53.902168 20371 net.cpp:100] Creating Layer conv7_2_mbox_clean_perm
I0406 19:56:53.902174 20371 net.cpp:434] conv7_2_mbox_clean_perm <- conv7_2_mbox_clean
I0406 19:56:53.902180 20371 net.cpp:408] conv7_2_mbox_clean_perm -> conv7_2_mbox_clean_perm
I0406 19:56:53.902302 20371 net.cpp:150] Setting up conv7_2_mbox_clean_perm
I0406 19:56:53.902310 20371 net.cpp:157] Top shape: 8 8 8 6 (3072)
I0406 19:56:53.902314 20371 net.cpp:165] Memory required for data: 5844123680
I0406 19:56:53.902318 20371 layer_factory.hpp:77] Creating layer conv7_2_mbox_clean_flat
I0406 19:56:53.902324 20371 net.cpp:100] Creating Layer conv7_2_mbox_clean_flat
I0406 19:56:53.902331 20371 net.cpp:434] conv7_2_mbox_clean_flat <- conv7_2_mbox_clean_perm
I0406 19:56:53.902338 20371 net.cpp:408] conv7_2_mbox_clean_flat -> conv7_2_mbox_clean_flat
I0406 19:56:53.902364 20371 net.cpp:150] Setting up conv7_2_mbox_clean_flat
I0406 19:56:53.902371 20371 net.cpp:157] Top shape: 8 384 (3072)
I0406 19:56:53.902376 20371 net.cpp:165] Memory required for data: 5844135968
I0406 19:56:53.902380 20371 layer_factory.hpp:77] Creating layer conv7_2_mbox_priorbox
I0406 19:56:53.902390 20371 net.cpp:100] Creating Layer conv7_2_mbox_priorbox
I0406 19:56:53.902393 20371 net.cpp:434] conv7_2_mbox_priorbox <- conv7_2_conv7_2_relu_0_split_4
I0406 19:56:53.902400 20371 net.cpp:434] conv7_2_mbox_priorbox <- data_data_0_split_4
I0406 19:56:53.902406 20371 net.cpp:408] conv7_2_mbox_priorbox -> conv7_2_mbox_priorbox
I0406 19:56:53.902436 20371 net.cpp:150] Setting up conv7_2_mbox_priorbox
I0406 19:56:53.902446 20371 net.cpp:157] Top shape: 1 2 1536 (3072)
I0406 19:56:53.902448 20371 net.cpp:165] Memory required for data: 5844148256
I0406 19:56:53.902452 20371 layer_factory.hpp:77] Creating layer conv8_2_mbox_loc
I0406 19:56:53.902467 20371 net.cpp:100] Creating Layer conv8_2_mbox_loc
I0406 19:56:53.902473 20371 net.cpp:434] conv8_2_mbox_loc <- conv8_2_conv8_2_relu_0_split_1
I0406 19:56:53.902479 20371 net.cpp:408] conv8_2_mbox_loc -> conv8_2_mbox_loc
I0406 19:56:53.903803 20371 net.cpp:150] Setting up conv8_2_mbox_loc
I0406 19:56:53.903818 20371 net.cpp:157] Top shape: 8 16 6 6 (4608)
I0406 19:56:53.903822 20371 net.cpp:165] Memory required for data: 5844166688
I0406 19:56:53.903831 20371 layer_factory.hpp:77] Creating layer conv8_2_mbox_loc_perm
I0406 19:56:53.903837 20371 net.cpp:100] Creating Layer conv8_2_mbox_loc_perm
I0406 19:56:53.903842 20371 net.cpp:434] conv8_2_mbox_loc_perm <- conv8_2_mbox_loc
I0406 19:56:53.903851 20371 net.cpp:408] conv8_2_mbox_loc_perm -> conv8_2_mbox_loc_perm
I0406 19:56:53.903967 20371 net.cpp:150] Setting up conv8_2_mbox_loc_perm
I0406 19:56:53.903976 20371 net.cpp:157] Top shape: 8 6 6 16 (4608)
I0406 19:56:53.903980 20371 net.cpp:165] Memory required for data: 5844185120
I0406 19:56:53.903995 20371 layer_factory.hpp:77] Creating layer conv8_2_mbox_loc_flat
I0406 19:56:53.904002 20371 net.cpp:100] Creating Layer conv8_2_mbox_loc_flat
I0406 19:56:53.904007 20371 net.cpp:434] conv8_2_mbox_loc_flat <- conv8_2_mbox_loc_perm
I0406 19:56:53.904016 20371 net.cpp:408] conv8_2_mbox_loc_flat -> conv8_2_mbox_loc_flat
I0406 19:56:53.904043 20371 net.cpp:150] Setting up conv8_2_mbox_loc_flat
I0406 19:56:53.904052 20371 net.cpp:157] Top shape: 8 576 (4608)
I0406 19:56:53.904055 20371 net.cpp:165] Memory required for data: 5844203552
I0406 19:56:53.904060 20371 layer_factory.hpp:77] Creating layer conv8_2_mbox_conf
I0406 19:56:53.904073 20371 net.cpp:100] Creating Layer conv8_2_mbox_conf
I0406 19:56:53.904079 20371 net.cpp:434] conv8_2_mbox_conf <- conv8_2_conv8_2_relu_0_split_2
I0406 19:56:53.904088 20371 net.cpp:408] conv8_2_mbox_conf -> conv8_2_mbox_conf
I0406 19:56:53.905186 20371 net.cpp:150] Setting up conv8_2_mbox_conf
I0406 19:56:53.905201 20371 net.cpp:157] Top shape: 8 8 6 6 (2304)
I0406 19:56:53.905205 20371 net.cpp:165] Memory required for data: 5844212768
I0406 19:56:53.905215 20371 layer_factory.hpp:77] Creating layer conv8_2_mbox_conf_perm
I0406 19:56:53.905225 20371 net.cpp:100] Creating Layer conv8_2_mbox_conf_perm
I0406 19:56:53.905230 20371 net.cpp:434] conv8_2_mbox_conf_perm <- conv8_2_mbox_conf
I0406 19:56:53.905238 20371 net.cpp:408] conv8_2_mbox_conf_perm -> conv8_2_mbox_conf_perm
I0406 19:56:53.905352 20371 net.cpp:150] Setting up conv8_2_mbox_conf_perm
I0406 19:56:53.905364 20371 net.cpp:157] Top shape: 8 6 6 8 (2304)
I0406 19:56:53.905367 20371 net.cpp:165] Memory required for data: 5844221984
I0406 19:56:53.905371 20371 layer_factory.hpp:77] Creating layer conv8_2_mbox_conf_flat
I0406 19:56:53.905380 20371 net.cpp:100] Creating Layer conv8_2_mbox_conf_flat
I0406 19:56:53.905383 20371 net.cpp:434] conv8_2_mbox_conf_flat <- conv8_2_mbox_conf_perm
I0406 19:56:53.905390 20371 net.cpp:408] conv8_2_mbox_conf_flat -> conv8_2_mbox_conf_flat
I0406 19:56:53.905418 20371 net.cpp:150] Setting up conv8_2_mbox_conf_flat
I0406 19:56:53.905426 20371 net.cpp:157] Top shape: 8 288 (2304)
I0406 19:56:53.905431 20371 net.cpp:165] Memory required for data: 5844231200
I0406 19:56:53.905434 20371 layer_factory.hpp:77] Creating layer conv8_2_mbox_clean
I0406 19:56:53.905445 20371 net.cpp:100] Creating Layer conv8_2_mbox_clean
I0406 19:56:53.905452 20371 net.cpp:434] conv8_2_mbox_clean <- conv8_2_conv8_2_relu_0_split_3
I0406 19:56:53.905462 20371 net.cpp:408] conv8_2_mbox_clean -> conv8_2_mbox_clean
I0406 19:56:53.906594 20371 net.cpp:150] Setting up conv8_2_mbox_clean
I0406 19:56:53.906608 20371 net.cpp:157] Top shape: 8 4 6 6 (1152)
I0406 19:56:53.906613 20371 net.cpp:165] Memory required for data: 5844235808
I0406 19:56:53.906620 20371 layer_factory.hpp:77] Creating layer conv8_2_mbox_clean_perm
I0406 19:56:53.906630 20371 net.cpp:100] Creating Layer conv8_2_mbox_clean_perm
I0406 19:56:53.906635 20371 net.cpp:434] conv8_2_mbox_clean_perm <- conv8_2_mbox_clean
I0406 19:56:53.906644 20371 net.cpp:408] conv8_2_mbox_clean_perm -> conv8_2_mbox_clean_perm
I0406 19:56:53.906777 20371 net.cpp:150] Setting up conv8_2_mbox_clean_perm
I0406 19:56:53.906787 20371 net.cpp:157] Top shape: 8 6 6 4 (1152)
I0406 19:56:53.906793 20371 net.cpp:165] Memory required for data: 5844240416
I0406 19:56:53.906797 20371 layer_factory.hpp:77] Creating layer conv8_2_mbox_clean_flat
I0406 19:56:53.906805 20371 net.cpp:100] Creating Layer conv8_2_mbox_clean_flat
I0406 19:56:53.906821 20371 net.cpp:434] conv8_2_mbox_clean_flat <- conv8_2_mbox_clean_perm
I0406 19:56:53.906829 20371 net.cpp:408] conv8_2_mbox_clean_flat -> conv8_2_mbox_clean_flat
I0406 19:56:53.906860 20371 net.cpp:150] Setting up conv8_2_mbox_clean_flat
I0406 19:56:53.906869 20371 net.cpp:157] Top shape: 8 144 (1152)
I0406 19:56:53.906873 20371 net.cpp:165] Memory required for data: 5844245024
I0406 19:56:53.906878 20371 layer_factory.hpp:77] Creating layer conv8_2_mbox_priorbox
I0406 19:56:53.906888 20371 net.cpp:100] Creating Layer conv8_2_mbox_priorbox
I0406 19:56:53.906903 20371 net.cpp:434] conv8_2_mbox_priorbox <- conv8_2_conv8_2_relu_0_split_4
I0406 19:56:53.906910 20371 net.cpp:434] conv8_2_mbox_priorbox <- data_data_0_split_5
I0406 19:56:53.906918 20371 net.cpp:408] conv8_2_mbox_priorbox -> conv8_2_mbox_priorbox
I0406 19:56:53.906952 20371 net.cpp:150] Setting up conv8_2_mbox_priorbox
I0406 19:56:53.906961 20371 net.cpp:157] Top shape: 1 2 576 (1152)
I0406 19:56:53.906965 20371 net.cpp:165] Memory required for data: 5844249632
I0406 19:56:53.906970 20371 layer_factory.hpp:77] Creating layer conv9_2_mbox_loc
I0406 19:56:53.906982 20371 net.cpp:100] Creating Layer conv9_2_mbox_loc
I0406 19:56:53.906988 20371 net.cpp:434] conv9_2_mbox_loc <- conv9_2_conv9_2_relu_0_split_0
I0406 19:56:53.906997 20371 net.cpp:408] conv9_2_mbox_loc -> conv9_2_mbox_loc
I0406 19:56:53.908365 20371 net.cpp:150] Setting up conv9_2_mbox_loc
I0406 19:56:53.908380 20371 net.cpp:157] Top shape: 8 16 4 4 (2048)
I0406 19:56:53.908385 20371 net.cpp:165] Memory required for data: 5844257824
I0406 19:56:53.908391 20371 layer_factory.hpp:77] Creating layer conv9_2_mbox_loc_perm
I0406 19:56:53.908399 20371 net.cpp:100] Creating Layer conv9_2_mbox_loc_perm
I0406 19:56:53.908404 20371 net.cpp:434] conv9_2_mbox_loc_perm <- conv9_2_mbox_loc
I0406 19:56:53.908412 20371 net.cpp:408] conv9_2_mbox_loc_perm -> conv9_2_mbox_loc_perm
I0406 19:56:53.908529 20371 net.cpp:150] Setting up conv9_2_mbox_loc_perm
I0406 19:56:53.908540 20371 net.cpp:157] Top shape: 8 4 4 16 (2048)
I0406 19:56:53.908543 20371 net.cpp:165] Memory required for data: 5844266016
I0406 19:56:53.908547 20371 layer_factory.hpp:77] Creating layer conv9_2_mbox_loc_flat
I0406 19:56:53.908555 20371 net.cpp:100] Creating Layer conv9_2_mbox_loc_flat
I0406 19:56:53.908562 20371 net.cpp:434] conv9_2_mbox_loc_flat <- conv9_2_mbox_loc_perm
I0406 19:56:53.908571 20371 net.cpp:408] conv9_2_mbox_loc_flat -> conv9_2_mbox_loc_flat
I0406 19:56:53.908597 20371 net.cpp:150] Setting up conv9_2_mbox_loc_flat
I0406 19:56:53.908605 20371 net.cpp:157] Top shape: 8 256 (2048)
I0406 19:56:53.908609 20371 net.cpp:165] Memory required for data: 5844274208
I0406 19:56:53.908613 20371 layer_factory.hpp:77] Creating layer conv9_2_mbox_conf
I0406 19:56:53.908627 20371 net.cpp:100] Creating Layer conv9_2_mbox_conf
I0406 19:56:53.908633 20371 net.cpp:434] conv9_2_mbox_conf <- conv9_2_conv9_2_relu_0_split_1
I0406 19:56:53.908640 20371 net.cpp:408] conv9_2_mbox_conf -> conv9_2_mbox_conf
I0406 19:56:53.909910 20371 net.cpp:150] Setting up conv9_2_mbox_conf
I0406 19:56:53.909926 20371 net.cpp:157] Top shape: 8 8 4 4 (1024)
I0406 19:56:53.909931 20371 net.cpp:165] Memory required for data: 5844278304
I0406 19:56:53.909940 20371 layer_factory.hpp:77] Creating layer conv9_2_mbox_conf_perm
I0406 19:56:53.909946 20371 net.cpp:100] Creating Layer conv9_2_mbox_conf_perm
I0406 19:56:53.909951 20371 net.cpp:434] conv9_2_mbox_conf_perm <- conv9_2_mbox_conf
I0406 19:56:53.909960 20371 net.cpp:408] conv9_2_mbox_conf_perm -> conv9_2_mbox_conf_perm
I0406 19:56:53.910099 20371 net.cpp:150] Setting up conv9_2_mbox_conf_perm
I0406 19:56:53.910109 20371 net.cpp:157] Top shape: 8 4 4 8 (1024)
I0406 19:56:53.910114 20371 net.cpp:165] Memory required for data: 5844282400
I0406 19:56:53.910117 20371 layer_factory.hpp:77] Creating layer conv9_2_mbox_conf_flat
I0406 19:56:53.910126 20371 net.cpp:100] Creating Layer conv9_2_mbox_conf_flat
I0406 19:56:53.910131 20371 net.cpp:434] conv9_2_mbox_conf_flat <- conv9_2_mbox_conf_perm
I0406 19:56:53.910137 20371 net.cpp:408] conv9_2_mbox_conf_flat -> conv9_2_mbox_conf_flat
I0406 19:56:53.910168 20371 net.cpp:150] Setting up conv9_2_mbox_conf_flat
I0406 19:56:53.910176 20371 net.cpp:157] Top shape: 8 128 (1024)
I0406 19:56:53.910181 20371 net.cpp:165] Memory required for data: 5844286496
I0406 19:56:53.910185 20371 layer_factory.hpp:77] Creating layer conv9_2_mbox_clean
I0406 19:56:53.910197 20371 net.cpp:100] Creating Layer conv9_2_mbox_clean
I0406 19:56:53.910202 20371 net.cpp:434] conv9_2_mbox_clean <- conv9_2_conv9_2_relu_0_split_2
I0406 19:56:53.910221 20371 net.cpp:408] conv9_2_mbox_clean -> conv9_2_mbox_clean
I0406 19:56:53.911465 20371 net.cpp:150] Setting up conv9_2_mbox_clean
I0406 19:56:53.911479 20371 net.cpp:157] Top shape: 8 4 4 4 (512)
I0406 19:56:53.911490 20371 net.cpp:165] Memory required for data: 5844288544
I0406 19:56:53.911497 20371 layer_factory.hpp:77] Creating layer conv9_2_mbox_clean_perm
I0406 19:56:53.911505 20371 net.cpp:100] Creating Layer conv9_2_mbox_clean_perm
I0406 19:56:53.911510 20371 net.cpp:434] conv9_2_mbox_clean_perm <- conv9_2_mbox_clean
I0406 19:56:53.911517 20371 net.cpp:408] conv9_2_mbox_clean_perm -> conv9_2_mbox_clean_perm
I0406 19:56:53.911662 20371 net.cpp:150] Setting up conv9_2_mbox_clean_perm
I0406 19:56:53.911674 20371 net.cpp:157] Top shape: 8 4 4 4 (512)
I0406 19:56:53.911679 20371 net.cpp:165] Memory required for data: 5844290592
I0406 19:56:53.911684 20371 layer_factory.hpp:77] Creating layer conv9_2_mbox_clean_flat
I0406 19:56:53.911694 20371 net.cpp:100] Creating Layer conv9_2_mbox_clean_flat
I0406 19:56:53.911698 20371 net.cpp:434] conv9_2_mbox_clean_flat <- conv9_2_mbox_clean_perm
I0406 19:56:53.911705 20371 net.cpp:408] conv9_2_mbox_clean_flat -> conv9_2_mbox_clean_flat
I0406 19:56:53.911736 20371 net.cpp:150] Setting up conv9_2_mbox_clean_flat
I0406 19:56:53.911746 20371 net.cpp:157] Top shape: 8 64 (512)
I0406 19:56:53.911749 20371 net.cpp:165] Memory required for data: 5844292640
I0406 19:56:53.911754 20371 layer_factory.hpp:77] Creating layer conv9_2_mbox_priorbox
I0406 19:56:53.911761 20371 net.cpp:100] Creating Layer conv9_2_mbox_priorbox
I0406 19:56:53.911767 20371 net.cpp:434] conv9_2_mbox_priorbox <- conv9_2_conv9_2_relu_0_split_3
I0406 19:56:53.911772 20371 net.cpp:434] conv9_2_mbox_priorbox <- data_data_0_split_6
I0406 19:56:53.911780 20371 net.cpp:408] conv9_2_mbox_priorbox -> conv9_2_mbox_priorbox
I0406 19:56:53.911813 20371 net.cpp:150] Setting up conv9_2_mbox_priorbox
I0406 19:56:53.911820 20371 net.cpp:157] Top shape: 1 2 256 (512)
I0406 19:56:53.911824 20371 net.cpp:165] Memory required for data: 5844294688
I0406 19:56:53.911829 20371 layer_factory.hpp:77] Creating layer mbox_loc
I0406 19:56:53.911836 20371 net.cpp:100] Creating Layer mbox_loc
I0406 19:56:53.911844 20371 net.cpp:434] mbox_loc <- conv4_3_norm_mbox_loc_flat
I0406 19:56:53.911850 20371 net.cpp:434] mbox_loc <- fc7_mbox_loc_flat
I0406 19:56:53.911855 20371 net.cpp:434] mbox_loc <- conv6_2_mbox_loc_flat
I0406 19:56:53.911861 20371 net.cpp:434] mbox_loc <- conv7_2_mbox_loc_flat
I0406 19:56:53.911866 20371 net.cpp:434] mbox_loc <- conv8_2_mbox_loc_flat
I0406 19:56:53.911871 20371 net.cpp:434] mbox_loc <- conv9_2_mbox_loc_flat
I0406 19:56:53.911880 20371 net.cpp:408] mbox_loc -> mbox_loc
I0406 19:56:53.911926 20371 net.cpp:150] Setting up mbox_loc
I0406 19:56:53.911936 20371 net.cpp:157] Top shape: 8 98624 (788992)
I0406 19:56:53.911939 20371 net.cpp:165] Memory required for data: 5847450656
I0406 19:56:53.911943 20371 layer_factory.hpp:77] Creating layer mbox_conf
I0406 19:56:53.911952 20371 net.cpp:100] Creating Layer mbox_conf
I0406 19:56:53.911958 20371 net.cpp:434] mbox_conf <- conv4_3_norm_mbox_conf_flat
I0406 19:56:53.911964 20371 net.cpp:434] mbox_conf <- fc7_mbox_conf_flat
I0406 19:56:53.911969 20371 net.cpp:434] mbox_conf <- conv6_2_mbox_conf_flat
I0406 19:56:53.911975 20371 net.cpp:434] mbox_conf <- conv7_2_mbox_conf_flat
I0406 19:56:53.911979 20371 net.cpp:434] mbox_conf <- conv8_2_mbox_conf_flat
I0406 19:56:53.911984 20371 net.cpp:434] mbox_conf <- conv9_2_mbox_conf_flat
I0406 19:56:53.911991 20371 net.cpp:408] mbox_conf -> mbox_conf
I0406 19:56:53.912022 20371 net.cpp:150] Setting up mbox_conf
I0406 19:56:53.912030 20371 net.cpp:157] Top shape: 8 49312 (394496)
I0406 19:56:53.912034 20371 net.cpp:165] Memory required for data: 5849028640
I0406 19:56:53.912039 20371 layer_factory.hpp:77] Creating layer mbox_priorbox
I0406 19:56:53.912045 20371 net.cpp:100] Creating Layer mbox_priorbox
I0406 19:56:53.912050 20371 net.cpp:434] mbox_priorbox <- conv4_3_norm_mbox_priorbox
I0406 19:56:53.912055 20371 net.cpp:434] mbox_priorbox <- fc7_mbox_priorbox
I0406 19:56:53.912072 20371 net.cpp:434] mbox_priorbox <- conv6_2_mbox_priorbox
I0406 19:56:53.912078 20371 net.cpp:434] mbox_priorbox <- conv7_2_mbox_priorbox
I0406 19:56:53.912082 20371 net.cpp:434] mbox_priorbox <- conv8_2_mbox_priorbox
I0406 19:56:53.912087 20371 net.cpp:434] mbox_priorbox <- conv9_2_mbox_priorbox
I0406 19:56:53.912093 20371 net.cpp:408] mbox_priorbox -> mbox_priorbox
I0406 19:56:53.912123 20371 net.cpp:150] Setting up mbox_priorbox
I0406 19:56:53.912133 20371 net.cpp:157] Top shape: 1 2 98624 (197248)
I0406 19:56:53.912137 20371 net.cpp:165] Memory required for data: 5849817632
I0406 19:56:53.912142 20371 layer_factory.hpp:77] Creating layer mbox_clean
I0406 19:56:53.912150 20371 net.cpp:100] Creating Layer mbox_clean
I0406 19:56:53.912155 20371 net.cpp:434] mbox_clean <- conv4_3_norm_mbox_clean_flat
I0406 19:56:53.912160 20371 net.cpp:434] mbox_clean <- fc7_mbox_clean_flat
I0406 19:56:53.912165 20371 net.cpp:434] mbox_clean <- conv6_2_mbox_clean_flat
I0406 19:56:53.912170 20371 net.cpp:434] mbox_clean <- conv7_2_mbox_clean_flat
I0406 19:56:53.912175 20371 net.cpp:434] mbox_clean <- conv8_2_mbox_clean_flat
I0406 19:56:53.912180 20371 net.cpp:434] mbox_clean <- conv9_2_mbox_clean_flat
I0406 19:56:53.912187 20371 net.cpp:408] mbox_clean -> mbox_clean
I0406 19:56:53.912216 20371 net.cpp:150] Setting up mbox_clean
I0406 19:56:53.912225 20371 net.cpp:157] Top shape: 8 24656 (197248)
I0406 19:56:53.912230 20371 net.cpp:165] Memory required for data: 5850606624
I0406 19:56:53.912233 20371 layer_factory.hpp:77] Creating layer mbox_loss
I0406 19:56:53.912247 20371 net.cpp:100] Creating Layer mbox_loss
I0406 19:56:53.912255 20371 net.cpp:434] mbox_loss <- mbox_loc
I0406 19:56:53.912261 20371 net.cpp:434] mbox_loss <- mbox_conf
I0406 19:56:53.912264 20371 net.cpp:434] mbox_loss <- mbox_priorbox
…
  top: "label"
  include {
    phase: TEST
  }
  transform_param {
    mean_value: 104
    mean_value: 117
    mean_value: 123
    force_color: true
    resize_param {
      prob: 1
      resize_mode: WARP
      height: 512
      width: 512
      interp_mode: LINEAR
    }
  }
  data_param {
    source: "/data/siyu/dataset/coco/lmdb/COCO_Val2014_person_lmdb"
    batch_size: 2
    backend: LMDB
  }
  annotated_data_param {
    batch_sampler {
    }
    label_map_file: "/data/siyu/dataset/coco/labelmap_coco-person.prototxt"
    part_sampler_prob: 0
  }
}
layer {
  name: "conv1_1"
  type: "Convolution"
  bottom: "data"
  top: "conv1_1"
  param {
    lr_mult: 1
    decay_mult: 1
  }
  param {
    lr_mult: 2
    decay_mult: 0
  }
  convolution_param {
    num_output: 64
    pad: 1
    kernel_size: 3
    weight_filler {
      type: "xavier"
    }
    bias_filler {
      type: "constant"
      value: 0
    }
  }
}
layer {
  name: "relu1_1"
  type: "ReLU"
  bottom: "conv1_1"
  top: "conv1_1"
}
layer {
  name: "conv1_2"
  type: "Convolution"
  bottom: "conv1_1"
  top: "conv1_2"
  param {
    lr_mult: 1
    decay_mult: 1
  }
  param {
    lr_mult: 2
    decay_mult: 0
  }
  convolution_param {
    num_output: 64
    pad: 1
    kernel_size: 3
    weight_filler {
      type: "xavier"
    }
    bias_filler {
      type: "constant"
      value: 0
    }
  }
}
layer {
  name: "relu1_2"
  type: "ReLU"
  bottom: "conv1_2"
  top: "conv1_2"
}
layer {
  name: "pool1"
  type: "Pooling"
  bottom: "conv1_2"
  top: "pool1"
  pooling_param {
    pool: MAX
    kernel_size: 2
    stride: 2
  }
}
layer {
  name: "conv2_1"
  type: "Convolution"
  bottom: "pool1"
  top: "conv2_1"
  param {
    lr_mult: 1
    decay_mult: 1
  }
  param {
    lr_mult: 2
    decay_mult: 0
  }
  convolution_param {
    num_output: 128
    pad: 1
    kernel_size: 3
    weight_filler {
      type: "xavier"
    }
    bias_filler {
      type: "constant"
      value: 0
    }
  }
}
layer {
  name: "relu2_1"
  type: "ReLU"
  bottom: "conv2_1"
  top: "conv2_1"
}
layer {
  name: "conv2_2"
  type: "Convolution"
  bottom: "conv2_1"
  top: "conv2_2"
  param {
    lr_mult: 1
    decay_mult: 1
  }
  param {
    lr_mult: 2
    decay_mult: 0
  }
  convolution_param {
    num_output: 128
    pad: 1
    kernel_size: 3
    weight_filler {
      type: "xavier"
    }
    bias_filler {
      type: "constant"
      value: 0
    }
  }
}
layer {
  name: "relu2_2"
  type: "ReLU"
  bottom: "conv2_2"
  top: "conv2_2"
}
layer {
  name: "pool2"
  type: "Pooling"
  bottom: "conv2_2"
  top: "pool2"
  pooling_param {
    pool: MAX
    kernel_size: 2
    stride: 2
  }
}
layer {
  name: "conv3_1"
  type: "Convolution"
  bottom: "pool2"
  top: "conv3_1"
  param {
    lr_mult: 1
    decay_mult: 1
  }
  param {
    lr_mult: 2
    decay_mult: 0
  }
  convolution_param {
    num_output: 256
    pad: 1
    kernel_size: 3
    weight_filler {
      type: "xavier"
    }
    bias_filler {
      type: "constant"
      value: 0
    }
  }
}
layer {
  name: "relu3_1"
  type: "ReLU"
  bottom: "conv3_1"
  top: "conv3_1"
}
layer {
  name: "conv3_2"
  type: "Convolution"
  bottom: "conv3_1"
  top: "conv3_2"
  param {
    lr_mult: 1
    decay_mult: 1
  }
  param {
    lr_mult: 2
    decay_mult: 0
  }
  convolution_param {
    num_output: 256
    pad: 1
    kernel_size: 3
    weight_filler {
      type: "xavier"
    }
    bias_filler {
      type: "constant"
      value: 0
    }
  }
}
layer {
  name: "relu3_2"
  type: "ReLU"
  bottom: "conv3_2"
  top: "conv3_2"
}
layer {
  name: "conv3_3"
  type: "Convolution"
  bottom: "conv3_2"
  top: "conv3_3"
  param {
    lr_mult: 1
    decay_mult: 1
  }
  param {
    lr_mult: 2
    decay_mult: 0
  }
  convolution_param {
    num_output: 256
    pad: 1
    kernel_size: 3
    weight_filler {
      type: "xavier"
    }
    bias_filler {
      type: "constant"
      value: 0
    }
  }
}
layer {
  name: "relu3_3"
  type: "ReLU"
  bottom: "conv3_3"
  top: "conv3_3"
}
layer {
  name: "pool3"
  type: "Pooling"
  bottom: "conv3_3"
  top: "pool3"
  pooling_param {
    pool: MAX
    kernel_size: 2
    stride: 2
  }
}
layer {
  name: "conv4_1"
  type: "Convolution"
  bottom: "pool3"
  top: "conv4_1"
  param {
    lr_mult: 1
    decay_mult: 1
  }
  param {
    lr_mult: 2
    decay_mult: 0
  }
  convolution_param {
    num_output: 512
    pad: 1
    kernel_size: 3
    weight_filler {
      type: "xavier"
    }
    bias_filler {
      type: "constant"
      value: 0
    }
  }
}
layer {
  name: "relu4_1"
  type: "ReLU"
  bottom: "conv4_1"
  top: "conv4_1"
}
layer {
  name: "conv4_2"
  type: "Convolution"
  bottom: "conv4_1"
  top: "conv4_2"
  param {
    lr_mult: 1
    decay_mult: 1
  }
  param {
    lr_mult: 2
    decay_mult: 0
  }
  convolution_param {
    num_output: 512
    pad: 1
    kernel_size: 3
    weight_filler {
      type: "xavier"
    }
    bias_filler {
      type: "constant"
      value: 0
    }
  }
}
layer {
  name: "relu4_2"
  type: "ReLU"
  bottom: "conv4_2"
  top: "conv4_2"
}
layer {
  name: "conv4_3"
  type: "Convolution"
  bottom: "conv4_2"
  top: "conv4_3"
  param {
    lr_mult: 1
    decay_mult: 1
  }
  param {
    lr_mult: 2
    decay_mult: 0
  }
  convolution_param {
    num_output: 512
    pad: 1
    kernel_size: 3
    weight_filler {
      type: "xavier"
    }
    bias_filler {
      type: "constant"
      value: 0
    }
  }
}
layer {
  name: "relu4_3"
  type: "ReLU"
  bottom: "conv4_3"
  top: "conv4_3"
}
layer {
  name: "pool4"
  type: "Pooling"
  bottom: "conv4_3"
  top: "pool4"
  pooling_param {
    pool: MAX
    kernel_size: 2
    stride: 2
  }
}
layer {
  name: "conv5_1"
  type: "Convolution"
  bottom: "pool4"
  top: "conv5_1"
  param {
    lr_mult: 1
    decay_mult: 1
  }
  param {
    lr_mult: 2
    decay_mult: 0
  }
  convolution_param {
    num_output: 512
    pad: 1
    kernel_size: 3
    weight_filler {
      type: "xavier"
    }
    bias_filler {
      type: "constant"
      value: 0
    }
    dilation: 1
  }
}
layer {
  name: "relu5_1"
  type: "ReLU"
  bottom: "conv5_1"
  top: "conv5_1"
}
layer {
  name: "conv5_2"
  type: "Convolution"
  bottom: "conv5_1"
  top: "conv5_2"
  param {
    lr_mult: 1
    decay_mult: 1
  }
  param {
    lr_mult: 2
    decay_mult: 0
  }
  convolution_param {
    num_output: 512
    pad: 1
    kernel_size: 3
    weight_filler {
      type: "xavier"
    }
    bias_filler {
      type: "constant"
      value: 0
    }
    dilation: 1
  }
}
layer {
  name: "relu5_2"
  type: "ReLU"
  bottom: "conv5_2"
  top: "conv5_2"
}
layer {
  name: "conv5_3"
  type: "Convolution"
  bottom: "conv5_2"
  top: "conv5_3"
  param {
    lr_mult: 1
    decay_mult: 1
  }
  param {
    lr_mult: 2
    decay_mult: 0
  }
  convolution_param {
    num_output: 512
    pad: 1
    kernel_size: 3
    weight_filler {
      type: "xavier"
    }
    bias_filler {
      type: "constant"
      value: 0
    }
    dilation: 1
  }
}
layer {
  name: "relu5_3"
  type: "ReLU"
  bottom: "conv5_3"
  top: "conv5_3"
}
layer {
  name: "pool5"
  type: "Pooling"
  bottom: "conv5_3"
  top: "pool5"
  pooling_param {
    pool: MAX
    kernel_size: 3
    stride: 1
    pad: 1
  }
}
layer {
  name: "fc6"
  type: "Convolution"
  bottom: "pool5"
  top: "fc6"
  param {
    lr_mult: 1
    decay_mult: 1
  }
  param {
    lr_mult: 2
    decay_mult: 0
  }
  convolution_param {
    num_output: 1024
    pad: 6
    kernel_size: 3
    weight_filler {
      type: "xavier"
    }
    bias_filler {
      type: "constant"
      value: 0
    }
    dilation: 6
  }
}
layer {
  name: "relu6"
  type: "ReLU"
  bottom: "fc6"
  top: "fc6"
}
layer {
  name: "fc7"
  type: "Convolution"
  bottom: "fc6"
  top: "fc7"
  param {
    lr_mult: 1
    decay_mult: 1
  }
  param {
    lr_mult: 2
    decay_mult: 0
  }
  convolution_param {
    num_output: 1024
    kernel_size: 1
    weight_filler {
      type: "xavier"
    }
    bias_filler {
      type: "constant"
      value: 0
    }
  }
}
layer {
  name: "relu7"
  type: "ReLU"
  bottom: "fc7"
  top: "fc7"
}
layer {
  name: "conv6_1"
  type: "Convolution"
  bottom: "fc7"
  top: "conv6_1"
  param {
    lr_mult: 1
    decay_mult: 1
  }
  param {
    lr_mult: 2
    decay_mult: 0
  }
  convolution_param {
    num_output: 256
    pad: 0
    kernel_size: 1
    stride: 1
    weight_filler {
      type: "xavier"
    }
    bias_filler {
      type: "constant"
      value: 0
    }
  }
}
layer {
  name: "conv6_1_relu"
  type: "ReLU"
  bottom: "conv6_1"
  top: "conv6_1"
}
layer {
  name: "conv6_2"
  type: "Convolution"
  bottom: "conv6_1"
  top: "conv6_2"
  param {
    lr_mult: 1
    decay_mult: 1
  }
  param {
    lr_mult: 2
    decay_mult: 0
  }
  convolution_param {
    num_output: 512
    pad: 1
    kernel_size: 3
    stride: 2
    weight_filler {
      type: "xavier"
    }
    bias_filler {
      type: "constant"
      value: 0
    }
  }
}
layer {
  name: "conv6_2_relu"
  type: "ReLU"
  bottom: "conv6_2"
  top: "conv6_2"
}
layer {
  name: "conv7_1"
  type: "Convolution"
  bottom: "conv6_2"
  top: "conv7_1"
  param {
    lr_mult: 1
    decay_mult: 1
  }
  param {
    lr_mult: 2
    decay_mult: 0
  }
  convolution_param {
    num_output: 128
    pad: 0
    kernel_size: 1
    stride: 1
    weight_filler {
      type: "xavier"
    }
    bias_filler {
      type: "constant"
      value: 0
    }
  }
}
layer {
  name: "conv7_1_relu"
  type: "ReLU"
  bottom: "conv7_1"
  top: "conv7_1"
}
layer {
  name: "conv7_2"
  type: "Convolution"
  bottom: "conv7_1"
  top: "conv7_2"
  param {
    lr_mult: 1
    decay_mult: 1
  }
  param {
    lr_mult: 2
    decay_mult: 0
  }
  convolution_param {
    num_output: 256
    pad: 1
    kernel_size: 3
    stride: 2
    weight_filler {
      type: "xavier"
    }
    bias_filler {
      type: "constant"
      value: 0
    }
  }
}
layer {
  name: "conv7_2_relu"
  type: "ReLU"
  bottom: "conv7_2"
  top: "conv7_2"
}
layer {
  name: "conv8_1"
  type: "Convolution"
  bottom: "conv7_2"
  top: "conv8_1"
  param {
    lr_mult: 1
    decay_mult: 1
  }
  param {
    lr_mult: 2
    decay_mult: 0
  }
  convolution_param {
    num_output: 128
    pad: 0
    kernel_size: 1
    stride: 1
    weight_filler {
      type: "xavier"
    }
    bias_filler {
      type: "constant"
      value: 0
    }
  }
}
layer {
  name: "conv8_1_relu"
  type: "ReLU"
  bottom: "conv8_1"
  top: "conv8_1"
}
layer {
  name: "conv8_2"
  type: "Convolution"
  bottom: "conv8_1"
  top: "conv8_2"
  param {
    lr_mult: 1
    decay_mult: 1
  }
  param {
    lr_mult: 2
    decay_mult: 0
  }
  convolution_param {
    num_output: 256
    pad: 0
    kernel_size: 3
    stride: 1
    weight_filler {
      type: "xavier"
    }
    bias_filler {
      type: "constant"
      value: 0
    }
  }
}
layer {
  name: "conv8_2_relu"
  type: "ReLU"
  bottom: "conv8_2"
  top: "conv8_2"
}
layer {
  name: "conv9_1"
  type: "Convolution"
  bottom: "conv8_2"
  top: "conv9_1"
  param {
    lr_mult: 1
    decay_mult: 1
  }
  param {
    lr_mult: 2
    decay_mult: 0
  }
  convolution_param {
    num_output: 128
    pad: 0
    kernel_size: 1
    stride: 1
    weight_filler {
      type: "xavier"
    }
    bias_filler {
      type: "constant"
      value: 0
    }
  }
}
layer {
  name: "conv9_1_relu"
  type: "ReLU"
  bottom: "conv9_1"
  top: "conv9_1"
}
layer {
  name: "conv9_2"
  type: "Convolution"
  bottom: "conv9_1"
  top: "conv9_2"
  param {
    lr_mult: 1
    decay_mult: 1
  }
  param {
    lr_mult: 2
    decay_mult: 0
  }
  convolution_param {
    num_output: 256
    pad: 0
    kernel_size: 3
    stride: 1
    weight_filler {
      type: "xavier"
    }
    bias_filler {
      type: "constant"
      value: 0
    }
  }
}
layer {
  name: "conv9_2_relu"
  type: "ReLU"
  bottom: "conv9_2"
  top: "conv9_2"
}
layer {
  name: "conv4_3_norm"
  type: "Normalize"
  bottom: "conv4_3"
  top: "conv4_3_norm"
  norm_param {
    across_spatial: false
    scale_filler {
      type: "constant"
      value: 20
    }
    channel_shared: false
  }
}
layer {
  name: "conv4_3_norm_mbox_loc"
  type: "Convolution"
  bottom: "conv4_3_norm"
  top: "conv4_3_norm_mbox_loc"
  param {
    lr_mult: 1
    decay_mult: 1
  }
  param {
    lr_mult: 2
    decay_mult: 0
  }
  convolution_param {
    num_output: 16
    pad: 1
    kernel_size: 3
    stride: 1
    weight_filler {
      type: "xavier"
    }
    bias_filler {
      type: "constant"
      value: 0
    }
  }
}
layer {
  name: "conv4_3_norm_mbox_loc_perm"
  type: "Permute"
  bottom: "conv4_3_norm_mbox_loc"
  top: "conv4_3_norm_mbox_loc_perm"
  permute_param {
    order: 0
    order: 2
    order: 3
    order: 1
  }
}
layer {
  name: "conv4_3_norm_mbox_loc_flat"
  type: "Flatten"
  bottom: "conv4_3_norm_mbox_loc_perm"
  top: "conv4_3_norm_mbox_loc_flat"
  flatten_param {
    axis: 1
  }
}
layer {
  name: "conv4_3_norm_mbox_conf"
  type: "Convolution"
  bottom: "conv4_3_norm"
  top: "conv4_3_norm_mbox_conf"
  param {
    lr_mult: 1
    decay_mult: 1
  }
  param {
    lr_mult: 2
    decay_mult: 0
  }
  convolution_param {
    num_output: 8
    pad: 1
    kernel_size: 3
    stride: 1
    weight_filler {
      type: "xavier"
    }
    bias_filler {
      type: "constant"
      value: 0
    }
  }
}
layer {
  name: "conv4_3_norm_mbox_conf_perm"
  type: "Permute"
  bottom: "conv4_3_norm_mbox_conf"
  top: "conv4_3_norm_mbox_conf_perm"
  permute_param {
    order: 0
    order: 2
    order: 3
    order: 1
  }
}
layer {
  name: "conv4_3_norm_mbox_conf_flat"
  type: "Flatten"
  bottom: "conv4_3_norm_mbox_conf_perm"
  top: "conv4_3_norm_mbox_conf_flat"
  flatten_param {
    axis: 1
  }
}
layer {
  name: "conv4_3_norm_mbox_clean"
  type: "Convolution"
  bottom: "conv4_3_norm"
  top: "conv4_3_norm_mbox_clean"
  param {
    lr_mult: 1
    decay_mult: 1
  }
  param {
    lr_mult: 2
    decay_mult: 0
  }
  convolution_param {
    num_output: 4
    pad: 1
    kernel_size: 3
    stride: 1
    weight_filler {
      type: "xavier"
    }
    bias_filler {
      type: "constant"
      value: 0
    }
  }
}
layer {
  name: "conv4_3_norm_mbox_clean_perm"
  type: "Permute"
  bottom: "conv4_3_norm_mbox_clean"
  top: "conv4_3_norm_mbox_clean_perm"
  permute_param {
    order: 0
    order: 2
    order: 3
    order: 1
  }
}
layer {
  name: "conv4_3_norm_mbox_clean_flat"
  type: "Flatten"
  bottom: "conv4_3_norm_mbox_clean_perm"
  top: "conv4_3_norm_mbox_clean_flat"
  flatten_param {
    axis: 1
  }
}
layer {
  name: "conv4_3_norm_mbox_priorbox"
  type: "PriorBox"
  bottom: "conv4_3_norm"
  bottom: "data"
  top: "conv4_3_norm_mbox_priorbox"
  prior_box_param {
    min_size: 35.84
    max_size: 76.8
    aspect_ratio: 2
    flip: true
    clip: false
    variance: 0.1
    variance: 0.1
    variance: 0.2
    variance: 0.2
    step: 8
    offset: 0.5
  }
}
layer {
  name: "fc7_mbox_loc"
  type: "Convolution"
  bottom: "fc7"
  top: "fc7_mbox_loc"
  param {
    lr_mult: 1
    decay_mult: 1
  }
  param {
    lr_mult: 2
    decay_mult: 0
  }
  convolution_param {
    num_output: 24
    pad: 1
    kernel_size: 3
    stride: 1
    weight_filler {
      type: "xavier"
    }
    bias_filler {
      type: "constant"
      value: 0
    }
  }
}
layer {
  name: "fc7_mbox_loc_perm"
  type: "Permute"
  bottom: "fc7_mbox_loc"
  top: "fc7_mbox_loc_perm"
  permute_param {
    order: 0
    order: 2
    order: 3
    order: 1
  }
}
layer {
  name: "fc7_mbox_loc_flat"
  type: "Flatten"
  bottom: "fc7_mbox_loc_perm"
  top: "fc7_mbox_loc_flat"
  flatten_param {
    axis: 1
  }
}
layer {
  name: "fc7_mbox_conf"
  type: "Convolution"
  bottom: "fc7"
  top: "fc7_mbox_conf"
  param {
    lr_mult: 1
    decay_mult: 1
  }
  param {
    lr_mult: 2
    decay_mult: 0
  }
  convolution_param {
    num_output: 12
    pad: 1
    kernel_size: 3
    stride: 1
    weight_filler {
      type: "xavier"
    }
    bias_filler {
      type: "constant"
      value: 0
    }
  }
}
layer {
  name: "fc7_mbox_conf_perm"
  type: "Permute"
  bottom: "fc7_mbox_conf"
  top: "fc7_mbox_conf_perm"
  permute_param {
    order: 0
    order: 2
    order: 3
    order: 1
  }
}
layer {
  name: "fc7_mbox_conf_flat"
  type: "Flatten"
  bottom: "fc7_mbox_conf_perm"
  top: "fc7_mbox_conf_flat"
  flatten_param {
    axis: 1
  }
}
layer {
  name: "fc7_mbox_clean"
  type: "Convolution"
  bottom: "fc7"
  top: "fc7_mbox_clean"
  param {
    lr_mult: 1
    decay_mult: 1
  }
  param {
    lr_mult: 2
    decay_mult: 0
  }
  convolution_param {
    num_output: 6
    pad: 1
    kernel_size: 3
    stride: 1
    weight_filler {
      type: "xavier"
    }
    bias_filler {
      type: "constant"
      value: 0
    }
  }
}
layer {
  name: "fc7_mbox_clean_perm"
  type: "Permute"
  bottom: "fc7_mbox_clean"
  top: "fc7_mbox_clean_perm"
  permute_param {
    order: 0
    order: 2
    order: 3
    order: 1
  }
}
layer {
  name: "fc7_mbox_clean_flat"
  type: "Flatten"
  bottom: "fc7_mbox_clean_perm"
  top: "fc7_mbox_clean_flat"
  flatten_param {
    axis: 1
  }
}
layer {
  name: "fc7_mbox_priorbox"
  type: "PriorBox"
  bottom: "fc7"
  bottom: "data"
  top: "fc7_mbox_priorbox"
  prior_box_param {
    min_size: 76.8
    max_size: 168.96
    aspect_ratio: 2
    aspect_ratio: 3
    flip: true
    clip: false
    variance: 0.1
    variance: 0.1
    variance: 0.2
    variance: 0.2
    step: 16
    offset: 0.5
  }
}
layer {
  name: "conv6_2_mbox_loc"
  type: "Convolution"
  bottom: "conv6_2"
  top: "conv6_2_mbox_loc"
  param {
    lr_mult: 1
    decay_mult: 1
  }
  param {
    lr_mult: 2
    decay_mult: 0
  }
  convolution_param {
    num_output: 24
    pad: 1
    kernel_size: 3
    stride: 1
    weight_filler {
      type: "xavier"
    }
    bias_filler {
      type: "constant"
      value: 0
    }
  }
}
layer {
  name: "conv6_2_mbox_loc_perm"
  type: "Permute"
  bottom: "conv6_2_mbox_loc"
  top: "conv6_2_mbox_loc_perm"
  permute_param {
    order: 0
    order: 2
    order: 3
    order: 1
  }
}
layer {
  name: "conv6_2_mbox_loc_flat"
  type: "Flatten"
  bottom: "conv6_2_mbox_loc_perm"
  top: "conv6_2_mbox_loc_flat"
  flatten_param {
    axis: 1
  }
}
layer {
  name: "conv6_2_mbox_conf"
  type: "Convolution"
  bottom: "conv6_2"
  top: "conv6_2_mbox_conf"
  param {
    lr_mult: 1
    decay_mult: 1
  }
  param {
    lr_mult: 2
    decay_mult: 0
  }
  convolution_param {
    num_output: 12
    pad: 1
    kernel_size: 3
    stride: 1
    weight_filler {
      type: "xavier"
    }
    bias_filler {
      type: "constant"
      value: 0
    }
  }
}
layer {
  name: "conv6_2_mbox_conf_perm"
  type: "Permute"
  bottom: "conv6_2_mbox_conf"
  top: "conv6_2_mbox_conf_perm"
  permute_param {
    order: 0
    order: 2
    order: 3
    order: 1
  }
}
layer {
  name: "conv6_2_mbox_conf_flat"
  type: "Flatten"
  bottom: "conv6_2_mbox_conf_perm"
  top: "conv6_2_mbox_conf_flat"
  flatten_param {
    axis: 1
  }
}
layer {
  name: "conv6_2_mbox_clean"
  type: "Convolution"
  bottom: "conv6_2"
  top: "conv6_2_mbox_clean"
  param {
    lr_mult: 1
    decay_mult: 1
  }
  param {
    lr_mult: 2
    decay_mult: 0
  }
  convolution_param {
    num_output: 6
    pad: 1
    kernel_size: 3
    stride: 1
    weight_filler {
      type: "xavier"
    }
    bias_filler {
      type: "constant"
      value: 0
    }
  }
}
layer {
  name: "conv6_2_mbox_clean_perm"
  type: "Permute"
  bottom: "conv6_2_mbox_clean"
  top: "conv6_2_mbox_clean_perm"
  permute_param {
    order: 0
    order: 2
    order: 3
    order: 1
  }
}
layer {
  name: "conv6_2_mbox_clean_flat"
  type: "Flatten"
  bottom: "conv6_2_mbox_clean_perm"
  top: "conv6_2_mbox_clean_flat"
  flatten_param {
    axis: 1
  }
}
layer {
  name: "conv6_2_mbox_priorbox"
  type: "PriorBox"
  bottom: "conv6_2"
  bottom: "data"
  top: "conv6_2_mbox_priorbox"
  prior_box_param {
    min_size: 168.96
    max_size: 261.12
    aspect_ratio: 2
    aspect_ratio: 3
    flip: true
    clip: false
    variance: 0.1
    variance: 0.1
    variance: 0.2
    variance: 0.2
    step: 32
    offset: 0.5
  }
}
layer {
  name: "conv7_2_mbox_loc"
  type: "Convolution"
  bottom: "conv7_2"
  top: "conv7_2_mbox_loc"
  param {
    lr_mult: 1
    decay_mult: 1
  }
  param {
    lr_mult: 2
    decay_mult: 0
  }
  convolution_param {
    num_output: 24
    pad: 1
    kernel_size: 3
    stride: 1
    weight_filler {
      type: "xavier"
    }
    bias_filler {
      type: "constant"
      value: 0
    }
  }
}
layer {
  name: "conv7_2_mbox_loc_perm"
  type: "Permute"
  bottom: "conv7_2_mbox_loc"
  top: "conv7_2_mbox_loc_perm"
  permute_param {
    order: 0
    order: 2
    order: 3
    order: 1
  }
}
layer {
  name: "conv7_2_mbox_loc_flat"
  type: "Flatten"
  bottom: "conv7_2_mbox_loc_perm"
  top: "conv7_2_mbox_loc_flat"
  flatten_param {
    axis: 1
  }
}
layer {
  name: "conv7_2_mbox_conf"
  type: "Convolution"
  bottom: "conv7_2"
  top: "conv7_2_mbox_conf"
  param {
    lr_mult: 1
    decay_mult: 1
  }
  param {
    lr_mult: 2
    decay_mult: 0
  }
  convolution_param {
    num_output: 12
    pad: 1
    kernel_size: 3
    stride: 1
    weight_filler {
      type: "xavier"
    }
    bias_filler {
      type: "constant"
      value: 0
    }
  }
}
layer {
  name: "conv7_2_mbox_conf_perm"
  type: "Permute"
  bottom: "conv7_2_mbox_conf"
  top: "conv7_2_mbox_conf_perm"
  permute_param {
    order: 0
    order: 2
    order: 3
    order: 1
  }
}
layer {
  name: "conv7_2_mbox_conf_flat"
  type: "Flatten"
  bottom: "conv7_2_mbox_conf_perm"
  top: "conv7_2_mbox_conf_flat"
  flatten_param {
    axis: 1
  }
}
layer {
  name: "conv7_2_mbox_clean"
  type: "Convolution"
  bottom: "conv7_2"
  top: "conv7_2_mbox_clean"
  param {
    lr_mult: 1
    decay_mult: 1
  }
  param {
    lr_mult: 2
    decay_mult: 0
  }
  convolution_param {
    num_output: 6
    pad: 1
    kernel_size: 3
    stride: 1
    weight_filler {
      type: "xavier"
    }
    bias_filler {
      type: "constant"
      value: 0
    }
  }
}
layer {
  name: "conv7_2_mbox_clean_perm"
  type: "Permute"
  bottom: "conv7_2_mbox_clean"
  top: "conv7_2_mbox_clean_perm"
  permute_param {
    order: 0
    order: 2
    order: 3
    order: 1
  }
}
layer {
  name: "conv7_2_mbox_clean_flat"
  type: "Flatten"
  bottom: "conv7_2_mbox_clean_perm"
  top: "conv7_2_mbox_clean_flat"
  flatten_param {
    axis: 1
  }
}
layer {
  name: "conv7_2_mbox_priorbox"
  type: "PriorBox"
  bottom: "conv7_2"
  bottom: "data"
  top: "conv7_2_mbox_priorbox"
  prior_box_param {
    min_size: 261.12
    max_size: 353.28
    aspect_ratio: 2
    aspect_ratio: 3
    flip: true
    clip: false
    variance: 0.1
    variance: 0.1
    variance: 0.2
    variance: 0.2
    step: 64
    offset: 0.5
  }
}
layer {
  name: "conv8_2_mbox_loc"
  type: "Convolution"
  bottom: "conv8_2"
  top: "conv8_2_mbox_loc"
  param {
    lr_mult: 1
    decay_mult: 1
  }
  param {
    lr_mult: 2
    decay_mult: 0
  }
  convolution_param {
    num_output: 16
    pad: 1
    kernel_size: 3
    stride: 1
    weight_filler {
      type: "xavier"
    }
    bias_filler {
      type: "constant"
      value: 0
    }
  }
}
layer {
  name: "conv8_2_mbox_loc_perm"
  type: "Permute"
  bottom: "conv8_2_mbox_loc"
  top: "conv8_2_mbox_loc_perm"
  permute_param {
    order: 0
    order: 2
    order: 3
    order: 1
  }
}
layer {
  name: "conv8_2_mbox_loc_flat"
  type: "Flatten"
  bottom: "conv8_2_mbox_loc_perm"
  top: "conv8_2_mbox_loc_flat"
  flatten_param {
    axis: 1
  }
}
layer {
  name: "conv8_2_mbox_conf"
  type: "Convolution"
  bottom: "conv8_2"
  top: "conv8_2_mbox_conf"
  param {
    lr_mult: 1
    decay_mult: 1
  }
  param {
    lr_mult: 2
    decay_mult: 0
  }
  convolution_param {
    num_output: 8
    pad: 1
    kernel_size: 3
    stride: 1
    weight_filler {
      type: "xavier"
    }
    bias_filler {
      type: "constant"
      value: 0
    }
  }
}
layer {
  name: "conv8_2_mbox_conf_perm"
  type: "Permute"
  bottom: "conv8_2_mbox_conf"
  top: "conv8_2_mbox_conf_perm"
  permute_param {
    order: 0
    order: 2
    order: 3
    order: 1
  }
}
layer {
  name: "conv8_2_mbox_conf_flat"
  type: "Flatten"
  bottom: "conv8_2_mbox_conf_perm"
  top: "conv8_2_mbox_conf_flat"
  flatten_param {
    axis: 1
  }
}
layer {
  name: "conv8_2_mbox_clean"
  type: "Convolution"
  bottom: "conv8_2"
  top: "conv8_2_mbox_clean"
  param {
    lr_mult: 1
    decay_mult: 1
  }
  param {
    lr_mult: 2
    decay_mult: 0
  }
  convolution_param {
    num_output: 4
    pad: 1
    kernel_size: 3
    stride: 1
    weight_filler {
      type: "xavier"
    }
    bias_filler {
      type: "constant"
      value: 0
    }
  }
}
layer {
  name: "conv8_2_mbox_clean_perm"
  type: "Permute"
  bottom: "conv8_2_mbox_clean"
  top: "conv8_2_mbox_clean_perm"
  permute_param {
    order: 0
    order: 2
    order: 3
    order: 1
  }
}
layer {
  name: "conv8_2_mbox_clean_flat"
  type: "Flatten"
  bottom: "conv8_2_mbox_clean_perm"
  top: "conv8_2_mbox_clean_flat"
  flatten_param {
    axis: 1
  }
}
layer {
  name: "conv8_2_mbox_priorbox"
  type: "PriorBox"
  bottom: "conv8_2"
  bottom: "data"
  top: "conv8_2_mbox_priorbox"
  prior_box_param {
    min_size: 353.28
    max_size: 445.44
    aspect_ratio: 2
    flip: true
    clip: false
    variance: 0.1
    variance: 0.1
    variance: 0.2
    variance: 0.2
    step: 100
    offset: 0.5
  }
}
layer {
  name: "conv9_2_mbox_loc"
  type: "Convolution"
  bottom: "conv9_2"
  top: "conv9_2_mbox_loc"
  param {
    lr_mult: 1
    decay_mult: 1
  }
  param {
    lr_mult: 2
    decay_mult: 0
  }
  convolution_param {
    num_output: 16
    pad: 1
    kernel_size: 3
    stride: 1
    weight_filler {
      type: "xavier"
    }
    bias_filler {
      type: "constant"
      value: 0
    }
  }
}
layer {
  name: "conv9_2_mbox_loc_perm"
  type: "Permute"
  bottom: "conv9_2_mbox_loc"
  top: "conv9_2_mbox_loc_perm"
  permute_param {
    order: 0
    order: 2
    order: 3
    order: 1
  }
}
layer {
  name: "conv9_2_mbox_loc_flat"
  type: "Flatten"
  bottom: "conv9_2_mbox_loc_perm"
  top: "conv9_2_mbox_loc_flat"
  flatten_param {
    axis: 1
  }
}
layer {
  name: "conv9_2_mbox_conf"
  type: "Convolution"
  bottom: "conv9_2"
  top: "conv9_2_mbox_conf"
  param {
    lr_mult: 1
    decay_mult: 1
  }
  param {
    lr_mult: 2
    decay_mult: 0
  }
  convolution_param {
    num_output: 8
    pad: 1
    kernel_size: 3
    stride: 1
    weight_filler {
      type: "xavier"
    }
    bias_filler {
      type: "constant"
      value: 0
    }
  }
}
layer {
  name: "conv9_2_mbox_conf_perm"
  type: "Permute"
  bottom: "conv9_2_mbox_conf"
  top: "conv9_2_mbox_conf_perm"
  permute_param {
    order: 0
    order: 2
    order: 3
    order: 1
  }
}
layer {
  name: "conv9_2_mbox_conf_flat"
  type: "Flatten"
  bottom: "conv9_2_mbox_conf_perm"
  top: "conv9_2_mbox_conf_flat"
  flatten_param {
    axis: 1
  }
}
layer {
  name: "conv9_2_mbox_clean"
  type: "Convolution"
  bottom: "conv9_2"
  top: "conv9_2_mbox_clean"
  param {
    lr_mult: 1
    decay_mult: 1
  }
  param {
    lr_mult: 2
    decay_mult: 0
  }
  convolution_param {
    num_output: 4
    pad: 1
    kernel_size: 3
    stride: 1
    weight_filler {
      type: "xavier"
    }
    bias_filler {
      type: "constant"
      value: 0
    }
  }
}
layer {
  name: "conv9_2_mbox_clean_perm"
  type: "Permute"
  bottom: "conv9_2_mbox_clean"
  top: "conv9_2_mbox_clean_perm"
  permute_param {
    order: 0
    order: 2
    order: 3
    order: 1
  }
}
layer {
  name: "conv9_2_mbox_clean_flat"
  type: "Flatten"
  bottom: "conv9_2_mbox_clean_perm"
  top: "conv9_2_mbox_clean_flat"
  flatten_param {
    axis: 1
  }
}
layer {
  name: "conv9_2_mbox_priorbox"
  type: "PriorBox"
  bottom: "conv9_2"
  bottom: "data"
  top: "conv9_2_mbox_priorbox"
  prior_box_param {
    min_size: 445.44
    max_size: 537.6
    aspect_ratio: 2
    flip: true
    clip: false
    variance: 0.1
    variance: 0.1
    variance: 0.2
    variance: 0.2
    step: 300
    offset: 0.5
  }
}
layer {
  name: "mbox_loc"
  type: "Concat"
  bottom: "conv4_3_norm_mbox_loc_flat"
  bottom: "fc7_mbox_loc_flat"
  bottom: "conv6_2_mbox_loc_flat"
  bottom: "conv7_2_mbox_loc_flat"
  bottom: "conv8_2_mbox_loc_flat"
  bottom: "conv9_2_mbox_loc_flat"
  top: "mbox_loc"
  concat_param {
    axis: 1
  }
}
layer {
  name: "mbox_conf"
  type: "Concat"
  bottom: "conv4_3_norm_mbox_conf_flat"
  bottom: "fc7_mbox_conf_flat"
  bottom: "conv6_2_mbox_conf_flat"
  bottom: "conv7_2_mbox_conf_flat"
  bottom: "conv8_2_mbox_conf_flat"
  bottom: "conv9_2_mbox_conf_flat"
  top: "mbox_conf"
  concat_param {
    axis: 1
  }
}
layer {
  name: "mbox_priorbox"
  type: "Concat"
  bottom: "conv4_3_norm_mbox_priorbox"
  bottom: "fc7_mbox_priorbox"
  bottom: "conv6_2_mbox_priorbox"
  bottom: "conv7_2_mbox_priorbox"
  bottom: "conv8_2_mbox_priorbox"
  bottom: "conv9_2_mbox_priorbox"
  top: "mbox_priorbox"
  concat_param {
    axis: 2
  }
}
layer {
  name: "mbox_clean"
  type: "Concat"
  bottom: "conv4_3_norm_mbox_clean_flat"
  bottom: "fc7_mbox_clean_flat"
  bottom: "conv6_2_mbox_clean_flat"
  bottom: "conv7_2_mbox_clean_flat"
  bottom: "conv8_2_mbox_clean_flat"
  bottom: "conv9_2_mbox_clean_flat"
  top: "mbox_clean"
  concat_param {
    axis: 1
  }
}
layer {
  name: "mbox_conf_reshape"
  type: "Reshape"
  bottom: "mbox_conf"
  top: "mbox_conf_reshape"
  reshape_param {
    shape {
      dim: 0
      dim: -1
      dim: 2
    }
  }
}
layer {
  name: "mbox_conf_softmax"
  type: "Softmax"
  bottom: "mbox_conf_reshape"
  top: "mbox_conf_softmax"
  softmax_param {
    axis: 2
  }
}
layer {
  name: "mbox_conf_flatten"
  type: "Flatten"
  bottom: "mbox_conf_softmax"
  top: "mbox_conf_flatten"
  flatten_param {
    axis: 1
  }
}
layer {
  name: "mbox_clean_sigmoid"
  type: "Sigmoid"
  bottom: "mbox_clean"
  top: "mbox_clean_sigmoid"
}
layer {
  name: "detection_out"
  type: "DetectionOutput"
  bottom: "mbox_loc"
  bottom: "mbox_conf_flatten"
  bottom: "mbox_priorbox"
  bottom: "mbox_clean_sigmoid"
  top: "detection_out"
  include {
    phase: TEST
  }
I0406 19:56:53.917346 20371 layer_factory.hpp:77] Creating layer data
I0406 19:56:53.917423 20371 net.cpp:100] Creating Layer data
I0406 19:56:53.917435 20371 net.cpp:408] data -> data
I0406 19:56:53.917446 20371 net.cpp:408] data -> label
I0406 19:56:53.919157 20446 db_lmdb.cpp:35] Opened lmdb /data/siyu/dataset/coco/lmdb/COCO_Val2014_person_lmdb
I0406 19:56:53.922516 20371 annotated_data_layer.cpp:62] output data size: 2,3,512,512
I0406 19:56:53.933439 20371 net.cpp:150] Setting up data
I0406 19:56:53.933480 20371 net.cpp:157] Top shape: 2 3 512 512 (1572864)
I0406 19:56:53.933487 20371 net.cpp:157] Top shape: 1 1 6 8 (48)
I0406 19:56:53.933491 20371 net.cpp:165] Memory required for data: 6291648
I0406 19:56:53.933500 20371 layer_factory.hpp:77] Creating layer data_data_0_split
I0406 19:56:53.933516 20371 net.cpp:100] Creating Layer data_data_0_split
I0406 19:56:53.933521 20371 net.cpp:434] data_data_0_split <- data
I0406 19:56:53.933531 20371 net.cpp:408] data_data_0_split -> data_data_0_split_0
I0406 19:56:53.933545 20371 net.cpp:408] data_data_0_split -> data_data_0_split_1
I0406 19:56:53.933555 20371 net.cpp:408] data_data_0_split -> data_data_0_split_2
I0406 19:56:53.933563 20371 net.cpp:408] data_data_0_split -> data_data_0_split_3
I0406 19:56:53.933569 20371 net.cpp:408] data_data_0_split -> data_data_0_split_4
I0406 19:56:53.933590 20371 net.cpp:408] data_data_0_split -> data_data_0_split_5
I0406 19:56:53.933596 20371 net.cpp:408] data_data_0_split -> data_data_0_split_6
I0406 19:56:53.933763 20371 net.cpp:150] Setting up data_data_0_split
I0406 19:56:53.933773 20371 net.cpp:157] Top shape: 2 3 512 512 (1572864)
I0406 19:56:53.933779 20371 net.cpp:157] Top shape: 2 3 512 512 (1572864)
I0406 19:56:53.933784 20371 net.cpp:157] Top shape: 2 3 512 512 (1572864)
I0406 19:56:53.933789 20371 net.cpp:157] Top shape: 2 3 512 512 (1572864)
I0406 19:56:53.933794 20371 net.cpp:157] Top shape: 2 3 512 512 (1572864)
I0406 19:56:53.933799 20371 net.cpp:157] Top shape: 2 3 512 512 (1572864)
I0406 19:56:53.933804 20371 net.cpp:157] Top shape: 2 3 512 512 (1572864)
I0406 19:56:53.933809 20371 net.cpp:165] Memory required for data: 50331840
I0406 19:56:53.933814 20371 layer_factory.hpp:77] Creating layer conv1_1
I0406 19:56:53.933828 20371 net.cpp:100] Creating Layer conv1_1
I0406 19:56:53.933835 20371 net.cpp:434] conv1_1 <- data_data_0_split_0
I0406 19:56:53.933843 20371 net.cpp:408] conv1_1 -> conv1_1
I0406 19:56:53.936017 20371 net.cpp:150] Setting up conv1_1
I0406 19:56:53.936031 20371 net.cpp:157] Top shape: 2 64 512 512 (33554432)
I0406 19:56:53.936036 20371 net.cpp:165] Memory required for data: 184549568
I0406 19:56:53.936048 20371 layer_factory.hpp:77] Creating layer relu1_1
I0406 19:56:53.936056 20371 net.cpp:100] Creating Layer relu1_1
I0406 19:56:53.936061 20371 net.cpp:434] relu1_1 <- conv1_1
I0406 19:56:53.936067 20371 net.cpp:395] relu1_1 -> conv1_1 (in-place)
I0406 19:56:53.936408 20371 net.cpp:150] Setting up relu1_1
I0406 19:56:53.936432 20371 net.cpp:157] Top shape: 2 64 512 512 (33554432)
I0406 19:56:53.936437 20371 net.cpp:165] Memory required for data: 318767296
I0406 19:56:53.936442 20371 layer_factory.hpp:77] Creating layer conv1_2
I0406 19:56:53.936455 20371 net.cpp:100] Creating Layer conv1_2
I0406 19:56:53.936460 20371 net.cpp:434] conv1_2 <- conv1_1
I0406 19:56:53.936467 20371 net.cpp:408] conv1_2 -> conv1_2
I0406 19:56:53.938542 20371 net.cpp:150] Setting up conv1_2
I0406 19:56:53.938557 20371 net.cpp:157] Top shape: 2 64 512 512 (33554432)
I0406 19:56:53.938561 20371 net.cpp:165] Memory required for data: 452985024
I0406 19:56:53.938571 20371 layer_factory.hpp:77] Creating layer relu1_2
I0406 19:56:53.938580 20371 net.cpp:100] Creating Layer relu1_2
I0406 19:56:53.938583 20371 net.cpp:434] relu1_2 <- conv1_2
I0406 19:56:53.938591 20371 net.cpp:395] relu1_2 -> conv1_2 (in-place)
I0406 19:56:53.938904 20371 net.cpp:150] Setting up relu1_2
I0406 19:56:53.938928 20371 net.cpp:157] Top shape: 2 64 512 512 (33554432)
I0406 19:56:53.938933 20371 net.cpp:165] Memory required for data: 587202752
I0406 19:56:53.938938 20371 layer_factory.hpp:77] Creating layer pool1
I0406 19:56:53.938947 20371 net.cpp:100] Creating Layer pool1
I0406 19:56:53.938952 20371 net.cpp:434] pool1 <- conv1_2
I0406 19:56:53.938959 20371 net.cpp:408] pool1 -> pool1
I0406 19:56:53.939015 20371 net.cpp:150] Setting up pool1
I0406 19:56:53.939025 20371 net.cpp:157] Top shape: 2 64 256 256 (8388608)
I0406 19:56:53.939029 20371 net.cpp:165] Memory required for data: 620757184
I0406 19:56:53.939033 20371 layer_factory.hpp:77] Creating layer conv2_1
I0406 19:56:53.939044 20371 net.cpp:100] Creating Layer conv2_1
I0406 19:56:53.939060 20371 net.cpp:434] conv2_1 <- pool1
I0406 19:56:53.939075 20371 net.cpp:408] conv2_1 -> conv2_1
I0406 19:56:53.941220 20371 net.cpp:150] Setting up conv2_1
I0406 19:56:53.941236 20371 net.cpp:157] Top shape: 2 128 256 256 (16777216)
I0406 19:56:53.941241 20371 net.cpp:165] Memory required for data: 687866048
I0406 19:56:53.941251 20371 layer_factory.hpp:77] Creating layer relu2_1
I0406 19:56:53.941260 20371 net.cpp:100] Creating Layer relu2_1
I0406 19:56:53.941265 20371 net.cpp:434] relu2_1 <- conv2_1
I0406 19:56:53.941272 20371 net.cpp:395] relu2_1 -> conv2_1 (in-place)
I0406 19:56:53.941462 20371 net.cpp:150] Setting up relu2_1
I0406 19:56:53.941475 20371 net.cpp:157] Top shape: 2 128 256 256 (16777216)
I0406 19:56:53.941480 20371 net.cpp:165] Memory required for data: 754974912
I0406 19:56:53.941494 20371 layer_factory.hpp:77] Creating layer conv2_2
I0406 19:56:53.941510 20371 net.cpp:100] Creating Layer conv2_2
I0406 19:56:53.941515 20371 net.cpp:434] conv2_2 <- conv2_1
I0406 19:56:53.941524 20371 net.cpp:408] conv2_2 -> conv2_2
I0406 19:56:53.944959 20371 net.cpp:150] Setting up conv2_2
I0406 19:56:53.944989 20371 net.cpp:157] Top shape: 2 128 256 256 (16777216)
I0406 19:56:53.944995 20371 net.cpp:165] Memory required for data: 822083776
I0406 19:56:53.945004 20371 layer_factory.hpp:77] Creating layer relu2_2
I0406 19:56:53.945013 20371 net.cpp:100] Creating Layer relu2_2
I0406 19:56:53.945017 20371 net.cpp:434] relu2_2 <- conv2_2
I0406 19:56:53.945024 20371 net.cpp:395] relu2_2 -> conv2_2 (in-place)
I0406 19:56:53.945336 20371 net.cpp:150] Setting up relu2_2
I0406 19:56:53.945350 20371 net.cpp:157] Top shape: 2 128 256 256 (16777216)
I0406 19:56:53.945365 20371 net.cpp:165] Memory required for data: 889192640
I0406 19:56:53.945370 20371 layer_factory.hpp:77] Creating layer pool2
I0406 19:56:53.945379 20371 net.cpp:100] Creating Layer pool2
I0406 19:56:53.945384 20371 net.cpp:434] pool2 <- conv2_2
I0406 19:56:53.945390 20371 net.cpp:408] pool2 -> pool2
I0406 19:56:53.945446 20371 net.cpp:150] Setting up pool2
I0406 19:56:53.945456 20371 net.cpp:157] Top shape: 2 128 128 128 (4194304)
I0406 19:56:53.945459 20371 net.cpp:165] Memory required for data: 905969856
I0406 19:56:53.945463 20371 layer_factory.hpp:77] Creating layer conv3_1
I0406 19:56:53.945475 20371 net.cpp:100] Creating Layer conv3_1
I0406 19:56:53.945495 20371 net.cpp:434] conv3_1 <- pool2
I0406 19:56:53.945503 20371 net.cpp:408] conv3_1 -> conv3_1
I0406 19:56:53.948886 20371 net.cpp:150] Setting up conv3_1
I0406 19:56:53.948901 20371 net.cpp:157] Top shape: 2 256 128 128 (8388608)
I0406 19:56:53.948906 20371 net.cpp:165] Memory required for data: 939524288
I0406 19:56:53.948916 20371 layer_factory.hpp:77] Creating layer relu3_1
I0406 19:56:53.948926 20371 net.cpp:100] Creating Layer relu3_1
I0406 19:56:53.948931 20371 net.cpp:434] relu3_1 <- conv3_1
I0406 19:56:53.948937 20371 net.cpp:395] relu3_1 -> conv3_1 (in-place)
I0406 19:56:53.949264 20371 net.cpp:150] Setting up relu3_1
I0406 19:56:53.949277 20371 net.cpp:157] Top shape: 2 256 128 128 (8388608)
I0406 19:56:53.949293 20371 net.cpp:165] Memory required for data: 973078720
I0406 19:56:53.949298 20371 layer_factory.hpp:77] Creating layer conv3_2
I0406 19:56:53.949311 20371 net.cpp:100] Creating Layer conv3_2
I0406 19:56:53.949316 20371 net.cpp:434] conv3_2 <- conv3_1
I0406 19:56:53.949323 20371 net.cpp:408] conv3_2 -> conv3_2
I0406 19:56:53.955027 20371 net.cpp:150] Setting up conv3_2
I0406 19:56:53.955044 20371 net.cpp:157] Top shape: 2 256 128 128 (8388608)
I0406 19:56:53.955047 20371 net.cpp:165] Memory required for data: 1006633152
I0406 19:56:53.955055 20371 layer_factory.hpp:77] Creating layer relu3_2
I0406 19:56:53.955062 20371 net.cpp:100] Creating Layer relu3_2
I0406 19:56:53.955066 20371 net.cpp:434] relu3_2 <- conv3_2
I0406 19:56:53.955075 20371 net.cpp:395] relu3_2 -> conv3_2 (in-place)
I0406 19:56:53.955273 20371 net.cpp:150] Setting up relu3_2
I0406 19:56:53.955286 20371 net.cpp:157] Top shape: 2 256 128 128 (8388608)
I0406 19:56:53.955289 20371 net.cpp:165] Memory required for data: 1040187584
I0406 19:56:53.955294 20371 layer_factory.hpp:77] Creating layer conv3_3
I0406 19:56:53.955310 20371 net.cpp:100] Creating Layer conv3_3
I0406 19:56:53.955329 20371 net.cpp:434] conv3_3 <- conv3_2
I0406 19:56:53.955335 20371 net.cpp:408] conv3_3 -> conv3_3
I0406 19:56:53.961048 20371 net.cpp:150] Setting up conv3_3
I0406 19:56:53.961063 20371 net.cpp:157] Top shape: 2 256 128 128 (8388608)
I0406 19:56:53.961068 20371 net.cpp:165] Memory required for data: 1073742016
I0406 19:56:53.961076 20371 layer_factory.hpp:77] Creating layer relu3_3
I0406 19:56:53.961082 20371 net.cpp:100] Creating Layer relu3_3
I0406 19:56:53.961087 20371 net.cpp:434] relu3_3 <- conv3_3
I0406 19:56:53.961096 20371 net.cpp:395] relu3_3 -> conv3_3 (in-place)
I0406 19:56:53.961437 20371 net.cpp:150] Setting up relu3_3
I0406 19:56:53.961462 20371 net.cpp:157] Top shape: 2 256 128 128 (8388608)
I0406 19:56:53.961467 20371 net.cpp:165] Memory required for data: 1107296448
I0406 19:56:53.961472 20371 layer_factory.hpp:77] Creating layer pool3
I0406 19:56:53.961479 20371 net.cpp:100] Creating Layer pool3
I0406 19:56:53.961484 20371 net.cpp:434] pool3 <- conv3_3
I0406 19:56:53.961493 20371 net.cpp:408] pool3 -> pool3
I0406 19:56:53.961551 20371 net.cpp:150] Setting up pool3
I0406 19:56:53.961560 20371 net.cpp:157] Top shape: 2 256 64 64 (2097152)
I0406 19:56:53.961565 20371 net.cpp:165] Memory required for data: 1115685056
I0406 19:56:53.961570 20371 layer_factory.hpp:77] Creating layer conv4_1
I0406 19:56:53.961580 20371 net.cpp:100] Creating Layer conv4_1
I0406 19:56:53.961598 20371 net.cpp:434] conv4_1 <- pool3
I0406 19:56:53.961606 20371 net.cpp:408] conv4_1 -> conv4_1
I0406 19:56:53.971809 20371 net.cpp:150] Setting up conv4_1
I0406 19:56:53.971828 20371 net.cpp:157] Top shape: 2 512 64 64 (4194304)
I0406 19:56:53.971833 20371 net.cpp:165] Memory required for data: 1132462272
I0406 19:56:53.971844 20371 layer_factory.hpp:77] Creating layer relu4_1
I0406 19:56:53.971853 20371 net.cpp:100] Creating Layer relu4_1
I0406 19:56:53.971858 20371 net.cpp:434] relu4_1 <- conv4_1
I0406 19:56:53.971868 20371 net.cpp:395] relu4_1 -> conv4_1 (in-place)
I0406 19:56:53.972234 20371 net.cpp:150] Setting up relu4_1
I0406 19:56:53.972262 20371 net.cpp:157] Top shape: 2 512 64 64 (4194304)
I0406 19:56:53.972277 20371 net.cpp:165] Memory required for data: 1149239488
I0406 19:56:53.972283 20371 layer_factory.hpp:77] Creating layer conv4_2
I0406 19:56:53.972295 20371 net.cpp:100] Creating Layer conv4_2
I0406 19:56:53.972301 20371 net.cpp:434] conv4_2 <- conv4_1
I0406 19:56:53.972309 20371 net.cpp:408] conv4_2 -> conv4_2
I0406 19:56:53.991094 20371 net.cpp:150] Setting up conv4_2
I0406 19:56:53.991112 20371 net.cpp:157] Top shape: 2 512 64 64 (4194304)
I0406 19:56:53.991117 20371 net.cpp:165] Memory required for data: 1166016704
I0406 19:56:53.991130 20371 layer_factory.hpp:77] Creating layer relu4_2
I0406 19:56:53.991138 20371 net.cpp:100] Creating Layer relu4_2
I0406 19:56:53.991143 20371 net.cpp:434] relu4_2 <- conv4_2
I0406 19:56:53.991163 20371 net.cpp:395] relu4_2 -> conv4_2 (in-place)
I0406 19:56:53.991387 20371 net.cpp:150] Setting up relu4_2
I0406 19:56:53.991400 20371 net.cpp:157] Top shape: 2 512 64 64 (4194304)
I0406 19:56:53.991410 20371 net.cpp:165] Memory required for data: 1182793920
I0406 19:56:53.991415 20371 layer_factory.hpp:77] Creating layer conv4_3
I0406 19:56:53.991427 20371 net.cpp:100] Creating Layer conv4_3
I0406 19:56:53.991442 20371 net.cpp:434] conv4_3 <- conv4_2
I0406 19:56:53.991451 20371 net.cpp:408] conv4_3 -> conv4_3
I0406 19:56:54.010871 20371 net.cpp:150] Setting up conv4_3
I0406 19:56:54.010895 20371 net.cpp:157] Top shape: 2 512 64 64 (4194304)
I0406 19:56:54.010900 20371 net.cpp:165] Memory required for data: 1199571136
I0406 19:56:54.010907 20371 layer_factory.hpp:77] Creating layer relu4_3
I0406 19:56:54.010915 20371 net.cpp:100] Creating Layer relu4_3
I0406 19:56:54.010921 20371 net.cpp:434] relu4_3 <- conv4_3
I0406 19:56:54.010926 20371 net.cpp:395] relu4_3 -> conv4_3 (in-place)
I0406 19:56:54.011302 20371 net.cpp:150] Setting up relu4_3
I0406 19:56:54.011328 20371 net.cpp:157] Top shape: 2 512 64 64 (4194304)
I0406 19:56:54.011333 20371 net.cpp:165] Memory required for data: 1216348352
I0406 19:56:54.011349 20371 layer_factory.hpp:77] Creating layer conv4_3_relu4_3_0_split
I0406 19:56:54.011368 20371 net.cpp:100] Creating Layer conv4_3_relu4_3_0_split
I0406 19:56:54.011375 20371 net.cpp:434] conv4_3_relu4_3_0_split <- conv4_3
I0406 19:56:54.011384 20371 net.cpp:408] conv4_3_relu4_3_0_split -> conv4_3_relu4_3_0_split_0
I0406 19:56:54.011395 20371 net.cpp:408] conv4_3_relu4_3_0_split -> conv4_3_relu4_3_0_split_1
I0406 19:56:54.011489 20371 net.cpp:150] Setting up conv4_3_relu4_3_0_split
I0406 19:56:54.011498 20371 net.cpp:157] Top shape: 2 512 64 64 (4194304)
I0406 19:56:54.011519 20371 net.cpp:157] Top shape: 2 512 64 64 (4194304)
I0406 19:56:54.011524 20371 net.cpp:165] Memory required for data: 1249902784
I0406 19:56:54.011529 20371 layer_factory.hpp:77] Creating layer pool4
I0406 19:56:54.011539 20371 net.cpp:100] Creating Layer pool4
I0406 19:56:54.011557 20371 net.cpp:434] pool4 <- conv4_3_relu4_3_0_split_0
I0406 19:56:54.011564 20371 net.cpp:408] pool4 -> pool4
I0406 19:56:54.011652 20371 net.cpp:150] Setting up pool4
I0406 19:56:54.011664 20371 net.cpp:157] Top shape: 2 512 32 32 (1048576)
I0406 19:56:54.011668 20371 net.cpp:165] Memory required for data: 1254097088
I0406 19:56:54.011673 20371 layer_factory.hpp:77] Creating layer conv5_1
I0406 19:56:54.011688 20371 net.cpp:100] Creating Layer conv5_1
I0406 19:56:54.011695 20371 net.cpp:434] conv5_1 <- pool4
I0406 19:56:54.011704 20371 net.cpp:408] conv5_1 -> conv5_1
I0406 19:56:54.030630 20371 net.cpp:150] Setting up conv5_1
I0406 19:56:54.030650 20371 net.cpp:157] Top shape: 2 512 32 32 (1048576)
I0406 19:56:54.030654 20371 net.cpp:165] Memory required for data: 1258291392
I0406 19:56:54.030663 20371 layer_factory.hpp:77] Creating layer relu5_1
I0406 19:56:54.030673 20371 net.cpp:100] Creating Layer relu5_1
I0406 19:56:54.030678 20371 net.cpp:434] relu5_1 <- conv5_1
I0406 19:56:54.030697 20371 net.cpp:395] relu5_1 -> conv5_1 (in-place)
I0406 19:56:54.031049 20371 net.cpp:150] Setting up relu5_1
I0406 19:56:54.031075 20371 net.cpp:157] Top shape: 2 512 32 32 (1048576)
I0406 19:56:54.031080 20371 net.cpp:165] Memory required for data: 1262485696
I0406 19:56:54.031096 20371 layer_factory.hpp:77] Creating layer conv5_2
I0406 19:56:54.031119 20371 net.cpp:100] Creating Layer conv5_2
I0406 19:56:54.031126 20371 net.cpp:434] conv5_2 <- conv5_1
I0406 19:56:54.031136 20371 net.cpp:408] conv5_2 -> conv5_2
I0406 19:56:54.049835 20371 net.cpp:150] Setting up conv5_2
I0406 19:56:54.049852 20371 net.cpp:157] Top shape: 2 512 32 32 (1048576)
I0406 19:56:54.049857 20371 net.cpp:165] Memory required for data: 1266680000
I0406 19:56:54.049865 20371 layer_factory.hpp:77] Creating layer relu5_2
I0406 19:56:54.049872 20371 net.cpp:100] Creating Layer relu5_2
I0406 19:56:54.049877 20371 net.cpp:434] relu5_2 <- conv5_2
I0406 19:56:54.049885 20371 net.cpp:395] relu5_2 -> conv5_2 (in-place)
I0406 19:56:54.050120 20371 net.cpp:150] Setting up relu5_2
I0406 19:56:54.050133 20371 net.cpp:157] Top shape: 2 512 32 32 (1048576)
I0406 19:56:54.050137 20371 net.cpp:165] Memory required for data: 1270874304
I0406 19:56:54.050143 20371 layer_factory.hpp:77] Creating layer conv5_3
I0406 19:56:54.050155 20371 net.cpp:100] Creating Layer conv5_3
I0406 19:56:54.050171 20371 net.cpp:434] conv5_3 <- conv5_2
I0406 19:56:54.050180 20371 net.cpp:408] conv5_3 -> conv5_3
I0406 19:56:54.069219 20371 net.cpp:150] Setting up conv5_3
I0406 19:56:54.069239 20371 net.cpp:157] Top shape: 2 512 32 32 (1048576)
I0406 19:56:54.069244 20371 net.cpp:165] Memory required for data: 1275068608
I0406 19:56:54.069252 20371 layer_factory.hpp:77] Creating layer relu5_3
I0406 19:56:54.069267 20371 net.cpp:100] Creating Layer relu5_3
I0406 19:56:54.069272 20371 net.cpp:434] relu5_3 <- conv5_3
I0406 19:56:54.069291 20371 net.cpp:395] relu5_3 -> conv5_3 (in-place)
I0406 19:56:54.069651 20371 net.cpp:150] Setting up relu5_3
I0406 19:56:54.069676 20371 net.cpp:157] Top shape: 2 512 32 32 (1048576)
I0406 19:56:54.069681 20371 net.cpp:165] Memory required for data: 1279262912
I0406 19:56:54.069697 20371 layer_factory.hpp:77] Creating layer pool5
I0406 19:56:54.069710 20371 net.cpp:100] Creating Layer pool5
I0406 19:56:54.069715 20371 net.cpp:434] pool5 <- conv5_3
I0406 19:56:54.069720 20371 net.cpp:408] pool5 -> pool5
I0406 19:56:54.069836 20371 net.cpp:150] Setting up pool5
I0406 19:56:54.069846 20371 net.cpp:157] Top shape: 2 512 32 32 (1048576)
I0406 19:56:54.069851 20371 net.cpp:165] Memory required for data: 1283457216
I0406 19:56:54.069855 20371 layer_factory.hpp:77] Creating layer fc6
I0406 19:56:54.069869 20371 net.cpp:100] Creating Layer fc6
I0406 19:56:54.069874 20371 net.cpp:434] fc6 <- pool5
I0406 19:56:54.069896 20371 net.cpp:408] fc6 -> fc6
I0406 19:56:54.106179 20371 net.cpp:150] Setting up fc6
I0406 19:56:54.106225 20371 net.cpp:157] Top shape: 2 1024 32 32 (2097152)
I0406 19:56:54.106230 20371 net.cpp:165] Memory required for data: 1291845824
I0406 19:56:54.106251 20371 layer_factory.hpp:77] Creating layer relu6
I0406 19:56:54.106287 20371 net.cpp:100] Creating Layer relu6
I0406 19:56:54.106300 20371 net.cpp:434] relu6 <- fc6
I0406 19:56:54.106313 20371 net.cpp:395] relu6 -> fc6 (in-place)
I0406 19:56:54.106642 20371 net.cpp:150] Setting up relu6
I0406 19:56:54.106657 20371 net.cpp:157] Top shape: 2 1024 32 32 (2097152)
I0406 19:56:54.106662 20371 net.cpp:165] Memory required for data: 1300234432
I0406 19:56:54.106669 20371 layer_factory.hpp:77] Creating layer fc7
I0406 19:56:54.106691 20371 net.cpp:100] Creating Layer fc7
I0406 19:56:54.106698 20371 net.cpp:434] fc7 <- fc6
I0406 19:56:54.106709 20371 net.cpp:408] fc7 -> fc7
I0406 19:56:54.116040 20371 net.cpp:150] Setting up fc7
I0406 19:56:54.116057 20371 net.cpp:157] Top shape: 2 1024 32 32 (2097152)
I0406 19:56:54.116061 20371 net.cpp:165] Memory required for data: 1308623040
I0406 19:56:54.116070 20371 layer_factory.hpp:77] Creating layer relu7
I0406 19:56:54.116078 20371 net.cpp:100] Creating Layer relu7
I0406 19:56:54.116083 20371 net.cpp:434] relu7 <- fc7
I0406 19:56:54.116089 20371 net.cpp:395] relu7 -> fc7 (in-place)
I0406 19:56:54.116322 20371 net.cpp:150] Setting up relu7
I0406 19:56:54.116334 20371 net.cpp:157] Top shape: 2 1024 32 32 (2097152)
I0406 19:56:54.116338 20371 net.cpp:165] Memory required for data: 1317011648
I0406 19:56:54.116343 20371 layer_factory.hpp:77] Creating layer fc7_relu7_0_split
I0406 19:56:54.116351 20371 net.cpp:100] Creating Layer fc7_relu7_0_split
I0406 19:56:54.116358 20371 net.cpp:434] fc7_relu7_0_split <- fc7
…
I0406 19:56:54.136879 20371 net.cpp:150] Setting up conv7_2_conv7_2_relu_0_split
I0406 19:56:54.136889 20371 net.cpp:157] Top shape: 2 256 8 8 (32768)
I0406 19:56:54.136894 20371 net.cpp:157] Top shape: 2 256 8 8 (32768)
I0406 19:56:54.136899 20371 net.cpp:157] Top shape: 2 256 8 8 (32768)
I0406 19:56:54.136904 20371 net.cpp:157] Top shape: 2 256 8 8 (32768)
I0406 19:56:54.136909 20371 net.cpp:157] Top shape: 2 256 8 8 (32768)
I0406 19:56:54.136914 20371 net.cpp:165] Memory required for data: 1371930816
I0406 19:56:54.136917 20371 layer_factory.hpp:77] Creating layer conv8_1
I0406 19:56:54.136929 20371 net.cpp:100] Creating Layer conv8_1
I0406 19:56:54.136936 20371 net.cpp:434] conv8_1 <- conv7_2_conv7_2_relu_0_split_0
I0406 19:56:54.136947 20371 net.cpp:408] conv8_1 -> conv8_1
I0406 19:56:54.138288 20371 net.cpp:150] Setting up conv8_1
I0406 19:56:54.138303 20371 net.cpp:157] Top shape: 2 128 8 8 (16384)
I0406 19:56:54.138308 20371 net.cpp:165] Memory required for data: 1371996352
I0406 19:56:54.138314 20371 layer_factory.hpp:77] Creating layer conv8_1_relu
I0406 19:56:54.138321 20371 net.cpp:100] Creating Layer conv8_1_relu
I0406 19:56:54.138326 20371 net.cpp:434] conv8_1_relu <- conv8_1
I0406 19:56:54.138332 20371 net.cpp:395] conv8_1_relu -> conv8_1 (in-place)
I0406 19:56:54.138545 20371 net.cpp:150] Setting up conv8_1_relu
I0406 19:56:54.138556 20371 net.cpp:157] Top shape: 2 128 8 8 (16384)
I0406 19:56:54.138561 20371 net.cpp:165] Memory required for data: 1372061888
I0406 19:56:54.138566 20371 layer_factory.hpp:77] Creating layer conv8_2
I0406 19:56:54.138578 20371 net.cpp:100] Creating Layer conv8_2
I0406 19:56:54.138586 20371 net.cpp:434] conv8_2 <- conv8_1
I0406 19:56:54.138594 20371 net.cpp:408] conv8_2 -> conv8_2
I0406 19:56:54.142019 20371 net.cpp:150] Setting up conv8_2
I0406 19:56:54.142035 20371 net.cpp:157] Top shape: 2 256 6 6 (18432)
I0406 19:56:54.142040 20371 net.cpp:165] Memory required for data: 1372135616
I0406 19:56:54.142046 20371 layer_factory.hpp:77] Creating layer conv8_2_relu
I0406 19:56:54.142055 20371 net.cpp:100] Creating Layer conv8_2_relu
I0406 19:56:54.142060 20371 net.cpp:434] conv8_2_relu <- conv8_2
I0406 19:56:54.142066 20371 net.cpp:395] conv8_2_relu -> conv8_2 (in-place)
I0406 19:56:54.142277 20371 net.cpp:150] Setting up conv8_2_relu
I0406 19:56:54.142289 20371 net.cpp:157] Top shape: 2 256 6 6 (18432)
I0406 19:56:54.142293 20371 net.cpp:165] Memory required for data: 1372209344
I0406 19:56:54.142298 20371 layer_factory.hpp:77] Creating layer conv8_2_conv8_2_relu_0_split
I0406 19:56:54.142307 20371 net.cpp:100] Creating Layer conv8_2_conv8_2_relu_0_split
I0406 19:56:54.142313 20371 net.cpp:434] conv8_2_conv8_2_relu_0_split <- conv8_2
I0406 19:56:54.142323 20371 net.cpp:408] conv8_2_conv8_2_relu_0_split -> conv8_2_conv8_2_relu_0_split_0
I0406 19:56:54.142331 20371 net.cpp:408] conv8_2_conv8_2_relu_0_split -> conv8_2_conv8_2_relu_0_split_1
I0406 19:56:54.142343 20371 net.cpp:408] conv8_2_conv8_2_relu_0_split -> conv8_2_conv8_2_relu_0_split_2
I0406 19:56:54.142350 20371 net.cpp:408] conv8_2_conv8_2_relu_0_split -> conv8_2_conv8_2_relu_0_split_3
I0406 19:56:54.142356 20371 net.cpp:408] conv8_2_conv8_2_relu_0_split -> conv8_2_conv8_2_relu_0_split_4
I0406 19:56:54.142473 20371 net.cpp:150] Setting up conv8_2_conv8_2_relu_0_split
I0406 19:56:54.142483 20371 net.cpp:157] Top shape: 2 256 6 6 (18432)
I0406 19:56:54.142488 20371 net.cpp:157] Top shape: 2 256 6 6 (18432)
I0406 19:56:54.142506 20371 net.cpp:157] Top shape: 2 256 6 6 (18432)
I0406 19:56:54.142511 20371 net.cpp:157] Top shape: 2 256 6 6 (18432)
I0406 19:56:54.142516 20371 net.cpp:157] Top shape: 2 256 6 6 (18432)
I0406 19:56:54.142520 20371 net.cpp:165] Memory required for data: 1372577984
I0406 19:56:54.142525 20371 layer_factory.hpp:77] Creating layer conv9_1
I0406 19:56:54.142536 20371 net.cpp:100] Creating Layer conv9_1
I0406 19:56:54.142544 20371 net.cpp:434] conv9_1 <- conv8_2_conv8_2_relu_0_split_0
I0406 19:56:54.142554 20371 net.cpp:408] conv9_1 -> conv9_1
I0406 19:56:54.143903 20371 net.cpp:150] Setting up conv9_1
I0406 19:56:54.143918 20371 net.cpp:157] Top shape: 2 128 6 6 (9216)
I0406 19:56:54.143923 20371 net.cpp:165] Memory required for data: 1372614848
I0406 19:56:54.143929 20371 layer_factory.hpp:77] Creating layer conv9_1_relu
I0406 19:56:54.143937 20371 net.cpp:100] Creating Layer conv9_1_relu
I0406 19:56:54.143942 20371 net.cpp:434] conv9_1_relu <- conv9_1
I0406 19:56:54.143949 20371 net.cpp:395] conv9_1_relu -> conv9_1 (in-place)
I0406 19:56:54.144309 20371 net.cpp:150] Setting up conv9_1_relu
I0406 19:56:54.144322 20371 net.cpp:157] Top shape: 2 128 6 6 (9216)
I0406 19:56:54.144338 20371 net.cpp:165] Memory required for data: 1372651712
I0406 19:56:54.144343 20371 layer_factory.hpp:77] Creating layer conv9_2
I0406 19:56:54.144366 20371 net.cpp:100] Creating Layer conv9_2
I0406 19:56:54.144373 20371 net.cpp:434] conv9_2 <- conv9_1
I0406 19:56:54.144381 20371 net.cpp:408] conv9_2 -> conv9_2
I0406 19:56:54.147883 20371 net.cpp:150] Setting up conv9_2
I0406 19:56:54.147899 20371 net.cpp:157] Top shape: 2 256 4 4 (8192)
I0406 19:56:54.147903 20371 net.cpp:165] Memory required for data: 1372684480
I0406 19:56:54.147912 20371 layer_factory.hpp:77] Creating layer conv9_2_relu
I0406 19:56:54.147917 20371 net.cpp:100] Creating Layer conv9_2_relu
I0406 19:56:54.147922 20371 net.cpp:434] conv9_2_relu <- conv9_2
I0406 19:56:54.147928 20371 net.cpp:395] conv9_2_relu -> conv9_2 (in-place)
I0406 19:56:54.148128 20371 net.cpp:150] Setting up conv9_2_relu
I0406 19:56:54.148140 20371 net.cpp:157] Top shape: 2 256 4 4 (8192)
I0406 19:56:54.148144 20371 net.cpp:165] Memory required for data: 1372717248
I0406 19:56:54.148150 20371 layer_factory.hpp:77] Creating layer conv9_2_conv9_2_relu_0_split
I0406 19:56:54.148159 20371 net.cpp:100] Creating Layer conv9_2_conv9_2_relu_0_split
I0406 19:56:54.148169 20371 net.cpp:434] conv9_2_conv9_2_relu_0_split <- conv9_2
I0406 19:56:54.148175 20371 net.cpp:408] conv9_2_conv9_2_relu_0_split -> conv9_2_conv9_2_relu_0_split_0
I0406 19:56:54.148185 20371 net.cpp:408] conv9_2_conv9_2_relu_0_split -> conv9_2_conv9_2_relu_0_split_1
I0406 19:56:54.148195 20371 net.cpp:408] conv9_2_conv9_2_relu_0_split -> conv9_2_conv9_2_relu_0_split_2
I0406 19:56:54.148202 20371 net.cpp:408] conv9_2_conv9_2_relu_0_split -> conv9_2_conv9_2_relu_0_split_3
I0406 19:56:54.148301 20371 net.cpp:150] Setting up conv9_2_conv9_2_relu_0_split
I0406 19:56:54.148310 20371 net.cpp:157] Top shape: 2 256 4 4 (8192)
I0406 19:56:54.148315 20371 net.cpp:157] Top shape: 2 256 4 4 (8192)
I0406 19:56:54.148320 20371 net.cpp:157] Top shape: 2 256 4 4 (8192)
I0406 19:56:54.148326 20371 net.cpp:157] Top shape: 2 256 4 4 (8192)
I0406 19:56:54.148330 20371 net.cpp:165] Memory required for data: 1372848320
I0406 19:56:54.148335 20371 layer_factory.hpp:77] Creating layer conv4_3_norm
I0406 19:56:54.148347 20371 net.cpp:100] Creating Layer conv4_3_norm
I0406 19:56:54.148353 20371 net.cpp:434] conv4_3_norm <- conv4_3_relu4_3_0_split_1
I0406 19:56:54.148366 20371 net.cpp:408] conv4_3_norm -> conv4_3_norm
I0406 19:56:54.148584 20371 net.cpp:150] Setting up conv4_3_norm
I0406 19:56:54.148594 20371 net.cpp:157] Top shape: 2 512 64 64 (4194304)
I0406 19:56:54.148598 20371 net.cpp:165] Memory required for data: 1389625536
I0406 19:56:54.148605 20371 layer_factory.hpp:77] Creating layer conv4_3_norm_conv4_3_norm_0_split
I0406 19:56:54.148612 20371 net.cpp:100] Creating Layer conv4_3_norm_conv4_3_norm_0_split
I0406 19:56:54.148617 20371 net.cpp:434] conv4_3_norm_conv4_3_norm_0_split <- conv4_3_norm
I0406 19:56:54.148636 20371 net.cpp:408] conv4_3_norm_conv4_3_norm_0_split -> conv4_3_norm_conv4_3_norm_0_split_0
I0406 19:56:54.148651 20371 net.cpp:408] conv4_3_norm_conv4_3_norm_0_split -> conv4_3_norm_conv4_3_norm_0_split_1
I0406 19:56:54.148660 20371 net.cpp:408] conv4_3_norm_conv4_3_norm_0_split -> conv4_3_norm_conv4_3_norm_0_split_2
I0406 19:56:54.148668 20371 net.cpp:408] conv4_3_norm_conv4_3_norm_0_split -> conv4_3_norm_conv4_3_norm_0_split_3
I0406 19:56:54.148756 20371 net.cpp:150] Setting up conv4_3_norm_conv4_3_norm_0_split
I0406 19:56:54.148767 20371 net.cpp:157] Top shape: 2 512 64 64 (4194304)
I0406 19:56:54.148773 20371 net.cpp:157] Top shape: 2 512 64 64 (4194304)
I0406 19:56:54.148778 20371 net.cpp:157] Top shape: 2 512 64 64 (4194304)
I0406 19:56:54.148783 20371 net.cpp:157] Top shape: 2 512 64 64 (4194304)
I0406 19:56:54.148787 20371 net.cpp:165] Memory required for data: 1456734400
I0406 19:56:54.148793 20371 layer_factory.hpp:77] Creating layer conv4_3_norm_mbox_loc
I0406 19:56:54.148805 20371 net.cpp:100] Creating Layer conv4_3_norm_mbox_loc
I0406 19:56:54.148811 20371 net.cpp:434] conv4_3_norm_mbox_loc <- conv4_3_norm_conv4_3_norm_0_split_0
I0406 19:56:54.148820 20371 net.cpp:408] conv4_3_norm_mbox_loc -> conv4_3_norm_mbox_loc
I0406 19:56:54.150538 20371 net.cpp:150] Setting up conv4_3_norm_mbox_loc
I0406 19:56:54.150564 20371 net.cpp:157] Top shape: 2 16 64 64 (131072)
I0406 19:56:54.150569 20371 net.cpp:165] Memory required for data: 1457258688
I0406 19:56:54.150576 20371 layer_factory.hpp:77] Creating layer conv4_3_norm_mbox_loc_perm
I0406 19:56:54.150588 20371 net.cpp:100] Creating Layer conv4_3_norm_mbox_loc_perm
I0406 19:56:54.150606 20371 net.cpp:434] conv4_3_norm_mbox_loc_perm <- conv4_3_norm_mbox_loc
I0406 19:56:54.150614 20371 net.cpp:408] conv4_3_norm_mbox_loc_perm -> conv4_3_norm_mbox_loc_perm
I0406 19:56:54.150768 20371 net.cpp:150] Setting up conv4_3_norm_mbox_loc_perm
I0406 19:56:54.150779 20371 net.cpp:157] Top shape: 2 64 64 16 (131072)
I0406 19:56:54.150784 20371 net.cpp:165] Memory required for data: 1457782976
I0406 19:56:54.150789 20371 layer_factory.hpp:77] Creating layer conv4_3_norm_mbox_loc_flat
I0406 19:56:54.150796 20371 net.cpp:100] Creating Layer conv4_3_norm_mbox_loc_flat
I0406 19:56:54.150804 20371 net.cpp:434] conv4_3_norm_mbox_loc_flat <- conv4_3_norm_mbox_loc_perm
I0406 19:56:54.150811 20371 net.cpp:408] conv4_3_norm_mbox_loc_flat -> conv4_3_norm_mbox_loc_flat
I0406 19:56:54.150848 20371 net.cpp:150] Setting up conv4_3_norm_mbox_loc_flat
I0406 19:56:54.150857 20371 net.cpp:157] Top shape: 2 65536 (131072)
I0406 19:56:54.150861 20371 net.cpp:165] Memory required for data: 1458307264
I0406 19:56:54.150866 20371 layer_factory.hpp:77] Creating layer conv4_3_norm_mbox_conf
I0406 19:56:54.150887 20371 net.cpp:100] Creating Layer conv4_3_norm_mbox_conf
I0406 19:56:54.150893 20371 net.cpp:434] conv4_3_norm_mbox_conf <- conv4_3_norm_conv4_3_norm_0_split_1
I0406 19:56:54.150902 20371 net.cpp:408] conv4_3_norm_mbox_conf -> conv4_3_norm_mbox_conf
I0406 19:56:54.152890 20371 net.cpp:150] Setting up conv4_3_norm_mbox_conf
I0406 19:56:54.152904 20371 net.cpp:157] Top shape: 2 8 64 64 (65536)
I0406 19:56:54.152909 20371 net.cpp:165] Memory required for data: 1458569408
I0406 19:56:54.152917 20371 layer_factory.hpp:77] Creating layer conv4_3_norm_mbox_conf_perm
I0406 19:56:54.152925 20371 net.cpp:100] Creating Layer conv4_3_norm_mbox_conf_perm
I0406 19:56:54.152931 20371 net.cpp:434] conv4_3_norm_mbox_conf_perm <- conv4_3_norm_mbox_conf
I0406 19:56:54.152937 20371 net.cpp:408] conv4_3_norm_mbox_conf_perm -> conv4_3_norm_mbox_conf_perm
I0406 19:56:54.153116 20371 net.cpp:150] Setting up conv4_3_norm_mbox_conf_perm
I0406 19:56:54.153126 20371 net.cpp:157] Top shape: 2 64 64 8 (65536)
I0406 19:56:54.153132 20371 net.cpp:165] Memory required for data: 1458831552
I0406 19:56:54.153136 20371 layer_factory.hpp:77] Creating layer conv4_3_norm_mbox_conf_flat
I0406 19:56:54.153143 20371 net.cpp:100] Creating Layer conv4_3_norm_mbox_conf_flat
I0406 19:56:54.153162 20371 net.cpp:434] conv4_3_norm_mbox_conf_flat <- conv4_3_norm_mbox_conf_perm
I0406 19:56:54.153177 20371 net.cpp:408] conv4_3_norm_mbox_conf_flat -> conv4_3_norm_mbox_conf_flat
I0406 19:56:54.153215 20371 net.cpp:150] Setting up conv4_3_norm_mbox_conf_flat
I0406 19:56:54.153226 20371 net.cpp:157] Top shape: 2 32768 (65536)
I0406 19:56:54.153230 20371 net.cpp:165] Memory required for data: 1459093696
I0406 19:56:54.153244 20371 layer_factory.hpp:77] Creating layer conv4_3_norm_mbox_clean
I0406 19:56:54.153256 20371 net.cpp:100] Creating Layer conv4_3_norm_mbox_clean
I0406 19:56:54.153264 20371 net.cpp:434] conv4_3_norm_mbox_clean <- conv4_3_norm_conv4_3_norm_0_split_2
I0406 19:56:54.153272 20371 net.cpp:408] conv4_3_norm_mbox_clean -> conv4_3_norm_mbox_clean
I0406 19:56:54.154786 20371 net.cpp:150] Setting up conv4_3_norm_mbox_clean
I0406 19:56:54.154803 20371 net.cpp:157] Top shape: 2 4 64 64 (32768)
I0406 19:56:54.154808 20371 net.cpp:165] Memory required for data: 1459224768
I0406 19:56:54.154829 20371 layer_factory.hpp:77] Creating layer conv4_3_norm_mbox_clean_perm
I0406 19:56:54.154835 20371 net.cpp:100] Creating Layer conv4_3_norm_mbox_clean_perm
I0406 19:56:54.154841 20371 net.cpp:434] conv4_3_norm_mbox_clean_perm <- conv4_3_norm_mbox_clean
I0406 19:56:54.154858 20371 net.cpp:408] conv4_3_norm_mbox_clean_perm -> conv4_3_norm_mbox_clean_perm
I0406 19:56:54.155025 20371 net.cpp:150] Setting up conv4_3_norm_mbox_clean_perm
I0406 19:56:54.155035 20371 net.cpp:157] Top shape: 2 64 64 4 (32768)
I0406 19:56:54.155040 20371 net.cpp:165] Memory required for data: 1459355840
I0406 19:56:54.155045 20371 layer_factory.hpp:77] Creating layer conv4_3_norm_mbox_clean_flat
I0406 19:56:54.155051 20371 net.cpp:100] Creating Layer conv4_3_norm_mbox_clean_flat
I0406 19:56:54.155057 20371 net.cpp:434] conv4_3_norm_mbox_clean_flat <- conv4_3_norm_mbox_clean_perm
I0406 19:56:54.155063 20371 net.cpp:408] conv4_3_norm_mbox_clean_flat -> conv4_3_norm_mbox_clean_flat
I0406 19:56:54.155102 20371 net.cpp:150] Setting up conv4_3_norm_mbox_clean_flat
I0406 19:56:54.155110 20371 net.cpp:157] Top shape: 2 16384 (32768)
I0406 19:56:54.155115 20371 net.cpp:165] Memory required for data: 1459486912
I0406 19:56:54.155119 20371 layer_factory.hpp:77] Creating layer conv4_3_norm_mbox_priorbox
I0406 19:56:54.155130 20371 net.cpp:100] Creating Layer conv4_3_norm_mbox_priorbox
I0406 19:56:54.155135 20371 net.cpp:434] conv4_3_norm_mbox_priorbox <- conv4_3_norm_conv4_3_norm_0_split_3
I0406 19:56:54.155141 20371 net.cpp:434] conv4_3_norm_mbox_priorbox <- data_data_0_split_1
I0406 19:56:54.155148 20371 net.cpp:408] conv4_3_norm_mbox_priorbox -> conv4_3_norm_mbox_priorbox
I0406 19:56:54.155189 20371 net.cpp:150] Setting up conv4_3_norm_mbox_priorbox
I0406 19:56:54.155197 20371 net.cpp:157] Top shape: 1 2 65536 (131072)
I0406 19:56:54.155202 20371 net.cpp:165] Memory required for data: 1460011200
I0406 19:56:54.155206 20371 layer_factory.hpp:77] Creating layer fc7_mbox_loc
I0406 19:56:54.155217 20371 net.cpp:100] Creating Layer fc7_mbox_loc
I0406 19:56:54.155225 20371 net.cpp:434] fc7_mbox_loc <- fc7_relu7_0_split_1
I0406 19:56:54.155233 20371 net.cpp:408] fc7_mbox_loc -> fc7_mbox_loc
I0406 19:56:54.158219 20371 net.cpp:150] Setting up fc7_mbox_loc
I0406 19:56:54.158234 20371 net.cpp:157] Top shape: 2 24 32 32 (49152)
I0406 19:56:54.158239 20371 net.cpp:165] Memory required for data: 1460207808
I0406 19:56:54.158258 20371 layer_factory.hpp:77] Creating layer fc7_mbox_loc_perm
I0406 19:56:54.158269 20371 net.cpp:100] Creating Layer fc7_mbox_loc_perm
I0406 19:56:54.158274 20371 net.cpp:434] fc7_mbox_loc_perm <- fc7_mbox_loc
I0406 19:56:54.158283 20371 net.cpp:408] fc7_mbox_loc_perm -> fc7_mbox_loc_perm
I0406 19:56:54.158448 20371 net.cpp:150] Setting up fc7_mbox_loc_perm
I0406 19:56:54.158458 20371 net.cpp:157] Top shape: 2 32 32 24 (49152)
I0406 19:56:54.158468 20371 net.cpp:165] Memory required for data: 1460404416
I0406 19:56:54.158473 20371 layer_factory.hpp:77] Creating layer fc7_mbox_loc_flat
I0406 19:56:54.158479 20371 net.cpp:100] Creating Layer fc7_mbox_loc_flat
I0406 19:56:54.158495 20371 net.cpp:434] fc7_mbox_loc_flat <- fc7_mbox_loc_perm
I0406 19:56:54.158502 20371 net.cpp:408] fc7_mbox_loc_flat -> fc7_mbox_loc_flat
I0406 19:56:54.158542 20371 net.cpp:150] Setting up fc7_mbox_loc_flat
I0406 19:56:54.158551 20371 net.cpp:157] Top shape: 2 24576 (49152)
I0406 19:56:54.158555 20371 net.cpp:165] Memory required for data: 1460601024
I0406 19:56:54.158560 20371 layer_factory.hpp:77] Creating layer fc7_mbox_conf
I0406 19:56:54.158572 20371 net.cpp:100] Creating Layer fc7_mbox_conf
I0406 19:56:54.158578 20371 net.cpp:434] fc7_mbox_conf <- fc7_relu7_0_split_2
I0406 19:56:54.158588 20371 net.cpp:408] fc7_mbox_conf -> fc7_mbox_conf
I0406 19:56:54.161106 20371 net.cpp:150] Setting up fc7_mbox_conf
I0406 19:56:54.161123 20371 net.cpp:157] Top shape: 2 12 32 32 (24576)
I0406 19:56:54.161128 20371 net.cpp:165] Memory required for data: 1460699328
I0406 19:56:54.161146 20371 layer_factory.hpp:77] Creating layer fc7_mbox_conf_perm
I0406 19:56:54.161157 20371 net.cpp:100] Creating Layer fc7_mbox_conf_perm
I0406 19:56:54.161164 20371 net.cpp:434] fc7_mbox_conf_perm <- fc7_mbox_conf
I0406 19:56:54.161172 20371 net.cpp:408] fc7_mbox_conf_perm -> fc7_mbox_conf_perm
I0406 19:56:54.161329 20371 net.cpp:150] Setting up fc7_mbox_conf_perm
I0406 19:56:54.161340 20371 net.cpp:157] Top shape: 2 32 32 12 (24576)
I0406 19:56:54.161345 20371 net.cpp:165] Memory required for data: 1460797632
I0406 19:56:54.161350 20371 layer_factory.hpp:77] Creating layer fc7_mbox_conf_flat
I0406 19:56:54.161356 20371 net.cpp:100] Creating Layer fc7_mbox_conf_flat
I0406 19:56:54.161361 20371 net.cpp:434] fc7_mbox_conf_flat <- fc7_mbox_conf_perm
I0406 19:56:54.161367 20371 net.cpp:408] fc7_mbox_conf_flat -> fc7_mbox_conf_flat
I0406 19:56:54.161406 20371 net.cpp:150] Setting up fc7_mbox_conf_flat
I0406 19:56:54.161414 20371 net.cpp:157] Top shape: 2 12288 (24576)
I0406 19:56:54.161418 20371 net.cpp:165] Memory required for data: 1460895936
I0406 19:56:54.161423 20371 layer_factory.hpp:77] Creating layer fc7_mbox_clean
I0406 19:56:54.161435 20371 net.cpp:100] Creating Layer fc7_mbox_clean
I0406 19:56:54.161442 20371 net.cpp:434] fc7_mbox_clean <- fc7_relu7_0_split_3
I0406 19:56:54.161450 20371 net.cpp:408] fc7_mbox_clean -> fc7_mbox_clean
I0406 19:56:54.163059 20371 net.cpp:150] Setting up fc7_mbox_clean
I0406 19:56:54.163074 20371 net.cpp:157] Top shape: 2 6 32 32 (12288)
I0406 19:56:54.163079 20371 net.cpp:165] Memory required for data: 1460945088
I0406 19:56:54.163085 20371 layer_factory.hpp:77] Creating layer fc7_mbox_clean_perm
I0406 19:56:54.163094 20371 net.cpp:100] Creating Layer fc7_mbox_clean_perm
I0406 19:56:54.163100 20371 net.cpp:434] fc7_mbox_clean_perm <- fc7_mbox_clean
I0406 19:56:54.163116 20371 net.cpp:408] fc7_mbox_clean_perm -> fc7_mbox_clean_perm
I0406 19:56:54.163287 20371 net.cpp:150] Setting up fc7_mbox_clean_perm
I0406 19:56:54.163297 20371 net.cpp:157] Top shape: 2 32 32 6 (12288)
I0406 19:56:54.163302 20371 net.cpp:165] Memory required for data: 1460994240
I0406 19:56:54.163307 20371 layer_factory.hpp:77] Creating layer fc7_mbox_clean_flat
I0406 19:56:54.163316 20371 net.cpp:100] Creating Layer fc7_mbox_clean_flat
I0406 19:56:54.163321 20371 net.cpp:434] fc7_mbox_clean_flat <- fc7_mbox_clean_perm
I0406 19:56:54.163329 20371 net.cpp:408] fc7_mbox_clean_flat -> fc7_mbox_clean_flat
I0406 19:56:54.163367 20371 net.cpp:150] Setting up fc7_mbox_clean_flat
I0406 19:56:54.163374 20371 net.cpp:157] Top shape: 2 6144 (12288)
I0406 19:56:54.163383 20371 net.cpp:165] Memory required for data: 1461043392
I0406 19:56:54.163388 20371 layer_factory.hpp:77] Creating layer fc7_mbox_priorbox
I0406 19:56:54.163399 20371 net.cpp:100] Creating Layer fc7_mbox_priorbox
I0406 19:56:54.163404 20371 net.cpp:434] fc7_mbox_priorbox <- fc7_relu7_0_split_4
I0406 19:56:54.163410 20371 net.cpp:434] fc7_mbox_priorbox <- data_data_0_split_2
I0406 19:56:54.163417 20371 net.cpp:408] fc7_mbox_priorbox -> fc7_mbox_priorbox
I0406 19:56:54.163456 20371 net.cpp:150] Setting up fc7_mbox_priorbox
I0406 19:56:54.163465 20371 net.cpp:157] Top shape: 1 2 24576 (49152)
I0406 19:56:54.163482 20371 net.cpp:165] Memory required for data: 1461240000
I0406 19:56:54.163487 20371 layer_factory.hpp:77] Creating layer conv6_2_mbox_loc
I0406 19:56:54.163501 20371 net.cpp:100] Creating Layer conv6_2_mbox_loc
I0406 19:56:54.163508 20371 net.cpp:434] conv6_2_mbox_loc <- conv6_2_conv6_2_relu_0_split_1
I0406 19:56:54.163516 20371 net.cpp:408] conv6_2_mbox_loc -> conv6_2_mbox_loc
I0406 19:56:54.165530 20371 net.cpp:150] Setting up conv6_2_mbox_loc
I0406 19:56:54.165545 20371 net.cpp:157] Top shape: 2 24 16 16 (12288)
I0406 19:56:54.165550 20371 net.cpp:165] Memory required for data: 1461289152
I0406 19:56:54.165570 20371 layer_factory.hpp:77] Creating layer conv6_2_mbox_loc_perm
I0406 19:56:54.165578 20371 net.cpp:100] Creating Layer conv6_2_mbox_loc_perm
I0406 19:56:54.165583 20371 net.cpp:434] conv6_2_mbox_loc_perm <- conv6_2_mbox_loc
I0406 19:56:54.165592 20371 net.cpp:408] conv6_2_mbox_loc_perm -> conv6_2_mbox_loc_perm
I0406 19:56:54.165763 20371 net.cpp:150] Setting up conv6_2_mbox_loc_perm
I0406 19:56:54.165773 20371 net.cpp:157] Top shape: 2 16 16 24 (12288)
I0406 19:56:54.165778 20371 net.cpp:165] Memory required for data: 1461338304
I0406 19:56:54.165782 20371 layer_factory.hpp:77] Creating layer conv6_2_mbox_loc_flat
I0406 19:56:54.165792 20371 net.cpp:100] Creating Layer conv6_2_mbox_loc_flat
I0406 19:56:54.165799 20371 net.cpp:434] conv6_2_mbox_loc_flat <- conv6_2_mbox_loc_perm
I0406 19:56:54.165807 20371 net.cpp:408] conv6_2_mbox_loc_flat -> conv6_2_mbox_loc_flat
I0406 19:56:54.165844 20371 net.cpp:150] Setting up conv6_2_mbox_loc_flat
I0406 19:56:54.165853 20371 net.cpp:157] Top shape: 2 6144 (12288)
I0406 19:56:54.165858 20371 net.cpp:165] Memory required for data: 1461387456
I0406 19:56:54.165863 20371 layer_factory.hpp:77] Creating layer conv6_2_mbox_conf
I0406 19:56:54.165874 20371 net.cpp:100] Creating Layer conv6_2_mbox_conf
I0406 19:56:54.165881 20371 net.cpp:434] conv6_2_mbox_conf <- conv6_2_conv6_2_relu_0_split_2
I0406 19:56:54.165890 20371 net.cpp:408] conv6_2_mbox_conf -> conv6_2_mbox_conf
I0406 19:56:54.167544 20371 net.cpp:150] Setting up conv6_2_mbox_conf
I0406 19:56:54.167558 20371 net.cpp:157] Top shape: 2 12 16 16 (6144)
I0406 19:56:54.167563 20371 net.cpp:165] Memory required for data: 1461412032
I0406 19:56:54.167589 20371 layer_factory.hpp:77] Creating layer conv6_2_mbox_conf_perm
I0406 19:56:54.167603 20371 net.cpp:100] Creating Layer conv6_2_mbox_conf_perm
I0406 19:56:54.167608 20371 net.cpp:434] conv6_2_mbox_conf_perm <- conv6_2_mbox_conf
I0406 19:56:54.167614 20371 net.cpp:408] conv6_2_mbox_conf_perm -> conv6_2_mbox_conf_perm
I0406 19:56:54.167784 20371 net.cpp:150] Setting up conv6_2_mbox_conf_perm
I0406 19:56:54.167795 20371 net.cpp:157] Top shape: 2 16 16 12 (6144)
I0406 19:56:54.167799 20371 net.cpp:165] Memory required for data: 1461436608
I0406 19:56:54.167805 20371 layer_factory.hpp:77] Creating layer conv6_2_mbox_conf_flat
I0406 19:56:54.167812 20371 net.cpp:100] Creating Layer conv6_2_mbox_conf_flat
I0406 19:56:54.167817 20371 net.cpp:434] conv6_2_mbox_conf_flat <- conv6_2_mbox_conf_perm
I0406 19:56:54.167824 20371 net.cpp:408] conv6_2_mbox_conf_flat -> conv6_2_mbox_conf_flat
I0406 19:56:54.167861 20371 net.cpp:150] Setting up conv6_2_mbox_conf_flat
I0406 19:56:54.167870 20371 net.cpp:157] Top shape: 2 3072 (6144)
I0406 19:56:54.167876 20371 net.cpp:165] Memory required for data: 1461461184
I0406 19:56:54.167879 20371 layer_factory.hpp:77] Creating layer conv6_2_mbox_clean
I0406 19:56:54.167891 20371 net.cpp:100] Creating Layer conv6_2_mbox_clean
I0406 19:56:54.167896 20371 net.cpp:434] conv6_2_mbox_clean <- conv6_2_conv6_2_relu_0_split_3
I0406 19:56:54.167906 20371 net.cpp:408] conv6_2_mbox_clean -> conv6_2_mbox_clean
I0406 19:56:54.169260 20371 net.cpp:150] Setting up conv6_2_mbox_clean
I0406 19:56:54.169275 20371 net.cpp:157] Top shape: 2 6 16 16 (3072)
I0406 19:56:54.169279 20371 net.cpp:165] Memory required for data: 1461473472
I0406 19:56:54.169296 20371 layer_factory.hpp:77] Creating layer conv6_2_mbox_clean_perm
I0406 19:56:54.169325 20371 net.cpp:100] Creating Layer conv6_2_mbox_clean_perm
I0406 19:56:54.169333 20371 net.cpp:434] conv6_2_mbox_clean_perm <- conv6_2_mbox_clean
I0406 19:56:54.169342 20371 net.cpp:408] conv6_2_mbox_clean_perm -> conv6_2_mbox_clean_perm
I0406 19:56:54.169524 20371 net.cpp:150] Setting up conv6_2_mbox_clean_perm
I0406 19:56:54.169535 20371 net.cpp:157] Top shape: 2 16 16 6 (3072)
I0406 19:56:54.169540 20371 net.cpp:165] Memory required for data: 1461485760
I0406 19:56:54.169545 20371 layer_factory.hpp:77] Creating layer conv6_2_mbox_clean_flat
I0406 19:56:54.169553 20371 net.cpp:100] Creating Layer conv6_2_mbox_clean_flat
I0406 19:56:54.169558 20371 net.cpp:434] conv6_2_mbox_clean_flat <- conv6_2_mbox_clean_perm
I0406 19:56:54.169565 20371 net.cpp:408] conv6_2_mbox_clean_flat -> conv6_2_mbox_clean_flat
I0406 19:56:54.169605 20371 net.cpp:150] Setting up conv6_2_mbox_clean_flat
I0406 19:56:54.169615 20371 net.cpp:157] Top shape: 2 1536 (3072)
I0406 19:56:54.169618 20371 net.cpp:165] Memory required for data: 1461498048
I0406 19:56:54.169622 20371 layer_factory.hpp:77] Creating layer conv6_2_mbox_priorbox
I0406 19:56:54.169631 20371 net.cpp:100] Creating Layer conv6_2_mbox_priorbox
I0406 19:56:54.169637 20371 net.cpp:434] conv6_2_mbox_priorbox <- conv6_2_conv6_2_relu_0_split_4
I0406 19:56:54.169643 20371 net.cpp:434] conv6_2_mbox_priorbox <- data_data_0_split_3
I0406 19:56:54.169651 20371 net.cpp:408] conv6_2_mbox_priorbox -> conv6_2_mbox_priorbox
I0406 19:56:54.169692 20371 net.cpp:150] Setting up conv6_2_mbox_priorbox
I0406 19:56:54.169701 20371 net.cpp:157] Top shape: 1 2 6144 (12288)
I0406 19:56:54.169705 20371 net.cpp:165] Memory required for data: 1461547200
I0406 19:56:54.169710 20371 layer_factory.hpp:77] Creating layer conv7_2_mbox_loc
I0406 19:56:54.169721 20371 net.cpp:100] Creating Layer conv7_2_mbox_loc
I0406 19:56:54.169729 20371 net.cpp:434] conv7_2_mbox_loc <- conv7_2_conv7_2_relu_0_split_1
I0406 19:56:54.169736 20371 net.cpp:408] conv7_2_mbox_loc -> conv7_2_mbox_loc
I0406 19:56:54.171386 20371 net.cpp:150] Setting up conv7_2_mbox_loc
I0406 19:56:54.171401 20371 net.cpp:157] Top shape: 2 24 8 8 (3072)
I0406 19:56:54.171406 20371 net.cpp:165] Memory required for data: 1461559488
I0406 19:56:54.171413 20371 layer_factory.hpp:77] Creating layer conv7_2_mbox_loc_perm
I0406 19:56:54.171435 20371 net.cpp:100] Creating Layer conv7_2_mbox_loc_perm
I0406 19:56:54.171442 20371 net.cpp:434] conv7_2_mbox_loc_perm <- conv7_2_mbox_loc
I0406 19:56:54.171447 20371 net.cpp:408] conv7_2_mbox_loc_perm -> conv7_2_mbox_loc_perm
I0406 19:56:54.171648 20371 net.cpp:150] Setting up conv7_2_mbox_loc_perm
I0406 19:56:54.171658 20371 net.cpp:157] Top shape: 2 8 8 24 (3072)
I0406 19:56:54.171663 20371 net.cpp:165] Memory required for data: 1461571776
I0406 19:56:54.171669 20371 layer_factory.hpp:77] Creating layer conv7_2_mbox_loc_flat
I0406 19:56:54.171675 20371 net.cpp:100] Creating Layer conv7_2_mbox_loc_flat
I0406 19:56:54.171682 20371 net.cpp:434] conv7_2_mbox_loc_flat <- conv7_2_mbox_loc_perm
I0406 19:56:54.171690 20371 net.cpp:408] conv7_2_mbox_loc_flat -> conv7_2_mbox_loc_flat
I0406 19:56:54.171728 20371 net.cpp:150] Setting up conv7_2_mbox_loc_flat
I0406 19:56:54.171739 20371 net.cpp:157] Top shape: 2 1536 (3072)
I0406 19:56:54.171744 20371 net.cpp:165] Memory required for data: 1461584064
I0406 19:56:54.171748 20371 layer_factory.hpp:77] Creating layer conv7_2_mbox_conf
I0406 19:56:54.171761 20371 net.cpp:100] Creating Layer conv7_2_mbox_conf
I0406 19:56:54.171767 20371 net.cpp:434] conv7_2_mbox_conf <- conv7_2_conv7_2_relu_0_split_2
I0406 19:56:54.171774 20371 net.cpp:408] conv7_2_mbox_conf -> conv7_2_mbox_conf
I0406 19:56:54.173319 20371 net.cpp:150] Setting up conv7_2_mbox_conf
I0406 19:56:54.173336 20371 net.cpp:157] Top shape: 2 12 8 8 (1536)
I0406 19:56:54.173341 20371 net.cpp:165] Memory required for data: 1461590208
I0406 19:56:54.173359 20371 layer_factory.hpp:77] Creating layer conv7_2_mbox_conf_perm
I0406 19:56:54.173369 20371 net.cpp:100] Creating Layer conv7_2_mbox_conf_perm
I0406 19:56:54.173387 20371 net.cpp:434] conv7_2_mbox_conf_perm <- conv7_2_mbox_conf
I0406 19:56:54.173395 20371 net.cpp:408] conv7_2_mbox_conf_perm -> conv7_2_mbox_conf_perm
I0406 19:56:54.173557 20371 net.cpp:150] Setting up conv7_2_mbox_conf_perm
I0406 19:56:54.173566 20371 net.cpp:157] Top shape: 2 8 8 12 (1536)
I0406 19:56:54.173570 20371 net.cpp:165] Memory required for data: 1461596352
I0406 19:56:54.173575 20371 layer_factory.hpp:77] Creating layer conv7_2_mbox_conf_flat
I0406 19:56:54.173583 20371 net.cpp:100] Creating Layer conv7_2_mbox_conf_flat
I0406 19:56:54.173588 20371 net.cpp:434] conv7_2_mbox_conf_flat <- conv7_2_mbox_conf_perm
I0406 19:56:54.173595 20371 net.cpp:408] conv7_2_mbox_conf_flat -> conv7_2_mbox_conf_flat
I0406 19:56:54.173635 20371 net.cpp:150] Setting up conv7_2_mbox_conf_flat
I0406 19:56:54.173643 20371 net.cpp:157] Top shape: 2 768 (1536)
I0406 19:56:54.173647 20371 net.cpp:165] Memory required for data: 1461602496
I0406 19:56:54.173652 20371 layer_factory.hpp:77] Creating layer conv7_2_mbox_clean
I0406 19:56:54.173665 20371 net.cpp:100] Creating Layer conv7_2_mbox_clean
I0406 19:56:54.173672 20371 net.cpp:434] conv7_2_mbox_clean <- conv7_2_conv7_2_relu_0_split_3
I0406 19:56:54.173681 20371 net.cpp:408] conv7_2_mbox_clean -> conv7_2_mbox_clean
I0406 19:56:54.175081 20371 net.cpp:150] Setting up conv7_2_mbox_clean
I0406 19:56:54.175107 20371 net.cpp:157] Top shape: 2 6 8 8 (768)
I0406 19:56:54.175112 20371 net.cpp:165] Memory required for data: 1461605568
I0406 19:56:54.175119 20371 layer_factory.hpp:77] Creating layer conv7_2_mbox_clean_perm
I0406 19:56:54.175128 20371 net.cpp:100] Creating Layer conv7_2_mbox_clean_perm
I0406 19:56:54.175148 20371 net.cpp:434] conv7_2_mbox_clean_perm <- conv7_2_mbox_clean
I0406 19:56:54.175154 20371 net.cpp:408] conv7_2_mbox_clean_perm -> conv7_2_mbox_clean_perm
I0406 19:56:54.175323 20371 net.cpp:150] Setting up conv7_2_mbox_clean_perm
I0406 19:56:54.175343 20371 net.cpp:157] Top shape: 2 8 8 6 (768)
I0406 19:56:54.175346 20371 net.cpp:165] Memory required for data: 1461608640
I0406 19:56:54.175351 20371 layer_factory.hpp:77] Creating layer conv7_2_mbox_clean_flat
I0406 19:56:54.175359 20371 net.cpp:100] Creating Layer conv7_2_mbox_clean_flat
I0406 19:56:54.175364 20371 net.cpp:434] conv7_2_mbox_clean_flat <- conv7_2_mbox_clean_perm
I0406 19:56:54.175371 20371 net.cpp:408] conv7_2_mbox_clean_flat -> conv7_2_mbox_clean_flat
I0406 19:56:54.175410 20371 net.cpp:150] Setting up conv7_2_mbox_clean_flat
I0406 19:56:54.175420 20371 net.cpp:157] Top shape: 2 384 (768)
I0406 19:56:54.175423 20371 net.cpp:165] Memory required for data: 1461611712
I0406 19:56:54.175427 20371 layer_factory.hpp:77] Creating layer conv7_2_mbox_priorbox
I0406 19:56:54.175434 20371 net.cpp:100] Creating Layer conv7_2_mbox_priorbox
I0406 19:56:54.175441 20371 net.cpp:434] conv7_2_mbox_priorbox <- conv7_2_conv7_2_relu_0_split_4
I0406 19:56:54.175446 20371 net.cpp:434] conv7_2_mbox_priorbox <- data_data_0_split_4
I0406 19:56:54.175454 20371 net.cpp:408] conv7_2_mbox_priorbox -> conv7_2_mbox_priorbox
I0406 19:56:54.175493 20371 net.cpp:150] Setting up conv7_2_mbox_priorbox
I0406 19:56:54.175503 20371 net.cpp:157] Top shape: 1 2 1536 (3072)
I0406 19:56:54.175508 20371 net.cpp:165] Memory required for data: 1461624000
I0406 19:56:54.175513 20371 layer_factory.hpp:77] Creating layer conv8_2_mbox_loc
I0406 19:56:54.175526 20371 net.cpp:100] Creating Layer conv8_2_mbox_loc
I0406 19:56:54.175534 20371 net.cpp:434] conv8_2_mbox_loc <- conv8_2_conv8_2_relu_0_split_1
I0406 19:56:54.175542 20371 net.cpp:408] conv8_2_mbox_loc -> conv8_2_mbox_loc
I0406 19:56:54.177634 20371 net.cpp:150] Setting up conv8_2_mbox_loc
I0406 19:56:54.177649 20371 net.cpp:157] Top shape: 2 16 6 6 (1152)
I0406 19:56:54.177654 20371 net.cpp:165] Memory required for data: 1461628608
I0406 19:56:54.177672 20371 layer_factory.hpp:77] Creating layer conv8_2_mbox_loc_perm
I0406 19:56:54.177685 20371 net.cpp:100] Creating Layer conv8_2_mbox_loc_perm
I0406 19:56:54.177690 20371 net.cpp:434] conv8_2_mbox_loc_perm <- conv8_2_mbox_loc
I0406 19:56:54.177707 20371 net.cpp:408] conv8_2_mbox_loc_perm -> conv8_2_mbox_loc_perm
I0406 19:56:54.177883 20371 net.cpp:150] Setting up conv8_2_mbox_loc_perm
I0406 19:56:54.177894 20371 net.cpp:157] Top shape: 2 6 6 16 (1152)
I0406 19:56:54.177901 20371 net.cpp:165] Memory required for data: 1461633216
I0406 19:56:54.177906 20371 layer_factory.hpp:77] Creating layer conv8_2_mbox_loc_flat
I0406 19:56:54.177912 20371 net.cpp:100] Creating Layer conv8_2_mbox_loc_flat
I0406 19:56:54.177917 20371 net.cpp:434] conv8_2_mbox_loc_flat <- conv8_2_mbox_loc_perm
I0406 19:56:54.177924 20371 net.cpp:408] conv8_2_mbox_loc_flat -> conv8_2_mbox_loc_flat
I0406 19:56:54.177963 20371 net.cpp:150] Setting up conv8_2_mbox_loc_flat
I0406 19:56:54.177973 20371 net.cpp:157] Top shape: 2 576 (1152)
I0406 19:56:54.177978 20371 net.cpp:165] Memory required for data: 1461637824
I0406 19:56:54.177983 20371 layer_factory.hpp:77] Creating layer conv8_2_mbox_conf
I0406 19:56:54.177994 20371 net.cpp:100] Creating Layer conv8_2_mbox_conf
I0406 19:56:54.178000 20371 net.cpp:434] conv8_2_mbox_conf <- conv8_2_conv8_2_relu_0_split_2
I0406 19:56:54.178009 20371 net.cpp:408] conv8_2_mbox_conf -> conv8_2_mbox_conf
I0406 19:56:54.179457 20371 net.cpp:150] Setting up conv8_2_mbox_conf
I0406 19:56:54.179471 20371 net.cpp:157] Top shape: 2 8 6 6 (576)
I0406 19:56:54.179476 20371 net.cpp:165] Memory required for data: 1461640128
I0406 19:56:54.179494 20371 layer_factory.hpp:77] Creating layer conv8_2_mbox_conf_perm
I0406 19:56:54.179505 20371 net.cpp:100] Creating Layer conv8_2_mbox_conf_perm
I0406 19:56:54.179512 20371 net.cpp:434] conv8_2_mbox_conf_perm <- conv8_2_mbox_conf
I0406 19:56:54.179518 20371 net.cpp:408] conv8_2_mbox_conf_perm -> conv8_2_mbox_conf_perm
I0406 19:56:54.179733 20371 net.cpp:150] Setting up conv8_2_mbox_conf_perm
I0406 19:56:54.179744 20371 net.cpp:157] Top shape: 2 6 6 8 (576)
I0406 19:56:54.179749 20371 net.cpp:165] Memory required for data: 1461642432
I0406 19:56:54.179754 20371 layer_factory.hpp:77] Creating layer conv8_2_mbox_conf_flat
I0406 19:56:54.179761 20371 net.cpp:100] Creating Layer conv8_2_mbox_conf_flat
I0406 19:56:54.179767 20371 net.cpp:434] conv8_2_mbox_conf_flat <- conv8_2_mbox_conf_perm
I0406 19:56:54.179774 20371 net.cpp:408] conv8_2_mbox_conf_flat -> conv8_2_mbox_conf_flat
I0406 19:56:54.179814 20371 net.cpp:150] Setting up conv8_2_mbox_conf_flat
I0406 19:56:54.179824 20371 net.cpp:157] Top shape: 2 288 (576)
I0406 19:56:54.179829 20371 net.cpp:165] Memory required for data: 1461644736
I0406 19:56:54.179834 20371 layer_factory.hpp:77] Creating layer conv8_2_mbox_clean
I0406 19:56:54.179847 20371 net.cpp:100] Creating Layer conv8_2_mbox_clean
I0406 19:56:54.179854 20371 net.cpp:434] conv8_2_mbox_clean <- conv8_2_conv8_2_relu_0_split_3
I0406 19:56:54.179863 20371 net.cpp:408] conv8_2_mbox_clean -> conv8_2_mbox_clean
I0406 19:56:54.181246 20371 net.cpp:150] Setting up conv8_2_mbox_clean
I0406 19:56:54.181259 20371 net.cpp:157] Top shape: 2 4 6 6 (288)
I0406 19:56:54.181263 20371 net.cpp:165] Memory required for data: 1461645888
I0406 19:56:54.181270 20371 layer_factory.hpp:77] Creating layer conv8_2_mbox_clean_perm
I0406 19:56:54.181280 20371 net.cpp:100] Creating Layer conv8_2_mbox_clean_perm
I0406 19:56:54.181285 20371 net.cpp:434] conv8_2_mbox_clean_perm <- conv8_2_mbox_clean
I0406 19:56:54.181303 20371 net.cpp:408] conv8_2_mbox_clean_perm -> conv8_2_mbox_clean_perm
I0406 19:56:54.181483 20371 net.cpp:150] Setting up conv8_2_mbox_clean_perm
I0406 19:56:54.181493 20371 net.cpp:157] Top shape: 2 6 6 4 (288)
I0406 19:56:54.181496 20371 net.cpp:165] Memory required for data: 1461647040
I0406 19:56:54.181501 20371 layer_factory.hpp:77] Creating layer conv8_2_mbox_clean_flat
I0406 19:56:54.181509 20371 net.cpp:100] Creating Layer conv8_2_mbox_clean_flat
I0406 19:56:54.181514 20371 net.cpp:434] conv8_2_mbox_clean_flat <- conv8_2_mbox_clean_perm
I0406 19:56:54.181521 20371 net.cpp:408] conv8_2_mbox_clean_flat -> conv8_2_mbox_clean_flat
I0406 19:56:54.181560 20371 net.cpp:150] Setting up conv8_2_mbox_clean_flat
I0406 19:56:54.181568 20371 net.cpp:157] Top shape: 2 144 (288)
I0406 19:56:54.181584 20371 net.cpp:165] Memory required for data: 1461648192
I0406 19:56:54.181589 20371 layer_factory.hpp:77] Creating layer conv8_2_mbox_priorbox
I0406 19:56:54.181598 20371 net.cpp:100] Creating Layer conv8_2_mbox_priorbox
I0406 19:56:54.181603 20371 net.cpp:434] conv8_2_mbox_priorbox <- conv8_2_conv8_2_relu_0_split_4
I0406 19:56:54.181609 20371 net.cpp:434] conv8_2_mbox_priorbox <- data_data_0_split_5
I0406 19:56:54.181618 20371 net.cpp:408] conv8_2_mbox_priorbox -> conv8_2_mbox_priorbox
I0406 19:56:54.181659 20371 net.cpp:150] Setting up conv8_2_mbox_priorbox
I0406 19:56:54.181669 20371 net.cpp:157] Top shape: 1 2 576 (1152)
I0406 19:56:54.181674 20371 net.cpp:165] Memory required for data: 1461652800
I0406 19:56:54.181679 20371 layer_factory.hpp:77] Creating layer conv9_2_mbox_loc
I0406 19:56:54.181691 20371 net.cpp:100] Creating Layer conv9_2_mbox_loc
I0406 19:56:54.181699 20371 net.cpp:434] conv9_2_mbox_loc <- conv9_2_conv9_2_relu_0_split_0
I0406 19:56:54.181706 20371 net.cpp:408] conv9_2_mbox_loc -> conv9_2_mbox_loc
I0406 19:56:54.183262 20371 net.cpp:150] Setting up conv9_2_mbox_loc
I0406 19:56:54.183277 20371 net.cpp:157] Top shape: 2 16 4 4 (512)
I0406 19:56:54.183281 20371 net.cpp:165] Memory required for data: 1461654848
I0406 19:56:54.183302 20371 layer_factory.hpp:77] Creating layer conv9_2_mbox_loc_perm
I0406 19:56:54.183312 20371 net.cpp:100] Creating Layer conv9_2_mbox_loc_perm
I0406 19:56:54.183317 20371 net.cpp:434] conv9_2_mbox_loc_perm <- conv9_2_mbox_loc
I0406 19:56:54.183324 20371 net.cpp:408] conv9_2_mbox_loc_perm -> conv9_2_mbox_loc_perm
I0406 19:56:54.183498 20371 net.cpp:150] Setting up conv9_2_mbox_loc_perm
I0406 19:56:54.183509 20371 net.cpp:157] Top shape: 2 4 4 16 (512)
I0406 19:56:54.183513 20371 net.cpp:165] Memory required for data: 1461656896
I0406 19:56:54.183518 20371 layer_factory.hpp:77] Creating layer conv9_2_mbox_loc_flat
I0406 19:56:54.183526 20371 net.cpp:100] Creating Layer conv9_2_mbox_loc_flat
I0406 19:56:54.183531 20371 net.cpp:434] conv9_2_mbox_loc_flat <- conv9_2_mbox_loc_perm
I0406 19:56:54.183539 20371 net.cpp:408] conv9_2_mbox_loc_flat -> conv9_2_mbox_loc_flat
I0406 19:56:54.183607 20371 net.cpp:150] Setting up conv9_2_mbox_loc_flat
I0406 19:56:54.183617 20371 net.cpp:157] Top shape: 2 256 (512)
I0406 19:56:54.183622 20371 net.cpp:165] Memory required for data: 1461658944
I0406 19:56:54.183627 20371 layer_factory.hpp:77] Creating layer conv9_2_mbox_conf
I0406 19:56:54.183640 20371 net.cpp:100] Creating Layer conv9_2_mbox_conf
I0406 19:56:54.183647 20371 net.cpp:434] conv9_2_mbox_conf <- conv9_2_conv9_2_relu_0_split_1
I0406 19:56:54.183656 20371 net.cpp:408] conv9_2_mbox_conf -> conv9_2_mbox_conf
I0406 19:56:54.185134 20371 net.cpp:150] Setting up conv9_2_mbox_conf
I0406 19:56:54.185148 20371 net.cpp:157] Top shape: 2 8 4 4 (256)
I0406 19:56:54.185153 20371 net.cpp:165] Memory required for data: 1461659968
I0406 19:56:54.185173 20371 layer_factory.hpp:77] Creating layer conv9_2_mbox_conf_perm
I0406 19:56:54.185183 20371 net.cpp:100] Creating Layer conv9_2_mbox_conf_perm
I0406 19:56:54.185189 20371 net.cpp:434] conv9_2_mbox_conf_perm <- conv9_2_mbox_conf
I0406 19:56:54.185194 20371 net.cpp:408] conv9_2_mbox_conf_perm -> conv9_2_mbox_conf_perm
I0406 19:56:54.185375 20371 net.cpp:150] Setting up conv9_2_mbox_conf_perm
I0406 19:56:54.185385 20371 net.cpp:157] Top shape: 2 4 4 8 (256)
I0406 19:56:54.185390 20371 net.cpp:165] Memory required for data: 1461660992
I0406 19:56:54.185395 20371 layer_factory.hpp:77] Creating layer conv9_2_mbox_conf_flat
I0406 19:56:54.185401 20371 net.cpp:100] Creating Layer conv9_2_mbox_conf_flat
I0406 19:56:54.185406 20371 net.cpp:434] conv9_2_mbox_conf_flat <- conv9_2_mbox_conf_perm
I0406 19:56:54.185415 20371 net.cpp:408] conv9_2_mbox_conf_flat -> conv9_2_mbox_conf_flat
I0406 19:56:54.185454 20371 net.cpp:150] Setting up conv9_2_mbox_conf_flat
I0406 19:56:54.185463 20371 net.cpp:157] Top shape: 2 128 (256)
I0406 19:56:54.185468 20371 net.cpp:165] Memory required for data: 1461662016
I0406 19:56:54.185482 20371 layer_factory.hpp:77] Creating layer conv9_2_mbox_clean
I0406 19:56:54.185494 20371 net.cpp:100] Creating Layer conv9_2_mbox_clean
I0406 19:56:54.185503 20371 net.cpp:434] conv9_2_mbox_clean <- conv9_2_conv9_2_relu_0_split_2
I0406 19:56:54.185511 20371 net.cpp:408] conv9_2_mbox_clean -> conv9_2_mbox_clean
I0406 19:56:54.186914 20371 net.cpp:150] Setting up conv9_2_mbox_clean
I0406 19:56:54.186928 20371 net.cpp:157] Top shape: 2 4 4 4 (128)
I0406 19:56:54.186933 20371 net.cpp:165] Memory required for data: 1461662528
I0406 19:56:54.186939 20371 layer_factory.hpp:77] Creating layer conv9_2_mbox_clean_perm
I0406 19:56:54.186949 20371 net.cpp:100] Creating Layer conv9_2_mbox_clean_perm
I0406 19:56:54.186954 20371 net.cpp:434] conv9_2_mbox_clean_perm <- conv9_2_mbox_clean
I0406 19:56:54.186971 20371 net.cpp:408] conv9_2_mbox_clean_perm -> conv9_2_mbox_clean_perm
I0406 19:56:54.187155 20371 net.cpp:150] Setting up conv9_2_mbox_clean_perm
I0406 19:56:54.187165 20371 net.cpp:157] Top shape: 2 4 4 4 (128)
I0406 19:56:54.187168 20371 net.cpp:165] Memory required for data: 1461663040
I0406 19:56:54.187172 20371 layer_factory.hpp:77] Creating layer conv9_2_mbox_clean_flat
I0406 19:56:54.187180 20371 net.cpp:100] Creating Layer conv9_2_mbox_clean_flat
I0406 19:56:54.187187 20371 net.cpp:434] conv9_2_mbox_clean_flat <- conv9_2_mbox_clean_perm
I0406 19:56:54.187196 20371 net.cpp:408] conv9_2_mbox_clean_flat -> conv9_2_mbox_clean_flat
I0406 19:56:54.187237 20371 net.cpp:150] Setting up conv9_2_mbox_clean_flat
I0406 19:56:54.187247 20371 net.cpp:157] Top shape: 2 64 (128)
I0406 19:56:54.187253 20371 net.cpp:165] Memory required for data: 1461663552
I0406 19:56:54.187258 20371 layer_factory.hpp:77] Creating layer conv9_2_mbox_priorbox
I0406 19:56:54.187265 20371 net.cpp:100] Creating Layer conv9_2_mbox_priorbox
I0406 19:56:54.187273 20371 net.cpp:434] conv9_2_mbox_priorbox <- conv9_2_conv9_2_relu_0_split_3
I0406 19:56:54.187278 20371 net.cpp:434] conv9_2_mbox_priorbox <- data_data_0_split_6
I0406 19:56:54.187288 20371 net.cpp:408] conv9_2_mbox_priorbox -> conv9_2_mbox_priorbox
I0406 19:56:54.187328 20371 net.cpp:150] Setting up conv9_2_mbox_priorbox
I0406 19:56:54.187340 20371 net.cpp:157] Top shape: 1 2 256 (512)
I0406 19:56:54.187346 20371 net.cpp:165] Memory required for data: 1461665600
I0406 19:56:54.187351 20371 layer_factory.hpp:77] Creating layer mbox_loc
I0406 19:56:54.187358 20371 net.cpp:100] Creating Layer mbox_loc
I0406 19:56:54.187366 20371 net.cpp:434] mbox_loc <- conv4_3_norm_mbox_loc_flat
I0406 19:56:54.187372 20371 net.cpp:434] mbox_loc <- fc7_mbox_loc_flat
I0406 19:56:54.187379 20371 net.cpp:434] mbox_loc <- conv6_2_mbox_loc_flat
I0406 19:56:54.187388 20371 net.cpp:434] mbox_loc <- conv7_2_mbox_loc_flat
I0406 19:56:54.187394 20371 net.cpp:434] mbox_loc <- conv8_2_mbox_loc_flat
I0406 19:56:54.187399 20371 net.cpp:434] mbox_loc <- conv9_2_mbox_loc_flat
I0406 19:56:54.187404 20371 net.cpp:408] mbox_loc -> mbox_loc
I0406 19:56:54.187461 20371 net.cpp:150] Setting up mbox_loc
I0406 19:56:54.187471 20371 net.cpp:157] Top shape: 2 98624 (197248)
I0406 19:56:54.187476 20371 net.cpp:165] Memory required for data: 1462454592
I0406 19:56:54.187481 20371 layer_factory.hpp:77] Creating layer mbox_conf
I0406 19:56:54.187489 20371 net.cpp:100] Creating Layer mbox_conf
I0406 19:56:54.187494 20371 net.cpp:434] mbox_conf <- conv4_3_norm_mbox_conf_flat
I0406 19:56:54.187501 20371 net.cpp:434] mbox_conf <- fc7_mbox_conf_flat
I0406 19:56:54.187506 20371 net.cpp:434] mbox_conf <- conv6_2_mbox_conf_flat
I0406 19:56:54.187512 20371 net.cpp:434] mbox_conf <- conv7_2_mbox_conf_flat
I0406 19:56:54.187517 20371 net.cpp:434] mbox_conf <- conv8_2_mbox_conf_flat
I0406 19:56:54.187522 20371 net.cpp:434] mbox_conf <- conv9_2_mbox_conf_flat
I0406 19:56:54.187527 20371 net.cpp:408] mbox_conf -> mbox_conf
I0406 19:56:54.187567 20371 net.cpp:150] Setting up mbox_conf
I0406 19:56:54.187585 20371 net.cpp:157] Top shape: 2 49312 (98624)
I0406 19:56:54.187592 20371 net.cpp:165] Memory required for data: 1462849088
I0406 19:56:54.187618 20371 layer_factory.hpp:77] Creating layer mbox_priorbox
I0406 19:56:54.187628 20371 net.cpp:100] Creating Layer mbox_priorbox
I0406 19:56:54.187634 20371 net.cpp:434] mbox_priorbox <- conv4_3_norm_mbox_priorbox
I0406 19:56:54.187640 20371 net.cpp:434] mbox_priorbox <- fc7_mbox_priorbox
I0406 19:56:54.187646 20371 net.cpp:434] mbox_priorbox <- conv6_2_mbox_priorbox
I0406 19:56:54.187651 20371 net.cpp:434] mbox_priorbox <- conv7_2_mbox_priorbox
I0406 19:56:54.187656 20371 net.cpp:434] mbox_priorbox <- conv8_2_mbox_priorbox
I0406 19:56:54.187662 20371 net.cpp:434] mbox_priorbox <- conv9_2_mbox_priorbox
I0406 19:56:54.187669 20371 net.cpp:408] mbox_priorbox -> mbox_priorbox
I0406 19:56:54.187713 20371 net.cpp:150] Setting up mbox_priorbox
I0406 19:56:54.187723 20371 net.cpp:157] Top shape: 1 2 98624 (197248)
I0406 19:56:54.187727 20371 net.cpp:165] Memory required for data: 1463638080
I0406 19:56:54.187731 20371 layer_factory.hpp:77] Creating layer mbox_clean
I0406 19:56:54.187741 20371 net.cpp:100] Creating Layer mbox_clean
I0406 19:56:54.187746 20371 net.cpp:434] mbox_clean <- conv4_3_norm_mbox_clean_flat
I0406 19:56:54.187752 20371 net.cpp:434] mbox_clean <- fc7_mbox_clean_flat
I0406 19:56:54.187757 20371 net.cpp:434] mbox_clean <- conv6_2_mbox_clean_flat
I0406 19:56:54.187762 20371 net.cpp:434] mbox_clean <- conv7_2_mbox_clean_flat
I0406 19:56:54.187767 20371 net.cpp:434] mbox_clean <- conv8_2_mbox_clean_flat
I0406 19:56:54.187772 20371 net.cpp:434] mbox_clean <- conv9_2_mbox_clean_flat
I0406 19:56:54.187777 20371 net.cpp:408] mbox_clean -> mbox_clean
I0406 19:56:54.187819 20371 net.cpp:150] Setting up mbox_clean
I0406 19:56:54.187829 20371 net.cpp:157] Top shape: 2 24656 (49312)
I0406 19:56:54.187832 20371 net.cpp:165] Memory required for data: 1463835328
I0406 19:56:54.187837 20371 layer_factory.hpp:77] Creating layer mbox_conf_reshape
I0406 19:56:54.187845 20371 net.cpp:100] Creating Layer mbox_conf_reshape
I0406 19:56:54.187850 20371 net.cpp:434] mbox_conf_reshape <- mbox_conf
I0406 19:56:54.187858 20371 net.cpp:408] mbox_conf_reshape -> mbox_conf_reshape
I0406 19:56:54.187909 20371 net.cpp:150] Setting up mbox_conf_reshape
I0406 19:56:54.187919 20371 net.cpp:157] Top shape: 2 24656 2 (98624)
I0406 19:56:54.187923 20371 net.cpp:165] Memory required for data: 1464229824
I0406 19:56:54.187928 20371 layer_factory.hpp:77] Creating layer mbox_conf_softmax
I0406 19:56:54.187949 20371 net.cpp:100] Creating Layer mbox_conf_softmax
I0406 19:56:54.187954 20371 net.cpp:434] mbox_conf_softmax <- mbox_conf_reshape
I0406 19:56:54.187959 20371 net.cpp:408] mbox_conf_softmax -> mbox_conf_softmax
I0406 19:56:54.188267 20371 net.cpp:150] Setting up mbox_conf_softmax
I0406 19:56:54.188282 20371 net.cpp:157] Top shape: 2 24656 2 (98624)
I0406 19:56:54.188288 20371 net.cpp:165] Memory required for data: 1464624320
I0406 19:56:54.188293 20371 layer_factory.hpp:77] Creating layer mbox_conf_flatten
I0406 19:56:54.188302 20371 net.cpp:100] Creating Layer mbox_conf_flatten
I0406 19:56:54.188308 20371 net.cpp:434] mbox_conf_flatten <- mbox_conf_softmax
I0406 19:56:54.188314 20371 net.cpp:408] mbox_conf_flatten -> mbox_conf_flatten
I0406 19:56:54.188356 20371 net.cpp:150] Setting up mbox_conf_flatten
I0406 19:56:54.188365 20371 net.cpp:157] Top shape: 2 49312 (98624)
I0406 19:56:54.188369 20371 net.cpp:165] Memory required for data: 1465018816
I0406 19:56:54.188375 20371 layer_factory.hpp:77] Creating layer mbox_clean_sigmoid
I0406 19:56:54.188393 20371 net.cpp:100] Creating Layer mbox_clean_sigmoid
I0406 19:56:54.188400 20371 net.cpp:434] mbox_clean_sigmoid <- mbox_clean
I0406 19:56:54.188408 20371 net.cpp:408] mbox_clean_sigmoid -> mbox_clean_sigmoid
I0406 19:56:54.188787 20371 net.cpp:150] Setting up mbox_clean_sigmoid
I0406 19:56:54.188802 20371 net.cpp:157] Top shape: 2 24656 (49312)
I0406 19:56:54.188807 20371 net.cpp:165] Memory required for data: 1465216064
I0406 19:56:54.188812 20371 layer_factory.hpp:77] Creating layer detection_out
I0406 19:56:54.188833 20371 net.cpp:100] Creating Layer detection_out
I0406 19:56:54.188841 20371 net.cpp:434] detection_out <- mbox_loc
I0406 19:56:54.188858 20371 net.cpp:434] detection_out <- mbox_conf_flatten
I0406 19:56:54.188864 20371 net.cpp:434] detection_out <- mbox_priorbox
I0406 19:56:54.188870 20371 net.cpp:434] detection_out <- mbox_clean_sigmoid
I0406 19:56:54.188880 20371 net.cpp:408] detection_out -> detection_out
I0406 19:56:54.197532 20371 net.cpp:150] Setting up detection_out
I0406 19:56:54.197547 20371 net.cpp:157] Top shape: 1 1 1 8 (8)
I0406 19:56:54.197552 20371 net.cpp:165] Memory required for data: 1465216096
I0406 19:56:54.197558 20371 layer_factory.hpp:77] Creating layer detection_eval
I0406 19:56:54.197568 20371 net.cpp:100] Creating Layer detection_eval
I0406 19:56:54.197587 20371 net.cpp:434] detection_eval <- detection_out
I0406 19:56:54.197592 20371 net.cpp:434] detection_eval <- label
I0406 19:56:54.197602 20371 net.cpp:408] detection_eval -> detection_eval
I0406 19:56:54.201864 20371 net.cpp:150] Setting up detection_eval
I0406 19:56:54.201874 20371 net.cpp:157] Top shape: 1 1 2 5 (10)
I0406 19:56:54.201879 20371 net.cpp:165] Memory required for data: 1465216136
I0406 19:56:54.201884 20371 net.cpp:228] detection_eval does not need backward computation.
I0406 19:56:54.201889 20371 net.cpp:228] detection_out does not need backward computation.
I0406 19:56:54.201894 20371 net.cpp:228] mbox_clean_sigmoid does not need backward computation.
I0406 19:56:54.201897 20371 net.cpp:228] mbox_conf_flatten does not need backward computation.
…
